…
  }
  transform_param {
    is_trans: true
    trans_dx: 10
    trans_dy: 10
    is_rotate: true
    rotate_deg: 15
    is_zoom: true
    zoom_scale: 0.1
  }
  pose_data_param {
    image_source: "/home/workspace/Datasets/ICVL/train_image.txt"
    label_source: "/home/workspace/Datasets/ICVL/train_label.txt"
    batch_size: 128
    shuffle: true
    new_height: 96
    new_width: 96
    root_folder: "/home/workspace/Datasets/ICVL/train/Depth/"
    point_num: 16
    point_dim: 3
    fx: 240.99
    fy: 240.96
    cube_length: 150
    dataset: ICVL
  }
}
layer {
  name: "conv0"
  type: "Convolution"
  bottom: "data"
  top: "conv0"
  param {
    lr_mult: 1
  }
  param {
    lr_mult: 2
  }
  convolution_param {
    num_output: 16
    pad: 1
    kernel_size: 3
    stride: 1
    weight_filler {
      type: "msra"
    }
    bias_filler {
      type: "constant"
    }
  }
}
layer {
  name: "relu0"
  type: "ReLU"
  bottom: "conv0"
  top: "conv0"
}
layer {
  name: "conv1"
  type: "Convolution"
  bottom: "conv0"
  top: "conv1"
  param {
    lr_mult: 1
  }
  param {
    lr_mult: 2
  }
  convolution_param {
    num_output: 16
    pad: 1
    kernel_size: 3
    stride: 1
    weight_filler {
      type: "msra"
    }
    bias_filler {
      type: "constant"
    }
  }
}
layer {
  name: "pool1"
  type: "Pooling"
  bottom: "conv1"
  top: "pool1"
  pooling_param {
    pool: MAX
    kernel_size: 2
    stride: 2
  }
}
layer {
  name: "relu1"
  type: "ReLU"
  bottom: "pool1"
  top: "pool1"
}
layer {
  name: "conv2_0"
  type: "Convolution"
  bottom: "pool1"
  top: "conv2_0"
  param {
    lr_mult: 1
  }
  param {
    lr_mult: 2
  }
  convolution_param {
    num_output: 32
    pad: 0
    kernel_size: 1
    stride: 1
    weight_filler {
      type: "msra"
    }
    bias_filler {
      type: "constant"
    }
  }
}
layer {
  name: "relu2_0"
  type: "ReLU"
  bottom: "conv2_0"
  top: "conv2_0"
}
layer {
  name: "conv2"
  type: "Convolution"
  bottom: "conv2_0"
  top: "conv2"
  param {
    lr_mult: 1
  }
  param {
    lr_mult: 2
  }
  convolution_param {
    num_output: 32
    pad: 1
    kernel_size: 3
    stride: 1
    weight_filler {
      type: "msra"
    }
    bias_filler {
      type: "constant"
    }
  }
}
layer {
  name: "relu2"
  type: "ReLU"
  bottom: "conv2"
  top: "conv2"
}
layer {
  name: "conv3"
  type: "Convolution"
  bottom: "conv2"
  top: "conv3"
  param {
    lr_mult: 1
  }
  param {
    lr_mult: 2
  }
  convolution_param {
    num_output: 32
    pad: 1
    kernel_size: 3
    stride: 1
    weight_filler {
      type: "msra"
    }
    bias_filler {
      type: "constant"
    }
  }
}
layer {
  name: "res1"
  type: "Eltwise"
  bottom: "conv2_0"
  bottom: "conv3"
  top: "res1"
}
layer {
  name: "pool2"
  type: "Pooling"
  bottom: "res1"
  top: "pool2"
  pooling_param {
    pool: MAX
    kernel_size: 2
    stride: 2
  }
}
layer {
  name: "relu3"
  type: "ReLU"
  bottom: "pool2"
  top: "pool2"
}
layer {
  name: "conv3_0"
  type: "Convolution"
  bottom: "pool2"
  top: "conv3_0"
  param {
    lr_mult: 1
  }
  param {
    lr_mult: 2
  }
  convolution_param {
    num_output: 64
    pad: 0
    kernel_size: 1
    stride: 1
    weight_filler {
      type: "msra"
    }
    bias_filler {
      type: "constant"
    }
  }
}
layer {
  name: "relu3_0"
  type: "ReLU"
  bottom: "conv3_0"
  top: "conv3_0"
}
layer {
  name: "conv4"
  type: "Convolution"
  bottom: "conv3_0"
  top: "conv4"
  param {
    lr_mult: 1
  }
  param {
    lr_mult: 2
  }
  convolution_param {
    num_output: 64
    pad: 1
    kernel_size: 3
    stride: 1
    weight_filler {
      type: "msra"
    }
    bias_filler {
      type: "constant"
    }
  }
}
layer {
  name: "relu4"
  type: "ReLU"
  bottom: "conv4"
  top: "conv4"
}
layer {
  name: "conv5"
  type: "Convolution"
  bottom: "conv4"
  top: "conv5"
  param {
    lr_mult: 1
  }
  param {
    lr_mult: 2
  }
  convolution_param {
    num_output: 64
    pad: 1
    kernel_size: 3
    stride: 1
    weight_filler {
      type: "msra"
    }
    bias_filler {
      type: "constant"
    }
  }
}
layer {
  name: "res2"
  type: "Eltwise"
  bottom: "conv3_0"
  bottom: "conv5"
  top: "res2"
}
layer {
  name: "pool3"
  type: "Pooling"
  bottom: "res2"
  top: "pool3"
  pooling_param {
    pool: MAX
    kernel_size: 2
    stride: 2
  }
}
layer {
  name: "relu5"
  type: "ReLU"
  bottom: "pool3"
  top: "pool3"
}
layer {
  name: "fc1_0"
  type: "InnerProduct"
  bottom: "pool3"
  top: "fc1_0"
  param {
    lr_mult: 1
  }
  param {
    lr_mult: 2
  }
  inner_product_param {
    num_output: 2048
    weight_filler {
      type: "gaussian"
      std: 0.001
    }
    bias_filler {
      type: "constant"
    }
  }
}
layer {
  name: "relu6_0"
  type: "ReLU"
  bottom: "fc1_0"
  top: "fc1_0"
}
layer {
  name: "drop1_0"
  type: "Dropout"
  bottom: "fc1_0"
  top: "fc1_0"
  dropout_param {
    dropout_ratio: 0.5
  }
}
layer {
  name: "fc2_0"
  type: "InnerProduct"
  bottom: "fc1_0"
  top: "fc2_0"
  param {
    lr_mult: 1
  }
  param {
    lr_mult: 2
  }
  inner_product_param {
    num_output: 2048
    weight_filler {
      type: "gaussian"
      std: 0.001
    }
    bias_filler {
      type: "constant"
    }
  }
}
layer {
  name: "relu7_0"
  type: "ReLU"
  bottom: "fc2_0"
  top: "fc2_0"
}
layer {
  name: "drop2_0"
  type: "Dropout"
  bottom: "fc2_0"
  top: "fc2_0"
  dropout_param {
    dropout_ratio: 0.5
  }
}
layer {
  name: "fc3_0"
  type: "InnerProduct"
  bottom: "fc2_0"
  top: "fc3_0"
  param {
    lr_mult: 1
  }
  param {
    lr_mult: 2
  }
  inner_product_param {
    num_output: 48
    weight_filler {
      type: "gaussian"
      std: 0.001
    }
    bias_filler {
      type: "constant"
    }
  }
}
layer {
  name: "loss"
  type: "SmoothL1Loss"
  bottom: "fc3_0"
  bottom: "pose"
  top: "loss"
  loss_weight: 1
  smooth_l1_loss_param {
    sigma: 10
  }
}
I0410 23:35:37.777385  8351 layer_factory.hpp:77] Creating layer data
I0410 23:35:37.777397  8351 net.cpp:84] Creating Layer data
I0410 23:35:37.777401  8351 net.cpp:380] data -> data
I0410 23:35:37.777410  8351 net.cpp:380] data -> pose
I0410 23:35:37.777467  8351 pose_data_layer.cpp:117] Opening file /home/workspace/Datasets/ICVL/train_image.txt
…
I0411 00:04:19.531263  8351 pose_data_layer.cpp:269] Loading 326001 image...
I0411 00:04:29.369858  8351 pose_data_layer.cpp:269] Loading 328001 image...
I0411 00:04:35.519865  8351 pose_data_layer.cpp:192] Skip 201406191044/image_0396.png due to center
I0411 00:04:38.466625  8351 pose_data_layer.cpp:269] Loading 330001 image...
I0411 00:04:42.197243  8351 pose_data_layer.cpp:282] Shuffling data
I0411 00:04:42.329800  8351 pose_data_layer.cpp:287] A total of 330932 images.
I0411 00:04:42.334471  8351 pose_data_layer.cpp:329] output data size: 128,1,96,96
I0411 00:04:42.425988  8351 net.cpp:122] Setting up data
I0411 00:04:42.481101  8351 net.cpp:129] Top shape: 128 1 96 96 (1179648)
I0411 00:04:42.481118  8351 net.cpp:129] Top shape: 128 48 (6144)
I0411 00:04:42.481122  8351 net.cpp:137] Memory required for data: 4743168
I0411 00:04:42.513569  8351 layer_factory.hpp:77] Creating layer conv0
I0411 00:04:42.520876  8351 net.cpp:84] Creating Layer conv0
I0411 00:04:42.520889  8351 net.cpp:406] conv0 <- data
I0411 00:04:42.520902  8351 net.cpp:380] conv0 -> conv0
I0411 00:04:44.467804  8351 net.cpp:122] Setting up conv0
I0411 00:04:44.467831  8351 net.cpp:129] Top shape: 128 16 96 96 (18874368)
I0411 00:04:44.467838  8351 net.cpp:137] Memory required for data: 80240640
I0411 00:04:44.468156  8351 layer_factory.hpp:77] Creating layer relu0
I0411 00:04:44.468175  8351 net.cpp:84] Creating Layer relu0
I0411 00:04:44.468194  8351 net.cpp:406] relu0 <- conv0
I0411 00:04:44.468216  8351 net.cpp:367] relu0 -> conv0 (in-place)
I0411 00:04:44.472651  8351 net.cpp:122] Setting up relu0
I0411 00:04:44.472663  8351 net.cpp:129] Top shape: 128 16 96 96 (18874368)
I0411 00:04:44.472669  8351 net.cpp:137] Memory required for data: 155738112
I0411 00:04:44.472674  8351 layer_factory.hpp:77] Creating layer conv1
I0411 00:04:44.472688  8351 net.cpp:84] Creating Layer conv1
I0411 00:04:44.472694  8351 net.cpp:406] conv1 <- conv0
I0411 00:04:44.472703  8351 net.cpp:380] conv1 -> conv1
I0411 00:04:44.491668  8351 net.cpp:122] Setting up conv1
I0411 00:04:44.491696  8351 net.cpp:129] Top shape: 128 16 96 96 (18874368)
I0411 00:04:44.491701  8351 net.cpp:137] Memory required for data: 231235584
I0411 00:04:44.491719  8351 layer_factory.hpp:77] Creating layer pool1
I0411 00:04:44.491737  8351 net.cpp:84] Creating Layer pool1
I0411 00:04:44.491746  8351 net.cpp:406] pool1 <- conv1
I0411 00:04:44.491763  8351 net.cpp:380] pool1 -> pool1
I0411 00:04:44.613029  8351 net.cpp:122] Setting up pool1
I0411 00:04:44.613055  8351 net.cpp:129] Top shape: 128 16 48 48 (4718592)
I0411 00:04:44.613059  8351 net.cpp:137] Memory required for data: 250109952
I0411 00:04:44.613065  8351 layer_factory.hpp:77] Creating layer relu1
I0411 00:04:44.613080  8351 net.cpp:84] Creating Layer relu1
I0411 00:04:44.613088  8351 net.cpp:406] relu1 <- pool1
I0411 00:04:44.613096  8351 net.cpp:367] relu1 -> pool1 (in-place)
I0411 00:04:44.613375  8351 net.cpp:122] Setting up relu1
I0411 00:04:44.613387  8351 net.cpp:129] Top shape: 128 16 48 48 (4718592)
I0411 00:04:44.613392  8351 net.cpp:137] Memory required for data: 268984320
I0411 00:04:44.613396  8351 layer_factory.hpp:77] Creating layer conv2_0
I0411 00:04:44.613411  8351 net.cpp:84] Creating Layer conv2_0
I0411 00:04:44.613417  8351 net.cpp:406] conv2_0 <- pool1
I0411 00:04:44.613425  8351 net.cpp:380] conv2_0 -> conv2_0
I0411 00:04:44.634872  8351 net.cpp:122] Setting up conv2_0
I0411 00:04:44.634891  8351 net.cpp:129] Top shape: 128 32 48 48 (9437184)
I0411 00:04:44.634896  8351 net.cpp:137] Memory required for data: 306733056
I0411 00:04:44.634913  8351 layer_factory.hpp:77] Creating layer relu2_0
I0411 00:04:44.634928  8351 net.cpp:84] Creating Layer relu2_0
I0411 00:04:44.634937  8351 net.cpp:406] relu2_0 <- conv2_0
I0411 00:04:44.634949  8351 net.cpp:367] relu2_0 -> conv2_0 (in-place)
I0411 00:04:44.641083  8351 net.cpp:122] Setting up relu2_0
I0411 00:04:44.641098  8351 net.cpp:129] Top shape: 128 32 48 48 (9437184)
I0411 00:04:44.641103  8351 net.cpp:137] Memory required for data: 344481792
I0411 00:04:44.641109  8351 layer_factory.hpp:77] Creating layer conv2_0_relu2_0_0_split
I0411 00:04:44.641122  8351 net.cpp:84] Creating Layer conv2_0_relu2_0_0_split
I0411 00:04:44.641130  8351 net.cpp:406] conv2_0_relu2_0_0_split <- conv2_0
I0411 00:04:44.641137  8351 net.cpp:380] conv2_0_relu2_0_0_split -> conv2_0_relu2_0_0_split_0
I0411 00:04:44.641149  8351 net.cpp:380] conv2_0_relu2_0_0_split -> conv2_0_relu2_0_0_split_1
I0411 00:04:44.968295  8351 net.cpp:122] Setting up conv2_0_relu2_0_0_split
I0411 00:04:44.968325  8351 net.cpp:129] Top shape: 128 32 48 48 (9437184)
I0411 00:04:44.968331  8351 net.cpp:129] Top shape: 128 32 48 48 (9437184)
I0411 00:04:44.968336  8351 net.cpp:137] Memory required for data: 419979264
I0411 00:04:44.968343  8351 layer_factory.hpp:77] Creating layer conv2
I0411 00:04:44.968361  8351 net.cpp:84] Creating Layer conv2
I0411 00:04:44.968367  8351 net.cpp:406] conv2 <- conv2_0_relu2_0_0_split_0
I0411 00:04:44.968379  8351 net.cpp:380] conv2 -> conv2
I0411 00:04:44.976109  8351 net.cpp:122] Setting up conv2
I0411 00:04:44.976125  8351 net.cpp:129] Top shape: 128 32 48 48 (9437184)
I0411 00:04:44.976130  8351 net.cpp:137] Memory required for data: 457728000
I0411 00:04:44.976140  8351 layer_factory.hpp:77] Creating layer relu2
I0411 00:04:44.976148  8351 net.cpp:84] Creating Layer relu2
I0411 00:04:44.976166  8351 net.cpp:406] relu2 <- conv2
I0411 00:04:44.976172  8351 net.cpp:367] relu2 -> conv2 (in-place)
I0411 00:04:44.979048  8351 net.cpp:122] Setting up relu2
I0411 00:04:44.979059  8351 net.cpp:129] Top shape: 128 32 48 48 (9437184)
I0411 00:04:44.979063  8351 net.cpp:137] Memory required for data: 495476736
I0411 00:04:44.979068  8351 layer_factory.hpp:77] Creating layer conv3
I0411 00:04:44.979079  8351 net.cpp:84] Creating Layer conv3
I0411 00:04:44.979084  8351 net.cpp:406] conv3 <- conv2
I0411 00:04:44.979095  8351 net.cpp:380] conv3 -> conv3
I0411 00:04:44.989840  8351 net.cpp:122] Setting up conv3
I0411 00:04:44.989869  8351 net.cpp:129] Top shape: 128 32 48 48 (9437184)
I0411 00:04:44.989874  8351 net.cpp:137] Memory required for data: 533225472
I0411 00:04:44.989892  8351 layer_factory.hpp:77] Creating layer res1
I0411 00:04:45.021960  8351 net.cpp:84] Creating Layer res1
I0411 00:04:45.021983  8351 net.cpp:406] res1 <- conv2_0_relu2_0_0_split_1
I0411 00:04:45.021993  8351 net.cpp:406] res1 <- conv3
I0411 00:04:45.022001  8351 net.cpp:380] res1 -> res1
I0411 00:04:45.022089  8351 net.cpp:122] Setting up res1
I0411 00:04:45.022101  8351 net.cpp:129] Top shape: 128 32 48 48 (9437184)
I0411 00:04:45.022106  8351 net.cpp:137] Memory required for data: 570974208
I0411 00:04:45.022111  8351 layer_factory.hpp:77] Creating layer pool2
I0411 00:04:45.022123  8351 net.cpp:84] Creating Layer pool2
I0411 00:04:45.022133  8351 net.cpp:406] pool2 <- res1
I0411 00:04:45.022140  8351 net.cpp:380] pool2 -> pool2
I0411 00:04:45.022197  8351 net.cpp:122] Setting up pool2
I0411 00:04:45.022207  8351 net.cpp:129] Top shape: 128 32 24 24 (2359296)
I0411 00:04:45.022212  8351 net.cpp:137] Memory required for data: 580411392
I0411 00:04:45.022217  8351 layer_factory.hpp:77] Creating layer relu3
I0411 00:04:45.022225  8351 net.cpp:84] Creating Layer relu3
I0411 00:04:45.022229  8351 net.cpp:406] relu3 <- pool2
I0411 00:04:45.022236  8351 net.cpp:367] relu3 -> pool2 (in-place)
I0411 00:04:45.022989  8351 net.cpp:122] Setting up relu3
I0411 00:04:45.023003  8351 net.cpp:129] Top shape: 128 32 24 24 (2359296)
I0411 00:04:45.023008  8351 net.cpp:137] Memory required for data: 589848576
I0411 00:04:45.023012  8351 layer_factory.hpp:77] Creating layer conv3_0
I0411 00:04:45.023027  8351 net.cpp:84] Creating Layer conv3_0
I0411 00:04:45.023033  8351 net.cpp:406] conv3_0 <- pool2
I0411 00:04:45.023042  8351 net.cpp:380] conv3_0 -> conv3_0
I0411 00:04:45.036777  8351 net.cpp:122] Setting up conv3_0
I0411 00:04:45.036834  8351 net.cpp:129] Top shape: 128 64 24 24 (4718592)
I0411 00:04:45.036862  8351 net.cpp:137] Memory required for data: 608722944
I0411 00:04:45.036885  8351 layer_factory.hpp:77] Creating layer relu3_0
I0411 00:04:45.036911  8351 net.cpp:84] Creating Layer relu3_0
I0411 00:04:45.036923  8351 net.cpp:406] relu3_0 <- conv3_0
I0411 00:04:45.036938  8351 net.cpp:367] relu3_0 -> conv3_0 (in-place)
I0411 00:04:45.039849  8351 net.cpp:122] Setting up relu3_0
I0411 00:04:45.039866  8351 net.cpp:129] Top shape: 128 64 24 24 (4718592)
I0411 00:04:45.039871  8351 net.cpp:137] Memory required for data: 627597312
I0411 00:04:45.039876  8351 layer_factory.hpp:77] Creating layer conv3_0_relu3_0_0_split
I0411 00:04:45.039886  8351 net.cpp:84] Creating Layer conv3_0_relu3_0_0_split
I0411 00:04:45.039891  8351 net.cpp:406] conv3_0_relu3_0_0_split <- conv3_0
I0411 00:04:45.039898  8351 net.cpp:380] conv3_0_relu3_0_0_split -> conv3_0_relu3_0_0_split_0
I0411 00:04:45.039908  8351 net.cpp:380] conv3_0_relu3_0_0_split -> conv3_0_relu3_0_0_split_1
I0411 00:04:45.039959  8351 net.cpp:122] Setting up conv3_0_relu3_0_0_split
I0411 00:04:45.039968  8351 net.cpp:129] Top shape: 128 64 24 24 (4718592)
I0411 00:04:45.039973  8351 net.cpp:129] Top shape: 128 64 24 24 (4718592)
I0411 00:04:45.039978  8351 net.cpp:137] Memory required for data: 665346048
I0411 00:04:45.039983  8351 layer_factory.hpp:77] Creating layer conv4
I0411 00:04:45.039995  8351 net.cpp:84] Creating Layer conv4
I0411 00:04:45.040001  8351 net.cpp:406] conv4 <- conv3_0_relu3_0_0_split_0
I0411 00:04:45.040010  8351 net.cpp:380] conv4 -> conv4
I0411 00:04:45.047610  8351 net.cpp:122] Setting up conv4
I0411 00:04:45.047642  8351 net.cpp:129] Top shape: 128 64 24 24 (4718592)
I0411 00:04:45.047657  8351 net.cpp:137] Memory required for data: 684220416
I0411 00:04:45.047675  8351 layer_factory.hpp:77] Creating layer relu4
I0411 00:04:45.047691  8351 net.cpp:84] Creating Layer relu4
I0411 00:04:45.047703  8351 net.cpp:406] relu4 <- conv4
I0411 00:04:45.047718  8351 net.cpp:367] relu4 -> conv4 (in-place)
I0411 00:04:45.049875  8351 net.cpp:122] Setting up relu4
I0411 00:04:45.049891  8351 net.cpp:129] Top shape: 128 64 24 24 (4718592)
I0411 00:04:45.049896  8351 net.cpp:137] Memory required for data: 703094784
I0411 00:04:45.049901  8351 layer_factory.hpp:77] Creating layer conv5
I0411 00:04:45.049916  8351 net.cpp:84] Creating Layer conv5
I0411 00:04:45.049929  8351 net.cpp:406] conv5 <- conv4
I0411 00:04:45.049939  8351 net.cpp:380] conv5 -> conv5
I0411 00:04:45.062275  8351 net.cpp:122] Setting up conv5
I0411 00:04:45.062292  8351 net.cpp:129] Top shape: 128 64 24 24 (4718592)
I0411 00:04:45.062297  8351 net.cpp:137] Memory required for data: 721969152
I0411 00:04:45.062306  8351 layer_factory.hpp:77] Creating layer res2
I0411 00:04:45.062320  8351 net.cpp:84] Creating Layer res2
I0411 00:04:45.062325  8351 net.cpp:406] res2 <- conv3_0_relu3_0_0_split_1
I0411 00:04:45.062332  8351 net.cpp:406] res2 <- conv5
I0411 00:04:45.062340  8351 net.cpp:380] res2 -> res2
I0411 00:04:45.062374  8351 net.cpp:122] Setting up res2
I0411 00:04:45.062382  8351 net.cpp:129] Top shape: 128 64 24 24 (4718592)
I0411 00:04:45.062386  8351 net.cpp:137] Memory required for data: 740843520
I0411 00:04:45.062391  8351 layer_factory.hpp:77] Creating layer pool3
I0411 00:04:45.062399  8351 net.cpp:84] Creating Layer pool3
I0411 00:04:45.062403  8351 net.cpp:406] pool3 <- res2
I0411 00:04:45.062412  8351 net.cpp:380] pool3 -> pool3
I0411 00:04:45.062456  8351 net.cpp:122] Setting up pool3
I0411 00:04:45.062464  8351 net.cpp:129] Top shape: 128 64 12 12 (1179648)
I0411 00:04:45.062469  8351 net.cpp:137] Memory required for data: 745562112
I0411 00:04:45.062472  8351 layer_factory.hpp:77] Creating layer relu5
I0411 00:04:45.062481  8351 net.cpp:84] Creating Layer relu5
I0411 00:04:45.062485  8351 net.cpp:406] relu5 <- pool3
I0411 00:04:45.062491  8351 net.cpp:367] relu5 -> pool3 (in-place)
I0411 00:04:45.067729  8351 net.cpp:122] Setting up relu5
I0411 00:04:45.067749  8351 net.cpp:129] Top shape: 128 64 12 12 (1179648)
I0411 00:04:45.067754  8351 net.cpp:137] Memory required for data: 750280704
I0411 00:04:45.067759  8351 layer_factory.hpp:77] Creating layer fc1_0
I0411 00:04:45.067785  8351 net.cpp:84] Creating Layer fc1_0
I0411 00:04:45.067801  8351 net.cpp:406] fc1_0 <- pool3
I0411 00:04:45.067819  8351 net.cpp:380] fc1_0 -> fc1_0
I0411 00:04:45.557013  8351 net.cpp:122] Setting up fc1_0
I0411 00:04:45.557044  8351 net.cpp:129] Top shape: 128 2048 (262144)
I0411 00:04:45.557049  8351 net.cpp:137] Memory required for data: 751329280
I0411 00:04:45.557072  8351 layer_factory.hpp:77] Creating layer relu6_0
I0411 00:04:45.557085  8351 net.cpp:84] Creating Layer relu6_0
I0411 00:04:45.557102  8351 net.cpp:406] relu6_0 <- fc1_0
I0411 00:04:45.557116  8351 net.cpp:367] relu6_0 -> fc1_0 (in-place)
I0411 00:04:45.557420  8351 net.cpp:122] Setting up relu6_0
I0411 00:04:45.557451  8351 net.cpp:129] Top shape: 128 2048 (262144)
I0411 00:04:45.557466  8351 net.cpp:137] Memory required for data: 752377856
I0411 00:04:45.557478  8351 layer_factory.hpp:77] Creating layer drop1_0
I0411 00:04:45.557494  8351 net.cpp:84] Creating Layer drop1_0
I0411 00:04:45.557507  8351 net.cpp:406] drop1_0 <- fc1_0
I0411 00:04:45.557534  8351 net.cpp:367] drop1_0 -> fc1_0 (in-place)
I0411 00:04:45.557574  8351 net.cpp:122] Setting up drop1_0
I0411 00:04:45.557591  8351 net.cpp:129] Top shape: 128 2048 (262144)
I0411 00:04:45.557605  8351 net.cpp:137] Memory required for data: 753426432
I0411 00:04:45.557615  8351 layer_factory.hpp:77] Creating layer fc2_0
I0411 00:04:45.557633  8351 net.cpp:84] Creating Layer fc2_0
I0411 00:04:45.557646  8351 net.cpp:406] fc2_0 <- fc1_0
I0411 00:04:45.557660  8351 net.cpp:380] fc2_0 -> fc2_0
I0411 00:04:45.665226  8351 net.cpp:122] Setting up fc2_0
I0411 00:04:45.665257  8351 net.cpp:129] Top shape: 128 2048 (262144)
I0411 00:04:45.665262  8351 net.cpp:137] Memory required for data: 754475008
I0411 00:04:45.665274  8351 layer_factory.hpp:77] Creating layer relu7_0
I0411 00:04:45.665285  8351 net.cpp:84] Creating Layer relu7_0
I0411 00:04:45.665292  8351 net.cpp:406] relu7_0 <- fc2_0
I0411 00:04:45.665304  8351 net.cpp:367] relu7_0 -> fc2_0 (in-place)
I0411 00:04:45.665915  8351 net.cpp:122] Setting up relu7_0
I0411 00:04:45.665930  8351 net.cpp:129] Top shape: 128 2048 (262144)
I0411 00:04:45.665935  8351 net.cpp:137] Memory required for data: 755523584
I0411 00:04:45.665941  8351 layer_factory.hpp:77] Creating layer drop2_0
I0411 00:04:45.665979  8351 net.cpp:84] Creating Layer drop2_0
I0411 00:04:45.665987  8351 net.cpp:406] drop2_0 <- fc2_0
I0411 00:04:45.665995  8351 net.cpp:367] drop2_0 -> fc2_0 (in-place)
I0411 00:04:45.666039  8351 net.cpp:122] Setting up drop2_0
I0411 00:04:45.666048  8351 net.cpp:129] Top shape: 128 2048 (262144)
I0411 00:04:45.666052  8351 net.cpp:137] Memory required for data: 756572160
I0411 00:04:45.666056  8351 layer_factory.hpp:77] Creating layer fc3_0
I0411 00:04:45.666081  8351 net.cpp:84] Creating Layer fc3_0
I0411 00:04:45.666086  8351 net.cpp:406] fc3_0 <- fc2_0
I0411 00:04:45.666095  8351 net.cpp:380] fc3_0 -> fc3_0
I0411 00:04:45.668838  8351 net.cpp:122] Setting up fc3_0
I0411 00:04:45.668851  8351 net.cpp:129] Top shape: 128 48 (6144)
I0411 00:04:45.668862  8351 net.cpp:137] Memory required for data: 756596736
I0411 00:04:45.668871  8351 layer_factory.hpp:77] Creating layer loss
I0411 00:04:45.755831  8351 net.cpp:84] Creating Layer loss
I0411 00:04:45.755854  8351 net.cpp:406] loss <- fc3_0
I0411 00:04:45.755865  8351 net.cpp:406] loss <- pose
I0411 00:04:45.755877  8351 net.cpp:380] loss -> loss
I0411 00:04:45.780292  8351 net.cpp:122] Setting up loss
…
  top: "data"
  top: "label"
  include {
    phase: TEST
  }
  transform_param {
    is_trans: false
    is_rotate: false
    is_zoom: false
  }
  pose_data_param {
    image_source: "/home/workspace/Datasets/ICVL/test_image.txt"
    label_source: "/home/workspace/Datasets/ICVL/test_label.txt"
    batch_size: 128
    shuffle: false
    new_height: 96
    new_width: 96
    root_folder: "/home/workspace/Datasets/ICVL/test/Depth/"
    point_num: 16
    point_dim: 3
    fx: 240.99
    fy: 240.96
    output_center: true
    cube_length: 150
    dataset: ICVL
  }
}
layer {
  name: "pose"
  type: "Slice"
  bottom: "label"
  top: "pose"
  top: "center"
  include {
    phase: TEST
  }
  slice_param {
    slice_dim: 1
    slice_point: 48
  }
}
layer {
  name: "conv0"
  type: "Convolution"
  bottom: "data"
  top: "conv0"
  param {
    lr_mult: 1
  }
  param {
    lr_mult: 2
  }
  convolution_param {
    num_output: 16
    pad: 1
    kernel_size: 3
    stride: 1
    weight_filler {
      type: "msra"
    }
    bias_filler {
      type: "constant"
    }
  }
}
layer {
  name: "relu0"
  type: "ReLU"
  bottom: "conv0"
  top: "conv0"
}
layer {
  name: "conv1"
  type: "Convolution"
  bottom: "conv0"
  top: "conv1"
  param {
    lr_mult: 1
  }
  param {
    lr_mult: 2
  }
  convolution_param {
    num_output: 16
    pad: 1
    kernel_size: 3
    stride: 1
    weight_filler {
      type: "msra"
    }
    bias_filler {
      type: "constant"
    }
  }
}
layer {
  name: "pool1"
  type: "Pooling"
  bottom: "conv1"
  top: "pool1"
  pooling_param {
    pool: MAX
    kernel_size: 2
    stride: 2
  }
}
layer {
  name: "relu1"
  type: "ReLU"
  bottom: "pool1"
  top: "pool1"
}
layer {
  name: "conv2_0"
  type: "Convolution"
  bottom: "pool1"
  top: "conv2_0"
  param {
    lr_mult: 1
  }
  param {
    lr_mult: 2
  }
  convolution_param {
    num_output: 32
    pad: 0
    kernel_size: 1
    stride: 1
    weight_filler {
      type: "msra"
    }
    bias_filler {
      type: "constant"
    }
  }
}
layer {
  name: "relu2_0"
  type: "ReLU"
  bottom: "conv2_0"
  top: "conv2_0"
}
layer {
  name: "conv2"
  type: "Convolution"
  bottom: "conv2_0"
  top: "conv2"
  param {
    lr_mult: 1
  }
  param {
    lr_mult: 2
  }
  convolution_param {
    num_output: 32
    pad: 1
    kernel_size: 3
    stride: 1
    weight_filler {
      type: "msra"
    }
    bias_filler {
      type: "constant"
    }
  }
}
layer {
  name: "relu2"
  type: "ReLU"
  bottom: "conv2"
  top: "conv2"
}
layer {
  name: "conv3"
  type: "Convolution"
  bottom: "conv2"
  top: "conv3"
  param {
    lr_mult: 1
  }
  param {
    lr_mult: 2
  }
  convolution_param {
    num_output: 32
    pad: 1
    kernel_size: 3
    stride: 1
    weight_filler {
      type: "msra"
    }
    bias_filler {
      type: "constant"
    }
  }
}
layer {
  name: "res1"
  type: "Eltwise"
  bottom: "conv2_0"
  bottom: "conv3"
  top: "res1"
}
layer {
  name: "pool2"
  type: "Pooling"
  bottom: "res1"
  top: "pool2"
  pooling_param {
    pool: MAX
    kernel_size: 2
    stride: 2
  }
}
layer {
  name: "relu3"
  type: "ReLU"
  bottom: "pool2"
  top: "pool2"
}
layer {
  name: "conv3_0"
  type: "Convolution"
  bottom: "pool2"
  top: "conv3_0"
  param {
    lr_mult: 1
  }
  param {
    lr_mult: 2
  }
  convolution_param {
    num_output: 64
    pad: 0
    kernel_size: 1
    stride: 1
    weight_filler {
      type: "msra"
    }
    bias_filler {
      type: "constant"
    }
  }
}
layer {
  name: "relu3_0"
  type: "ReLU"
  bottom: "conv3_0"
  top: "conv3_0"
}
layer {
  name: "conv4"
  type: "Convolution"
  bottom: "conv3_0"
  top: "conv4"
  param {
    lr_mult: 1
  }
  param {
    lr_mult: 2
  }
  convolution_param {
    num_output: 64
    pad: 1
    kernel_size: 3
    stride: 1
    weight_filler {
      type: "msra"
    }
    bias_filler {
      type: "constant"
    }
  }
}
layer {
  name: "relu4"
  type: "ReLU"
  bottom: "conv4"
  top: "conv4"
}
layer {
  name: "conv5"
  type: "Convolution"
  bottom: "conv4"
  top: "conv5"
  param {
    lr_mult: 1
  }
  param {
    lr_mult: 2
  }
  convolution_param {
    num_output: 64
    pad: 1
    kernel_size: 3
    stride: 1
    weight_filler {
      type: "msra"
    }
    bias_filler {
      type: "constant"
    }
  }
}
layer {
  name: "res2"
  type: "Eltwise"
  bottom: "conv3_0"
  bottom: "conv5"
  top: "res2"
}
layer {
  name: "pool3"
  type: "Pooling"
  bottom: "res2"
  top: "pool3"
  pooling_param {
    pool: MAX
    kernel_size: 2
    stride: 2
  }
}
layer {
  name: "relu5"
  type: "ReLU"
  bottom: "pool3"
  top: "pool3"
}
layer {
  name: "fc1_0"
  type: "InnerProduct"
  bottom: "pool3"
  top: "fc1_0"
  param {
    lr_mult: 1
  }
  param {
    lr_mult: 2
  }
  inner_product_param {
    num_output: 2048
    weight_filler {
      type: "gaussian"
      std: 0.001
    }
    bias_filler {
      type: "constant"
    }
  }
}
layer {
  name: "relu6_0"
  type: "ReLU"
  bottom: "fc1_0"
  top: "fc1_0"
}
layer {
  name: "drop1_0"
  type: "Dropout"
  bottom: "fc1_0"
  top: "fc1_0"
  dropout_param {
    dropout_ratio: 0.5
  }
}
layer {
  name: "fc2_0"
  type: "InnerProduct"
  bottom: "fc1_0"
  top: "fc2_0"
  param {
    lr_mult: 1
  }
  param {
    lr_mult: 2
  }
  inner_product_param {
    num_output: 2048
    weight_filler {
      type: "gaussian"
      std: 0.001
    }
    bias_filler {
      type: "constant"
    }
  }
}
layer {
  name: "relu7_0"
  type: "ReLU"
  bottom: "fc2_0"
  top: "fc2_0"
}
layer {
  name: "drop2_0"
  type: "Dropout"
  bottom: "fc2_0"
  top: "fc2_0"
  dropout_param {
    dropout_ratio: 0.5
  }
}
layer {
  name: "fc3_0"
  type: "InnerProduct"
  bottom: "fc2_0"
  top: "fc3_0"
  param {
    lr_mult: 1
  }
  param {
    lr_mult: 2
  }
  inner_product_param {
    num_output: 48
    weight_filler {
      type: "gaussian"
      std: 0.001
    }
    bias_filler {
      type: "constant"
    }
  }
}
layer {
  name: "loss"
  type: "SmoothL1Loss"
  bottom: "fc3_0"
  bottom: "pose"
  top: "loss"
  loss_weight: 1
  smooth_l1_loss_param {
    sigma: 10
  }
}
layer {
  name: "distance"
  type: "PoseDistance"
  bottom: "fc3_0"
  bottom: "pose"
  bottom: "center"
  top: "distance"
  loss_weight: 0
  include {
    phase: TEST
  }
  pose_distance_param {
    fx: 240.99
    fy: 240.96
    ux: 160
    uy: 120
    cube_length: 150
  }
}
I0411 00:04:45.998519  8351 layer_factory.hpp:77] Creating layer data
I0411 00:04:45.998539  8351 net.cpp:84] Creating Layer data
I0411 00:04:45.998546  8351 net.cpp:380] data -> data
I0411 00:04:45.998560  8351 net.cpp:380] data -> label
I0411 00:04:45.998575  8351 pose_data_layer.cpp:117] Opening file /home/workspace/Datasets/ICVL/test_image.txt
I0411 00:04:46.317476  8351 pose_data_layer.cpp:119] Opening file /home/workspace/Datasets/ICVL/test_label.txt
I0411 00:05:03.851907  8351 pose_data_layer.cpp:269] Loading 1069 image...
I0411 00:05:15.612192  8351 pose_data_layer.cpp:287] A total of 1596 images.
I0411 00:05:15.612390  8351 pose_data_layer.cpp:329] output data size: 128,1,96,96
I0411 00:05:15.624356  8351 net.cpp:122] Setting up data
I0411 00:05:15.624431  8351 net.cpp:129] Top shape: 128 1 96 96 (1179648)
I0411 00:05:15.624452  8351 net.cpp:129] Top shape: 128 51 (6528)
I0411 00:05:15.624469  8351 net.cpp:137] Memory required for data: 4744704
I0411 00:05:15.624488  8351 layer_factory.hpp:77] Creating layer pose
I0411 00:05:15.653873  8351 net.cpp:84] Creating Layer pose
I0411 00:05:15.653933  8351 net.cpp:406] pose <- label
I0411 00:05:15.653954  8351 net.cpp:380] pose -> pose
I0411 00:05:15.653978  8351 net.cpp:380] pose -> center
I0411 00:05:15.654088  8351 net.cpp:122] Setting up pose
I0411 00:05:15.654109  8351 net.cpp:129] Top shape: 128 48 (6144)
I0411 00:05:15.654124  8351 net.cpp:129] Top shape: 128 3 (384)
I0411 00:05:15.654135  8351 net.cpp:137] Memory required for data: 4770816
I0411 00:05:15.654148  8351 layer_factory.hpp:77] Creating layer pose_pose_0_split
I0411 00:05:15.654165  8351 net.cpp:84] Creating Layer pose_pose_0_split
I0411 00:05:15.654177  8351 net.cpp:406] pose_pose_0_split <- pose
I0411 00:05:15.654191  8351 net.cpp:380] pose_pose_0_split -> pose_pose_0_split_0
I0411 00:05:15.654208  8351 net.cpp:380] pose_pose_0_split -> pose_pose_0_split_1
I0411 00:05:15.654263  8351 net.cpp:122] Setting up pose_pose_0_split
I0411 00:05:15.654279  8351 net.cpp:129] Top shape: 128 48 (6144)
I0411 00:05:15.654299  8351 net.cpp:129] Top shape: 128 48 (6144)
I0411 00:05:15.654312  8351 net.cpp:137] Memory required for data: 4819968
I0411 00:05:15.654323  8351 layer_factory.hpp:77] Creating layer conv0
I0411 00:05:15.654348  8351 net.cpp:84] Creating Layer conv0
I0411 00:05:15.654361  8351 net.cpp:406] conv0 <- data
I0411 00:05:15.654376  8351 net.cpp:380] conv0 -> conv0
I0411 00:05:15.657083  8351 net.cpp:122] Setting up conv0
I0411 00:05:15.657121  8351 net.cpp:129] Top shape: 128 16 96 96 (18874368)
I0411 00:05:15.657136  8351 net.cpp:137] Memory required for data: 80317440
I0411 00:05:15.657160  8351 layer_factory.hpp:77] Creating layer relu0
I0411 00:05:15.657179  8351 net.cpp:84] Creating Layer relu0
I0411 00:05:15.657192  8351 net.cpp:406] relu0 <- conv0
I0411 00:05:15.657207  8351 net.cpp:367] relu0 -> conv0 (in-place)
I0411 00:05:15.658390  8351 net.cpp:122] Setting up relu0
I0411 00:05:15.658426  8351 net.cpp:129] Top shape: 128 16 96 96 (18874368)
I0411 00:05:15.658439  8351 net.cpp:137] Memory required for data: 155814912
I0411 00:05:15.658452  8351 layer_factory.hpp:77] Creating layer conv1
I0411 00:05:15.658474  8351 net.cpp:84] Creating Layer conv1
I0411 00:05:15.658488  8351 net.cpp:406] conv1 <- conv0
I0411 00:05:15.658504  8351 net.cpp:380] conv1 -> conv1
I0411 00:05:15.669224  8351 net.cpp:122] Setting up conv1
I0411 00:05:15.669283  8351 net.cpp:129] Top shape: 128 16 96 96 (18874368)
I0411 00:05:15.669301  8351 net.cpp:137] Memory required for data: 231312384
I0411 00:05:15.669329  8351 layer_factory.hpp:77] Creating layer pool1
I0411 00:05:15.669351  8351 net.cpp:84] Creating Layer pool1
I0411 00:05:15.669368  8351 net.cpp:406] pool1 <- conv1
I0411 00:05:15.669383  8351 net.cpp:380] pool1 -> pool1
I0411 00:05:15.669448  8351 net.cpp:122] Setting up pool1
I0411 00:05:15.669467  8351 net.cpp:129] Top shape: 128 16 48 48 (4718592)
I0411 00:05:15.669481  8351 net.cpp:137] Memory required for data: 250186752
I0411 00:05:15.669495  8351 layer_factory.hpp:77] Creating layer relu1
I0411 00:05:15.669509  8351 net.cpp:84] Creating Layer relu1
I0411 00:05:15.669522  8351 net.cpp:406] relu1 <- pool1
I0411 00:05:15.669535  8351 net.cpp:367] relu1 -> pool1 (in-place)
I0411 00:05:15.673949  8351 net.cpp:122] Setting up relu1
I0411 00:05:15.673996  8351 net.cpp:129] Top shape: 128 16 48 48 (4718592)
I0411 00:05:15.674028  8351 net.cpp:137] Memory required for data: 269061120
I0411 00:05:15.674042  8351 layer_factory.hpp:77] Creating layer conv2_0
I0411 00:05:15.674070  8351 net.cpp:84] Creating Layer conv2_0
I0411 00:05:15.674087  8351 net.cpp:406] conv2_0 <- pool1
I0411 00:05:15.674106  8351 net.cpp:380] conv2_0 -> conv2_0
I0411 00:05:15.693634  8351 net.cpp:122] Setting up conv2_0
I0411 00:05:15.693660  8351 net.cpp:129] Top shape: 128 32 48 48 (9437184)
I0411 00:05:15.693663  8351 net.cpp:137] Memory required for data: 306809856
I0411 00:05:15.693675  8351 layer_factory.hpp:77] Creating layer relu2_0
I0411 00:05:15.693684  8351 net.cpp:84] Creating Layer relu2_0
I0411 00:05:15.693687  8351 net.cpp:406] relu2_0 <- conv2_0
I0411 00:05:15.693692  8351 net.cpp:367] relu2_0 -> conv2_0 (in-place)
I0411 00:05:15.699688  8351 net.cpp:122] Setting up relu2_0
I0411 00:05:15.699700  8351 net.cpp:129] Top shape: 128 32 48 48 (9437184)
I0411 00:05:15.699702  8351 net.cpp:137] Memory required for data: 344558592
I0411 00:05:15.699705  8351 layer_factory.hpp:77] Creating layer conv2_0_relu2_0_0_split
I0411 00:05:15.699710  8351 net.cpp:84] Creating Layer conv2_0_relu2_0_0_split
I0411 00:05:15.699713  8351 net.cpp:406] conv2_0_relu2_0_0_split <- conv2_0
I0411 00:05:15.699718  8351 net.cpp:380] conv2_0_relu2_0_0_split -> conv2_0_relu2_0_0_split_0
I0411 00:05:15.699724  8351 net.cpp:380] conv2_0_relu2_0_0_split -> conv2_0_relu2_0_0_split_1
I0411 00:05:15.699761  8351 net.cpp:122] Setting up conv2_0_relu2_0_0_split
I0411 00:05:15.699767  8351 net.cpp:129] Top shape: 128 32 48 48 (9437184)
I0411 00:05:15.699770  8351 net.cpp:129] Top shape: 128 32 48 48 (9437184)
I0411 00:05:15.699774  8351 net.cpp:137] Memory required for data: 420056064
I0411 00:05:15.699775  8351 layer_factory.hpp:77] Creating layer conv2
I0411 00:05:15.699784  8351 net.cpp:84] Creating Layer conv2
I0411 00:05:15.699793  8351 net.cpp:406] conv2 <- conv2_0_relu2_0_0_split_0
I0411 00:05:15.699798  8351 net.cpp:380] conv2 -> conv2
I0411 00:05:15.714805  8351 net.cpp:122] Setting up conv2
I0411 00:05:15.714833  8351 net.cpp:129] Top shape: 128 32 48 48 (9437184)
I0411 00:05:15.714838  8351 net.cpp:137] Memory required for data: 457804800
I0411 00:05:15.714849  8351 layer_factory.hpp:77] Creating layer relu2
I0411 00:05:15.714860  8351 net.cpp:84] Creating Layer relu2
I0411 00:05:15.714866  8351 net.cpp:406] relu2 <- conv2
I0411 00:05:15.714874  8351 net.cpp:367] relu2 -> conv2 (in-place)
I0411 00:05:15.720683  8351 net.cpp:122] Setting up relu2
I0411 00:05:15.720697  8351 net.cpp:129] Top shape: 128 32 48 48 (9437184)
I0411 00:05:15.720702  8351 net.cpp:137] Memory required for data: 495553536
I0411 00:05:15.720707  8351 layer_factory.hpp:77] Creating layer conv3
I0411 00:05:15.720723  8351 net.cpp:84] Creating Layer conv3
I0411 00:05:15.720732  8351 net.cpp:406] conv3 <- conv2
I0411 00:05:15.720742  8351 net.cpp:380] conv3 -> conv3
I0411 00:05:15.738224  8351 net.cpp:122] Setting up conv3
I0411 00:05:15.738266  8351 net.cpp:129] Top shape: 128 32 48 48 (9437184)
I0411 00:05:15.738282  8351 net.cpp:137] Memory required for data: 533302272
I0411 00:05:15.738307  8351 layer_factory.hpp:77] Creating layer res1
I0411 00:05:15.738327  8351 net.cpp:84] Creating Layer res1
I0411 00:05:15.738342  8351 net.cpp:406] res1 <- conv2_0_relu2_0_0_split_1
I0411 00:05:15.738355  8351 net.cpp:406] res1 <- conv3
I0411 00:05:15.738370  8351 net.cpp:380] res1 -> res1
I0411 00:05:15.738420  8351 net.cpp:122] Setting up res1
I0411 00:05:15.738438  8351 net.cpp:129] Top shape: 128 32 48 48 (9437184)
I0411 00:05:15.738449  8351 net.cpp:137] Memory required for data: 571051008
I0411 00:05:15.738462  8351 layer_factory.hpp:77] Creating layer pool2
I0411 00:05:15.738482  8351 net.cpp:84] Creating Layer pool2
I0411 00:05:15.738495  8351 net.cpp:406] pool2 <- res1
I0411 00:05:15.738510  8351 net.cpp:380] pool2 -> pool2
I0411 00:05:15.738572  8351 net.cpp:122] Setting up pool2
I0411 00:05:15.738590  8351 net.cpp:129] Top shape: 128 32 24 24 (2359296)
I0411 00:05:15.738601  8351 net.cpp:137] Memory required for data: 580488192
I0411 00:05:15.738620  8351 layer_factory.hpp:77] Creating layer relu3
I0411 00:05:15.738641  8351 net.cpp:84] Creating Layer relu3
I0411 00:05:15.738662  8351 net.cpp:406] relu3 <- pool2
I0411 00:05:15.738684  8351 net.cpp:367] relu3 -> pool2 (in-place)
I0411 00:05:15.744208  8351 net.cpp:122] Setting up relu3
I0411 00:05:15.744238  8351 net.cpp:129] Top shape: 128 32 24 24 (2359296)
I0411 00:05:15.744251  8351 net.cpp:137] Memory required for data: 589925376
I0411 00:05:15.744263  8351 layer_factory.hpp:77] Creating layer conv3_0
I0411 00:05:15.744285  8351 net.cpp:84] Creating Layer conv3_0
I0411 00:05:15.744298  8351 net.cpp:406] conv3_0 <- pool2
I0411 00:05:15.744315  8351 net.cpp:380] conv3_0 -> conv3_0
I0411 00:05:15.756990  8351 net.cpp:122] Setting up conv3_0
I0411 00:05:15.757009  8351 net.cpp:129] Top shape: 128 64 24 24 (4718592)
I0411 00:05:15.757014  8351 net.cpp:137] Memory required for data: 608799744
I0411 00:05:15.757024  8351 layer_factory.hpp:77] Creating layer relu3_0
I0411 00:05:15.757033  8351 net.cpp:84] Creating Layer relu3_0
I0411 00:05:15.757040  8351 net.cpp:406] relu3_0 <- conv3_0
I0411 00:05:15.757050  8351 net.cpp:367] relu3_0 -> conv3_0 (in-place)
I0411 00:05:15.761555  8351 net.cpp:122] Setting up relu3_0
I0411 00:05:15.761587  8351 net.cpp:129] Top shape: 128 64 24 24 (4718592)
I0411 00:05:15.761602  8351 net.cpp:137] Memory required for data: 627674112
I0411 00:05:15.761615  8351 layer_factory.hpp:77] Creating layer conv3_0_relu3_0_0_split
I0411 00:05:15.761629  8351 net.cpp:84] Creating Layer conv3_0_relu3_0_0_split
I0411 00:05:15.761641  8351 net.cpp:406] conv3_0_relu3_0_0_split <- conv3_0
I0411 00:05:15.761656  8351 net.cpp:380] conv3_0_relu3_0_0_split -> conv3_0_relu3_0_0_split_0
I0411 00:05:15.761672  8351 net.cpp:380] conv3_0_relu3_0_0_split -> conv3_0_relu3_0_0_split_1
I0411 00:05:15.761734  8351 net.cpp:122] Setting up conv3_0_relu3_0_0_split
I0411 00:05:15.761752  8351 net.cpp:129] Top shape: 128 64 24 24 (4718592)
I0411 00:05:15.761765  8351 net.cpp:129] Top shape: 128 64 24 24 (4718592)
I0411 00:05:15.761775  8351 net.cpp:137] Memory required for data: 665422848
I0411 00:05:15.761785  8351 layer_factory.hpp:77] Creating layer conv4
I0411 00:05:15.761803  8351 net.cpp:84] Creating Layer conv4
I0411 00:05:15.761816  8351 net.cpp:406] conv4 <- conv3_0_relu3_0_0_split_0
I0411 00:05:15.761834  8351 net.cpp:380] conv4 -> conv4
I0411 00:05:15.779114  8351 net.cpp:122] Setting up conv4
I0411 00:05:15.779135  8351 net.cpp:129] Top shape: 128 64 24 24 (4718592)
I0411 00:05:15.779140  8351 net.cpp:137] Memory required for data: 684297216
I0411 00:05:15.779150  8351 layer_factory.hpp:77] Creating layer relu4
I0411 00:05:15.779176  8351 net.cpp:84] Creating Layer relu4
I0411 00:05:15.779186  8351 net.cpp:406] relu4 <- conv4
I0411 00:05:15.779193  8351 net.cpp:367] relu4 -> conv4 (in-place)
I0411 00:05:15.784782  8351 net.cpp:122] Setting up relu4
I0411 00:05:15.784795  8351 net.cpp:129] Top shape: 128 64 24 24 (4718592)
I0411 00:05:15.784801  8351 net.cpp:137] Memory required for data: 703171584
I0411 00:05:15.784806  8351 layer_factory.hpp:77] Creating layer conv5
I0411 00:05:15.784822  8351 net.cpp:84] Creating Layer conv5
I0411 00:05:15.784829  8351 net.cpp:406] conv5 <- conv4
I0411 00:05:15.784847  8351 net.cpp:380] conv5 -> conv5
I0411 00:05:15.803683  8351 net.cpp:122] Setting up conv5
I0411 00:05:15.803709  8351 net.cpp:129] Top shape: 128 64 24 24 (4718592)
I0411 00:05:15.803714  8351 net.cpp:137] Memory required for data: 722045952
I0411 00:05:15.803725  8351 layer_factory.hpp:77] Creating layer res2
I0411 00:05:15.803740  8351 net.cpp:84] Creating Layer res2
I0411 00:05:15.803756  8351 net.cpp:406] res2 <- conv3_0_relu3_0_0_split_1
I0411 00:05:15.803771  8351 net.cpp:406] res2 <- conv5
I0411 00:05:15.803782  8351 net.cpp:380] res2 -> res2
I0411 00:05:15.803820  8351 net.cpp:122] Setting up res2
I0411 00:05:15.803829  8351 net.cpp:129] Top shape: 128 64 24 24 (4718592)
I0411 00:05:15.803833  8351 net.cpp:137] Memory required for data: 740920320
I0411 00:05:15.803850  8351 layer_factory.hpp:77] Creating layer pool3
I0411 00:05:15.803859  8351 net.cpp:84] Creating Layer pool3
I0411 00:05:15.803864  8351 net.cpp:406] pool3 <- res2
I0411 00:05:15.803874  8351 net.cpp:380] pool3 -> pool3
I0411 00:05:15.803918  8351 net.cpp:122] Setting up pool3
I0411 00:05:15.803926  8351 net.cpp:129] Top shape: 128 64 12 12 (1179648)
I0411 00:05:15.803930  8351 net.cpp:137] Memory required for data: 745638912
I0411 00:05:15.803936  8351 layer_factory.hpp:77] Creating layer relu5
I0411 00:05:15.803946  8351 net.cpp:84] Creating Layer relu5
I0411 00:05:15.803952  8351 net.cpp:406] relu5 <- pool3
I0411 00:05:15.803958  8351 net.cpp:367] relu5 -> pool3 (in-place)
I0411 00:05:15.809221  8351 net.cpp:122] Setting up relu5
I0411 00:05:15.809234  8351 net.cpp:129] Top shape: 128 64 12 12 (1179648)
I0411 00:05:15.809242  8351 net.cpp:137] Memory required for data: 750357504
I0411 00:05:15.809247  8351 layer_factory.hpp:77] Creating layer fc1_0
I0411 00:05:15.809271  8351 net.cpp:84] Creating Layer fc1_0
I0411 00:05:15.809288  8351 net.cpp:406] fc1_0 <- pool3
I0411 00:05:15.809306  8351 net.cpp:380] fc1_0 -> fc1_0
I0411 00:05:16.242213  8351 net.cpp:122] Setting up fc1_0
I0411 00:05:16.242247  8351 net.cpp:129] Top shape: 128 2048 (262144)
I0411 00:05:16.242252  8351 net.cpp:137] Memory required for data: 751406080
I0411 00:05:16.242275  8351 layer_factory.hpp:77] Creating layer relu6_0
I0411 00:05:16.242297  8351 net.cpp:84] Creating Layer relu6_0
I0411 00:05:16.242307  8351 net.cpp:406] relu6_0 <- fc1_0
I0411 00:05:16.242318  8351 net.cpp:367] relu6_0 -> fc1_0 (in-place)
I0411 00:05:16.242568  8351 net.cpp:122] Setting up relu6_0
I0411 00:05:16.242580  8351 net.cpp:129] Top shape: 128 2048 (262144)
I0411 00:05:16.242585  8351 net.cpp:137] Memory required for data: 752454656
I0411 00:05:16.242589  8351 layer_factory.hpp:77] Creating layer drop1_0
I0411 00:05:16.242602  8351 net.cpp:84] Creating Layer drop1_0
I0411 00:05:16.242612  8351 net.cpp:406] drop1_0 <- fc1_0
I0411 00:05:16.242621  8351 net.cpp:367] drop1_0 -> fc1_0 (in-place)
I0411 00:05:16.242657  8351 net.cpp:122] Setting up drop1_0
I0411 00:05:16.242666  8351 net.cpp:129] Top shape: 128 2048 (262144)
I0411 00:05:16.242669  8351 net.cpp:137] Memory required for data: 753503232
I0411 00:05:16.242673  8351 layer_factory.hpp:77] Creating layer fc2_0
I0411 00:05:16.242689  8351 net.cpp:84] Creating Layer fc2_0
I0411 00:05:16.242696  8351 net.cpp:406] fc2_0 <- fc1_0
I0411 00:05:16.242704  8351 net.cpp:380] fc2_0 -> fc2_0
I0411 00:05:16.339613  8351 net.cpp:122] Setting up fc2_0
I0411 00:05:16.339643  8351 net.cpp:129] Top shape: 128 2048 (262144)
I0411 00:05:16.339648  8351 net.cpp:137] Memory required for data: 754551808
I0411 00:05:16.339659  8351 layer_factory.hpp:77] Creating layer relu7_0
I0411 00:05:16.339673  8351 net.cpp:84] Creating Layer relu7_0
I0411 00:05:16.339704  8351 net.cpp:406] relu7_0 <- fc2_0
I0411 00:05:16.339717  8351 net.cpp:367] relu7_0 -> fc2_0 (in-place)
I0411 00:05:16.340355  8351 net.cpp:122] Setting up relu7_0
I0411 00:05:16.340369  8351 net.cpp:129] Top shape: 128 2048 (262144)
I0411 00:05:16.340375  8351 net.cpp:137] Memory required for data: 755600384
I0411 00:05:16.340380  8351 layer_factory.hpp:77] Creating layer drop2_0
I0411 00:05:16.340412  8351 net.cpp:84] Creating Layer drop2_0
I0411 00:05:16.340418  8351 net.cpp:406] drop2_0 <- fc2_0
I0411 00:05:16.340428  8351 net.cpp:367] drop2_0 -> fc2_0 (in-place)
I0411 00:05:16.340466  8351 net.cpp:122] Setting up drop2_0
I0411 00:05:16.340476  8351 net.cpp:129] Top shape: 128 2048 (262144)
I0411 00:05:16.340481  8351 net.cpp:137] Memory required for data: 756648960
I0411 00:05:16.340486  8351 layer_factory.hpp:77] Creating layer fc3_0
I0411 00:05:16.340502  8351 net.cpp:84] Creating Layer fc3_0
I0411 00:05:16.340509  8351 net.cpp:406] fc3_0 <- fc2_0
I0411 00:05:16.340521  8351 net.cpp:380] fc3_0 -> fc3_0
I0411 00:05:16.342764  8351 net.cpp:122] Setting up fc3_0
I0411 00:05:16.342777  8351 net.cpp:129] Top shape: 128 48 (6144)
I0411 00:05:16.342782  8351 net.cpp:137] Memory required for data: 756673536
I0411 00:05:16.342789  8351 layer_factory.hpp:77] Creating layer fc3_0_fc3_0_0_split
I0411 00:05:16.342798  8351 net.cpp:84] Creating Layer fc3_0_fc3_0_0_split
I0411 00:05:16.342803  8351 net.cpp:406] fc3_0_fc3_0_0_split <- fc3_0
I0411 00:05:16.342823  8351 net.cpp:380] fc3_0_fc3_0_0_split -> fc3_0_fc3_0_0_split_0
I0411 00:05:16.342833  8351 net.cpp:380] fc3_0_fc3_0_0_split -> fc3_0_fc3_0_0_split_1
I0411 00:05:16.342874  8351 net.cpp:122] Setting up fc3_0_fc3_0_0_split
I0411 00:05:16.342881  8351 net.cpp:129] Top shape: 128 48 (6144)
I0411 00:05:16.342887  8351 net.cpp:129] Top shape: 128 48 (6144)
I0411 00:05:16.342903  8351 net.cpp:137] Memory required for data: 756722688
I0411 00:05:16.342908  8351 layer_factory.hpp:77] Creating layer loss
I0411 00:05:16.342917  8351 net.cpp:84] Creating Layer loss
I0411 00:05:16.342924  8351 net.cpp:406] loss <- fc3_0_fc3_0_0_split_0
I0411 00:05:16.342931  8351 net.cpp:406] loss <- pose_pose_0_split_0
I0411 00:05:16.342941  8351 net.cpp:380] loss -> loss
…
  top: "data"
  top: "label"
  include {
    phase: TEST
  }
  transform_param {
    is_trans: false
    is_rotate: false
    is_zoom: false
  }
  pose_data_param {
    image_source: "/home/workspace/Datasets/ICVL/test_image.txt"
    label_source: "/home/workspace/Datasets/ICVL/test_label.txt"
    batch_size: 128
    shuffle: false
    new_height: 96
    new_width: 96
    root_folder: "/home/workspace/Datasets/ICVL/test/Depth/"
    point_num: 16
    point_dim: 3
    fx: 240.99
    fy: 240.96
    output_center: true
    cube_length: 150
    dataset: ICVL
  }
}
layer {
  name: "pose"
  type: "Slice"
  bottom: "label"
  top: "pose"
  top: "center"
  include {
    phase: TEST
  }
  slice_param {
    slice_dim: 1
    slice_point: 48
  }
}
layer {
  name: "conv0"
  type: "Convolution"
  bottom: "data"
  top: "conv0"
  param {
    lr_mult: 1
  }
  param {
    lr_mult: 2
  }
  convolution_param {
    num_output: 16
    pad: 1
    kernel_size: 3
    stride: 1
    weight_filler {
      type: "msra"
    }
    bias_filler {
      type: "constant"
    }
  }
}
layer {
  name: "relu0"
  type: "ReLU"
  bottom: "conv0"
  top: "conv0"
}
layer {
  name: "conv1"
  type: "Convolution"
  bottom: "conv0"
  top: "conv1"
  param {
    lr_mult: 1
  }
  param {
    lr_mult: 2
  }
  convolution_param {
    num_output: 16
    pad: 1
    kernel_size: 3
    stride: 1
    weight_filler {
      type: "msra"
    }
    bias_filler {
      type: "constant"
    }
  }
}
layer {
  name: "pool1"
  type: "Pooling"
  bottom: "conv1"
  top: "pool1"
  pooling_param {
    pool: MAX
    kernel_size: 2
    stride: 2
  }
}
layer {
  name: "relu1"
  type: "ReLU"
  bottom: "pool1"
  top: "pool1"
}
layer {
  name: "conv2_0"
  type: "Convolution"
  bottom: "pool1"
  top: "conv2_0"
  param {
    lr_mult: 1
  }
  param {
    lr_mult: 2
  }
  convolution_param {
    num_output: 32
    pad: 0
    kernel_size: 1
    stride: 1
    weight_filler {
      type: "msra"
    }
    bias_filler {
      type: "constant"
    }
  }
}
layer {
  name: "relu2_0"
  type: "ReLU"
  bottom: "conv2_0"
  top: "conv2_0"
}
layer {
  name: "conv2"
  type: "Convolution"
  bottom: "conv2_0"
  top: "conv2"
  param {
    lr_mult: 1
  }
  param {
    lr_mult: 2
  }
  convolution_param {
    num_output: 32
    pad: 1
    kernel_size: 3
    stride: 1
    weight_filler {
      type: "msra"
    }
    bias_filler {
      type: "constant"
    }
  }
}
layer {
  name: "relu2"
  type: "ReLU"
  bottom: "conv2"
  top: "conv2"
}
layer {
  name: "conv3"
  type: "Convolution"
  bottom: "conv2"
  top: "conv3"
  param {
    lr_mult: 1
  }
  param {
    lr_mult: 2
  }
  convolution_param {
    num_output: 32
    pad: 1
    kernel_size: 3
    stride: 1
    weight_filler {
      type: "msra"
    }
    bias_filler {
      type: "constant"
    }
  }
}
layer {
  name: "res1"
  type: "Eltwise"
  bottom: "conv2_0"
  bottom: "conv3"
  top: "res1"
}
layer {
  name: "pool2"
  type: "Pooling"
  bottom: "res1"
  top: "pool2"
  pooling_param {
    pool: MAX
    kernel_size: 2
    stride: 2
  }
}
layer {
  name: "relu3"
  type: "ReLU"
  bottom: "pool2"
  top: "pool2"
}
layer {
  name: "conv3_0"
  type: "Convolution"
  bottom: "pool2"
  top: "conv3_0"
  param {
    lr_mult: 1
  }
  param {
    lr_mult: 2
  }
  convolution_param {
    num_output: 64
    pad: 0
    kernel_size: 1
    stride: 1
    weight_filler {
      type: "msra"
    }
    bias_filler {
      type: "constant"
    }
  }
}
layer {
  name: "relu3_0"
  type: "ReLU"
  bottom: "conv3_0"
  top: "conv3_0"
}
layer {
  name: "conv4"
  type: "Convolution"
  bottom: "conv3_0"
  top: "conv4"
  param {
    lr_mult: 1
  }
  param {
    lr_mult: 2
  }
  convolution_param {
    num_output: 64
    pad: 1
    kernel_size: 3
    stride: 1
    weight_filler {
      type: "msra"
    }
    bias_filler {
      type: "constant"
    }
  }
}
layer {
  name: "relu4"
  type: "ReLU"
  bottom: "conv4"
  top: "conv4"
}
layer {
  name: "conv5"
  type: "Convolution"
  bottom: "conv4"
  top: "conv5"
  param {
    lr_mult: 1
  }
  param {
    lr_mult: 2
  }
  convolution_param {
    num_output: 64
    pad: 1
    kernel_size: 3
    stride: 1
    weight_filler {
      type: "msra"
    }
    bias_filler {
      type: "constant"
    }
  }
}
layer {
  name: "res2"
  type: "Eltwise"
  bottom: "conv3_0"
  bottom: "conv5"
  top: "res2"
}
layer {
  name: "pool3"
  type: "Pooling"
  bottom: "res2"
  top: "pool3"
  pooling_param {
    pool: MAX
    kernel_size: 2
    stride: 2
  }
}
layer {
  name: "relu5"
  type: "ReLU"
  bottom: "pool3"
  top: "pool3"
}
layer {
  name: "fc1_0"
  type: "InnerProduct"
  bottom: "pool3"
  top: "fc1_0"
  param {
    lr_mult: 1
  }
  param {
    lr_mult: 2
  }
  inner_product_param {
    num_output: 2048
    weight_filler {
      type: "gaussian"
      std: 0.001
    }
    bias_filler {
      type: "constant"
    }
  }
}
layer {
  name: "relu6_0"
  type: "ReLU"
  bottom: "fc1_0"
  top: "fc1_0"
}
layer {
  name: "drop1_0"
  type: "Dropout"
  bottom: "fc1_0"
  top: "fc1_0"
  dropout_param {
    dropout_ratio: 0.5
  }
}
layer {
  name: "fc2_0"
  type: "InnerProduct"
  bottom: "fc1_0"
  top: "fc2_0"
  param {
    lr_mult: 1
  }
  param {
    lr_mult: 2
  }
  inner_product_param {
    num_output: 2048
    weight_filler {
      type: "gaussian"
      std: 0.001
    }
    bias_filler {
      type: "constant"
    }
  }
}
layer {
  name: "relu7_0"
  type: "ReLU"
  bottom: "fc2_0"
  top: "fc2_0"
}
layer {
  name: "drop2_0"
  type: "Dropout"
  bottom: "fc2_0"
  top: "fc2_0"
  dropout_param {
    dropout_ratio: 0.5
  }
}
layer {
  name: "fc3_0"
  type: "InnerProduct"
  bottom: "fc2_0"
  top: "fc3_0"
  param {
    lr_mult: 1
  }
  param {
    lr_mult: 2
  }
  inner_product_param {
    num_output: 48
    weight_filler {
      type: "gaussian"
      std: 0.001
    }
    bias_filler {
      type: "constant"
    }
  }
}
layer {
  name: "error"
  type: "PoseDistance"
  bottom: "fc3_0"
  bottom: "pose"
  bottom: "center"
  top: "error"
  top: "output"
  include {
    phase: TEST
  }
  pose_distance_param {
    fx: 240.99
    fy: 240.96
    ux: 160
    uy: 120
    output_pose: true
    cube_length: 150
  }
}
I0412 06:39:30.285327 30899 layer_factory.hpp:77] Creating layer data
I0412 06:39:30.285358 30899 net.cpp:84] Creating Layer data
I0412 06:39:30.285364 30899 net.cpp:380] data -> data
I0412 06:39:30.285384 30899 net.cpp:380] data -> label
I0412 06:39:30.292688 30899 pose_data_layer.cpp:117] Opening file /home/workspace/Datasets/ICVL/test_image.txt
I0412 06:39:30.292713 30899 pose_data_layer.cpp:119] Opening file /home/workspace/Datasets/ICVL/test_label.txt
I0412 06:39:30.735908 30899 pose_data_layer.cpp:269] Loading 1 image...
I0412 06:39:37.186249 30899 pose_data_layer.cpp:287] A total of 1596 images.
I0412 06:39:37.371227 30899 pose_data_layer.cpp:329] output data size: 128,1,96,96
I0412 06:39:37.381005 30899 net.cpp:122] Setting up data
I0412 06:39:37.381032 30899 net.cpp:129] Top shape: 128 1 96 96 (1179648)
I0412 06:39:37.381037 30899 net.cpp:129] Top shape: 128 51 (6528)
I0412 06:39:37.381041 30899 net.cpp:137] Memory required for data: 4744704
I0412 06:39:37.381047 30899 layer_factory.hpp:77] Creating layer pose
I0412 06:39:37.381059 30899 net.cpp:84] Creating Layer pose
I0412 06:39:37.381065 30899 net.cpp:406] pose <- label
I0412 06:39:37.381080 30899 net.cpp:380] pose -> pose
I0412 06:39:37.381108 30899 net.cpp:380] pose -> center
I0412 06:39:37.381157 30899 net.cpp:122] Setting up pose
I0412 06:39:37.381167 30899 net.cpp:129] Top shape: 128 48 (6144)
I0412 06:39:37.381172 30899 net.cpp:129] Top shape: 128 3 (384)
I0412 06:39:37.381176 30899 net.cpp:137] Memory required for data: 4770816
I0412 06:39:37.381181 30899 layer_factory.hpp:77] Creating layer conv0
I0412 06:39:37.381201 30899 net.cpp:84] Creating Layer conv0
I0412 06:39:37.381207 30899 net.cpp:406] conv0 <- data
I0412 06:39:37.381216 30899 net.cpp:380] conv0 -> conv0
I0412 06:39:38.367738 30899 net.cpp:122] Setting up conv0
I0412 06:39:38.367789 30899 net.cpp:129] Top shape: 128 16 96 96 (18874368)
I0412 06:39:38.367794 30899 net.cpp:137] Memory required for data: 80268288
I0412 06:39:38.367811 30899 layer_factory.hpp:77] Creating layer relu0
I0412 06:39:38.367822 30899 net.cpp:84] Creating Layer relu0
I0412 06:39:38.367827 30899 net.cpp:406] relu0 <- conv0
I0412 06:39:38.367833 30899 net.cpp:367] relu0 -> conv0 (in-place)
I0412 06:39:38.369874 30899 net.cpp:122] Setting up relu0
I0412 06:39:38.369886 30899 net.cpp:129] Top shape: 128 16 96 96 (18874368)
I0412 06:39:38.369889 30899 net.cpp:137] Memory required for data: 155765760
I0412 06:39:38.369894 30899 layer_factory.hpp:77] Creating layer conv1
I0412 06:39:38.369905 30899 net.cpp:84] Creating Layer conv1
I0412 06:39:38.369910 30899 net.cpp:406] conv1 <- conv0
I0412 06:39:38.369917 30899 net.cpp:380] conv1 -> conv1
I0412 06:39:38.376848 30899 net.cpp:122] Setting up conv1
I0412 06:39:38.376886 30899 net.cpp:129] Top shape: 128 16 96 96 (18874368)
I0412 06:39:38.376891 30899 net.cpp:137] Memory required for data: 231263232
I0412 06:39:38.376905 30899 layer_factory.hpp:77] Creating layer pool1
I0412 06:39:38.376916 30899 net.cpp:84] Creating Layer pool1
I0412 06:39:38.376921 30899 net.cpp:406] pool1 <- conv1
I0412 06:39:38.376927 30899 net.cpp:380] pool1 -> pool1
I0412 06:39:38.376976 30899 net.cpp:122] Setting up pool1
I0412 06:39:38.376982 30899 net.cpp:129] Top shape: 128 16 48 48 (4718592)
I0412 06:39:38.376986 30899 net.cpp:137] Memory required for data: 250137600
I0412 06:39:38.376988 30899 layer_factory.hpp:77] Creating layer relu1
I0412 06:39:38.376993 30899 net.cpp:84] Creating Layer relu1
I0412 06:39:38.376997 30899 net.cpp:406] relu1 <- pool1
I0412 06:39:38.377002 30899 net.cpp:367] relu1 -> pool1 (in-place)
I0412 06:39:38.378998 30899 net.cpp:122] Setting up relu1
I0412 06:39:38.379007 30899 net.cpp:129] Top shape: 128 16 48 48 (4718592)
I0412 06:39:38.379010 30899 net.cpp:137] Memory required for data: 269011968
I0412 06:39:38.379014 30899 layer_factory.hpp:77] Creating layer conv2_0
I0412 06:39:38.379024 30899 net.cpp:84] Creating Layer conv2_0
I0412 06:39:38.379026 30899 net.cpp:406] conv2_0 <- pool1
I0412 06:39:38.379032 30899 net.cpp:380] conv2_0 -> conv2_0
I0412 06:39:38.386946 30899 net.cpp:122] Setting up conv2_0
I0412 06:39:38.386960 30899 net.cpp:129] Top shape: 128 32 48 48 (9437184)
I0412 06:39:38.386965 30899 net.cpp:137] Memory required for data: 306760704
I0412 06:39:38.386972 30899 layer_factory.hpp:77] Creating layer relu2_0
I0412 06:39:38.386981 30899 net.cpp:84] Creating Layer relu2_0
I0412 06:39:38.386986 30899 net.cpp:406] relu2_0 <- conv2_0
I0412 06:39:38.386991 30899 net.cpp:367] relu2_0 -> conv2_0 (in-place)
I0412 06:39:38.391010 30899 net.cpp:122] Setting up relu2_0
I0412 06:39:38.391022 30899 net.cpp:129] Top shape: 128 32 48 48 (9437184)
I0412 06:39:38.391026 30899 net.cpp:137] Memory required for data: 344509440
I0412 06:39:38.391028 30899 layer_factory.hpp:77] Creating layer conv2_0_relu2_0_0_split
I0412 06:39:38.391033 30899 net.cpp:84] Creating Layer conv2_0_relu2_0_0_split
I0412 06:39:38.391036 30899 net.cpp:406] conv2_0_relu2_0_0_split <- conv2_0
I0412 06:39:38.391041 30899 net.cpp:380] conv2_0_relu2_0_0_split -> conv2_0_relu2_0_0_split_0
I0412 06:39:38.391049 30899 net.cpp:380] conv2_0_relu2_0_0_split -> conv2_0_relu2_0_0_split_1
I0412 06:39:38.391083 30899 net.cpp:122] Setting up conv2_0_relu2_0_0_split
I0412 06:39:38.391088 30899 net.cpp:129] Top shape: 128 32 48 48 (9437184)
I0412 06:39:38.391093 30899 net.cpp:129] Top shape: 128 32 48 48 (9437184)
I0412 06:39:38.391094 30899 net.cpp:137] Memory required for data: 420006912
I0412 06:39:38.391096 30899 layer_factory.hpp:77] Creating layer conv2
I0412 06:39:38.391104 30899 net.cpp:84] Creating Layer conv2
I0412 06:39:38.391108 30899 net.cpp:406] conv2 <- conv2_0_relu2_0_0_split_0
I0412 06:39:38.391113 30899 net.cpp:380] conv2 -> conv2
I0412 06:39:38.397833 30899 net.cpp:122] Setting up conv2
I0412 06:39:38.397850 30899 net.cpp:129] Top shape: 128 32 48 48 (9437184)
I0412 06:39:38.397869 30899 net.cpp:137] Memory required for data: 457755648
I0412 06:39:38.397883 30899 layer_factory.hpp:77] Creating layer relu2
I0412 06:39:38.397891 30899 net.cpp:84] Creating Layer relu2
I0412 06:39:38.397898 30899 net.cpp:406] relu2 <- conv2
I0412 06:39:38.397907 30899 net.cpp:367] relu2 -> conv2 (in-place)
I0412 06:39:38.399940 30899 net.cpp:122] Setting up relu2
I0412 06:39:38.399951 30899 net.cpp:129] Top shape: 128 32 48 48 (9437184)
I0412 06:39:38.399957 30899 net.cpp:137] Memory required for data: 495504384
I0412 06:39:38.399963 30899 layer_factory.hpp:77] Creating layer conv3
I0412 06:39:38.399976 30899 net.cpp:84] Creating Layer conv3
I0412 06:39:38.399981 30899 net.cpp:406] conv3 <- conv2
I0412 06:39:38.399991 30899 net.cpp:380] conv3 -> conv3
I0412 06:39:38.401175 30899 net.cpp:122] Setting up conv3
I0412 06:39:38.401188 30899 net.cpp:129] Top shape: 128 32 48 48 (9437184)
I0412 06:39:38.401195 30899 net.cpp:137] Memory required for data: 533253120
I0412 06:39:38.401209 30899 layer_factory.hpp:77] Creating layer res1
I0412 06:39:38.401218 30899 net.cpp:84] Creating Layer res1
I0412 06:39:38.401226 30899 net.cpp:406] res1 <- conv2_0_relu2_0_0_split_1
I0412 06:39:38.401233 30899 net.cpp:406] res1 <- conv3
I0412 06:39:38.401240 30899 net.cpp:380] res1 -> res1
I0412 06:39:38.401275 30899 net.cpp:122] Setting up res1
I0412 06:39:38.401284 30899 net.cpp:129] Top shape: 128 32 48 48 (9437184)
I0412 06:39:38.401290 30899 net.cpp:137] Memory required for data: 571001856
I0412 06:39:38.401296 30899 layer_factory.hpp:77] Creating layer pool2
I0412 06:39:38.401305 30899 net.cpp:84] Creating Layer pool2
I0412 06:39:38.401310 30899 net.cpp:406] pool2 <- res1
I0412 06:39:38.401319 30899 net.cpp:380] pool2 -> pool2
I0412 06:39:38.401353 30899 net.cpp:122] Setting up pool2
I0412 06:39:38.401361 30899 net.cpp:129] Top shape: 128 32 24 24 (2359296)
I0412 06:39:38.401367 30899 net.cpp:137] Memory required for data: 580439040
I0412 06:39:38.401373 30899 layer_factory.hpp:77] Creating layer relu3
I0412 06:39:38.401381 30899 net.cpp:84] Creating Layer relu3
I0412 06:39:38.401386 30899 net.cpp:406] relu3 <- pool2
I0412 06:39:38.401394 30899 net.cpp:367] relu3 -> pool2 (in-place)
I0412 06:39:38.402263 30899 net.cpp:122] Setting up relu3
I0412 06:39:38.402276 30899 net.cpp:129] Top shape: 128 32 24 24 (2359296)
I0412 06:39:38.402281 30899 net.cpp:137] Memory required for data: 589876224
I0412 06:39:38.402287 30899 layer_factory.hpp:77] Creating layer conv3_0
I0412 06:39:38.402302 30899 net.cpp:84] Creating Layer conv3_0
I0412 06:39:38.402307 30899 net.cpp:406] conv3_0 <- pool2
I0412 06:39:38.402318 30899 net.cpp:380] conv3_0 -> conv3_0
I0412 06:39:38.405807 30899 net.cpp:122] Setting up conv3_0
I0412 06:39:38.405822 30899 net.cpp:129] Top shape: 128 64 24 24 (4718592)
I0412 06:39:38.405827 30899 net.cpp:137] Memory required for data: 608750592
I0412 06:39:38.405838 30899 layer_factory.hpp:77] Creating layer relu3_0
I0412 06:39:38.405848 30899 net.cpp:84] Creating Layer relu3_0
I0412 06:39:38.405853 30899 net.cpp:406] relu3_0 <- conv3_0
I0412 06:39:38.405863 30899 net.cpp:367] relu3_0 -> conv3_0 (in-place)
I0412 06:39:38.406178 30899 net.cpp:122] Setting up relu3_0
I0412 06:39:38.406191 30899 net.cpp:129] Top shape: 128 64 24 24 (4718592)
I0412 06:39:38.406196 30899 net.cpp:137] Memory required for data: 627624960
I0412 06:39:38.406203 30899 layer_factory.hpp:77] Creating layer conv3_0_relu3_0_0_split
I0412 06:39:38.406213 30899 net.cpp:84] Creating Layer conv3_0_relu3_0_0_split
I0412 06:39:38.406219 30899 net.cpp:406] conv3_0_relu3_0_0_split <- conv3_0
I0412 06:39:38.406229 30899 net.cpp:380] conv3_0_relu3_0_0_split -> conv3_0_relu3_0_0_split_0
I0412 06:39:38.406237 30899 net.cpp:380] conv3_0_relu3_0_0_split -> conv3_0_relu3_0_0_split_1
I0412 06:39:38.406276 30899 net.cpp:122] Setting up conv3_0_relu3_0_0_split
I0412 06:39:38.406285 30899 net.cpp:129] Top shape: 128 64 24 24 (4718592)
I0412 06:39:38.406292 30899 net.cpp:129] Top shape: 128 64 24 24 (4718592)
I0412 06:39:38.406297 30899 net.cpp:137] Memory required for data: 665373696
I0412 06:39:38.406313 30899 layer_factory.hpp:77] Creating layer conv4
I0412 06:39:38.406327 30899 net.cpp:84] Creating Layer conv4
I0412 06:39:38.406333 30899 net.cpp:406] conv4 <- conv3_0_relu3_0_0_split_0
I0412 06:39:38.406342 30899 net.cpp:380] conv4 -> conv4
I0412 06:39:38.412223 30899 net.cpp:122] Setting up conv4
I0412 06:39:38.412241 30899 net.cpp:129] Top shape: 128 64 24 24 (4718592)
I0412 06:39:38.412247 30899 net.cpp:137] Memory required for data: 684248064
I0412 06:39:38.412257 30899 layer_factory.hpp:77] Creating layer relu4
I0412 06:39:38.412267 30899 net.cpp:84] Creating Layer relu4
I0412 06:39:38.412284 30899 net.cpp:406] relu4 <- conv4
I0412 06:39:38.412292 30899 net.cpp:367] relu4 -> conv4 (in-place)
I0412 06:39:38.414072 30899 net.cpp:122] Setting up relu4
I0412 06:39:38.414084 30899 net.cpp:129] Top shape: 128 64 24 24 (4718592)
I0412 06:39:38.414090 30899 net.cpp:137] Memory required for data: 703122432
I0412 06:39:38.414096 30899 layer_factory.hpp:77] Creating layer conv5
I0412 06:39:38.414122 30899 net.cpp:84] Creating Layer conv5
I0412 06:39:38.414130 30899 net.cpp:406] conv5 <- conv4
I0412 06:39:38.414139 30899 net.cpp:380] conv5 -> conv5
I0412 06:39:38.419540 30899 net.cpp:122] Setting up conv5
I0412 06:39:38.419556 30899 net.cpp:129] Top shape: 128 64 24 24 (4718592)
I0412 06:39:38.419561 30899 net.cpp:137] Memory required for data: 721996800
I0412 06:39:38.419571 30899 layer_factory.hpp:77] Creating layer res2
I0412 06:39:38.419581 30899 net.cpp:84] Creating Layer res2
I0412 06:39:38.419589 30899 net.cpp:406] res2 <- conv3_0_relu3_0_0_split_1
I0412 06:39:38.419597 30899 net.cpp:406] res2 <- conv5
I0412 06:39:38.419607 30899 net.cpp:380] res2 -> res2
I0412 06:39:38.419638 30899 net.cpp:122] Setting up res2
I0412 06:39:38.419646 30899 net.cpp:129] Top shape: 128 64 24 24 (4718592)
I0412 06:39:38.419652 30899 net.cpp:137] Memory required for data: 740871168
I0412 06:39:38.419658 30899 layer_factory.hpp:77] Creating layer pool3
I0412 06:39:38.419667 30899 net.cpp:84] Creating Layer pool3
I0412 06:39:38.419672 30899 net.cpp:406] pool3 <- res2
I0412 06:39:38.419682 30899 net.cpp:380] pool3 -> pool3
I0412 06:39:38.419718 30899 net.cpp:122] Setting up pool3
I0412 06:39:38.419726 30899 net.cpp:129] Top shape: 128 64 12 12 (1179648)
I0412 06:39:38.419733 30899 net.cpp:137] Memory required for data: 745589760
I0412 06:39:38.419739 30899 layer_factory.hpp:77] Creating layer relu5
I0412 06:39:38.419749 30899 net.cpp:84] Creating Layer relu5
I0412 06:39:38.419754 30899 net.cpp:406] relu5 <- pool3
I0412 06:39:38.419761 30899 net.cpp:367] relu5 -> pool3 (in-place)
I0412 06:39:38.420701 30899 net.cpp:122] Setting up relu5
I0412 06:39:38.420712 30899 net.cpp:129] Top shape: 128 64 12 12 (1179648)
I0412 06:39:38.420718 30899 net.cpp:137] Memory required for data: 750308352
I0412 06:39:38.420724 30899 layer_factory.hpp:77] Creating layer fc1_0
I0412 06:39:38.420737 30899 net.cpp:84] Creating Layer fc1_0
I0412 06:39:38.420742 30899 net.cpp:406] fc1_0 <- pool3
I0412 06:39:38.420753 30899 net.cpp:380] fc1_0 -> fc1_0
I0412 06:39:38.835942 30899 net.cpp:122] Setting up fc1_0
I0412 06:39:38.835966 30899 net.cpp:129] Top shape: 128 2048 (262144)
I0412 06:39:38.835973 30899 net.cpp:137] Memory required for data: 751356928
I0412 06:39:38.835992 30899 layer_factory.hpp:77] Creating layer relu6_0
I0412 06:39:38.836006 30899 net.cpp:84] Creating Layer relu6_0
I0412 06:39:38.836014 30899 net.cpp:406] relu6_0 <- fc1_0
I0412 06:39:38.836024 30899 net.cpp:367] relu6_0 -> fc1_0 (in-place)
I0412 06:39:38.836251 30899 net.cpp:122] Setting up relu6_0
I0412 06:39:38.836263 30899 net.cpp:129] Top shape: 128 2048 (262144)
I0412 06:39:38.836268 30899 net.cpp:137] Memory required for data: 752405504
I0412 06:39:38.836275 30899 layer_factory.hpp:77] Creating layer drop1_0
I0412 06:39:38.836284 30899 net.cpp:84] Creating Layer drop1_0
I0412 06:39:38.836289 30899 net.cpp:406] drop1_0 <- fc1_0
I0412 06:39:38.836297 30899 net.cpp:367] drop1_0 -> fc1_0 (in-place)
I0412 06:39:38.836328 30899 net.cpp:122] Setting up drop1_0
I0412 06:39:38.836346 30899 net.cpp:129] Top shape: 128 2048 (262144)
I0412 06:39:38.836352 30899 net.cpp:137] Memory required for data: 753454080
I0412 06:39:38.836359 30899 layer_factory.hpp:77] Creating layer fc2_0
I0412 06:39:38.836371 30899 net.cpp:84] Creating Layer fc2_0
I0412 06:39:38.836376 30899 net.cpp:406] fc2_0 <- fc1_0
I0412 06:39:38.836387 30899 net.cpp:380] fc2_0 -> fc2_0
I0412 06:39:38.928927 30899 net.cpp:122] Setting up fc2_0
I0412 06:39:38.928957 30899 net.cpp:129] Top shape: 128 2048 (262144)
I0412 06:39:38.928963 30899 net.cpp:137] Memory required for data: 754502656
I0412 06:39:38.928977 30899 layer_factory.hpp:77] Creating layer relu7_0
I0412 06:39:38.928990 30899 net.cpp:84] Creating Layer relu7_0
I0412 06:39:38.928997 30899 net.cpp:406] relu7_0 <- fc2_0
I0412 06:39:38.929010 30899 net.cpp:367] relu7_0 -> fc2_0 (in-place)
I0412 06:39:38.929486 30899 net.cpp:122] Setting up relu7_0
I0412 06:39:38.929499 30899 net.cpp:129] Top shape: 128 2048 (262144)
I0412 06:39:38.929504 30899 net.cpp:137] Memory required for data: 755551232
I0412 06:39:38.929512 30899 layer_factory.hpp:77] Creating layer drop2_0
I0412 06:39:38.929523 30899 net.cpp:84] Creating Layer drop2_0
I0412 06:39:38.929529 30899 net.cpp:406] drop2_0 <- fc2_0
I0412 06:39:38.929538 30899 net.cpp:367] drop2_0 -> fc2_0 (in-place)
I0412 06:39:38.929585 30899 net.cpp:122] Setting up drop2_0
I0412 06:39:38.929594 30899 net.cpp:129] Top shape: 128 2048 (262144)
I0412 06:39:38.929596 30899 net.cpp:137] Memory required for data: 756599808
I0412 06:39:38.929600 30899 layer_factory.hpp:77] Creating layer fc3_0
I0412 06:39:38.929608 30899 net.cpp:84] Creating Layer fc3_0
I0412 06:39:38.929612 30899 net.cpp:406] fc3_0 <- fc2_0
I0412 06:39:38.929622 30899 net.cpp:380] fc3_0 -> fc3_0
I0412 06:39:38.932268 30899 net.cpp:122] Setting up fc3_0
I0412 06:39:38.932281 30899 net.cpp:129] Top shape: 128 48 (6144)
I0412 06:39:38.932283 30899 net.cpp:137] Memory required for data: 756624384
I0412 06:39:38.932288 30899 layer_factory.hpp:77] Creating layer error
I0412 06:39:38.932301 30899 pose_distance_layer.cpp:48] Size of ids: 0
I0412 06:39:38.932312 30899 net.cpp:84] Creating Layer error
I0412 06:39:38.932319 30899 net.cpp:406] error <- fc3_0
I0412 06:39:38.932327 30899 net.cpp:406] error <- pose
I0412 06:39:38.932335 30899 net.cpp:406] error <- center
I0412 06:39:38.932348 30899 net.cpp:380] error -> error
I0412 06:39:38.932361 30899 net.cpp:380] error -> output
I0412 06:39:38.932386 30899 net.cpp:122] Setting up error
I0412 06:39:38.932394 30899 net.cpp:129] Top shape: (1)
I0412 06:39:38.932401 30899 net.cpp:129] Top shape: 128 48 (6144)
I0412 06:39:38.932407 30899 net.cpp:137] Memory required for data: 756648964
I0412 06:39:38.932413 30899 net.cpp:200] error does not need backward computation.
I0412 06:39:38.932420 30899 net.cpp:200] fc3_0 does not need backward computation.
I0412 06:39:38.932426 30899 net.cpp:200] drop2_0 does not need backward computation.
I0412 06:39:38.932432 30899 net.cpp:200] relu7_0 does not need backward computation.
…
