…
    phase: TRAIN
  }
  transform_param {
    is_trans: true
    trans_dx: 10
    trans_dy: 10
    is_rotate: true
    rotate_deg: 15
    is_zoom: true
    zoom_scale: 0.1
  }
  pose_data_param {
    image_source: "/home/workspace/Datasets/NYU/train_img.txt"
    label_source: "/home/workspace/Datasets/NYU/train_label.txt"
    batch_size: 128
    shuffle: true
    new_height: 96
    new_width: 96
    root_folder: "/home/workspace/Datasets/NYU/"
    point_num: 14
    point_dim: 3
    fx: 588.03
    fy: 587.07
    cube_length: 150
    dataset: NYU
  }
}
layer {
  name: "conv0"
  type: "Convolution"
  bottom: "data"
  top: "conv0"
  param {
    lr_mult: 1
  }
  param {
    lr_mult: 2
  }
  convolution_param {
    num_output: 16
    pad: 1
    kernel_size: 3
    stride: 1
    weight_filler {
      type: "msra"
    }
    bias_filler {
      type: "constant"
    }
  }
}
layer {
  name: "relu0"
  type: "ReLU"
  bottom: "conv0"
  top: "conv0"
}
layer {
  name: "conv1"
  type: "Convolution"
  bottom: "conv0"
  top: "conv1"
  param {
    lr_mult: 1
  }
  param {
    lr_mult: 2
  }
  convolution_param {
    num_output: 16
    pad: 1
    kernel_size: 3
    stride: 1
    weight_filler {
      type: "msra"
    }
    bias_filler {
      type: "constant"
    }
  }
}
layer {
  name: "pool1"
  type: "Pooling"
  bottom: "conv1"
  top: "pool1"
  pooling_param {
    pool: MAX
    kernel_size: 2
    stride: 2
  }
}
layer {
  name: "relu1"
  type: "ReLU"
  bottom: "pool1"
  top: "pool1"
}
layer {
  name: "conv2_0"
  type: "Convolution"
  bottom: "pool1"
  top: "conv2_0"
  param {
    lr_mult: 1
  }
  param {
    lr_mult: 2
  }
  convolution_param {
    num_output: 32
    pad: 0
    kernel_size: 1
    stride: 1
    weight_filler {
      type: "msra"
    }
    bias_filler {
      type: "constant"
    }
  }
}
layer {
  name: "relu2_0"
  type: "ReLU"
  bottom: "conv2_0"
  top: "conv2_0"
}
layer {
  name: "conv2"
  type: "Convolution"
  bottom: "conv2_0"
  top: "conv2"
  param {
    lr_mult: 1
  }
  param {
    lr_mult: 2
  }
  convolution_param {
    num_output: 32
    pad: 1
    kernel_size: 3
    stride: 1
    weight_filler {
      type: "msra"
    }
    bias_filler {
      type: "constant"
    }
  }
}
layer {
  name: "relu2"
  type: "ReLU"
  bottom: "conv2"
  top: "conv2"
}
layer {
  name: "conv3"
  type: "Convolution"
  bottom: "conv2"
  top: "conv3"
  param {
    lr_mult: 1
  }
  param {
    lr_mult: 2
  }
  convolution_param {
    num_output: 32
    pad: 1
    kernel_size: 3
    stride: 1
    weight_filler {
      type: "msra"
    }
    bias_filler {
      type: "constant"
    }
  }
}
layer {
  name: "res1"
  type: "Eltwise"
  bottom: "conv2_0"
  bottom: "conv3"
  top: "res1"
}
layer {
  name: "pool2"
  type: "Pooling"
  bottom: "res1"
  top: "pool2"
  pooling_param {
    pool: MAX
    kernel_size: 2
    stride: 2
  }
}
layer {
  name: "relu3"
  type: "ReLU"
  bottom: "pool2"
  top: "pool2"
}
layer {
  name: "conv3_0"
  type: "Convolution"
  bottom: "pool2"
  top: "conv3_0"
  param {
    lr_mult: 1
  }
  param {
    lr_mult: 2
  }
  convolution_param {
    num_output: 64
    pad: 0
    kernel_size: 1
    stride: 1
    weight_filler {
      type: "msra"
    }
    bias_filler {
      type: "constant"
    }
  }
}
layer {
  name: "relu3_0"
  type: "ReLU"
  bottom: "conv3_0"
  top: "conv3_0"
}
layer {
  name: "conv4"
  type: "Convolution"
  bottom: "conv3_0"
  top: "conv4"
  param {
    lr_mult: 1
  }
  param {
    lr_mult: 2
  }
  convolution_param {
    num_output: 64
    pad: 1
    kernel_size: 3
    stride: 1
    weight_filler {
      type: "msra"
    }
    bias_filler {
      type: "constant"
    }
  }
}
layer {
  name: "relu4"
  type: "ReLU"
  bottom: "conv4"
  top: "conv4"
}
layer {
  name: "conv5"
  type: "Convolution"
  bottom: "conv4"
  top: "conv5"
  param {
    lr_mult: 1
  }
  param {
    lr_mult: 2
  }
  convolution_param {
    num_output: 64
    pad: 1
    kernel_size: 3
    stride: 1
    weight_filler {
      type: "msra"
    }
    bias_filler {
      type: "constant"
    }
  }
}
layer {
  name: "res2"
  type: "Eltwise"
  bottom: "conv3_0"
  bottom: "conv5"
  top: "res2"
}
layer {
  name: "pool3"
  type: "Pooling"
  bottom: "res2"
  top: "pool3"
  pooling_param {
    pool: MAX
    kernel_size: 2
    stride: 2
  }
}
layer {
  name: "relu5"
  type: "ReLU"
  bottom: "pool3"
  top: "pool3"
}
layer {
  name: "fc1_0"
  type: "InnerProduct"
  bottom: "pool3"
  top: "fc1_0"
  param {
    lr_mult: 1
  }
  param {
    lr_mult: 2
  }
  inner_product_param {
    num_output: 2048
    weight_filler {
      type: "gaussian"
      std: 0.001
    }
    bias_filler {
      type: "constant"
    }
  }
}
layer {
  name: "relu6_0"
  type: "ReLU"
  bottom: "fc1_0"
  top: "fc1_0"
}
layer {
  name: "drop1_0"
  type: "Dropout"
  bottom: "fc1_0"
  top: "fc1_0"
  dropout_param {
    dropout_ratio: 0.5
  }
}
layer {
  name: "fc2_0"
  type: "InnerProduct"
  bottom: "fc1_0"
  top: "fc2_0"
  param {
    lr_mult: 1
  }
  param {
    lr_mult: 2
  }
  inner_product_param {
    num_output: 2048
    weight_filler {
      type: "gaussian"
      std: 0.001
    }
    bias_filler {
      type: "constant"
    }
  }
}
layer {
  name: "relu7_0"
  type: "ReLU"
  bottom: "fc2_0"
  top: "fc2_0"
}
layer {
  name: "drop2_0"
  type: "Dropout"
  bottom: "fc2_0"
  top: "fc2_0"
  dropout_param {
    dropout_ratio: 0.5
  }
}
layer {
  name: "fc3_0"
  type: "InnerProduct"
  bottom: "fc2_0"
  top: "fc3_0"
  param {
    lr_mult: 1
  }
  param {
    lr_mult: 2
  }
  inner_product_param {
    num_output: 42
    weight_filler {
      type: "gaussian"
      std: 0.001
    }
    bias_filler {
      type: "constant"
    }
  }
}
layer {
  name: "loss"
  type: "SmoothL1Loss"
  bottom: "fc3_0"
  bottom: "pose"
  top: "loss"
  loss_weight: 1
  smooth_l1_loss_param {
    sigma: 10
  }
}
I0410 23:33:24.204694  7655 layer_factory.hpp:77] Creating layer data
I0410 23:33:24.204730  7655 net.cpp:84] Creating Layer data
I0410 23:33:24.204748  7655 net.cpp:380] data -> data
I0410 23:33:24.204771  7655 net.cpp:380] data -> pose
I0410 23:33:24.204869  7655 pose_data_layer.cpp:117] Opening file /home/workspace/Datasets/NYU/train_img.txt
…
I0411 00:38:51.757428  7655 pose_data_layer.cpp:269] Loading 66001 image...
I0411 00:40:33.606343  7655 pose_data_layer.cpp:269] Loading 68001 image...
I0411 00:42:14.178659  7655 pose_data_layer.cpp:269] Loading 70001 image...
I0411 00:43:56.516551  7655 pose_data_layer.cpp:269] Loading 72001 image...
I0411 00:44:34.920692  7655 pose_data_layer.cpp:282] Shuffling data
I0411 00:44:34.945194  7655 pose_data_layer.cpp:287] A total of 72757 images.
I0411 00:44:34.950006  7655 pose_data_layer.cpp:329] output data size: 128,1,96,96
I0411 00:44:34.992214  7655 net.cpp:122] Setting up data
I0411 00:44:35.007599  7655 net.cpp:129] Top shape: 128 1 96 96 (1179648)
I0411 00:44:35.007647  7655 net.cpp:129] Top shape: 128 42 (5376)
I0411 00:44:35.007664  7655 net.cpp:137] Memory required for data: 4740096
I0411 00:44:35.023329  7655 layer_factory.hpp:77] Creating layer conv0
I0411 00:44:35.030655  7655 net.cpp:84] Creating Layer conv0
I0411 00:44:35.031208  7655 net.cpp:406] conv0 <- data
I0411 00:44:35.031572  7655 net.cpp:380] conv0 -> conv0
I0411 00:44:37.266784  7655 net.cpp:122] Setting up conv0
I0411 00:44:37.266813  7655 net.cpp:129] Top shape: 128 16 96 96 (18874368)
I0411 00:44:37.266818  7655 net.cpp:137] Memory required for data: 80237568
I0411 00:44:37.267145  7655 layer_factory.hpp:77] Creating layer relu0
I0411 00:44:37.267164  7655 net.cpp:84] Creating Layer relu0
I0411 00:44:37.267197  7655 net.cpp:406] relu0 <- conv0
I0411 00:44:37.267215  7655 net.cpp:367] relu0 -> conv0 (in-place)
I0411 00:44:37.277555  7655 net.cpp:122] Setting up relu0
I0411 00:44:37.277570  7655 net.cpp:129] Top shape: 128 16 96 96 (18874368)
I0411 00:44:37.277575  7655 net.cpp:137] Memory required for data: 155735040
I0411 00:44:37.277580  7655 layer_factory.hpp:77] Creating layer conv1
I0411 00:44:37.277597  7655 net.cpp:84] Creating Layer conv1
I0411 00:44:37.277616  7655 net.cpp:406] conv1 <- conv0
I0411 00:44:37.277628  7655 net.cpp:380] conv1 -> conv1
I0411 00:44:37.307099  7655 net.cpp:122] Setting up conv1
I0411 00:44:37.307126  7655 net.cpp:129] Top shape: 128 16 96 96 (18874368)
I0411 00:44:37.307132  7655 net.cpp:137] Memory required for data: 231232512
I0411 00:44:37.307147  7655 layer_factory.hpp:77] Creating layer pool1
I0411 00:44:37.307159  7655 net.cpp:84] Creating Layer pool1
I0411 00:44:37.307164  7655 net.cpp:406] pool1 <- conv1
I0411 00:44:37.307173  7655 net.cpp:380] pool1 -> pool1
I0411 00:44:37.309329  7655 net.cpp:122] Setting up pool1
I0411 00:44:37.309346  7655 net.cpp:129] Top shape: 128 16 48 48 (4718592)
I0411 00:44:37.309351  7655 net.cpp:137] Memory required for data: 250106880
I0411 00:44:37.309356  7655 layer_factory.hpp:77] Creating layer relu1
I0411 00:44:37.309368  7655 net.cpp:84] Creating Layer relu1
I0411 00:44:37.309382  7655 net.cpp:406] relu1 <- pool1
I0411 00:44:37.309389  7655 net.cpp:367] relu1 -> pool1 (in-place)
I0411 00:44:37.315054  7655 net.cpp:122] Setting up relu1
I0411 00:44:37.315068  7655 net.cpp:129] Top shape: 128 16 48 48 (4718592)
I0411 00:44:37.315073  7655 net.cpp:137] Memory required for data: 268981248
I0411 00:44:37.315076  7655 layer_factory.hpp:77] Creating layer conv2_0
I0411 00:44:37.315094  7655 net.cpp:84] Creating Layer conv2_0
I0411 00:44:37.315099  7655 net.cpp:406] conv2_0 <- pool1
I0411 00:44:37.315107  7655 net.cpp:380] conv2_0 -> conv2_0
I0411 00:44:37.339686  7655 net.cpp:122] Setting up conv2_0
I0411 00:44:37.339737  7655 net.cpp:129] Top shape: 128 32 48 48 (9437184)
I0411 00:44:37.339753  7655 net.cpp:137] Memory required for data: 306729984
I0411 00:44:37.339778  7655 layer_factory.hpp:77] Creating layer relu2_0
I0411 00:44:37.339800  7655 net.cpp:84] Creating Layer relu2_0
I0411 00:44:37.339814  7655 net.cpp:406] relu2_0 <- conv2_0
I0411 00:44:37.339829  7655 net.cpp:367] relu2_0 -> conv2_0 (in-place)
I0411 00:44:37.347112  7655 net.cpp:122] Setting up relu2_0
I0411 00:44:37.347128  7655 net.cpp:129] Top shape: 128 32 48 48 (9437184)
I0411 00:44:37.347134  7655 net.cpp:137] Memory required for data: 344478720
I0411 00:44:37.347141  7655 layer_factory.hpp:77] Creating layer conv2_0_relu2_0_0_split
I0411 00:44:37.347151  7655 net.cpp:84] Creating Layer conv2_0_relu2_0_0_split
I0411 00:44:37.347156  7655 net.cpp:406] conv2_0_relu2_0_0_split <- conv2_0
I0411 00:44:37.347163  7655 net.cpp:380] conv2_0_relu2_0_0_split -> conv2_0_relu2_0_0_split_0
I0411 00:44:37.347172  7655 net.cpp:380] conv2_0_relu2_0_0_split -> conv2_0_relu2_0_0_split_1
I0411 00:44:37.348141  7655 net.cpp:122] Setting up conv2_0_relu2_0_0_split
I0411 00:44:37.348155  7655 net.cpp:129] Top shape: 128 32 48 48 (9437184)
I0411 00:44:37.348160  7655 net.cpp:129] Top shape: 128 32 48 48 (9437184)
I0411 00:44:37.348165  7655 net.cpp:137] Memory required for data: 419976192
I0411 00:44:37.348182  7655 layer_factory.hpp:77] Creating layer conv2
I0411 00:44:37.348209  7655 net.cpp:84] Creating Layer conv2
I0411 00:44:37.348223  7655 net.cpp:406] conv2 <- conv2_0_relu2_0_0_split_0
I0411 00:44:37.348242  7655 net.cpp:380] conv2 -> conv2
I0411 00:44:37.385098  7655 net.cpp:122] Setting up conv2
I0411 00:44:37.385154  7655 net.cpp:129] Top shape: 128 32 48 48 (9437184)
I0411 00:44:37.385169  7655 net.cpp:137] Memory required for data: 457724928
I0411 00:44:37.385190  7655 layer_factory.hpp:77] Creating layer relu2
I0411 00:44:37.385208  7655 net.cpp:84] Creating Layer relu2
I0411 00:44:37.385221  7655 net.cpp:406] relu2 <- conv2
I0411 00:44:37.385239  7655 net.cpp:367] relu2 -> conv2 (in-place)
I0411 00:44:37.396265  7655 net.cpp:122] Setting up relu2
I0411 00:44:37.396293  7655 net.cpp:129] Top shape: 128 32 48 48 (9437184)
I0411 00:44:37.396307  7655 net.cpp:137] Memory required for data: 495473664
I0411 00:44:37.396319  7655 layer_factory.hpp:77] Creating layer conv3
I0411 00:44:37.396342  7655 net.cpp:84] Creating Layer conv3
I0411 00:44:37.396354  7655 net.cpp:406] conv3 <- conv2
I0411 00:44:37.396374  7655 net.cpp:380] conv3 -> conv3
I0411 00:44:37.426750  7655 net.cpp:122] Setting up conv3
I0411 00:44:37.426774  7655 net.cpp:129] Top shape: 128 32 48 48 (9437184)
I0411 00:44:37.426779  7655 net.cpp:137] Memory required for data: 533222400
I0411 00:44:37.426796  7655 layer_factory.hpp:77] Creating layer res1
I0411 00:44:37.427429  7655 net.cpp:84] Creating Layer res1
I0411 00:44:37.427440  7655 net.cpp:406] res1 <- conv2_0_relu2_0_0_split_1
I0411 00:44:37.427448  7655 net.cpp:406] res1 <- conv3
I0411 00:44:37.427454  7655 net.cpp:380] res1 -> res1
I0411 00:44:37.427532  7655 net.cpp:122] Setting up res1
I0411 00:44:37.427553  7655 net.cpp:129] Top shape: 128 32 48 48 (9437184)
I0411 00:44:37.427567  7655 net.cpp:137] Memory required for data: 570971136
I0411 00:44:37.427579  7655 layer_factory.hpp:77] Creating layer pool2
I0411 00:44:37.427595  7655 net.cpp:84] Creating Layer pool2
I0411 00:44:37.427608  7655 net.cpp:406] pool2 <- res1
I0411 00:44:37.427621  7655 net.cpp:380] pool2 -> pool2
I0411 00:44:37.427681  7655 net.cpp:122] Setting up pool2
I0411 00:44:37.427700  7655 net.cpp:129] Top shape: 128 32 24 24 (2359296)
I0411 00:44:37.427711  7655 net.cpp:137] Memory required for data: 580408320
I0411 00:44:37.427721  7655 layer_factory.hpp:77] Creating layer relu3
I0411 00:44:37.427736  7655 net.cpp:84] Creating Layer relu3
I0411 00:44:37.427747  7655 net.cpp:406] relu3 <- pool2
I0411 00:44:37.427762  7655 net.cpp:367] relu3 -> pool2 (in-place)
I0411 00:44:37.433984  7655 net.cpp:122] Setting up relu3
I0411 00:44:37.434025  7655 net.cpp:129] Top shape: 128 32 24 24 (2359296)
I0411 00:44:37.434037  7655 net.cpp:137] Memory required for data: 589845504
I0411 00:44:37.434049  7655 layer_factory.hpp:77] Creating layer conv3_0
I0411 00:44:37.434072  7655 net.cpp:84] Creating Layer conv3_0
I0411 00:44:37.434084  7655 net.cpp:406] conv3_0 <- pool2
I0411 00:44:37.434103  7655 net.cpp:380] conv3_0 -> conv3_0
I0411 00:44:37.449723  7655 net.cpp:122] Setting up conv3_0
I0411 00:44:37.449753  7655 net.cpp:129] Top shape: 128 64 24 24 (4718592)
I0411 00:44:37.449769  7655 net.cpp:137] Memory required for data: 608719872
I0411 00:44:37.449784  7655 layer_factory.hpp:77] Creating layer relu3_0
I0411 00:44:37.449801  7655 net.cpp:84] Creating Layer relu3_0
I0411 00:44:37.449813  7655 net.cpp:406] relu3_0 <- conv3_0
I0411 00:44:37.449826  7655 net.cpp:367] relu3_0 -> conv3_0 (in-place)
I0411 00:44:37.454437  7655 net.cpp:122] Setting up relu3_0
I0411 00:44:37.454450  7655 net.cpp:129] Top shape: 128 64 24 24 (4718592)
I0411 00:44:37.454457  7655 net.cpp:137] Memory required for data: 627594240
I0411 00:44:37.454460  7655 layer_factory.hpp:77] Creating layer conv3_0_relu3_0_0_split
I0411 00:44:37.454484  7655 net.cpp:84] Creating Layer conv3_0_relu3_0_0_split
I0411 00:44:37.454500  7655 net.cpp:406] conv3_0_relu3_0_0_split <- conv3_0
I0411 00:44:37.454516  7655 net.cpp:380] conv3_0_relu3_0_0_split -> conv3_0_relu3_0_0_split_0
I0411 00:44:37.454538  7655 net.cpp:380] conv3_0_relu3_0_0_split -> conv3_0_relu3_0_0_split_1
I0411 00:44:37.454602  7655 net.cpp:122] Setting up conv3_0_relu3_0_0_split
I0411 00:44:37.454622  7655 net.cpp:129] Top shape: 128 64 24 24 (4718592)
I0411 00:44:37.454634  7655 net.cpp:129] Top shape: 128 64 24 24 (4718592)
I0411 00:44:37.454645  7655 net.cpp:137] Memory required for data: 665342976
I0411 00:44:37.454658  7655 layer_factory.hpp:77] Creating layer conv4
I0411 00:44:37.454677  7655 net.cpp:84] Creating Layer conv4
I0411 00:44:37.454690  7655 net.cpp:406] conv4 <- conv3_0_relu3_0_0_split_0
I0411 00:44:37.454706  7655 net.cpp:380] conv4 -> conv4
I0411 00:44:37.472062  7655 net.cpp:122] Setting up conv4
I0411 00:44:37.472087  7655 net.cpp:129] Top shape: 128 64 24 24 (4718592)
I0411 00:44:37.472092  7655 net.cpp:137] Memory required for data: 684217344
I0411 00:44:37.472105  7655 layer_factory.hpp:77] Creating layer relu4
I0411 00:44:37.472117  7655 net.cpp:84] Creating Layer relu4
I0411 00:44:37.472124  7655 net.cpp:406] relu4 <- conv4
I0411 00:44:37.472134  7655 net.cpp:367] relu4 -> conv4 (in-place)
I0411 00:44:37.480540  7655 net.cpp:122] Setting up relu4
I0411 00:44:37.480553  7655 net.cpp:129] Top shape: 128 64 24 24 (4718592)
I0411 00:44:37.480558  7655 net.cpp:137] Memory required for data: 703091712
I0411 00:44:37.480563  7655 layer_factory.hpp:77] Creating layer conv5
I0411 00:44:37.480579  7655 net.cpp:84] Creating Layer conv5
I0411 00:44:37.480600  7655 net.cpp:406] conv5 <- conv4
I0411 00:44:37.480621  7655 net.cpp:380] conv5 -> conv5
I0411 00:44:37.508198  7655 net.cpp:122] Setting up conv5
I0411 00:44:37.508255  7655 net.cpp:129] Top shape: 128 64 24 24 (4718592)
I0411 00:44:37.508281  7655 net.cpp:137] Memory required for data: 721966080
I0411 00:44:37.508302  7655 layer_factory.hpp:77] Creating layer res2
I0411 00:44:37.508322  7655 net.cpp:84] Creating Layer res2
I0411 00:44:37.508335  7655 net.cpp:406] res2 <- conv3_0_relu3_0_0_split_1
I0411 00:44:37.508352  7655 net.cpp:406] res2 <- conv5
I0411 00:44:37.508366  7655 net.cpp:380] res2 -> res2
I0411 00:44:37.508414  7655 net.cpp:122] Setting up res2
I0411 00:44:37.508432  7655 net.cpp:129] Top shape: 128 64 24 24 (4718592)
I0411 00:44:37.508445  7655 net.cpp:137] Memory required for data: 740840448
I0411 00:44:37.508455  7655 layer_factory.hpp:77] Creating layer pool3
I0411 00:44:37.508472  7655 net.cpp:84] Creating Layer pool3
I0411 00:44:37.508484  7655 net.cpp:406] pool3 <- res2
I0411 00:44:37.508498  7655 net.cpp:380] pool3 -> pool3
I0411 00:44:37.508563  7655 net.cpp:122] Setting up pool3
I0411 00:44:37.508584  7655 net.cpp:129] Top shape: 128 64 12 12 (1179648)
I0411 00:44:37.508596  7655 net.cpp:137] Memory required for data: 745559040
I0411 00:44:37.508608  7655 layer_factory.hpp:77] Creating layer relu5
I0411 00:44:37.508622  7655 net.cpp:84] Creating Layer relu5
I0411 00:44:37.508635  7655 net.cpp:406] relu5 <- pool3
I0411 00:44:37.508649  7655 net.cpp:367] relu5 -> pool3 (in-place)
I0411 00:44:37.514438  7655 net.cpp:122] Setting up relu5
I0411 00:44:37.514452  7655 net.cpp:129] Top shape: 128 64 12 12 (1179648)
I0411 00:44:37.514457  7655 net.cpp:137] Memory required for data: 750277632
I0411 00:44:37.514462  7655 layer_factory.hpp:77] Creating layer fc1_0
I0411 00:44:37.515311  7655 net.cpp:84] Creating Layer fc1_0
I0411 00:44:37.515321  7655 net.cpp:406] fc1_0 <- pool3
I0411 00:44:37.515336  7655 net.cpp:380] fc1_0 -> fc1_0
I0411 00:44:38.144313  7655 net.cpp:122] Setting up fc1_0
I0411 00:44:38.144389  7655 net.cpp:129] Top shape: 128 2048 (262144)
I0411 00:44:38.144405  7655 net.cpp:137] Memory required for data: 751326208
I0411 00:44:38.144435  7655 layer_factory.hpp:77] Creating layer relu6_0
I0411 00:44:38.144456  7655 net.cpp:84] Creating Layer relu6_0
I0411 00:44:38.144469  7655 net.cpp:406] relu6_0 <- fc1_0
I0411 00:44:38.144486  7655 net.cpp:367] relu6_0 -> fc1_0 (in-place)
I0411 00:44:38.144804  7655 net.cpp:122] Setting up relu6_0
I0411 00:44:38.144825  7655 net.cpp:129] Top shape: 128 2048 (262144)
I0411 00:44:38.144837  7655 net.cpp:137] Memory required for data: 752374784
I0411 00:44:38.144850  7655 layer_factory.hpp:77] Creating layer drop1_0
I0411 00:44:38.144870  7655 net.cpp:84] Creating Layer drop1_0
I0411 00:44:38.144883  7655 net.cpp:406] drop1_0 <- fc1_0
I0411 00:44:38.144898  7655 net.cpp:367] drop1_0 -> fc1_0 (in-place)
I0411 00:44:38.144937  7655 net.cpp:122] Setting up drop1_0
I0411 00:44:38.144953  7655 net.cpp:129] Top shape: 128 2048 (262144)
I0411 00:44:38.144963  7655 net.cpp:137] Memory required for data: 753423360
I0411 00:44:38.144974  7655 layer_factory.hpp:77] Creating layer fc2_0
I0411 00:44:38.144992  7655 net.cpp:84] Creating Layer fc2_0
I0411 00:44:38.145004  7655 net.cpp:406] fc2_0 <- fc1_0
I0411 00:44:38.145020  7655 net.cpp:380] fc2_0 -> fc2_0
I0411 00:44:38.252913  7655 net.cpp:122] Setting up fc2_0
I0411 00:44:38.252969  7655 net.cpp:129] Top shape: 128 2048 (262144)
I0411 00:44:38.252981  7655 net.cpp:137] Memory required for data: 754471936
I0411 00:44:38.253000  7655 layer_factory.hpp:77] Creating layer relu7_0
I0411 00:44:38.253018  7655 net.cpp:84] Creating Layer relu7_0
I0411 00:44:38.253032  7655 net.cpp:406] relu7_0 <- fc2_0
I0411 00:44:38.253047  7655 net.cpp:367] relu7_0 -> fc2_0 (in-place)
I0411 00:44:38.253891  7655 net.cpp:122] Setting up relu7_0
I0411 00:44:38.253916  7655 net.cpp:129] Top shape: 128 2048 (262144)
I0411 00:44:38.253928  7655 net.cpp:137] Memory required for data: 755520512
I0411 00:44:38.253940  7655 layer_factory.hpp:77] Creating layer drop2_0
I0411 00:44:38.253959  7655 net.cpp:84] Creating Layer drop2_0
I0411 00:44:38.253971  7655 net.cpp:406] drop2_0 <- fc2_0
I0411 00:44:38.253985  7655 net.cpp:367] drop2_0 -> fc2_0 (in-place)
I0411 00:44:38.254035  7655 net.cpp:122] Setting up drop2_0
I0411 00:44:38.254052  7655 net.cpp:129] Top shape: 128 2048 (262144)
I0411 00:44:38.254063  7655 net.cpp:137] Memory required for data: 756569088
I0411 00:44:38.254076  7655 layer_factory.hpp:77] Creating layer fc3_0
I0411 00:44:38.254091  7655 net.cpp:84] Creating Layer fc3_0
I0411 00:44:38.254102  7655 net.cpp:406] fc3_0 <- fc2_0
I0411 00:44:38.254118  7655 net.cpp:380] fc3_0 -> fc3_0
I0411 00:44:38.257911  7655 net.cpp:122] Setting up fc3_0
I0411 00:44:38.257947  7655 net.cpp:129] Top shape: 128 42 (5376)
I0411 00:44:38.257961  7655 net.cpp:137] Memory required for data: 756590592
I0411 00:44:38.257977  7655 layer_factory.hpp:77] Creating layer loss
I0411 00:44:38.258000  7655 net.cpp:84] Creating Layer loss
I0411 00:44:38.258013  7655 net.cpp:406] loss <- fc3_0
I0411 00:44:38.258026  7655 net.cpp:406] loss <- pose
I0411 00:44:38.258040  7655 net.cpp:380] loss -> loss
I0411 00:44:38.259973  7655 net.cpp:122] Setting up loss
…
  type: "PoseData"
  top: "data"
  top: "label"
  include {
    phase: TEST
  }
  transform_param {
    is_trans: false
    is_rotate: false
    is_zoom: false
  }
  pose_data_param {
    image_source: "/home/workspace/Datasets/NYU/test_img.txt"
    label_source: "/home/workspace/Datasets/NYU/test_label.txt"
    batch_size: 128
    shuffle: false
    new_height: 96
    new_width: 96
    root_folder: "/home/workspace/Datasets/NYU/"
    point_num: 14
    point_dim: 3
    fx: 588.03
    fy: 587.07
    output_center: true
    cube_length: 150
    dataset: NYU
  }
}
layer {
  name: "pose"
  type: "Slice"
  bottom: "label"
  top: "pose"
  top: "center"
  include {
    phase: TEST
  }
  slice_param {
    slice_dim: 1
    slice_point: 42
  }
}
layer {
  name: "conv0"
  type: "Convolution"
  bottom: "data"
  top: "conv0"
  param {
    lr_mult: 1
  }
  param {
    lr_mult: 2
  }
  convolution_param {
    num_output: 16
    pad: 1
    kernel_size: 3
    stride: 1
    weight_filler {
      type: "msra"
    }
    bias_filler {
      type: "constant"
    }
  }
}
layer {
  name: "relu0"
  type: "ReLU"
  bottom: "conv0"
  top: "conv0"
}
layer {
  name: "conv1"
  type: "Convolution"
  bottom: "conv0"
  top: "conv1"
  param {
    lr_mult: 1
  }
  param {
    lr_mult: 2
  }
  convolution_param {
    num_output: 16
    pad: 1
    kernel_size: 3
    stride: 1
    weight_filler {
      type: "msra"
    }
    bias_filler {
      type: "constant"
    }
  }
}
layer {
  name: "pool1"
  type: "Pooling"
  bottom: "conv1"
  top: "pool1"
  pooling_param {
    pool: MAX
    kernel_size: 2
    stride: 2
  }
}
layer {
  name: "relu1"
  type: "ReLU"
  bottom: "pool1"
  top: "pool1"
}
layer {
  name: "conv2_0"
  type: "Convolution"
  bottom: "pool1"
  top: "conv2_0"
  param {
    lr_mult: 1
  }
  param {
    lr_mult: 2
  }
  convolution_param {
    num_output: 32
    pad: 0
    kernel_size: 1
    stride: 1
    weight_filler {
      type: "msra"
    }
    bias_filler {
      type: "constant"
    }
  }
}
layer {
  name: "relu2_0"
  type: "ReLU"
  bottom: "conv2_0"
  top: "conv2_0"
}
layer {
  name: "conv2"
  type: "Convolution"
  bottom: "conv2_0"
  top: "conv2"
  param {
    lr_mult: 1
  }
  param {
    lr_mult: 2
  }
  convolution_param {
    num_output: 32
    pad: 1
    kernel_size: 3
    stride: 1
    weight_filler {
      type: "msra"
    }
    bias_filler {
      type: "constant"
    }
  }
}
layer {
  name: "relu2"
  type: "ReLU"
  bottom: "conv2"
  top: "conv2"
}
layer {
  name: "conv3"
  type: "Convolution"
  bottom: "conv2"
  top: "conv3"
  param {
    lr_mult: 1
  }
  param {
    lr_mult: 2
  }
  convolution_param {
    num_output: 32
    pad: 1
    kernel_size: 3
    stride: 1
    weight_filler {
      type: "msra"
    }
    bias_filler {
      type: "constant"
    }
  }
}
layer {
  name: "res1"
  type: "Eltwise"
  bottom: "conv2_0"
  bottom: "conv3"
  top: "res1"
}
layer {
  name: "pool2"
  type: "Pooling"
  bottom: "res1"
  top: "pool2"
  pooling_param {
    pool: MAX
    kernel_size: 2
    stride: 2
  }
}
layer {
  name: "relu3"
  type: "ReLU"
  bottom: "pool2"
  top: "pool2"
}
layer {
  name: "conv3_0"
  type: "Convolution"
  bottom: "pool2"
  top: "conv3_0"
  param {
    lr_mult: 1
  }
  param {
    lr_mult: 2
  }
  convolution_param {
    num_output: 64
    pad: 0
    kernel_size: 1
    stride: 1
    weight_filler {
      type: "msra"
    }
    bias_filler {
      type: "constant"
    }
  }
}
layer {
  name: "relu3_0"
  type: "ReLU"
  bottom: "conv3_0"
  top: "conv3_0"
}
layer {
  name: "conv4"
  type: "Convolution"
  bottom: "conv3_0"
  top: "conv4"
  param {
    lr_mult: 1
  }
  param {
    lr_mult: 2
  }
  convolution_param {
    num_output: 64
    pad: 1
    kernel_size: 3
    stride: 1
    weight_filler {
      type: "msra"
    }
    bias_filler {
      type: "constant"
    }
  }
}
layer {
  name: "relu4"
  type: "ReLU"
  bottom: "conv4"
  top: "conv4"
}
layer {
  name: "conv5"
  type: "Convolution"
  bottom: "conv4"
  top: "conv5"
  param {
    lr_mult: 1
  }
  param {
    lr_mult: 2
  }
  convolution_param {
    num_output: 64
    pad: 1
    kernel_size: 3
    stride: 1
    weight_filler {
      type: "msra"
    }
    bias_filler {
      type: "constant"
    }
  }
}
layer {
  name: "res2"
  type: "Eltwise"
  bottom: "conv3_0"
  bottom: "conv5"
  top: "res2"
}
layer {
  name: "pool3"
  type: "Pooling"
  bottom: "res2"
  top: "pool3"
  pooling_param {
    pool: MAX
    kernel_size: 2
    stride: 2
  }
}
layer {
  name: "relu5"
  type: "ReLU"
  bottom: "pool3"
  top: "pool3"
}
layer {
  name: "fc1_0"
  type: "InnerProduct"
  bottom: "pool3"
  top: "fc1_0"
  param {
    lr_mult: 1
  }
  param {
    lr_mult: 2
  }
  inner_product_param {
    num_output: 2048
    weight_filler {
      type: "gaussian"
      std: 0.001
    }
    bias_filler {
      type: "constant"
    }
  }
}
layer {
  name: "relu6_0"
  type: "ReLU"
  bottom: "fc1_0"
  top: "fc1_0"
}
layer {
  name: "drop1_0"
  type: "Dropout"
  bottom: "fc1_0"
  top: "fc1_0"
  dropout_param {
    dropout_ratio: 0.5
  }
}
layer {
  name: "fc2_0"
  type: "InnerProduct"
  bottom: "fc1_0"
  top: "fc2_0"
  param {
    lr_mult: 1
  }
  param {
    lr_mult: 2
  }
  inner_product_param {
    num_output: 2048
    weight_filler {
      type: "gaussian"
      std: 0.001
    }
    bias_filler {
      type: "constant"
    }
  }
}
layer {
  name: "relu7_0"
  type: "ReLU"
  bottom: "fc2_0"
  top: "fc2_0"
}
layer {
  name: "drop2_0"
  type: "Dropout"
  bottom: "fc2_0"
  top: "fc2_0"
  dropout_param {
    dropout_ratio: 0.5
  }
}
layer {
  name: "fc3_0"
  type: "InnerProduct"
  bottom: "fc2_0"
  top: "fc3_0"
  param {
    lr_mult: 1
  }
  param {
    lr_mult: 2
  }
  inner_product_param {
    num_output: 42
    weight_filler {
      type: "gaussian"
      std: 0.001
    }
    bias_filler {
      type: "constant"
    }
  }
}
layer {
  name: "loss"
  type: "SmoothL1Loss"
  bottom: "fc3_0"
  bottom: "pose"
  top: "loss"
  loss_weight: 1
  smooth_l1_loss_param {
    sigma: 10
  }
}
layer {
  name: "distance"
  type: "PoseDistance"
  bottom: "fc3_0"
  bottom: "pose"
  bottom: "center"
  top: "distance"
  loss_weight: 0
  include {
    phase: TEST
  }
  pose_distance_param {
    fx: 588.03
    fy: 587.07
    ux: 320
    uy: 240
    cube_length: 150
  }
}
I0411 00:44:38.686767  7655 layer_factory.hpp:77] Creating layer data
I0411 00:44:38.686787  7655 net.cpp:84] Creating Layer data
I0411 00:44:38.686795  7655 net.cpp:380] data -> data
I0411 00:44:38.686810  7655 net.cpp:380] data -> label
I0411 00:44:38.686827  7655 pose_data_layer.cpp:117] Opening file /home/workspace/Datasets/NYU/test_img.txt
I0411 00:44:38.718061  7655 pose_data_layer.cpp:119] Opening file /home/workspace/Datasets/NYU/test_label.txt
I0411 00:45:23.607167  7655 pose_data_layer.cpp:269] Loading 1244 image...
I0411 00:46:25.214052  7655 pose_data_layer.cpp:269] Loading 3244 image...
I0411 00:47:26.506397  7655 pose_data_layer.cpp:269] Loading 5244 image...
I0411 00:48:36.095336  7655 pose_data_layer.cpp:269] Loading 7244 image...
I0411 00:49:08.709306  7655 pose_data_layer.cpp:287] A total of 8252 images.
I0411 00:49:08.710839  7655 pose_data_layer.cpp:329] output data size: 128,1,96,96
I0411 00:49:08.786010  7655 net.cpp:122] Setting up data
I0411 00:49:08.803529  7655 net.cpp:129] Top shape: 128 1 96 96 (1179648)
I0411 00:49:08.803555  7655 net.cpp:129] Top shape: 128 45 (5760)
I0411 00:49:08.803562  7655 net.cpp:137] Memory required for data: 4741632
I0411 00:49:08.820626  7655 layer_factory.hpp:77] Creating layer pose
I0411 00:49:08.832067  7655 net.cpp:84] Creating Layer pose
I0411 00:49:08.832087  7655 net.cpp:406] pose <- label
I0411 00:49:08.832108  7655 net.cpp:380] pose -> pose
I0411 00:49:08.832770  7655 net.cpp:380] pose -> center
I0411 00:49:08.832921  7655 net.cpp:122] Setting up pose
I0411 00:49:08.832936  7655 net.cpp:129] Top shape: 128 42 (5376)
I0411 00:49:08.832944  7655 net.cpp:129] Top shape: 128 3 (384)
I0411 00:49:08.832952  7655 net.cpp:137] Memory required for data: 4764672
I0411 00:49:08.832957  7655 layer_factory.hpp:77] Creating layer pose_pose_0_split
I0411 00:49:08.832968  7655 net.cpp:84] Creating Layer pose_pose_0_split
I0411 00:49:08.832973  7655 net.cpp:406] pose_pose_0_split <- pose
I0411 00:49:08.832983  7655 net.cpp:380] pose_pose_0_split -> pose_pose_0_split_0
I0411 00:49:08.832993  7655 net.cpp:380] pose_pose_0_split -> pose_pose_0_split_1
I0411 00:49:08.834192  7655 net.cpp:122] Setting up pose_pose_0_split
I0411 00:49:08.834208  7655 net.cpp:129] Top shape: 128 42 (5376)
I0411 00:49:08.834215  7655 net.cpp:129] Top shape: 128 42 (5376)
I0411 00:49:08.834220  7655 net.cpp:137] Memory required for data: 4807680
I0411 00:49:08.834228  7655 layer_factory.hpp:77] Creating layer conv0
I0411 00:49:08.834249  7655 net.cpp:84] Creating Layer conv0
I0411 00:49:08.834256  7655 net.cpp:406] conv0 <- data
I0411 00:49:08.834266  7655 net.cpp:380] conv0 -> conv0
I0411 00:49:08.860738  7655 net.cpp:122] Setting up conv0
I0411 00:49:08.860759  7655 net.cpp:129] Top shape: 128 16 96 96 (18874368)
I0411 00:49:08.860765  7655 net.cpp:137] Memory required for data: 80305152
I0411 00:49:08.862746  7655 layer_factory.hpp:77] Creating layer relu0
I0411 00:49:08.863198  7655 net.cpp:84] Creating Layer relu0
I0411 00:49:08.863224  7655 net.cpp:406] relu0 <- conv0
I0411 00:49:08.863243  7655 net.cpp:367] relu0 -> conv0 (in-place)
I0411 00:49:08.864207  7655 net.cpp:122] Setting up relu0
I0411 00:49:08.864238  7655 net.cpp:129] Top shape: 128 16 96 96 (18874368)
I0411 00:49:08.864254  7655 net.cpp:137] Memory required for data: 155802624
I0411 00:49:08.864269  7655 layer_factory.hpp:77] Creating layer conv1
I0411 00:49:08.864295  7655 net.cpp:84] Creating Layer conv1
I0411 00:49:08.864333  7655 net.cpp:406] conv1 <- conv0
I0411 00:49:08.864353  7655 net.cpp:380] conv1 -> conv1
I0411 00:49:08.886445  7655 net.cpp:122] Setting up conv1
I0411 00:49:08.886494  7655 net.cpp:129] Top shape: 128 16 96 96 (18874368)
I0411 00:49:08.886515  7655 net.cpp:137] Memory required for data: 231300096
I0411 00:49:08.886543  7655 layer_factory.hpp:77] Creating layer pool1
I0411 00:49:08.886566  7655 net.cpp:84] Creating Layer pool1
I0411 00:49:08.886584  7655 net.cpp:406] pool1 <- conv1
I0411 00:49:08.886605  7655 net.cpp:380] pool1 -> pool1
I0411 00:49:08.887502  7655 net.cpp:122] Setting up pool1
I0411 00:49:08.887532  7655 net.cpp:129] Top shape: 128 16 48 48 (4718592)
I0411 00:49:08.887547  7655 net.cpp:137] Memory required for data: 250174464
I0411 00:49:08.887562  7655 layer_factory.hpp:77] Creating layer relu1
I0411 00:49:08.887580  7655 net.cpp:84] Creating Layer relu1
I0411 00:49:08.887594  7655 net.cpp:406] relu1 <- pool1
I0411 00:49:08.887610  7655 net.cpp:367] relu1 -> pool1 (in-place)
I0411 00:49:08.887917  7655 net.cpp:122] Setting up relu1
I0411 00:49:08.887941  7655 net.cpp:129] Top shape: 128 16 48 48 (4718592)
I0411 00:49:08.887955  7655 net.cpp:137] Memory required for data: 269048832
I0411 00:49:08.887969  7655 layer_factory.hpp:77] Creating layer conv2_0
I0411 00:49:08.887995  7655 net.cpp:84] Creating Layer conv2_0
I0411 00:49:08.888010  7655 net.cpp:406] conv2_0 <- pool1
I0411 00:49:08.888028  7655 net.cpp:380] conv2_0 -> conv2_0
I0411 00:49:08.913571  7655 net.cpp:122] Setting up conv2_0
I0411 00:49:08.913625  7655 net.cpp:129] Top shape: 128 32 48 48 (9437184)
I0411 00:49:08.913645  7655 net.cpp:137] Memory required for data: 306797568
I0411 00:49:08.913672  7655 layer_factory.hpp:77] Creating layer relu2_0
I0411 00:49:08.913694  7655 net.cpp:84] Creating Layer relu2_0
I0411 00:49:08.913709  7655 net.cpp:406] relu2_0 <- conv2_0
I0411 00:49:08.913727  7655 net.cpp:367] relu2_0 -> conv2_0 (in-place)
I0411 00:49:08.914645  7655 net.cpp:122] Setting up relu2_0
I0411 00:49:08.914676  7655 net.cpp:129] Top shape: 128 32 48 48 (9437184)
I0411 00:49:08.914691  7655 net.cpp:137] Memory required for data: 344546304
I0411 00:49:08.914731  7655 layer_factory.hpp:77] Creating layer conv2_0_relu2_0_0_split
I0411 00:49:08.914750  7655 net.cpp:84] Creating Layer conv2_0_relu2_0_0_split
I0411 00:49:08.914765  7655 net.cpp:406] conv2_0_relu2_0_0_split <- conv2_0
I0411 00:49:08.914784  7655 net.cpp:380] conv2_0_relu2_0_0_split -> conv2_0_relu2_0_0_split_0
I0411 00:49:08.914819  7655 net.cpp:380] conv2_0_relu2_0_0_split -> conv2_0_relu2_0_0_split_1
I0411 00:49:08.914899  7655 net.cpp:122] Setting up conv2_0_relu2_0_0_split
I0411 00:49:08.914922  7655 net.cpp:129] Top shape: 128 32 48 48 (9437184)
I0411 00:49:08.914938  7655 net.cpp:129] Top shape: 128 32 48 48 (9437184)
I0411 00:49:08.914952  7655 net.cpp:137] Memory required for data: 420043776
I0411 00:49:08.914968  7655 layer_factory.hpp:77] Creating layer conv2
I0411 00:49:08.914993  7655 net.cpp:84] Creating Layer conv2
I0411 00:49:08.915009  7655 net.cpp:406] conv2 <- conv2_0_relu2_0_0_split_0
I0411 00:49:08.915029  7655 net.cpp:380] conv2 -> conv2
I0411 00:49:08.943787  7655 net.cpp:122] Setting up conv2
I0411 00:49:08.943853  7655 net.cpp:129] Top shape: 128 32 48 48 (9437184)
I0411 00:49:08.943873  7655 net.cpp:137] Memory required for data: 457792512
I0411 00:49:08.943897  7655 layer_factory.hpp:77] Creating layer relu2
I0411 00:49:08.943919  7655 net.cpp:84] Creating Layer relu2
I0411 00:49:08.943935  7655 net.cpp:406] relu2 <- conv2
I0411 00:49:08.943954  7655 net.cpp:367] relu2 -> conv2 (in-place)
I0411 00:49:08.951402  7655 net.cpp:122] Setting up relu2
I0411 00:49:08.951478  7655 net.cpp:129] Top shape: 128 32 48 48 (9437184)
I0411 00:49:08.951496  7655 net.cpp:137] Memory required for data: 495541248
I0411 00:49:08.951512  7655 layer_factory.hpp:77] Creating layer conv3
I0411 00:49:08.951558  7655 net.cpp:84] Creating Layer conv3
I0411 00:49:08.951575  7655 net.cpp:406] conv3 <- conv2
I0411 00:49:08.951596  7655 net.cpp:380] conv3 -> conv3
I0411 00:49:08.979934  7655 net.cpp:122] Setting up conv3
I0411 00:49:08.979988  7655 net.cpp:129] Top shape: 128 32 48 48 (9437184)
I0411 00:49:08.980008  7655 net.cpp:137] Memory required for data: 533289984
I0411 00:49:08.980038  7655 layer_factory.hpp:77] Creating layer res1
I0411 00:49:08.980068  7655 net.cpp:84] Creating Layer res1
I0411 00:49:08.980085  7655 net.cpp:406] res1 <- conv2_0_relu2_0_0_split_1
I0411 00:49:08.980103  7655 net.cpp:406] res1 <- conv3
I0411 00:49:08.980120  7655 net.cpp:380] res1 -> res1
I0411 00:49:08.980547  7655 net.cpp:122] Setting up res1
I0411 00:49:08.980566  7655 net.cpp:129] Top shape: 128 32 48 48 (9437184)
I0411 00:49:08.980572  7655 net.cpp:137] Memory required for data: 571038720
I0411 00:49:08.980595  7655 layer_factory.hpp:77] Creating layer pool2
I0411 00:49:08.980607  7655 net.cpp:84] Creating Layer pool2
I0411 00:49:08.980615  7655 net.cpp:406] pool2 <- res1
I0411 00:49:08.980624  7655 net.cpp:380] pool2 -> pool2
I0411 00:49:08.980690  7655 net.cpp:122] Setting up pool2
I0411 00:49:08.980701  7655 net.cpp:129] Top shape: 128 32 24 24 (2359296)
I0411 00:49:08.980706  7655 net.cpp:137] Memory required for data: 580475904
I0411 00:49:08.980711  7655 layer_factory.hpp:77] Creating layer relu3
I0411 00:49:08.980723  7655 net.cpp:84] Creating Layer relu3
I0411 00:49:08.980728  7655 net.cpp:406] relu3 <- pool2
I0411 00:49:08.980736  7655 net.cpp:367] relu3 -> pool2 (in-place)
I0411 00:49:08.987279  7655 net.cpp:122] Setting up relu3
I0411 00:49:08.987296  7655 net.cpp:129] Top shape: 128 32 24 24 (2359296)
I0411 00:49:08.987303  7655 net.cpp:137] Memory required for data: 589913088
I0411 00:49:08.987308  7655 layer_factory.hpp:77] Creating layer conv3_0
I0411 00:49:08.987324  7655 net.cpp:84] Creating Layer conv3_0
I0411 00:49:08.987342  7655 net.cpp:406] conv3_0 <- pool2
I0411 00:49:08.987354  7655 net.cpp:380] conv3_0 -> conv3_0
I0411 00:49:09.012132  7655 net.cpp:122] Setting up conv3_0
I0411 00:49:09.012177  7655 net.cpp:129] Top shape: 128 64 24 24 (4718592)
I0411 00:49:09.012194  7655 net.cpp:137] Memory required for data: 608787456
I0411 00:49:09.012214  7655 layer_factory.hpp:77] Creating layer relu3_0
I0411 00:49:09.012233  7655 net.cpp:84] Creating Layer relu3_0
I0411 00:49:09.012248  7655 net.cpp:406] relu3_0 <- conv3_0
I0411 00:49:09.012264  7655 net.cpp:367] relu3_0 -> conv3_0 (in-place)
I0411 00:49:09.019304  7655 net.cpp:122] Setting up relu3_0
I0411 00:49:09.019348  7655 net.cpp:129] Top shape: 128 64 24 24 (4718592)
I0411 00:49:09.019364  7655 net.cpp:137] Memory required for data: 627661824
I0411 00:49:09.019379  7655 layer_factory.hpp:77] Creating layer conv3_0_relu3_0_0_split
I0411 00:49:09.019397  7655 net.cpp:84] Creating Layer conv3_0_relu3_0_0_split
I0411 00:49:09.019410  7655 net.cpp:406] conv3_0_relu3_0_0_split <- conv3_0
I0411 00:49:09.019428  7655 net.cpp:380] conv3_0_relu3_0_0_split -> conv3_0_relu3_0_0_split_0
I0411 00:49:09.019448  7655 net.cpp:380] conv3_0_relu3_0_0_split -> conv3_0_relu3_0_0_split_1
I0411 00:49:09.019524  7655 net.cpp:122] Setting up conv3_0_relu3_0_0_split
I0411 00:49:09.019546  7655 net.cpp:129] Top shape: 128 64 24 24 (4718592)
I0411 00:49:09.019560  7655 net.cpp:129] Top shape: 128 64 24 24 (4718592)
I0411 00:49:09.019572  7655 net.cpp:137] Memory required for data: 665410560
I0411 00:49:09.019585  7655 layer_factory.hpp:77] Creating layer conv4
I0411 00:49:09.019608  7655 net.cpp:84] Creating Layer conv4
I0411 00:49:09.019624  7655 net.cpp:406] conv4 <- conv3_0_relu3_0_0_split_0
I0411 00:49:09.019642  7655 net.cpp:380] conv4 -> conv4
I0411 00:49:09.039486  7655 net.cpp:122] Setting up conv4
I0411 00:49:09.039541  7655 net.cpp:129] Top shape: 128 64 24 24 (4718592)
I0411 00:49:09.039561  7655 net.cpp:137] Memory required for data: 684284928
I0411 00:49:09.039584  7655 layer_factory.hpp:77] Creating layer relu4
I0411 00:49:09.039607  7655 net.cpp:84] Creating Layer relu4
I0411 00:49:09.039623  7655 net.cpp:406] relu4 <- conv4
I0411 00:49:09.039640  7655 net.cpp:367] relu4 -> conv4 (in-place)
I0411 00:49:09.046051  7655 net.cpp:122] Setting up relu4
I0411 00:49:09.046082  7655 net.cpp:129] Top shape: 128 64 24 24 (4718592)
I0411 00:49:09.046098  7655 net.cpp:137] Memory required for data: 703159296
I0411 00:49:09.046113  7655 layer_factory.hpp:77] Creating layer conv5
I0411 00:49:09.046138  7655 net.cpp:84] Creating Layer conv5
I0411 00:49:09.046154  7655 net.cpp:406] conv5 <- conv4
I0411 00:49:09.046171  7655 net.cpp:380] conv5 -> conv5
I0411 00:49:09.073158  7655 net.cpp:122] Setting up conv5
I0411 00:49:09.073181  7655 net.cpp:129] Top shape: 128 64 24 24 (4718592)
I0411 00:49:09.073187  7655 net.cpp:137] Memory required for data: 722033664
I0411 00:49:09.073200  7655 layer_factory.hpp:77] Creating layer res2
I0411 00:49:09.073210  7655 net.cpp:84] Creating Layer res2
I0411 00:49:09.073217  7655 net.cpp:406] res2 <- conv3_0_relu3_0_0_split_1
I0411 00:49:09.073225  7655 net.cpp:406] res2 <- conv5
I0411 00:49:09.073233  7655 net.cpp:380] res2 -> res2
I0411 00:49:09.073274  7655 net.cpp:122] Setting up res2
I0411 00:49:09.073285  7655 net.cpp:129] Top shape: 128 64 24 24 (4718592)
I0411 00:49:09.073290  7655 net.cpp:137] Memory required for data: 740908032
I0411 00:49:09.073295  7655 layer_factory.hpp:77] Creating layer pool3
I0411 00:49:09.073304  7655 net.cpp:84] Creating Layer pool3
I0411 00:49:09.073310  7655 net.cpp:406] pool3 <- res2
I0411 00:49:09.073318  7655 net.cpp:380] pool3 -> pool3
I0411 00:49:09.073374  7655 net.cpp:122] Setting up pool3
I0411 00:49:09.073385  7655 net.cpp:129] Top shape: 128 64 12 12 (1179648)
I0411 00:49:09.073390  7655 net.cpp:137] Memory required for data: 745626624
I0411 00:49:09.073395  7655 layer_factory.hpp:77] Creating layer relu5
I0411 00:49:09.073402  7655 net.cpp:84] Creating Layer relu5
I0411 00:49:09.073407  7655 net.cpp:406] relu5 <- pool3
I0411 00:49:09.073415  7655 net.cpp:367] relu5 -> pool3 (in-place)
I0411 00:49:09.082372  7655 net.cpp:122] Setting up relu5
I0411 00:49:09.082389  7655 net.cpp:129] Top shape: 128 64 12 12 (1179648)
I0411 00:49:09.082396  7655 net.cpp:137] Memory required for data: 750345216
I0411 00:49:09.082401  7655 layer_factory.hpp:77] Creating layer fc1_0
I0411 00:49:09.082413  7655 net.cpp:84] Creating Layer fc1_0
I0411 00:49:09.082419  7655 net.cpp:406] fc1_0 <- pool3
I0411 00:49:09.082429  7655 net.cpp:380] fc1_0 -> fc1_0
I0411 00:49:09.576593  7655 net.cpp:122] Setting up fc1_0
I0411 00:49:09.576625  7655 net.cpp:129] Top shape: 128 2048 (262144)
I0411 00:49:09.576632  7655 net.cpp:137] Memory required for data: 751393792
I0411 00:49:09.576654  7655 layer_factory.hpp:77] Creating layer relu6_0
I0411 00:49:09.576668  7655 net.cpp:84] Creating Layer relu6_0
I0411 00:49:09.576707  7655 net.cpp:406] relu6_0 <- fc1_0
I0411 00:49:09.576720  7655 net.cpp:367] relu6_0 -> fc1_0 (in-place)
I0411 00:49:09.577013  7655 net.cpp:122] Setting up relu6_0
I0411 00:49:09.577028  7655 net.cpp:129] Top shape: 128 2048 (262144)
I0411 00:49:09.577033  7655 net.cpp:137] Memory required for data: 752442368
I0411 00:49:09.577041  7655 layer_factory.hpp:77] Creating layer drop1_0
I0411 00:49:09.577064  7655 net.cpp:84] Creating Layer drop1_0
I0411 00:49:09.577071  7655 net.cpp:406] drop1_0 <- fc1_0
I0411 00:49:09.577080  7655 net.cpp:367] drop1_0 -> fc1_0 (in-place)
I0411 00:49:09.577121  7655 net.cpp:122] Setting up drop1_0
I0411 00:49:09.577129  7655 net.cpp:129] Top shape: 128 2048 (262144)
I0411 00:49:09.577134  7655 net.cpp:137] Memory required for data: 753490944
I0411 00:49:09.577142  7655 layer_factory.hpp:77] Creating layer fc2_0
I0411 00:49:09.577155  7655 net.cpp:84] Creating Layer fc2_0
I0411 00:49:09.577162  7655 net.cpp:406] fc2_0 <- fc1_0
I0411 00:49:09.577172  7655 net.cpp:380] fc2_0 -> fc2_0
I0411 00:49:09.696578  7655 net.cpp:122] Setting up fc2_0
I0411 00:49:09.696607  7655 net.cpp:129] Top shape: 128 2048 (262144)
I0411 00:49:09.696614  7655 net.cpp:137] Memory required for data: 754539520
I0411 00:49:09.696629  7655 layer_factory.hpp:77] Creating layer relu7_0
I0411 00:49:09.696655  7655 net.cpp:84] Creating Layer relu7_0
I0411 00:49:09.696666  7655 net.cpp:406] relu7_0 <- fc2_0
I0411 00:49:09.696677  7655 net.cpp:367] relu7_0 -> fc2_0 (in-place)
I0411 00:49:09.697484  7655 net.cpp:122] Setting up relu7_0
I0411 00:49:09.697502  7655 net.cpp:129] Top shape: 128 2048 (262144)
I0411 00:49:09.697510  7655 net.cpp:137] Memory required for data: 755588096
I0411 00:49:09.697517  7655 layer_factory.hpp:77] Creating layer drop2_0
I0411 00:49:09.697530  7655 net.cpp:84] Creating Layer drop2_0
I0411 00:49:09.697535  7655 net.cpp:406] drop2_0 <- fc2_0
I0411 00:49:09.697546  7655 net.cpp:367] drop2_0 -> fc2_0 (in-place)
I0411 00:49:09.697594  7655 net.cpp:122] Setting up drop2_0
I0411 00:49:09.697604  7655 net.cpp:129] Top shape: 128 2048 (262144)
I0411 00:49:09.697609  7655 net.cpp:137] Memory required for data: 756636672
I0411 00:49:09.697615  7655 layer_factory.hpp:77] Creating layer fc3_0
I0411 00:49:09.697633  7655 net.cpp:84] Creating Layer fc3_0
I0411 00:49:09.697638  7655 net.cpp:406] fc3_0 <- fc2_0
I0411 00:49:09.697649  7655 net.cpp:380] fc3_0 -> fc3_0
I0411 00:49:09.700114  7655 net.cpp:122] Setting up fc3_0
I0411 00:49:09.700129  7655 net.cpp:129] Top shape: 128 42 (5376)
I0411 00:49:09.700134  7655 net.cpp:137] Memory required for data: 756658176
I0411 00:49:09.700165  7655 layer_factory.hpp:77] Creating layer fc3_0_fc3_0_0_split
I0411 00:49:09.700186  7655 net.cpp:84] Creating Layer fc3_0_fc3_0_0_split
I0411 00:49:09.700201  7655 net.cpp:406] fc3_0_fc3_0_0_split <- fc3_0
I0411 00:49:09.700219  7655 net.cpp:380] fc3_0_fc3_0_0_split -> fc3_0_fc3_0_0_split_0
I0411 00:49:09.700242  7655 net.cpp:380] fc3_0_fc3_0_0_split -> fc3_0_fc3_0_0_split_1
I0411 00:49:09.700309  7655 net.cpp:122] Setting up fc3_0_fc3_0_0_split
I0411 00:49:09.700328  7655 net.cpp:129] Top shape: 128 42 (5376)
I0411 00:49:09.700343  7655 net.cpp:129] Top shape: 128 42 (5376)
I0411 00:49:09.700356  7655 net.cpp:137] Memory required for data: 756701184
I0411 00:49:09.700368  7655 layer_factory.hpp:77] Creating layer loss
I0411 00:49:09.700394  7655 net.cpp:84] Creating Layer loss
I0411 00:49:09.700409  7655 net.cpp:406] loss <- fc3_0_fc3_0_0_split_0
I0411 00:49:09.700429  7655 net.cpp:406] loss <- pose_pose_0_split_0
I0411 00:49:09.700450  7655 net.cpp:380] loss -> loss
…
  type: "PoseData"
  top: "data"
  top: "label"
  include {
    phase: TEST
  }
  transform_param {
    is_trans: false
    is_rotate: false
    is_zoom: false
  }
  pose_data_param {
    image_source: "/home/workspace/Datasets/NYU/test_img.txt"
    label_source: "/home/workspace/Datasets/NYU/test_label.txt"
    batch_size: 128
    shuffle: false
    new_height: 96
    new_width: 96
    root_folder: "/home/workspace/Datasets/NYU/"
    point_num: 14
    point_dim: 3
    fx: 588.03
    fy: 587.07
    output_center: true
    cube_length: 150
    dataset: NYU
  }
}
layer {
  name: "pose"
  type: "Slice"
  bottom: "label"
  top: "pose"
  top: "center"
  include {
    phase: TEST
  }
  slice_param {
    slice_dim: 1
    slice_point: 42
  }
}
layer {
  name: "conv0"
  type: "Convolution"
  bottom: "data"
  top: "conv0"
  param {
    lr_mult: 1
  }
  param {
    lr_mult: 2
  }
  convolution_param {
    num_output: 16
    pad: 1
    kernel_size: 3
    stride: 1
    weight_filler {
      type: "msra"
    }
    bias_filler {
      type: "constant"
    }
  }
}
layer {
  name: "relu0"
  type: "ReLU"
  bottom: "conv0"
  top: "conv0"
}
layer {
  name: "conv1"
  type: "Convolution"
  bottom: "conv0"
  top: "conv1"
  param {
    lr_mult: 1
  }
  param {
    lr_mult: 2
  }
  convolution_param {
    num_output: 16
    pad: 1
    kernel_size: 3
    stride: 1
    weight_filler {
      type: "msra"
    }
    bias_filler {
      type: "constant"
    }
  }
}
layer {
  name: "pool1"
  type: "Pooling"
  bottom: "conv1"
  top: "pool1"
  pooling_param {
    pool: MAX
    kernel_size: 2
    stride: 2
  }
}
layer {
  name: "relu1"
  type: "ReLU"
  bottom: "pool1"
  top: "pool1"
}
layer {
  name: "conv2_0"
  type: "Convolution"
  bottom: "pool1"
  top: "conv2_0"
  param {
    lr_mult: 1
  }
  param {
    lr_mult: 2
  }
  convolution_param {
    num_output: 32
    pad: 0
    kernel_size: 1
    stride: 1
    weight_filler {
      type: "msra"
    }
    bias_filler {
      type: "constant"
    }
  }
}
layer {
  name: "relu2_0"
  type: "ReLU"
  bottom: "conv2_0"
  top: "conv2_0"
}
layer {
  name: "conv2"
  type: "Convolution"
  bottom: "conv2_0"
  top: "conv2"
  param {
    lr_mult: 1
  }
  param {
    lr_mult: 2
  }
  convolution_param {
    num_output: 32
    pad: 1
    kernel_size: 3
    stride: 1
    weight_filler {
      type: "msra"
    }
    bias_filler {
      type: "constant"
    }
  }
}
layer {
  name: "relu2"
  type: "ReLU"
  bottom: "conv2"
  top: "conv2"
}
layer {
  name: "conv3"
  type: "Convolution"
  bottom: "conv2"
  top: "conv3"
  param {
    lr_mult: 1
  }
  param {
    lr_mult: 2
  }
  convolution_param {
    num_output: 32
    pad: 1
    kernel_size: 3
    stride: 1
    weight_filler {
      type: "msra"
    }
    bias_filler {
      type: "constant"
    }
  }
}
layer {
  name: "res1"
  type: "Eltwise"
  bottom: "conv2_0"
  bottom: "conv3"
  top: "res1"
}
layer {
  name: "pool2"
  type: "Pooling"
  bottom: "res1"
  top: "pool2"
  pooling_param {
    pool: MAX
    kernel_size: 2
    stride: 2
  }
}
layer {
  name: "relu3"
  type: "ReLU"
  bottom: "pool2"
  top: "pool2"
}
layer {
  name: "conv3_0"
  type: "Convolution"
  bottom: "pool2"
  top: "conv3_0"
  param {
    lr_mult: 1
  }
  param {
    lr_mult: 2
  }
  convolution_param {
    num_output: 64
    pad: 0
    kernel_size: 1
    stride: 1
    weight_filler {
      type: "msra"
    }
    bias_filler {
      type: "constant"
    }
  }
}
layer {
  name: "relu3_0"
  type: "ReLU"
  bottom: "conv3_0"
  top: "conv3_0"
}
layer {
  name: "conv4"
  type: "Convolution"
  bottom: "conv3_0"
  top: "conv4"
  param {
    lr_mult: 1
  }
  param {
    lr_mult: 2
  }
  convolution_param {
    num_output: 64
    pad: 1
    kernel_size: 3
    stride: 1
    weight_filler {
      type: "msra"
    }
    bias_filler {
      type: "constant"
    }
  }
}
layer {
  name: "relu4"
  type: "ReLU"
  bottom: "conv4"
  top: "conv4"
}
layer {
  name: "conv5"
  type: "Convolution"
  bottom: "conv4"
  top: "conv5"
  param {
    lr_mult: 1
  }
  param {
    lr_mult: 2
  }
  convolution_param {
    num_output: 64
    pad: 1
    kernel_size: 3
    stride: 1
    weight_filler {
      type: "msra"
    }
    bias_filler {
      type: "constant"
    }
  }
}
layer {
  name: "res2"
  type: "Eltwise"
  bottom: "conv3_0"
  bottom: "conv5"
  top: "res2"
}
layer {
  name: "pool3"
  type: "Pooling"
  bottom: "res2"
  top: "pool3"
  pooling_param {
    pool: MAX
    kernel_size: 2
    stride: 2
  }
}
layer {
  name: "relu5"
  type: "ReLU"
  bottom: "pool3"
  top: "pool3"
}
layer {
  name: "fc1_0"
  type: "InnerProduct"
  bottom: "pool3"
  top: "fc1_0"
  param {
    lr_mult: 1
  }
  param {
    lr_mult: 2
  }
  inner_product_param {
    num_output: 2048
    weight_filler {
      type: "gaussian"
      std: 0.001
    }
    bias_filler {
      type: "constant"
    }
  }
}
layer {
  name: "relu6_0"
  type: "ReLU"
  bottom: "fc1_0"
  top: "fc1_0"
}
layer {
  name: "drop1_0"
  type: "Dropout"
  bottom: "fc1_0"
  top: "fc1_0"
  dropout_param {
    dropout_ratio: 0.5
  }
}
layer {
  name: "fc2_0"
  type: "InnerProduct"
  bottom: "fc1_0"
  top: "fc2_0"
  param {
    lr_mult: 1
  }
  param {
    lr_mult: 2
  }
  inner_product_param {
    num_output: 2048
    weight_filler {
      type: "gaussian"
      std: 0.001
    }
    bias_filler {
      type: "constant"
    }
  }
}
layer {
  name: "relu7_0"
  type: "ReLU"
  bottom: "fc2_0"
  top: "fc2_0"
}
layer {
  name: "drop2_0"
  type: "Dropout"
  bottom: "fc2_0"
  top: "fc2_0"
  dropout_param {
    dropout_ratio: 0.5
  }
}
layer {
  name: "fc3_0"
  type: "InnerProduct"
  bottom: "fc2_0"
  top: "fc3_0"
  param {
    lr_mult: 1
  }
  param {
    lr_mult: 2
  }
  inner_product_param {
    num_output: 42
    weight_filler {
      type: "gaussian"
      std: 0.001
    }
    bias_filler {
      type: "constant"
    }
  }
}
layer {
  name: "error"
  type: "PoseDistance"
  bottom: "fc3_0"
  bottom: "pose"
  bottom: "center"
  top: "error"
  top: "output"
  include {
    phase: TEST
  }
  pose_distance_param {
    fx: 588.03
    fy: 587.07
    ux: 320
    uy: 240
    output_pose: true
    cube_length: 150
  }
}
I0412 07:00:25.757925  3016 layer_factory.hpp:77] Creating layer data
I0412 07:00:25.757951  3016 net.cpp:84] Creating Layer data
I0412 07:00:25.757956  3016 net.cpp:380] data -> data
I0412 07:00:25.757977  3016 net.cpp:380] data -> label
I0412 07:00:25.757989  3016 pose_data_layer.cpp:117] Opening file /home/workspace/Datasets/NYU/test_img.txt
I0412 07:00:25.758008  3016 pose_data_layer.cpp:119] Opening file /home/workspace/Datasets/NYU/test_label.txt
I0412 07:00:25.936110  3016 pose_data_layer.cpp:269] Loading 1 image...
I0412 07:01:26.497833  3016 pose_data_layer.cpp:269] Loading 2001 image...
I0412 07:02:19.993468  3016 pose_data_layer.cpp:269] Loading 4001 image...
I0412 07:03:12.256672  3016 pose_data_layer.cpp:269] Loading 6001 image...
I0412 07:04:04.285324  3016 pose_data_layer.cpp:269] Loading 8001 image...
I0412 07:04:11.132730  3016 pose_data_layer.cpp:287] A total of 8252 images.
I0412 07:04:11.143208  3016 pose_data_layer.cpp:329] output data size: 128,1,96,96
I0412 07:04:11.151948  3016 net.cpp:122] Setting up data
I0412 07:04:11.151973  3016 net.cpp:129] Top shape: 128 1 96 96 (1179648)
I0412 07:04:11.151978  3016 net.cpp:129] Top shape: 128 45 (5760)
I0412 07:04:11.151981  3016 net.cpp:137] Memory required for data: 4741632
I0412 07:04:11.151988  3016 layer_factory.hpp:77] Creating layer pose
I0412 07:04:11.151999  3016 net.cpp:84] Creating Layer pose
I0412 07:04:11.152006  3016 net.cpp:406] pose <- label
I0412 07:04:11.152015  3016 net.cpp:380] pose -> pose
I0412 07:04:11.152026  3016 net.cpp:380] pose -> center
I0412 07:04:11.152083  3016 net.cpp:122] Setting up pose
I0412 07:04:11.152091  3016 net.cpp:129] Top shape: 128 42 (5376)
I0412 07:04:11.152094  3016 net.cpp:129] Top shape: 128 3 (384)
I0412 07:04:11.152096  3016 net.cpp:137] Memory required for data: 4764672
I0412 07:04:11.152099  3016 layer_factory.hpp:77] Creating layer conv0
I0412 07:04:11.152112  3016 net.cpp:84] Creating Layer conv0
I0412 07:04:11.152114  3016 net.cpp:406] conv0 <- data
I0412 07:04:11.152119  3016 net.cpp:380] conv0 -> conv0
I0412 07:04:11.414247  3016 net.cpp:122] Setting up conv0
I0412 07:04:11.414278  3016 net.cpp:129] Top shape: 128 16 96 96 (18874368)
I0412 07:04:11.414283  3016 net.cpp:137] Memory required for data: 80262144
I0412 07:04:11.414299  3016 layer_factory.hpp:77] Creating layer relu0
I0412 07:04:11.414309  3016 net.cpp:84] Creating Layer relu0
I0412 07:04:11.414314  3016 net.cpp:406] relu0 <- conv0
I0412 07:04:11.414319  3016 net.cpp:367] relu0 -> conv0 (in-place)
I0412 07:04:11.414618  3016 net.cpp:122] Setting up relu0
I0412 07:04:11.414630  3016 net.cpp:129] Top shape: 128 16 96 96 (18874368)
I0412 07:04:11.414633  3016 net.cpp:137] Memory required for data: 155759616
I0412 07:04:11.414636  3016 layer_factory.hpp:77] Creating layer conv1
I0412 07:04:11.414647  3016 net.cpp:84] Creating Layer conv1
I0412 07:04:11.414651  3016 net.cpp:406] conv1 <- conv0
I0412 07:04:11.414659  3016 net.cpp:380] conv1 -> conv1
I0412 07:04:11.416067  3016 net.cpp:122] Setting up conv1
I0412 07:04:11.416079  3016 net.cpp:129] Top shape: 128 16 96 96 (18874368)
I0412 07:04:11.416083  3016 net.cpp:137] Memory required for data: 231257088
I0412 07:04:11.416090  3016 layer_factory.hpp:77] Creating layer pool1
I0412 07:04:11.416097  3016 net.cpp:84] Creating Layer pool1
I0412 07:04:11.416100  3016 net.cpp:406] pool1 <- conv1
I0412 07:04:11.416107  3016 net.cpp:380] pool1 -> pool1
I0412 07:04:11.416151  3016 net.cpp:122] Setting up pool1
I0412 07:04:11.416157  3016 net.cpp:129] Top shape: 128 16 48 48 (4718592)
I0412 07:04:11.416160  3016 net.cpp:137] Memory required for data: 250131456
I0412 07:04:11.416163  3016 layer_factory.hpp:77] Creating layer relu1
I0412 07:04:11.416168  3016 net.cpp:84] Creating Layer relu1
I0412 07:04:11.416172  3016 net.cpp:406] relu1 <- pool1
I0412 07:04:11.416175  3016 net.cpp:367] relu1 -> pool1 (in-place)
I0412 07:04:11.416327  3016 net.cpp:122] Setting up relu1
I0412 07:04:11.416337  3016 net.cpp:129] Top shape: 128 16 48 48 (4718592)
I0412 07:04:11.416339  3016 net.cpp:137] Memory required for data: 269005824
I0412 07:04:11.416342  3016 layer_factory.hpp:77] Creating layer conv2_0
I0412 07:04:11.416350  3016 net.cpp:84] Creating Layer conv2_0
I0412 07:04:11.416353  3016 net.cpp:406] conv2_0 <- pool1
I0412 07:04:11.416358  3016 net.cpp:380] conv2_0 -> conv2_0
I0412 07:04:11.417685  3016 net.cpp:122] Setting up conv2_0
I0412 07:04:11.417696  3016 net.cpp:129] Top shape: 128 32 48 48 (9437184)
I0412 07:04:11.417701  3016 net.cpp:137] Memory required for data: 306754560
I0412 07:04:11.417709  3016 layer_factory.hpp:77] Creating layer relu2_0
I0412 07:04:11.417718  3016 net.cpp:84] Creating Layer relu2_0
I0412 07:04:11.417724  3016 net.cpp:406] relu2_0 <- conv2_0
I0412 07:04:11.417732  3016 net.cpp:367] relu2_0 -> conv2_0 (in-place)
I0412 07:04:11.418030  3016 net.cpp:122] Setting up relu2_0
I0412 07:04:11.418042  3016 net.cpp:129] Top shape: 128 32 48 48 (9437184)
I0412 07:04:11.418063  3016 net.cpp:137] Memory required for data: 344503296
I0412 07:04:11.418071  3016 layer_factory.hpp:77] Creating layer conv2_0_relu2_0_0_split
I0412 07:04:11.418077  3016 net.cpp:84] Creating Layer conv2_0_relu2_0_0_split
I0412 07:04:11.418081  3016 net.cpp:406] conv2_0_relu2_0_0_split <- conv2_0
I0412 07:04:11.418087  3016 net.cpp:380] conv2_0_relu2_0_0_split -> conv2_0_relu2_0_0_split_0
I0412 07:04:11.418097  3016 net.cpp:380] conv2_0_relu2_0_0_split -> conv2_0_relu2_0_0_split_1
I0412 07:04:11.418133  3016 net.cpp:122] Setting up conv2_0_relu2_0_0_split
I0412 07:04:11.418139  3016 net.cpp:129] Top shape: 128 32 48 48 (9437184)
I0412 07:04:11.418143  3016 net.cpp:129] Top shape: 128 32 48 48 (9437184)
I0412 07:04:11.418146  3016 net.cpp:137] Memory required for data: 420000768
I0412 07:04:11.418150  3016 layer_factory.hpp:77] Creating layer conv2
I0412 07:04:11.418161  3016 net.cpp:84] Creating Layer conv2
I0412 07:04:11.418167  3016 net.cpp:406] conv2 <- conv2_0_relu2_0_0_split_0
I0412 07:04:11.418174  3016 net.cpp:380] conv2 -> conv2
I0412 07:04:11.419282  3016 net.cpp:122] Setting up conv2
I0412 07:04:11.419294  3016 net.cpp:129] Top shape: 128 32 48 48 (9437184)
I0412 07:04:11.419301  3016 net.cpp:137] Memory required for data: 457749504
I0412 07:04:11.419309  3016 layer_factory.hpp:77] Creating layer relu2
I0412 07:04:11.419317  3016 net.cpp:84] Creating Layer relu2
I0412 07:04:11.419322  3016 net.cpp:406] relu2 <- conv2
I0412 07:04:11.419335  3016 net.cpp:367] relu2 -> conv2 (in-place)
I0412 07:04:11.419486  3016 net.cpp:122] Setting up relu2
I0412 07:04:11.419495  3016 net.cpp:129] Top shape: 128 32 48 48 (9437184)
I0412 07:04:11.419500  3016 net.cpp:137] Memory required for data: 495498240
I0412 07:04:11.419507  3016 layer_factory.hpp:77] Creating layer conv3
I0412 07:04:11.419518  3016 net.cpp:84] Creating Layer conv3
I0412 07:04:11.419523  3016 net.cpp:406] conv3 <- conv2
I0412 07:04:11.419529  3016 net.cpp:380] conv3 -> conv3
I0412 07:04:11.420639  3016 net.cpp:122] Setting up conv3
I0412 07:04:11.420652  3016 net.cpp:129] Top shape: 128 32 48 48 (9437184)
I0412 07:04:11.420658  3016 net.cpp:137] Memory required for data: 533246976
I0412 07:04:11.420671  3016 layer_factory.hpp:77] Creating layer res1
I0412 07:04:11.420678  3016 net.cpp:84] Creating Layer res1
I0412 07:04:11.420683  3016 net.cpp:406] res1 <- conv2_0_relu2_0_0_split_1
I0412 07:04:11.420689  3016 net.cpp:406] res1 <- conv3
I0412 07:04:11.420697  3016 net.cpp:380] res1 -> res1
I0412 07:04:11.420722  3016 net.cpp:122] Setting up res1
I0412 07:04:11.420730  3016 net.cpp:129] Top shape: 128 32 48 48 (9437184)
I0412 07:04:11.420735  3016 net.cpp:137] Memory required for data: 570995712
I0412 07:04:11.420739  3016 layer_factory.hpp:77] Creating layer pool2
I0412 07:04:11.420747  3016 net.cpp:84] Creating Layer pool2
I0412 07:04:11.420752  3016 net.cpp:406] pool2 <- res1
I0412 07:04:11.420758  3016 net.cpp:380] pool2 -> pool2
I0412 07:04:11.420791  3016 net.cpp:122] Setting up pool2
I0412 07:04:11.420797  3016 net.cpp:129] Top shape: 128 32 24 24 (2359296)
I0412 07:04:11.420801  3016 net.cpp:137] Memory required for data: 580432896
I0412 07:04:11.420806  3016 layer_factory.hpp:77] Creating layer relu3
I0412 07:04:11.420814  3016 net.cpp:84] Creating Layer relu3
I0412 07:04:11.420819  3016 net.cpp:406] relu3 <- pool2
I0412 07:04:11.420825  3016 net.cpp:367] relu3 -> pool2 (in-place)
I0412 07:04:11.421126  3016 net.cpp:122] Setting up relu3
I0412 07:04:11.421138  3016 net.cpp:129] Top shape: 128 32 24 24 (2359296)
I0412 07:04:11.421142  3016 net.cpp:137] Memory required for data: 589870080
I0412 07:04:11.421149  3016 layer_factory.hpp:77] Creating layer conv3_0
I0412 07:04:11.421161  3016 net.cpp:84] Creating Layer conv3_0
I0412 07:04:11.421166  3016 net.cpp:406] conv3_0 <- pool2
I0412 07:04:11.421175  3016 net.cpp:380] conv3_0 -> conv3_0
I0412 07:04:11.422124  3016 net.cpp:122] Setting up conv3_0
I0412 07:04:11.422137  3016 net.cpp:129] Top shape: 128 64 24 24 (4718592)
I0412 07:04:11.422139  3016 net.cpp:137] Memory required for data: 608744448
I0412 07:04:11.422158  3016 layer_factory.hpp:77] Creating layer relu3_0
I0412 07:04:11.422163  3016 net.cpp:84] Creating Layer relu3_0
I0412 07:04:11.422166  3016 net.cpp:406] relu3_0 <- conv3_0
I0412 07:04:11.422170  3016 net.cpp:367] relu3_0 -> conv3_0 (in-place)
I0412 07:04:11.422484  3016 net.cpp:122] Setting up relu3_0
I0412 07:04:11.422495  3016 net.cpp:129] Top shape: 128 64 24 24 (4718592)
I0412 07:04:11.422498  3016 net.cpp:137] Memory required for data: 627618816
I0412 07:04:11.422502  3016 layer_factory.hpp:77] Creating layer conv3_0_relu3_0_0_split
I0412 07:04:11.422508  3016 net.cpp:84] Creating Layer conv3_0_relu3_0_0_split
I0412 07:04:11.422511  3016 net.cpp:406] conv3_0_relu3_0_0_split <- conv3_0
I0412 07:04:11.422516  3016 net.cpp:380] conv3_0_relu3_0_0_split -> conv3_0_relu3_0_0_split_0
I0412 07:04:11.422523  3016 net.cpp:380] conv3_0_relu3_0_0_split -> conv3_0_relu3_0_0_split_1
I0412 07:04:11.422555  3016 net.cpp:122] Setting up conv3_0_relu3_0_0_split
I0412 07:04:11.422561  3016 net.cpp:129] Top shape: 128 64 24 24 (4718592)
I0412 07:04:11.422566  3016 net.cpp:129] Top shape: 128 64 24 24 (4718592)
I0412 07:04:11.422569  3016 net.cpp:137] Memory required for data: 665367552
I0412 07:04:11.422572  3016 layer_factory.hpp:77] Creating layer conv4
I0412 07:04:11.422583  3016 net.cpp:84] Creating Layer conv4
I0412 07:04:11.422588  3016 net.cpp:406] conv4 <- conv3_0_relu3_0_0_split_0
I0412 07:04:11.422593  3016 net.cpp:380] conv4 -> conv4
I0412 07:04:11.424850  3016 net.cpp:122] Setting up conv4
I0412 07:04:11.424870  3016 net.cpp:129] Top shape: 128 64 24 24 (4718592)
I0412 07:04:11.424873  3016 net.cpp:137] Memory required for data: 684241920
I0412 07:04:11.424880  3016 layer_factory.hpp:77] Creating layer relu4
I0412 07:04:11.424885  3016 net.cpp:84] Creating Layer relu4
I0412 07:04:11.424890  3016 net.cpp:406] relu4 <- conv4
I0412 07:04:11.424896  3016 net.cpp:367] relu4 -> conv4 (in-place)
I0412 07:04:11.425209  3016 net.cpp:122] Setting up relu4
I0412 07:04:11.425220  3016 net.cpp:129] Top shape: 128 64 24 24 (4718592)
I0412 07:04:11.425225  3016 net.cpp:137] Memory required for data: 703116288
I0412 07:04:11.425227  3016 layer_factory.hpp:77] Creating layer conv5
I0412 07:04:11.425236  3016 net.cpp:84] Creating Layer conv5
I0412 07:04:11.425240  3016 net.cpp:406] conv5 <- conv4
I0412 07:04:11.425246  3016 net.cpp:380] conv5 -> conv5
I0412 07:04:11.426965  3016 net.cpp:122] Setting up conv5
I0412 07:04:11.426978  3016 net.cpp:129] Top shape: 128 64 24 24 (4718592)
I0412 07:04:11.426982  3016 net.cpp:137] Memory required for data: 721990656
I0412 07:04:11.426991  3016 layer_factory.hpp:77] Creating layer res2
I0412 07:04:11.427000  3016 net.cpp:84] Creating Layer res2
I0412 07:04:11.427006  3016 net.cpp:406] res2 <- conv3_0_relu3_0_0_split_1
I0412 07:04:11.427012  3016 net.cpp:406] res2 <- conv5
I0412 07:04:11.427019  3016 net.cpp:380] res2 -> res2
I0412 07:04:11.427047  3016 net.cpp:122] Setting up res2
I0412 07:04:11.427053  3016 net.cpp:129] Top shape: 128 64 24 24 (4718592)
I0412 07:04:11.427058  3016 net.cpp:137] Memory required for data: 740865024
I0412 07:04:11.427063  3016 layer_factory.hpp:77] Creating layer pool3
I0412 07:04:11.427072  3016 net.cpp:84] Creating Layer pool3
I0412 07:04:11.427076  3016 net.cpp:406] pool3 <- res2
I0412 07:04:11.427083  3016 net.cpp:380] pool3 -> pool3
I0412 07:04:11.427117  3016 net.cpp:122] Setting up pool3
I0412 07:04:11.427124  3016 net.cpp:129] Top shape: 128 64 12 12 (1179648)
I0412 07:04:11.427129  3016 net.cpp:137] Memory required for data: 745583616
I0412 07:04:11.427134  3016 layer_factory.hpp:77] Creating layer relu5
I0412 07:04:11.427139  3016 net.cpp:84] Creating Layer relu5
I0412 07:04:11.427145  3016 net.cpp:406] relu5 <- pool3
I0412 07:04:11.427153  3016 net.cpp:367] relu5 -> pool3 (in-place)
I0412 07:04:11.427446  3016 net.cpp:122] Setting up relu5
I0412 07:04:11.427458  3016 net.cpp:129] Top shape: 128 64 12 12 (1179648)
I0412 07:04:11.427462  3016 net.cpp:137] Memory required for data: 750302208
I0412 07:04:11.427477  3016 layer_factory.hpp:77] Creating layer fc1_0
I0412 07:04:11.427487  3016 net.cpp:84] Creating Layer fc1_0
I0412 07:04:11.427492  3016 net.cpp:406] fc1_0 <- pool3
I0412 07:04:11.427500  3016 net.cpp:380] fc1_0 -> fc1_0
I0412 07:04:11.845533  3016 net.cpp:122] Setting up fc1_0
I0412 07:04:11.845561  3016 net.cpp:129] Top shape: 128 2048 (262144)
I0412 07:04:11.845564  3016 net.cpp:137] Memory required for data: 751350784
I0412 07:04:11.845577  3016 layer_factory.hpp:77] Creating layer relu6_0
I0412 07:04:11.845587  3016 net.cpp:84] Creating Layer relu6_0
I0412 07:04:11.845592  3016 net.cpp:406] relu6_0 <- fc1_0
I0412 07:04:11.845602  3016 net.cpp:367] relu6_0 -> fc1_0 (in-place)
I0412 07:04:11.845810  3016 net.cpp:122] Setting up relu6_0
I0412 07:04:11.845820  3016 net.cpp:129] Top shape: 128 2048 (262144)
I0412 07:04:11.845824  3016 net.cpp:137] Memory required for data: 752399360
I0412 07:04:11.845826  3016 layer_factory.hpp:77] Creating layer drop1_0
I0412 07:04:11.845831  3016 net.cpp:84] Creating Layer drop1_0
I0412 07:04:11.845834  3016 net.cpp:406] drop1_0 <- fc1_0
I0412 07:04:11.845839  3016 net.cpp:367] drop1_0 -> fc1_0 (in-place)
I0412 07:04:11.845860  3016 net.cpp:122] Setting up drop1_0
I0412 07:04:11.845865  3016 net.cpp:129] Top shape: 128 2048 (262144)
I0412 07:04:11.845868  3016 net.cpp:137] Memory required for data: 753447936
I0412 07:04:11.845870  3016 layer_factory.hpp:77] Creating layer fc2_0
I0412 07:04:11.845877  3016 net.cpp:84] Creating Layer fc2_0
I0412 07:04:11.845880  3016 net.cpp:406] fc2_0 <- fc1_0
I0412 07:04:11.845885  3016 net.cpp:380] fc2_0 -> fc2_0
I0412 07:04:11.939121  3016 net.cpp:122] Setting up fc2_0
I0412 07:04:11.939144  3016 net.cpp:129] Top shape: 128 2048 (262144)
I0412 07:04:11.939147  3016 net.cpp:137] Memory required for data: 754496512
I0412 07:04:11.939155  3016 layer_factory.hpp:77] Creating layer relu7_0
I0412 07:04:11.939164  3016 net.cpp:84] Creating Layer relu7_0
I0412 07:04:11.939168  3016 net.cpp:406] relu7_0 <- fc2_0
I0412 07:04:11.939175  3016 net.cpp:367] relu7_0 -> fc2_0 (in-place)
I0412 07:04:11.939728  3016 net.cpp:122] Setting up relu7_0
I0412 07:04:11.939746  3016 net.cpp:129] Top shape: 128 2048 (262144)
I0412 07:04:11.939750  3016 net.cpp:137] Memory required for data: 755545088
I0412 07:04:11.939754  3016 layer_factory.hpp:77] Creating layer drop2_0
I0412 07:04:11.939764  3016 net.cpp:84] Creating Layer drop2_0
I0412 07:04:11.939769  3016 net.cpp:406] drop2_0 <- fc2_0
I0412 07:04:11.939774  3016 net.cpp:367] drop2_0 -> fc2_0 (in-place)
I0412 07:04:11.939801  3016 net.cpp:122] Setting up drop2_0
I0412 07:04:11.939807  3016 net.cpp:129] Top shape: 128 2048 (262144)
I0412 07:04:11.939810  3016 net.cpp:137] Memory required for data: 756593664
I0412 07:04:11.939813  3016 layer_factory.hpp:77] Creating layer fc3_0
I0412 07:04:11.939821  3016 net.cpp:84] Creating Layer fc3_0
I0412 07:04:11.939826  3016 net.cpp:406] fc3_0 <- fc2_0
I0412 07:04:11.939831  3016 net.cpp:380] fc3_0 -> fc3_0
I0412 07:04:11.942294  3016 net.cpp:122] Setting up fc3_0
I0412 07:04:11.942306  3016 net.cpp:129] Top shape: 128 42 (5376)
I0412 07:04:11.942309  3016 net.cpp:137] Memory required for data: 756615168
I0412 07:04:11.942315  3016 layer_factory.hpp:77] Creating layer error
I0412 07:04:11.942324  3016 pose_distance_layer.cpp:48] Size of ids: 0
I0412 07:04:11.942332  3016 net.cpp:84] Creating Layer error
I0412 07:04:11.942334  3016 net.cpp:406] error <- fc3_0
I0412 07:04:11.942340  3016 net.cpp:406] error <- pose
I0412 07:04:11.942344  3016 net.cpp:406] error <- center
I0412 07:04:11.942349  3016 net.cpp:380] error -> error
I0412 07:04:11.942358  3016 net.cpp:380] error -> output
I0412 07:04:11.942376  3016 net.cpp:122] Setting up error
I0412 07:04:11.942382  3016 net.cpp:129] Top shape: (1)
I0412 07:04:11.942386  3016 net.cpp:129] Top shape: 128 42 (5376)
I0412 07:04:11.942389  3016 net.cpp:137] Memory required for data: 756636676
I0412 07:04:11.942392  3016 net.cpp:200] error does not need backward computation.
I0412 07:04:11.942396  3016 net.cpp:200] fc3_0 does not need backward computation.
I0412 07:04:11.942414  3016 net.cpp:200] drop2_0 does not need backward computation.
I0412 07:04:11.942416  3016 net.cpp:200] relu7_0 does not need backward computation.
…
