…
  }
  transform_param {
    is_trans: true
    trans_dx: 10
    trans_dy: 10
    is_rotate: true
    rotate_deg: 15
    is_zoom: true
    zoom_scale: 0.1
  }
  pose_data_param {
    image_source: "/home/workspace/Datasets/ICVL/train_image.txt"
    label_source: "/home/workspace/Datasets/ICVL/train_label.txt"
    batch_size: 128
    shuffle: true
    new_height: 96
    new_width: 96
    root_folder: "/home/workspace/Datasets/ICVL/train/Depth/"
    point_num: 16
    point_dim: 3
    fx: 240.99
    fy: 240.96
    cube_length: 150
    dataset: ICVL
  }
}
layer {
  name: "conv0"
  type: "Convolution"
  bottom: "data"
  top: "conv0"
  param {
    lr_mult: 1
  }
  param {
    lr_mult: 2
  }
  convolution_param {
    num_output: 16
    pad: 1
    kernel_size: 3
    stride: 1
    weight_filler {
      type: "msra"
    }
    bias_filler {
      type: "constant"
    }
  }
}
layer {
  name: "relu0"
  type: "ReLU"
  bottom: "conv0"
  top: "conv0"
}
layer {
  name: "conv1"
  type: "Convolution"
  bottom: "conv0"
  top: "conv1"
  param {
    lr_mult: 1
  }
  param {
    lr_mult: 2
  }
  convolution_param {
    num_output: 16
    pad: 1
    kernel_size: 3
    stride: 1
    weight_filler {
      type: "msra"
    }
    bias_filler {
      type: "constant"
    }
  }
}
layer {
  name: "pool1"
  type: "Pooling"
  bottom: "conv1"
  top: "pool1"
  pooling_param {
    pool: MAX
    kernel_size: 2
    stride: 2
  }
}
layer {
  name: "relu1"
  type: "ReLU"
  bottom: "pool1"
  top: "pool1"
}
layer {
  name: "conv2_0"
  type: "Convolution"
  bottom: "pool1"
  top: "conv2_0"
  param {
    lr_mult: 1
  }
  param {
    lr_mult: 2
  }
  convolution_param {
    num_output: 32
    pad: 0
    kernel_size: 1
    stride: 1
    weight_filler {
      type: "msra"
    }
    bias_filler {
      type: "constant"
    }
  }
}
layer {
  name: "relu2_0"
  type: "ReLU"
  bottom: "conv2_0"
  top: "conv2_0"
}
layer {
  name: "conv2"
  type: "Convolution"
  bottom: "conv2_0"
  top: "conv2"
  param {
    lr_mult: 1
  }
  param {
    lr_mult: 2
  }
  convolution_param {
    num_output: 32
    pad: 1
    kernel_size: 3
    stride: 1
    weight_filler {
      type: "msra"
    }
    bias_filler {
      type: "constant"
    }
  }
}
layer {
  name: "relu2"
  type: "ReLU"
  bottom: "conv2"
  top: "conv2"
}
layer {
  name: "conv3"
  type: "Convolution"
  bottom: "conv2"
  top: "conv3"
  param {
    lr_mult: 1
  }
  param {
    lr_mult: 2
  }
  convolution_param {
    num_output: 32
    pad: 1
    kernel_size: 3
    stride: 1
    weight_filler {
      type: "msra"
    }
    bias_filler {
      type: "constant"
    }
  }
}
layer {
  name: "res1"
  type: "Eltwise"
  bottom: "conv2_0"
  bottom: "conv3"
  top: "res1"
}
layer {
  name: "pool2"
  type: "Pooling"
  bottom: "res1"
  top: "pool2"
  pooling_param {
    pool: MAX
    kernel_size: 2
    stride: 2
  }
}
layer {
  name: "relu3"
  type: "ReLU"
  bottom: "pool2"
  top: "pool2"
}
layer {
  name: "conv3_0"
  type: "Convolution"
  bottom: "pool2"
  top: "conv3_0"
  param {
    lr_mult: 1
  }
  param {
    lr_mult: 2
  }
  convolution_param {
    num_output: 64
    pad: 0
    kernel_size: 1
    stride: 1
    weight_filler {
      type: "msra"
    }
    bias_filler {
      type: "constant"
    }
  }
}
layer {
  name: "relu3_0"
  type: "ReLU"
  bottom: "conv3_0"
  top: "conv3_0"
}
layer {
  name: "conv4"
  type: "Convolution"
  bottom: "conv3_0"
  top: "conv4"
  param {
    lr_mult: 1
  }
  param {
    lr_mult: 2
  }
  convolution_param {
    num_output: 64
    pad: 1
    kernel_size: 3
    stride: 1
    weight_filler {
      type: "msra"
    }
    bias_filler {
      type: "constant"
    }
  }
}
layer {
  name: "relu4"
  type: "ReLU"
  bottom: "conv4"
  top: "conv4"
}
layer {
  name: "conv5"
  type: "Convolution"
  bottom: "conv4"
  top: "conv5"
  param {
    lr_mult: 1
  }
  param {
    lr_mult: 2
  }
  convolution_param {
    num_output: 64
    pad: 1
    kernel_size: 3
    stride: 1
    weight_filler {
      type: "msra"
    }
    bias_filler {
      type: "constant"
    }
  }
}
layer {
  name: "res2"
  type: "Eltwise"
  bottom: "conv3_0"
  bottom: "conv5"
  top: "res2"
}
layer {
  name: "pool3"
  type: "Pooling"
  bottom: "res2"
  top: "pool3"
  pooling_param {
    pool: MAX
    kernel_size: 2
    stride: 2
  }
}
layer {
  name: "relu5"
  type: "ReLU"
  bottom: "pool3"
  top: "pool3"
}
layer {
  name: "fc1_0"
  type: "InnerProduct"
  bottom: "pool3"
  top: "fc1_0"
  param {
    lr_mult: 1
  }
  param {
    lr_mult: 2
  }
  inner_product_param {
    num_output: 2048
    weight_filler {
      type: "gaussian"
      std: 0.001
    }
    bias_filler {
      type: "constant"
    }
  }
}
layer {
  name: "relu6_0"
  type: "ReLU"
  bottom: "fc1_0"
  top: "fc1_0"
}
layer {
  name: "drop1_0"
  type: "Dropout"
  bottom: "fc1_0"
  top: "fc1_0"
  dropout_param {
    dropout_ratio: 0.5
  }
}
layer {
  name: "fc2_0"
  type: "InnerProduct"
  bottom: "fc1_0"
  top: "fc2_0"
  param {
    lr_mult: 1
  }
  param {
    lr_mult: 2
  }
  inner_product_param {
    num_output: 2048
    weight_filler {
      type: "gaussian"
      std: 0.001
    }
    bias_filler {
      type: "constant"
    }
  }
}
layer {
  name: "relu7_0"
  type: "ReLU"
  bottom: "fc2_0"
  top: "fc2_0"
}
layer {
  name: "drop2_0"
  type: "Dropout"
  bottom: "fc2_0"
  top: "fc2_0"
  dropout_param {
    dropout_ratio: 0.5
  }
}
layer {
  name: "fc3_0"
  type: "InnerProduct"
  bottom: "fc2_0"
  top: "fc3_0"
  param {
    lr_mult: 1
  }
  param {
    lr_mult: 2
  }
  inner_product_param {
    num_output: 48
    weight_filler {
      type: "gaussian"
      std: 0.001
    }
    bias_filler {
      type: "constant"
    }
  }
}
layer {
  name: "loss"
  type: "SmoothL1Loss"
  bottom: "fc3_0"
  bottom: "pose"
  top: "loss"
  loss_weight: 1
  smooth_l1_loss_param {
    sigma: 10
  }
}
I0409 13:36:33.173892 21447 layer_factory.hpp:77] Creating layer data
I0409 13:36:33.173903 21447 net.cpp:84] Creating Layer data
I0409 13:36:33.173908 21447 net.cpp:380] data -> data
I0409 13:36:33.173916 21447 net.cpp:380] data -> pose
I0409 13:36:33.173976 21447 pose_data_layer.cpp:117] Opening file /home/workspace/Datasets/ICVL/train_image.txt
…
I0409 13:44:12.323493 21447 pose_data_layer.cpp:269] Loading 326001 image...
I0409 13:44:14.942576 21447 pose_data_layer.cpp:269] Loading 328001 image...
I0409 13:44:16.734882 21447 pose_data_layer.cpp:192] Skip 201406191044/image_0396.png due to center
I0409 13:44:17.523694 21447 pose_data_layer.cpp:269] Loading 330001 image...
I0409 13:44:18.559916 21447 pose_data_layer.cpp:282] Shuffling data
I0409 13:44:18.567145 21447 pose_data_layer.cpp:287] A total of 330932 images.
I0409 13:44:18.567821 21447 pose_data_layer.cpp:329] output data size: 128,1,96,96
I0409 13:44:18.578910 21447 net.cpp:122] Setting up data
I0409 13:44:18.578944 21447 net.cpp:129] Top shape: 128 1 96 96 (1179648)
I0409 13:44:18.578951 21447 net.cpp:129] Top shape: 128 48 (6144)
I0409 13:44:18.578955 21447 net.cpp:137] Memory required for data: 4743168
I0409 13:44:18.578963 21447 layer_factory.hpp:77] Creating layer conv0
I0409 13:44:18.578984 21447 net.cpp:84] Creating Layer conv0
I0409 13:44:18.578989 21447 net.cpp:406] conv0 <- data
I0409 13:44:18.578997 21447 net.cpp:380] conv0 -> conv0
I0409 13:44:18.889757 21447 net.cpp:122] Setting up conv0
I0409 13:44:18.889786 21447 net.cpp:129] Top shape: 128 16 96 96 (18874368)
I0409 13:44:18.889791 21447 net.cpp:137] Memory required for data: 80240640
I0409 13:44:18.889803 21447 layer_factory.hpp:77] Creating layer relu0
I0409 13:44:18.889814 21447 net.cpp:84] Creating Layer relu0
I0409 13:44:18.889820 21447 net.cpp:406] relu0 <- conv0
I0409 13:44:18.889827 21447 net.cpp:367] relu0 -> conv0 (in-place)
I0409 13:44:18.890138 21447 net.cpp:122] Setting up relu0
I0409 13:44:18.890149 21447 net.cpp:129] Top shape: 128 16 96 96 (18874368)
I0409 13:44:18.890152 21447 net.cpp:137] Memory required for data: 155738112
I0409 13:44:18.890156 21447 layer_factory.hpp:77] Creating layer conv1
I0409 13:44:18.890166 21447 net.cpp:84] Creating Layer conv1
I0409 13:44:18.890168 21447 net.cpp:406] conv1 <- conv0
I0409 13:44:18.890173 21447 net.cpp:380] conv1 -> conv1
I0409 13:44:18.891620 21447 net.cpp:122] Setting up conv1
I0409 13:44:18.891638 21447 net.cpp:129] Top shape: 128 16 96 96 (18874368)
I0409 13:44:18.891640 21447 net.cpp:137] Memory required for data: 231235584
I0409 13:44:18.891649 21447 layer_factory.hpp:77] Creating layer pool1
I0409 13:44:18.891659 21447 net.cpp:84] Creating Layer pool1
I0409 13:44:18.891661 21447 net.cpp:406] pool1 <- conv1
I0409 13:44:18.891665 21447 net.cpp:380] pool1 -> pool1
I0409 13:44:18.891702 21447 net.cpp:122] Setting up pool1
I0409 13:44:18.891708 21447 net.cpp:129] Top shape: 128 16 48 48 (4718592)
I0409 13:44:18.891710 21447 net.cpp:137] Memory required for data: 250109952
I0409 13:44:18.891713 21447 layer_factory.hpp:77] Creating layer relu1
I0409 13:44:18.891717 21447 net.cpp:84] Creating Layer relu1
I0409 13:44:18.891721 21447 net.cpp:406] relu1 <- pool1
I0409 13:44:18.891723 21447 net.cpp:367] relu1 -> pool1 (in-place)
I0409 13:44:18.891868 21447 net.cpp:122] Setting up relu1
I0409 13:44:18.891877 21447 net.cpp:129] Top shape: 128 16 48 48 (4718592)
I0409 13:44:18.891880 21447 net.cpp:137] Memory required for data: 268984320
I0409 13:44:18.891882 21447 layer_factory.hpp:77] Creating layer conv2_0
I0409 13:44:18.891891 21447 net.cpp:84] Creating Layer conv2_0
I0409 13:44:18.891893 21447 net.cpp:406] conv2_0 <- pool1
I0409 13:44:18.891897 21447 net.cpp:380] conv2_0 -> conv2_0
I0409 13:44:18.893208 21447 net.cpp:122] Setting up conv2_0
I0409 13:44:18.893219 21447 net.cpp:129] Top shape: 128 32 48 48 (9437184)
I0409 13:44:18.893223 21447 net.cpp:137] Memory required for data: 306733056
I0409 13:44:18.893229 21447 layer_factory.hpp:77] Creating layer relu2_0
I0409 13:44:18.893235 21447 net.cpp:84] Creating Layer relu2_0
I0409 13:44:18.893239 21447 net.cpp:406] relu2_0 <- conv2_0
I0409 13:44:18.893242 21447 net.cpp:367] relu2_0 -> conv2_0 (in-place)
I0409 13:44:18.893537 21447 net.cpp:122] Setting up relu2_0
I0409 13:44:18.893546 21447 net.cpp:129] Top shape: 128 32 48 48 (9437184)
I0409 13:44:18.893551 21447 net.cpp:137] Memory required for data: 344481792
I0409 13:44:18.893554 21447 layer_factory.hpp:77] Creating layer conv2_0_relu2_0_0_split
I0409 13:44:18.893559 21447 net.cpp:84] Creating Layer conv2_0_relu2_0_0_split
I0409 13:44:18.893563 21447 net.cpp:406] conv2_0_relu2_0_0_split <- conv2_0
I0409 13:44:18.893566 21447 net.cpp:380] conv2_0_relu2_0_0_split -> conv2_0_relu2_0_0_split_0
I0409 13:44:18.893571 21447 net.cpp:380] conv2_0_relu2_0_0_split -> conv2_0_relu2_0_0_split_1
I0409 13:44:18.893609 21447 net.cpp:122] Setting up conv2_0_relu2_0_0_split
I0409 13:44:18.893613 21447 net.cpp:129] Top shape: 128 32 48 48 (9437184)
I0409 13:44:18.893616 21447 net.cpp:129] Top shape: 128 32 48 48 (9437184)
I0409 13:44:18.893618 21447 net.cpp:137] Memory required for data: 419979264
I0409 13:44:18.893621 21447 layer_factory.hpp:77] Creating layer conv2
I0409 13:44:18.893628 21447 net.cpp:84] Creating Layer conv2
I0409 13:44:18.893631 21447 net.cpp:406] conv2 <- conv2_0_relu2_0_0_split_0
I0409 13:44:18.893636 21447 net.cpp:380] conv2 -> conv2
I0409 13:44:18.894768 21447 net.cpp:122] Setting up conv2
I0409 13:44:18.894779 21447 net.cpp:129] Top shape: 128 32 48 48 (9437184)
I0409 13:44:18.894783 21447 net.cpp:137] Memory required for data: 457728000
I0409 13:44:18.894788 21447 layer_factory.hpp:77] Creating layer relu2
I0409 13:44:18.894793 21447 net.cpp:84] Creating Layer relu2
I0409 13:44:18.894795 21447 net.cpp:406] relu2 <- conv2
I0409 13:44:18.894800 21447 net.cpp:367] relu2 -> conv2 (in-place)
I0409 13:44:18.894953 21447 net.cpp:122] Setting up relu2
I0409 13:44:18.894960 21447 net.cpp:129] Top shape: 128 32 48 48 (9437184)
I0409 13:44:18.894963 21447 net.cpp:137] Memory required for data: 495476736
I0409 13:44:18.894965 21447 layer_factory.hpp:77] Creating layer conv3
I0409 13:44:18.894973 21447 net.cpp:84] Creating Layer conv3
I0409 13:44:18.894975 21447 net.cpp:406] conv3 <- conv2
I0409 13:44:18.894981 21447 net.cpp:380] conv3 -> conv3
I0409 13:44:18.896118 21447 net.cpp:122] Setting up conv3
I0409 13:44:18.896132 21447 net.cpp:129] Top shape: 128 32 48 48 (9437184)
I0409 13:44:18.896136 21447 net.cpp:137] Memory required for data: 533225472
I0409 13:44:18.896142 21447 layer_factory.hpp:77] Creating layer res1
I0409 13:44:18.896147 21447 net.cpp:84] Creating Layer res1
I0409 13:44:18.896150 21447 net.cpp:406] res1 <- conv2_0_relu2_0_0_split_1
I0409 13:44:18.896155 21447 net.cpp:406] res1 <- conv3
I0409 13:44:18.896159 21447 net.cpp:380] res1 -> res1
I0409 13:44:18.896183 21447 net.cpp:122] Setting up res1
I0409 13:44:18.896188 21447 net.cpp:129] Top shape: 128 32 48 48 (9437184)
I0409 13:44:18.896190 21447 net.cpp:137] Memory required for data: 570974208
I0409 13:44:18.896193 21447 layer_factory.hpp:77] Creating layer pool2
I0409 13:44:18.896198 21447 net.cpp:84] Creating Layer pool2
I0409 13:44:18.896200 21447 net.cpp:406] pool2 <- res1
I0409 13:44:18.896203 21447 net.cpp:380] pool2 -> pool2
I0409 13:44:18.896235 21447 net.cpp:122] Setting up pool2
I0409 13:44:18.896240 21447 net.cpp:129] Top shape: 128 32 24 24 (2359296)
I0409 13:44:18.896242 21447 net.cpp:137] Memory required for data: 580411392
I0409 13:44:18.896245 21447 layer_factory.hpp:77] Creating layer relu3
I0409 13:44:18.896248 21447 net.cpp:84] Creating Layer relu3
I0409 13:44:18.896250 21447 net.cpp:406] relu3 <- pool2
I0409 13:44:18.896255 21447 net.cpp:367] relu3 -> pool2 (in-place)
I0409 13:44:18.896546 21447 net.cpp:122] Setting up relu3
I0409 13:44:18.896556 21447 net.cpp:129] Top shape: 128 32 24 24 (2359296)
I0409 13:44:18.896559 21447 net.cpp:137] Memory required for data: 589848576
I0409 13:44:18.896561 21447 layer_factory.hpp:77] Creating layer conv3_0
I0409 13:44:18.896569 21447 net.cpp:84] Creating Layer conv3_0
I0409 13:44:18.896572 21447 net.cpp:406] conv3_0 <- pool2
I0409 13:44:18.896579 21447 net.cpp:380] conv3_0 -> conv3_0
I0409 13:44:18.897573 21447 net.cpp:122] Setting up conv3_0
I0409 13:44:18.897585 21447 net.cpp:129] Top shape: 128 64 24 24 (4718592)
I0409 13:44:18.897588 21447 net.cpp:137] Memory required for data: 608722944
I0409 13:44:18.897593 21447 layer_factory.hpp:77] Creating layer relu3_0
I0409 13:44:18.897599 21447 net.cpp:84] Creating Layer relu3_0
I0409 13:44:18.897603 21447 net.cpp:406] relu3_0 <- conv3_0
I0409 13:44:18.897606 21447 net.cpp:367] relu3_0 -> conv3_0 (in-place)
I0409 13:44:18.897927 21447 net.cpp:122] Setting up relu3_0
I0409 13:44:18.897938 21447 net.cpp:129] Top shape: 128 64 24 24 (4718592)
I0409 13:44:18.897939 21447 net.cpp:137] Memory required for data: 627597312
I0409 13:44:18.897943 21447 layer_factory.hpp:77] Creating layer conv3_0_relu3_0_0_split
I0409 13:44:18.897948 21447 net.cpp:84] Creating Layer conv3_0_relu3_0_0_split
I0409 13:44:18.897951 21447 net.cpp:406] conv3_0_relu3_0_0_split <- conv3_0
I0409 13:44:18.897955 21447 net.cpp:380] conv3_0_relu3_0_0_split -> conv3_0_relu3_0_0_split_0
I0409 13:44:18.897960 21447 net.cpp:380] conv3_0_relu3_0_0_split -> conv3_0_relu3_0_0_split_1
I0409 13:44:18.897996 21447 net.cpp:122] Setting up conv3_0_relu3_0_0_split
I0409 13:44:18.898001 21447 net.cpp:129] Top shape: 128 64 24 24 (4718592)
I0409 13:44:18.898005 21447 net.cpp:129] Top shape: 128 64 24 24 (4718592)
I0409 13:44:18.898006 21447 net.cpp:137] Memory required for data: 665346048
I0409 13:44:18.898008 21447 layer_factory.hpp:77] Creating layer conv4
I0409 13:44:18.898016 21447 net.cpp:84] Creating Layer conv4
I0409 13:44:18.898018 21447 net.cpp:406] conv4 <- conv3_0_relu3_0_0_split_0
I0409 13:44:18.898023 21447 net.cpp:380] conv4 -> conv4
I0409 13:44:18.900337 21447 net.cpp:122] Setting up conv4
I0409 13:44:18.900349 21447 net.cpp:129] Top shape: 128 64 24 24 (4718592)
I0409 13:44:18.900352 21447 net.cpp:137] Memory required for data: 684220416
I0409 13:44:18.900357 21447 layer_factory.hpp:77] Creating layer relu4
I0409 13:44:18.900364 21447 net.cpp:84] Creating Layer relu4
I0409 13:44:18.900367 21447 net.cpp:406] relu4 <- conv4
I0409 13:44:18.900372 21447 net.cpp:367] relu4 -> conv4 (in-place)
I0409 13:44:18.900698 21447 net.cpp:122] Setting up relu4
I0409 13:44:18.900709 21447 net.cpp:129] Top shape: 128 64 24 24 (4718592)
I0409 13:44:18.900712 21447 net.cpp:137] Memory required for data: 703094784
I0409 13:44:18.900714 21447 layer_factory.hpp:77] Creating layer conv5
I0409 13:44:18.900722 21447 net.cpp:84] Creating Layer conv5
I0409 13:44:18.900725 21447 net.cpp:406] conv5 <- conv4
I0409 13:44:18.900730 21447 net.cpp:380] conv5 -> conv5
I0409 13:44:18.902552 21447 net.cpp:122] Setting up conv5
I0409 13:44:18.902565 21447 net.cpp:129] Top shape: 128 64 24 24 (4718592)
I0409 13:44:18.902567 21447 net.cpp:137] Memory required for data: 721969152
I0409 13:44:18.902572 21447 layer_factory.hpp:77] Creating layer res2
I0409 13:44:18.902580 21447 net.cpp:84] Creating Layer res2
I0409 13:44:18.902582 21447 net.cpp:406] res2 <- conv3_0_relu3_0_0_split_1
I0409 13:44:18.902585 21447 net.cpp:406] res2 <- conv5
I0409 13:44:18.902590 21447 net.cpp:380] res2 -> res2
I0409 13:44:18.902614 21447 net.cpp:122] Setting up res2
I0409 13:44:18.902619 21447 net.cpp:129] Top shape: 128 64 24 24 (4718592)
I0409 13:44:18.902621 21447 net.cpp:137] Memory required for data: 740843520
I0409 13:44:18.902623 21447 layer_factory.hpp:77] Creating layer pool3
I0409 13:44:18.902628 21447 net.cpp:84] Creating Layer pool3
I0409 13:44:18.902631 21447 net.cpp:406] pool3 <- res2
I0409 13:44:18.902635 21447 net.cpp:380] pool3 -> pool3
I0409 13:44:18.902667 21447 net.cpp:122] Setting up pool3
I0409 13:44:18.902671 21447 net.cpp:129] Top shape: 128 64 12 12 (1179648)
I0409 13:44:18.902674 21447 net.cpp:137] Memory required for data: 745562112
I0409 13:44:18.902676 21447 layer_factory.hpp:77] Creating layer relu5
I0409 13:44:18.902680 21447 net.cpp:84] Creating Layer relu5
I0409 13:44:18.902683 21447 net.cpp:406] relu5 <- pool3
I0409 13:44:18.902685 21447 net.cpp:367] relu5 -> pool3 (in-place)
I0409 13:44:18.902984 21447 net.cpp:122] Setting up relu5
I0409 13:44:18.902993 21447 net.cpp:129] Top shape: 128 64 12 12 (1179648)
I0409 13:44:18.902997 21447 net.cpp:137] Memory required for data: 750280704
I0409 13:44:18.902999 21447 layer_factory.hpp:77] Creating layer fc1_0
I0409 13:44:18.903007 21447 net.cpp:84] Creating Layer fc1_0
I0409 13:44:18.903009 21447 net.cpp:406] fc1_0 <- pool3
I0409 13:44:18.903015 21447 net.cpp:380] fc1_0 -> fc1_0
I0409 13:44:19.324564 21447 net.cpp:122] Setting up fc1_0
I0409 13:44:19.324589 21447 net.cpp:129] Top shape: 128 2048 (262144)
I0409 13:44:19.324592 21447 net.cpp:137] Memory required for data: 751329280
I0409 13:44:19.324606 21447 layer_factory.hpp:77] Creating layer relu6_0
I0409 13:44:19.324615 21447 net.cpp:84] Creating Layer relu6_0
I0409 13:44:19.324618 21447 net.cpp:406] relu6_0 <- fc1_0
I0409 13:44:19.324623 21447 net.cpp:367] relu6_0 -> fc1_0 (in-place)
I0409 13:44:19.324841 21447 net.cpp:122] Setting up relu6_0
I0409 13:44:19.324849 21447 net.cpp:129] Top shape: 128 2048 (262144)
I0409 13:44:19.324875 21447 net.cpp:137] Memory required for data: 752377856
I0409 13:44:19.324879 21447 layer_factory.hpp:77] Creating layer drop1_0
I0409 13:44:19.324887 21447 net.cpp:84] Creating Layer drop1_0
I0409 13:44:19.324889 21447 net.cpp:406] drop1_0 <- fc1_0
I0409 13:44:19.324896 21447 net.cpp:367] drop1_0 -> fc1_0 (in-place)
I0409 13:44:19.324918 21447 net.cpp:122] Setting up drop1_0
I0409 13:44:19.324923 21447 net.cpp:129] Top shape: 128 2048 (262144)
I0409 13:44:19.324924 21447 net.cpp:137] Memory required for data: 753426432
I0409 13:44:19.324926 21447 layer_factory.hpp:77] Creating layer fc2_0
I0409 13:44:19.324932 21447 net.cpp:84] Creating Layer fc2_0
I0409 13:44:19.324935 21447 net.cpp:406] fc2_0 <- fc1_0
I0409 13:44:19.324940 21447 net.cpp:380] fc2_0 -> fc2_0
I0409 13:44:19.418776 21447 net.cpp:122] Setting up fc2_0
I0409 13:44:19.418800 21447 net.cpp:129] Top shape: 128 2048 (262144)
I0409 13:44:19.418804 21447 net.cpp:137] Memory required for data: 754475008
I0409 13:44:19.418812 21447 layer_factory.hpp:77] Creating layer relu7_0
I0409 13:44:19.418823 21447 net.cpp:84] Creating Layer relu7_0
I0409 13:44:19.418826 21447 net.cpp:406] relu7_0 <- fc2_0
I0409 13:44:19.418833 21447 net.cpp:367] relu7_0 -> fc2_0 (in-place)
I0409 13:44:19.419293 21447 net.cpp:122] Setting up relu7_0
I0409 13:44:19.419306 21447 net.cpp:129] Top shape: 128 2048 (262144)
I0409 13:44:19.419308 21447 net.cpp:137] Memory required for data: 755523584
I0409 13:44:19.419312 21447 layer_factory.hpp:77] Creating layer drop2_0
I0409 13:44:19.419319 21447 net.cpp:84] Creating Layer drop2_0
I0409 13:44:19.419322 21447 net.cpp:406] drop2_0 <- fc2_0
I0409 13:44:19.419327 21447 net.cpp:367] drop2_0 -> fc2_0 (in-place)
I0409 13:44:19.419353 21447 net.cpp:122] Setting up drop2_0
I0409 13:44:19.419358 21447 net.cpp:129] Top shape: 128 2048 (262144)
I0409 13:44:19.419360 21447 net.cpp:137] Memory required for data: 756572160
I0409 13:44:19.419363 21447 layer_factory.hpp:77] Creating layer fc3_0
I0409 13:44:19.419369 21447 net.cpp:84] Creating Layer fc3_0
I0409 13:44:19.419371 21447 net.cpp:406] fc3_0 <- fc2_0
I0409 13:44:19.419378 21447 net.cpp:380] fc3_0 -> fc3_0
I0409 13:44:19.421998 21447 net.cpp:122] Setting up fc3_0
I0409 13:44:19.422009 21447 net.cpp:129] Top shape: 128 48 (6144)
I0409 13:44:19.422013 21447 net.cpp:137] Memory required for data: 756596736
I0409 13:44:19.422019 21447 layer_factory.hpp:77] Creating layer loss
I0409 13:44:19.422025 21447 net.cpp:84] Creating Layer loss
I0409 13:44:19.422029 21447 net.cpp:406] loss <- fc3_0
I0409 13:44:19.422032 21447 net.cpp:406] loss <- pose
I0409 13:44:19.422035 21447 net.cpp:380] loss -> loss
I0409 13:44:19.422152 21447 net.cpp:122] Setting up loss
…
  top: "data"
  top: "label"
  include {
    phase: TEST
  }
  transform_param {
    is_trans: false
    is_rotate: false
    is_zoom: false
  }
  pose_data_param {
    image_source: "/home/workspace/Datasets/ICVL/test_image.txt"
    label_source: "/home/workspace/Datasets/ICVL/test_label.txt"
    batch_size: 128
    shuffle: false
    new_height: 96
    new_width: 96
    root_folder: "/home/workspace/Datasets/ICVL/test/Depth/"
    point_num: 16
    point_dim: 3
    fx: 240.99
    fy: 240.96
    output_center: true
    cube_length: 150
    dataset: ICVL
  }
}
layer {
  name: "pose"
  type: "Slice"
  bottom: "label"
  top: "pose"
  top: "center"
  include {
    phase: TEST
  }
  slice_param {
    slice_dim: 1
    slice_point: 48
  }
}
layer {
  name: "conv0"
  type: "Convolution"
  bottom: "data"
  top: "conv0"
  param {
    lr_mult: 1
  }
  param {
    lr_mult: 2
  }
  convolution_param {
    num_output: 16
    pad: 1
    kernel_size: 3
    stride: 1
    weight_filler {
      type: "msra"
    }
    bias_filler {
      type: "constant"
    }
  }
}
layer {
  name: "relu0"
  type: "ReLU"
  bottom: "conv0"
  top: "conv0"
}
layer {
  name: "conv1"
  type: "Convolution"
  bottom: "conv0"
  top: "conv1"
  param {
    lr_mult: 1
  }
  param {
    lr_mult: 2
  }
  convolution_param {
    num_output: 16
    pad: 1
    kernel_size: 3
    stride: 1
    weight_filler {
      type: "msra"
    }
    bias_filler {
      type: "constant"
    }
  }
}
layer {
  name: "pool1"
  type: "Pooling"
  bottom: "conv1"
  top: "pool1"
  pooling_param {
    pool: MAX
    kernel_size: 2
    stride: 2
  }
}
layer {
  name: "relu1"
  type: "ReLU"
  bottom: "pool1"
  top: "pool1"
}
layer {
  name: "conv2_0"
  type: "Convolution"
  bottom: "pool1"
  top: "conv2_0"
  param {
    lr_mult: 1
  }
  param {
    lr_mult: 2
  }
  convolution_param {
    num_output: 32
    pad: 0
    kernel_size: 1
    stride: 1
    weight_filler {
      type: "msra"
    }
    bias_filler {
      type: "constant"
    }
  }
}
layer {
  name: "relu2_0"
  type: "ReLU"
  bottom: "conv2_0"
  top: "conv2_0"
}
layer {
  name: "conv2"
  type: "Convolution"
  bottom: "conv2_0"
  top: "conv2"
  param {
    lr_mult: 1
  }
  param {
    lr_mult: 2
  }
  convolution_param {
    num_output: 32
    pad: 1
    kernel_size: 3
    stride: 1
    weight_filler {
      type: "msra"
    }
    bias_filler {
      type: "constant"
    }
  }
}
layer {
  name: "relu2"
  type: "ReLU"
  bottom: "conv2"
  top: "conv2"
}
layer {
  name: "conv3"
  type: "Convolution"
  bottom: "conv2"
  top: "conv3"
  param {
    lr_mult: 1
  }
  param {
    lr_mult: 2
  }
  convolution_param {
    num_output: 32
    pad: 1
    kernel_size: 3
    stride: 1
    weight_filler {
      type: "msra"
    }
    bias_filler {
      type: "constant"
    }
  }
}
layer {
  name: "res1"
  type: "Eltwise"
  bottom: "conv2_0"
  bottom: "conv3"
  top: "res1"
}
layer {
  name: "pool2"
  type: "Pooling"
  bottom: "res1"
  top: "pool2"
  pooling_param {
    pool: MAX
    kernel_size: 2
    stride: 2
  }
}
layer {
  name: "relu3"
  type: "ReLU"
  bottom: "pool2"
  top: "pool2"
}
layer {
  name: "conv3_0"
  type: "Convolution"
  bottom: "pool2"
  top: "conv3_0"
  param {
    lr_mult: 1
  }
  param {
    lr_mult: 2
  }
  convolution_param {
    num_output: 64
    pad: 0
    kernel_size: 1
    stride: 1
    weight_filler {
      type: "msra"
    }
    bias_filler {
      type: "constant"
    }
  }
}
layer {
  name: "relu3_0"
  type: "ReLU"
  bottom: "conv3_0"
  top: "conv3_0"
}
layer {
  name: "conv4"
  type: "Convolution"
  bottom: "conv3_0"
  top: "conv4"
  param {
    lr_mult: 1
  }
  param {
    lr_mult: 2
  }
  convolution_param {
    num_output: 64
    pad: 1
    kernel_size: 3
    stride: 1
    weight_filler {
      type: "msra"
    }
    bias_filler {
      type: "constant"
    }
  }
}
layer {
  name: "relu4"
  type: "ReLU"
  bottom: "conv4"
  top: "conv4"
}
layer {
  name: "conv5"
  type: "Convolution"
  bottom: "conv4"
  top: "conv5"
  param {
    lr_mult: 1
  }
  param {
    lr_mult: 2
  }
  convolution_param {
    num_output: 64
    pad: 1
    kernel_size: 3
    stride: 1
    weight_filler {
      type: "msra"
    }
    bias_filler {
      type: "constant"
    }
  }
}
layer {
  name: "res2"
  type: "Eltwise"
  bottom: "conv3_0"
  bottom: "conv5"
  top: "res2"
}
layer {
  name: "pool3"
  type: "Pooling"
  bottom: "res2"
  top: "pool3"
  pooling_param {
    pool: MAX
    kernel_size: 2
    stride: 2
  }
}
layer {
  name: "relu5"
  type: "ReLU"
  bottom: "pool3"
  top: "pool3"
}
layer {
  name: "fc1_0"
  type: "InnerProduct"
  bottom: "pool3"
  top: "fc1_0"
  param {
    lr_mult: 1
  }
  param {
    lr_mult: 2
  }
  inner_product_param {
    num_output: 2048
    weight_filler {
      type: "gaussian"
      std: 0.001
    }
    bias_filler {
      type: "constant"
    }
  }
}
layer {
  name: "relu6_0"
  type: "ReLU"
  bottom: "fc1_0"
  top: "fc1_0"
}
layer {
  name: "drop1_0"
  type: "Dropout"
  bottom: "fc1_0"
  top: "fc1_0"
  dropout_param {
    dropout_ratio: 0.5
  }
}
layer {
  name: "fc2_0"
  type: "InnerProduct"
  bottom: "fc1_0"
  top: "fc2_0"
  param {
    lr_mult: 1
  }
  param {
    lr_mult: 2
  }
  inner_product_param {
    num_output: 2048
    weight_filler {
      type: "gaussian"
      std: 0.001
    }
    bias_filler {
      type: "constant"
    }
  }
}
layer {
  name: "relu7_0"
  type: "ReLU"
  bottom: "fc2_0"
  top: "fc2_0"
}
layer {
  name: "drop2_0"
  type: "Dropout"
  bottom: "fc2_0"
  top: "fc2_0"
  dropout_param {
    dropout_ratio: 0.5
  }
}
layer {
  name: "fc3_0"
  type: "InnerProduct"
  bottom: "fc2_0"
  top: "fc3_0"
  param {
    lr_mult: 1
  }
  param {
    lr_mult: 2
  }
  inner_product_param {
    num_output: 48
    weight_filler {
      type: "gaussian"
      std: 0.001
    }
    bias_filler {
      type: "constant"
    }
  }
}
layer {
  name: "loss"
  type: "SmoothL1Loss"
  bottom: "fc3_0"
  bottom: "pose"
  top: "loss"
  loss_weight: 1
  smooth_l1_loss_param {
    sigma: 10
  }
}
layer {
  name: "distance"
  type: "PoseDistance"
  bottom: "fc3_0"
  bottom: "pose"
  bottom: "center"
  top: "distance"
  loss_weight: 0
  include {
    phase: TEST
  }
  pose_distance_param {
    fx: 240.99
    fy: 240.96
    ux: 160
    uy: 120
    cube_length: 150
  }
}
I0409 13:44:19.423173 21447 layer_factory.hpp:77] Creating layer data
I0409 13:44:19.423188 21447 net.cpp:84] Creating Layer data
I0409 13:44:19.423194 21447 net.cpp:380] data -> data
I0409 13:44:19.423203 21447 net.cpp:380] data -> label
I0409 13:44:19.423215 21447 pose_data_layer.cpp:117] Opening file /home/workspace/Datasets/ICVL/test_image.txt
I0409 13:44:19.423230 21447 pose_data_layer.cpp:119] Opening file /home/workspace/Datasets/ICVL/test_label.txt
I0409 13:44:20.354370 21447 pose_data_layer.cpp:269] Loading 1069 image...
I0409 13:44:20.844807 21447 pose_data_layer.cpp:287] A total of 1596 images.
I0409 13:44:20.844960 21447 pose_data_layer.cpp:329] output data size: 128,1,96,96
I0409 13:44:20.853593 21447 net.cpp:122] Setting up data
I0409 13:44:20.853618 21447 net.cpp:129] Top shape: 128 1 96 96 (1179648)
I0409 13:44:20.853622 21447 net.cpp:129] Top shape: 128 51 (6528)
I0409 13:44:20.853626 21447 net.cpp:137] Memory required for data: 4744704
I0409 13:44:20.853631 21447 layer_factory.hpp:77] Creating layer pose
I0409 13:44:20.853644 21447 net.cpp:84] Creating Layer pose
I0409 13:44:20.853647 21447 net.cpp:406] pose <- label
I0409 13:44:20.853654 21447 net.cpp:380] pose -> pose
I0409 13:44:20.853665 21447 net.cpp:380] pose -> center
I0409 13:44:20.853735 21447 net.cpp:122] Setting up pose
I0409 13:44:20.853742 21447 net.cpp:129] Top shape: 128 48 (6144)
I0409 13:44:20.853745 21447 net.cpp:129] Top shape: 128 3 (384)
I0409 13:44:20.853749 21447 net.cpp:137] Memory required for data: 4770816
I0409 13:44:20.853750 21447 layer_factory.hpp:77] Creating layer pose_pose_0_split
I0409 13:44:20.853756 21447 net.cpp:84] Creating Layer pose_pose_0_split
I0409 13:44:20.853760 21447 net.cpp:406] pose_pose_0_split <- pose
I0409 13:44:20.853763 21447 net.cpp:380] pose_pose_0_split -> pose_pose_0_split_0
I0409 13:44:20.853767 21447 net.cpp:380] pose_pose_0_split -> pose_pose_0_split_1
I0409 13:44:20.853797 21447 net.cpp:122] Setting up pose_pose_0_split
I0409 13:44:20.853802 21447 net.cpp:129] Top shape: 128 48 (6144)
I0409 13:44:20.853806 21447 net.cpp:129] Top shape: 128 48 (6144)
I0409 13:44:20.853807 21447 net.cpp:137] Memory required for data: 4819968
I0409 13:44:20.853811 21447 layer_factory.hpp:77] Creating layer conv0
I0409 13:44:20.853819 21447 net.cpp:84] Creating Layer conv0
I0409 13:44:20.853822 21447 net.cpp:406] conv0 <- data
I0409 13:44:20.853827 21447 net.cpp:380] conv0 -> conv0
I0409 13:44:20.855480 21447 net.cpp:122] Setting up conv0
I0409 13:44:20.855492 21447 net.cpp:129] Top shape: 128 16 96 96 (18874368)
I0409 13:44:20.855495 21447 net.cpp:137] Memory required for data: 80317440
I0409 13:44:20.855507 21447 layer_factory.hpp:77] Creating layer relu0
I0409 13:44:20.855515 21447 net.cpp:84] Creating Layer relu0
I0409 13:44:20.855520 21447 net.cpp:406] relu0 <- conv0
I0409 13:44:20.855528 21447 net.cpp:367] relu0 -> conv0 (in-place)
I0409 13:44:20.855834 21447 net.cpp:122] Setting up relu0
I0409 13:44:20.855844 21447 net.cpp:129] Top shape: 128 16 96 96 (18874368)
I0409 13:44:20.855849 21447 net.cpp:137] Memory required for data: 155814912
I0409 13:44:20.855854 21447 layer_factory.hpp:77] Creating layer conv1
I0409 13:44:20.855865 21447 net.cpp:84] Creating Layer conv1
I0409 13:44:20.855870 21447 net.cpp:406] conv1 <- conv0
I0409 13:44:20.855876 21447 net.cpp:380] conv1 -> conv1
I0409 13:44:20.856925 21447 net.cpp:122] Setting up conv1
I0409 13:44:20.856935 21447 net.cpp:129] Top shape: 128 16 96 96 (18874368)
I0409 13:44:20.856940 21447 net.cpp:137] Memory required for data: 231312384
I0409 13:44:20.856950 21447 layer_factory.hpp:77] Creating layer pool1
I0409 13:44:20.856957 21447 net.cpp:84] Creating Layer pool1
I0409 13:44:20.856961 21447 net.cpp:406] pool1 <- conv1
I0409 13:44:20.856964 21447 net.cpp:380] pool1 -> pool1
I0409 13:44:20.857003 21447 net.cpp:122] Setting up pool1
I0409 13:44:20.857009 21447 net.cpp:129] Top shape: 128 16 48 48 (4718592)
I0409 13:44:20.857013 21447 net.cpp:137] Memory required for data: 250186752
I0409 13:44:20.857023 21447 layer_factory.hpp:77] Creating layer relu1
I0409 13:44:20.857028 21447 net.cpp:84] Creating Layer relu1
I0409 13:44:20.857033 21447 net.cpp:406] relu1 <- pool1
I0409 13:44:20.857038 21447 net.cpp:367] relu1 -> pool1 (in-place)
I0409 13:44:20.857197 21447 net.cpp:122] Setting up relu1
I0409 13:44:20.857205 21447 net.cpp:129] Top shape: 128 16 48 48 (4718592)
I0409 13:44:20.857208 21447 net.cpp:137] Memory required for data: 269061120
I0409 13:44:20.857210 21447 layer_factory.hpp:77] Creating layer conv2_0
I0409 13:44:20.857218 21447 net.cpp:84] Creating Layer conv2_0
I0409 13:44:20.857220 21447 net.cpp:406] conv2_0 <- pool1
I0409 13:44:20.857230 21447 net.cpp:380] conv2_0 -> conv2_0
I0409 13:44:20.858441 21447 net.cpp:122] Setting up conv2_0
I0409 13:44:20.858454 21447 net.cpp:129] Top shape: 128 32 48 48 (9437184)
I0409 13:44:20.858458 21447 net.cpp:137] Memory required for data: 306809856
I0409 13:44:20.858465 21447 layer_factory.hpp:77] Creating layer relu2_0
I0409 13:44:20.858472 21447 net.cpp:84] Creating Layer relu2_0
I0409 13:44:20.858476 21447 net.cpp:406] relu2_0 <- conv2_0
I0409 13:44:20.858486 21447 net.cpp:367] relu2_0 -> conv2_0 (in-place)
I0409 13:44:20.858798 21447 net.cpp:122] Setting up relu2_0
I0409 13:44:20.858808 21447 net.cpp:129] Top shape: 128 32 48 48 (9437184)
I0409 13:44:20.858811 21447 net.cpp:137] Memory required for data: 344558592
I0409 13:44:20.858814 21447 layer_factory.hpp:77] Creating layer conv2_0_relu2_0_0_split
I0409 13:44:20.858819 21447 net.cpp:84] Creating Layer conv2_0_relu2_0_0_split
I0409 13:44:20.858821 21447 net.cpp:406] conv2_0_relu2_0_0_split <- conv2_0
I0409 13:44:20.858829 21447 net.cpp:380] conv2_0_relu2_0_0_split -> conv2_0_relu2_0_0_split_0
I0409 13:44:20.858836 21447 net.cpp:380] conv2_0_relu2_0_0_split -> conv2_0_relu2_0_0_split_1
I0409 13:44:20.858881 21447 net.cpp:122] Setting up conv2_0_relu2_0_0_split
I0409 13:44:20.858891 21447 net.cpp:129] Top shape: 128 32 48 48 (9437184)
I0409 13:44:20.858894 21447 net.cpp:129] Top shape: 128 32 48 48 (9437184)
I0409 13:44:20.858896 21447 net.cpp:137] Memory required for data: 420056064
I0409 13:44:20.858899 21447 layer_factory.hpp:77] Creating layer conv2
I0409 13:44:20.858907 21447 net.cpp:84] Creating Layer conv2
I0409 13:44:20.858912 21447 net.cpp:406] conv2 <- conv2_0_relu2_0_0_split_0
I0409 13:44:20.858922 21447 net.cpp:380] conv2 -> conv2
I0409 13:44:20.860113 21447 net.cpp:122] Setting up conv2
I0409 13:44:20.860126 21447 net.cpp:129] Top shape: 128 32 48 48 (9437184)
I0409 13:44:20.860131 21447 net.cpp:137] Memory required for data: 457804800
I0409 13:44:20.860139 21447 layer_factory.hpp:77] Creating layer relu2
I0409 13:44:20.860146 21447 net.cpp:84] Creating Layer relu2
I0409 13:44:20.860148 21447 net.cpp:406] relu2 <- conv2
I0409 13:44:20.860154 21447 net.cpp:367] relu2 -> conv2 (in-place)
I0409 13:44:20.860321 21447 net.cpp:122] Setting up relu2
I0409 13:44:20.860330 21447 net.cpp:129] Top shape: 128 32 48 48 (9437184)
I0409 13:44:20.860335 21447 net.cpp:137] Memory required for data: 495553536
I0409 13:44:20.860340 21447 layer_factory.hpp:77] Creating layer conv3
I0409 13:44:20.860352 21447 net.cpp:84] Creating Layer conv3
I0409 13:44:20.860357 21447 net.cpp:406] conv3 <- conv2
I0409 13:44:20.860363 21447 net.cpp:380] conv3 -> conv3
I0409 13:44:20.862273 21447 net.cpp:122] Setting up conv3
I0409 13:44:20.862288 21447 net.cpp:129] Top shape: 128 32 48 48 (9437184)
I0409 13:44:20.862293 21447 net.cpp:137] Memory required for data: 533302272
I0409 13:44:20.862308 21447 layer_factory.hpp:77] Creating layer res1
I0409 13:44:20.862318 21447 net.cpp:84] Creating Layer res1
I0409 13:44:20.862325 21447 net.cpp:406] res1 <- conv2_0_relu2_0_0_split_1
I0409 13:44:20.862332 21447 net.cpp:406] res1 <- conv3
I0409 13:44:20.862341 21447 net.cpp:380] res1 -> res1
I0409 13:44:20.862376 21447 net.cpp:122] Setting up res1
I0409 13:44:20.862385 21447 net.cpp:129] Top shape: 128 32 48 48 (9437184)
I0409 13:44:20.862390 21447 net.cpp:137] Memory required for data: 571051008
I0409 13:44:20.862397 21447 layer_factory.hpp:77] Creating layer pool2
I0409 13:44:20.862407 21447 net.cpp:84] Creating Layer pool2
I0409 13:44:20.862413 21447 net.cpp:406] pool2 <- res1
I0409 13:44:20.862422 21447 net.cpp:380] pool2 -> pool2
I0409 13:44:20.862476 21447 net.cpp:122] Setting up pool2
I0409 13:44:20.862488 21447 net.cpp:129] Top shape: 128 32 24 24 (2359296)
I0409 13:44:20.862493 21447 net.cpp:137] Memory required for data: 580488192
I0409 13:44:20.862498 21447 layer_factory.hpp:77] Creating layer relu3
I0409 13:44:20.862509 21447 net.cpp:84] Creating Layer relu3
I0409 13:44:20.862514 21447 net.cpp:406] relu3 <- pool2
I0409 13:44:20.862521 21447 net.cpp:367] relu3 -> pool2 (in-place)
I0409 13:44:20.862928 21447 net.cpp:122] Setting up relu3
I0409 13:44:20.862943 21447 net.cpp:129] Top shape: 128 32 24 24 (2359296)
I0409 13:44:20.862951 21447 net.cpp:137] Memory required for data: 589925376
I0409 13:44:20.862957 21447 layer_factory.hpp:77] Creating layer conv3_0
I0409 13:44:20.862973 21447 net.cpp:84] Creating Layer conv3_0
I0409 13:44:20.862979 21447 net.cpp:406] conv3_0 <- pool2
I0409 13:44:20.862988 21447 net.cpp:380] conv3_0 -> conv3_0
I0409 13:44:20.864327 21447 net.cpp:122] Setting up conv3_0
I0409 13:44:20.864344 21447 net.cpp:129] Top shape: 128 64 24 24 (4718592)
I0409 13:44:20.864351 21447 net.cpp:137] Memory required for data: 608799744
I0409 13:44:20.864361 21447 layer_factory.hpp:77] Creating layer relu3_0
I0409 13:44:20.864369 21447 net.cpp:84] Creating Layer relu3_0
I0409 13:44:20.864377 21447 net.cpp:406] relu3_0 <- conv3_0
I0409 13:44:20.864387 21447 net.cpp:367] relu3_0 -> conv3_0 (in-place)
I0409 13:44:20.864727 21447 net.cpp:122] Setting up relu3_0
I0409 13:44:20.864737 21447 net.cpp:129] Top shape: 128 64 24 24 (4718592)
I0409 13:44:20.864742 21447 net.cpp:137] Memory required for data: 627674112
I0409 13:44:20.864744 21447 layer_factory.hpp:77] Creating layer conv3_0_relu3_0_0_split
I0409 13:44:20.864751 21447 net.cpp:84] Creating Layer conv3_0_relu3_0_0_split
I0409 13:44:20.864764 21447 net.cpp:406] conv3_0_relu3_0_0_split <- conv3_0
I0409 13:44:20.864771 21447 net.cpp:380] conv3_0_relu3_0_0_split -> conv3_0_relu3_0_0_split_0
I0409 13:44:20.864780 21447 net.cpp:380] conv3_0_relu3_0_0_split -> conv3_0_relu3_0_0_split_1
I0409 13:44:20.864835 21447 net.cpp:122] Setting up conv3_0_relu3_0_0_split
I0409 13:44:20.864886 21447 net.cpp:129] Top shape: 128 64 24 24 (4718592)
I0409 13:44:20.864897 21447 net.cpp:129] Top shape: 128 64 24 24 (4718592)
I0409 13:44:20.864900 21447 net.cpp:137] Memory required for data: 665422848
I0409 13:44:20.864905 21447 layer_factory.hpp:77] Creating layer conv4
I0409 13:44:20.864918 21447 net.cpp:84] Creating Layer conv4
I0409 13:44:20.864924 21447 net.cpp:406] conv4 <- conv3_0_relu3_0_0_split_0
I0409 13:44:20.864934 21447 net.cpp:380] conv4 -> conv4
I0409 13:44:20.866962 21447 net.cpp:122] Setting up conv4
I0409 13:44:20.866974 21447 net.cpp:129] Top shape: 128 64 24 24 (4718592)
I0409 13:44:20.866981 21447 net.cpp:137] Memory required for data: 684297216
I0409 13:44:20.866989 21447 layer_factory.hpp:77] Creating layer relu4
I0409 13:44:20.867002 21447 net.cpp:84] Creating Layer relu4
I0409 13:44:20.867007 21447 net.cpp:406] relu4 <- conv4
I0409 13:44:20.867015 21447 net.cpp:367] relu4 -> conv4 (in-place)
I0409 13:44:20.867247 21447 net.cpp:122] Setting up relu4
I0409 13:44:20.867260 21447 net.cpp:129] Top shape: 128 64 24 24 (4718592)
I0409 13:44:20.867265 21447 net.cpp:137] Memory required for data: 703171584
I0409 13:44:20.867271 21447 layer_factory.hpp:77] Creating layer conv5
I0409 13:44:20.867285 21447 net.cpp:84] Creating Layer conv5
I0409 13:44:20.867291 21447 net.cpp:406] conv5 <- conv4
I0409 13:44:20.867301 21447 net.cpp:380] conv5 -> conv5
I0409 13:44:20.869602 21447 net.cpp:122] Setting up conv5
I0409 13:44:20.869614 21447 net.cpp:129] Top shape: 128 64 24 24 (4718592)
I0409 13:44:20.869617 21447 net.cpp:137] Memory required for data: 722045952
I0409 13:44:20.869630 21447 layer_factory.hpp:77] Creating layer res2
I0409 13:44:20.869639 21447 net.cpp:84] Creating Layer res2
I0409 13:44:20.869645 21447 net.cpp:406] res2 <- conv3_0_relu3_0_0_split_1
I0409 13:44:20.869652 21447 net.cpp:406] res2 <- conv5
I0409 13:44:20.869663 21447 net.cpp:380] res2 -> res2
I0409 13:44:20.869698 21447 net.cpp:122] Setting up res2
I0409 13:44:20.869709 21447 net.cpp:129] Top shape: 128 64 24 24 (4718592)
I0409 13:44:20.869714 21447 net.cpp:137] Memory required for data: 740920320
I0409 13:44:20.869719 21447 layer_factory.hpp:77] Creating layer pool3
I0409 13:44:20.869729 21447 net.cpp:84] Creating Layer pool3
I0409 13:44:20.869735 21447 net.cpp:406] pool3 <- res2
I0409 13:44:20.869743 21447 net.cpp:380] pool3 -> pool3
I0409 13:44:20.869798 21447 net.cpp:122] Setting up pool3
I0409 13:44:20.869807 21447 net.cpp:129] Top shape: 128 64 12 12 (1179648)
I0409 13:44:20.869812 21447 net.cpp:137] Memory required for data: 745638912
I0409 13:44:20.869818 21447 layer_factory.hpp:77] Creating layer relu5
I0409 13:44:20.869825 21447 net.cpp:84] Creating Layer relu5
I0409 13:44:20.869832 21447 net.cpp:406] relu5 <- pool3
I0409 13:44:20.869839 21447 net.cpp:367] relu5 -> pool3 (in-place)
I0409 13:44:20.870256 21447 net.cpp:122] Setting up relu5
I0409 13:44:20.870271 21447 net.cpp:129] Top shape: 128 64 12 12 (1179648)
I0409 13:44:20.870277 21447 net.cpp:137] Memory required for data: 750357504
I0409 13:44:20.870282 21447 layer_factory.hpp:77] Creating layer fc1_0
I0409 13:44:20.870293 21447 net.cpp:84] Creating Layer fc1_0
I0409 13:44:20.870299 21447 net.cpp:406] fc1_0 <- pool3
I0409 13:44:20.870309 21447 net.cpp:380] fc1_0 -> fc1_0
I0409 13:44:21.289952 21447 net.cpp:122] Setting up fc1_0
I0409 13:44:21.289978 21447 net.cpp:129] Top shape: 128 2048 (262144)
I0409 13:44:21.289981 21447 net.cpp:137] Memory required for data: 751406080
I0409 13:44:21.289994 21447 layer_factory.hpp:77] Creating layer relu6_0
I0409 13:44:21.290004 21447 net.cpp:84] Creating Layer relu6_0
I0409 13:44:21.290007 21447 net.cpp:406] relu6_0 <- fc1_0
I0409 13:44:21.290014 21447 net.cpp:367] relu6_0 -> fc1_0 (in-place)
I0409 13:44:21.290314 21447 net.cpp:122] Setting up relu6_0
I0409 13:44:21.290326 21447 net.cpp:129] Top shape: 128 2048 (262144)
I0409 13:44:21.290329 21447 net.cpp:137] Memory required for data: 752454656
I0409 13:44:21.290333 21447 layer_factory.hpp:77] Creating layer drop1_0
I0409 13:44:21.290339 21447 net.cpp:84] Creating Layer drop1_0
I0409 13:44:21.290345 21447 net.cpp:406] drop1_0 <- fc1_0
I0409 13:44:21.290355 21447 net.cpp:367] drop1_0 -> fc1_0 (in-place)
I0409 13:44:21.290387 21447 net.cpp:122] Setting up drop1_0
I0409 13:44:21.290395 21447 net.cpp:129] Top shape: 128 2048 (262144)
I0409 13:44:21.290400 21447 net.cpp:137] Memory required for data: 753503232
I0409 13:44:21.290405 21447 layer_factory.hpp:77] Creating layer fc2_0
I0409 13:44:21.290415 21447 net.cpp:84] Creating Layer fc2_0
I0409 13:44:21.290419 21447 net.cpp:406] fc2_0 <- fc1_0
I0409 13:44:21.290426 21447 net.cpp:380] fc2_0 -> fc2_0
I0409 13:44:21.384196 21447 net.cpp:122] Setting up fc2_0
I0409 13:44:21.384219 21447 net.cpp:129] Top shape: 128 2048 (262144)
I0409 13:44:21.384222 21447 net.cpp:137] Memory required for data: 754551808
I0409 13:44:21.384232 21447 layer_factory.hpp:77] Creating layer relu7_0
I0409 13:44:21.384241 21447 net.cpp:84] Creating Layer relu7_0
I0409 13:44:21.384246 21447 net.cpp:406] relu7_0 <- fc2_0
I0409 13:44:21.384253 21447 net.cpp:367] relu7_0 -> fc2_0 (in-place)
I0409 13:44:21.384737 21447 net.cpp:122] Setting up relu7_0
I0409 13:44:21.384749 21447 net.cpp:129] Top shape: 128 2048 (262144)
I0409 13:44:21.384752 21447 net.cpp:137] Memory required for data: 755600384
I0409 13:44:21.384755 21447 layer_factory.hpp:77] Creating layer drop2_0
I0409 13:44:21.384762 21447 net.cpp:84] Creating Layer drop2_0
I0409 13:44:21.384764 21447 net.cpp:406] drop2_0 <- fc2_0
I0409 13:44:21.384768 21447 net.cpp:367] drop2_0 -> fc2_0 (in-place)
I0409 13:44:21.384799 21447 net.cpp:122] Setting up drop2_0
I0409 13:44:21.384807 21447 net.cpp:129] Top shape: 128 2048 (262144)
I0409 13:44:21.384812 21447 net.cpp:137] Memory required for data: 756648960
I0409 13:44:21.384816 21447 layer_factory.hpp:77] Creating layer fc3_0
I0409 13:44:21.384831 21447 net.cpp:84] Creating Layer fc3_0
I0409 13:44:21.384837 21447 net.cpp:406] fc3_0 <- fc2_0
I0409 13:44:21.384846 21447 net.cpp:380] fc3_0 -> fc3_0
I0409 13:44:21.387219 21447 net.cpp:122] Setting up fc3_0
I0409 13:44:21.387229 21447 net.cpp:129] Top shape: 128 48 (6144)
I0409 13:44:21.387233 21447 net.cpp:137] Memory required for data: 756673536
I0409 13:44:21.387240 21447 layer_factory.hpp:77] Creating layer fc3_0_fc3_0_0_split
I0409 13:44:21.387248 21447 net.cpp:84] Creating Layer fc3_0_fc3_0_0_split
I0409 13:44:21.387253 21447 net.cpp:406] fc3_0_fc3_0_0_split <- fc3_0
I0409 13:44:21.387262 21447 net.cpp:380] fc3_0_fc3_0_0_split -> fc3_0_fc3_0_0_split_0
I0409 13:44:21.387271 21447 net.cpp:380] fc3_0_fc3_0_0_split -> fc3_0_fc3_0_0_split_1
I0409 13:44:21.387320 21447 net.cpp:122] Setting up fc3_0_fc3_0_0_split
I0409 13:44:21.387328 21447 net.cpp:129] Top shape: 128 48 (6144)
I0409 13:44:21.387334 21447 net.cpp:129] Top shape: 128 48 (6144)
I0409 13:44:21.387341 21447 net.cpp:137] Memory required for data: 756722688
I0409 13:44:21.387346 21447 layer_factory.hpp:77] Creating layer loss
I0409 13:44:21.387356 21447 net.cpp:84] Creating Layer loss
I0409 13:44:21.387362 21447 net.cpp:406] loss <- fc3_0_fc3_0_0_split_0
I0409 13:44:21.387369 21447 net.cpp:406] loss <- pose_pose_0_split_0
I0409 13:44:21.387377 21447 net.cpp:380] loss -> loss
…
