…
    phase: TRAIN
  }
  transform_param {
    is_trans: true
    trans_dx: 10
    trans_dy: 10
    is_rotate: true
    rotate_deg: 15
    is_zoom: true
    zoom_scale: 0.1
  }
  pose_data_param {
    image_source: "/home/workspace/Datasets/NYU/train_img.txt"
    label_source: "/home/workspace/Datasets/NYU/train_label.txt"
    batch_size: 128
    shuffle: true
    new_height: 96
    new_width: 96
    root_folder: "/home/workspace/Datasets/NYU/"
    point_num: 14
    point_dim: 3
    fx: 588.03
    fy: 587.07
    cube_length: 150
    dataset: NYU
  }
}
layer {
  name: "conv0"
  type: "Convolution"
  bottom: "data"
  top: "conv0"
  param {
    lr_mult: 1
  }
  param {
    lr_mult: 2
  }
  convolution_param {
    num_output: 16
    pad: 1
    kernel_size: 3
    stride: 1
    weight_filler {
      type: "msra"
    }
    bias_filler {
      type: "constant"
    }
  }
}
layer {
  name: "relu0"
  type: "ReLU"
  bottom: "conv0"
  top: "conv0"
}
layer {
  name: "conv1"
  type: "Convolution"
  bottom: "conv0"
  top: "conv1"
  param {
    lr_mult: 1
  }
  param {
    lr_mult: 2
  }
  convolution_param {
    num_output: 16
    pad: 1
    kernel_size: 3
    stride: 1
    weight_filler {
      type: "msra"
    }
    bias_filler {
      type: "constant"
    }
  }
}
layer {
  name: "pool1"
  type: "Pooling"
  bottom: "conv1"
  top: "pool1"
  pooling_param {
    pool: MAX
    kernel_size: 2
    stride: 2
  }
}
layer {
  name: "relu1"
  type: "ReLU"
  bottom: "pool1"
  top: "pool1"
}
layer {
  name: "conv2_0"
  type: "Convolution"
  bottom: "pool1"
  top: "conv2_0"
  param {
    lr_mult: 1
  }
  param {
    lr_mult: 2
  }
  convolution_param {
    num_output: 32
    pad: 0
    kernel_size: 1
    stride: 1
    weight_filler {
      type: "msra"
    }
    bias_filler {
      type: "constant"
    }
  }
}
layer {
  name: "relu2_0"
  type: "ReLU"
  bottom: "conv2_0"
  top: "conv2_0"
}
layer {
  name: "conv2"
  type: "Convolution"
  bottom: "conv2_0"
  top: "conv2"
  param {
    lr_mult: 1
  }
  param {
    lr_mult: 2
  }
  convolution_param {
    num_output: 32
    pad: 1
    kernel_size: 3
    stride: 1
    weight_filler {
      type: "msra"
    }
    bias_filler {
      type: "constant"
    }
  }
}
layer {
  name: "relu2"
  type: "ReLU"
  bottom: "conv2"
  top: "conv2"
}
layer {
  name: "conv3"
  type: "Convolution"
  bottom: "conv2"
  top: "conv3"
  param {
    lr_mult: 1
  }
  param {
    lr_mult: 2
  }
  convolution_param {
    num_output: 32
    pad: 1
    kernel_size: 3
    stride: 1
    weight_filler {
      type: "msra"
    }
    bias_filler {
      type: "constant"
    }
  }
}
layer {
  name: "res1"
  type: "Eltwise"
  bottom: "conv2_0"
  bottom: "conv3"
  top: "res1"
}
layer {
  name: "pool2"
  type: "Pooling"
  bottom: "res1"
  top: "pool2"
  pooling_param {
    pool: MAX
    kernel_size: 2
    stride: 2
  }
}
layer {
  name: "relu3"
  type: "ReLU"
  bottom: "pool2"
  top: "pool2"
}
layer {
  name: "conv3_0"
  type: "Convolution"
  bottom: "pool2"
  top: "conv3_0"
  param {
    lr_mult: 1
  }
  param {
    lr_mult: 2
  }
  convolution_param {
    num_output: 64
    pad: 0
    kernel_size: 1
    stride: 1
    weight_filler {
      type: "msra"
    }
    bias_filler {
      type: "constant"
    }
  }
}
layer {
  name: "relu3_0"
  type: "ReLU"
  bottom: "conv3_0"
  top: "conv3_0"
}
layer {
  name: "conv4"
  type: "Convolution"
  bottom: "conv3_0"
  top: "conv4"
  param {
    lr_mult: 1
  }
  param {
    lr_mult: 2
  }
  convolution_param {
    num_output: 64
    pad: 1
    kernel_size: 3
    stride: 1
    weight_filler {
      type: "msra"
    }
    bias_filler {
      type: "constant"
    }
  }
}
layer {
  name: "relu4"
  type: "ReLU"
  bottom: "conv4"
  top: "conv4"
}
layer {
  name: "conv5"
  type: "Convolution"
  bottom: "conv4"
  top: "conv5"
  param {
    lr_mult: 1
  }
  param {
    lr_mult: 2
  }
  convolution_param {
    num_output: 64
    pad: 1
    kernel_size: 3
    stride: 1
    weight_filler {
      type: "msra"
    }
    bias_filler {
      type: "constant"
    }
  }
}
layer {
  name: "res2"
  type: "Eltwise"
  bottom: "conv3_0"
  bottom: "conv5"
  top: "res2"
}
layer {
  name: "pool3"
  type: "Pooling"
  bottom: "res2"
  top: "pool3"
  pooling_param {
    pool: MAX
    kernel_size: 2
    stride: 2
  }
}
layer {
  name: "relu5"
  type: "ReLU"
  bottom: "pool3"
  top: "pool3"
}
layer {
  name: "fc1_0"
  type: "InnerProduct"
  bottom: "pool3"
  top: "fc1_0"
  param {
    lr_mult: 1
  }
  param {
    lr_mult: 2
  }
  inner_product_param {
    num_output: 2048
    weight_filler {
      type: "gaussian"
      std: 0.001
    }
    bias_filler {
      type: "constant"
    }
  }
}
layer {
  name: "relu6_0"
  type: "ReLU"
  bottom: "fc1_0"
  top: "fc1_0"
}
layer {
  name: "drop1_0"
  type: "Dropout"
  bottom: "fc1_0"
  top: "fc1_0"
  dropout_param {
    dropout_ratio: 0.5
  }
}
layer {
  name: "fc2_0"
  type: "InnerProduct"
  bottom: "fc1_0"
  top: "fc2_0"
  param {
    lr_mult: 1
  }
  param {
    lr_mult: 2
  }
  inner_product_param {
    num_output: 2048
    weight_filler {
      type: "gaussian"
      std: 0.001
    }
    bias_filler {
      type: "constant"
    }
  }
}
layer {
  name: "relu7_0"
  type: "ReLU"
  bottom: "fc2_0"
  top: "fc2_0"
}
layer {
  name: "drop2_0"
  type: "Dropout"
  bottom: "fc2_0"
  top: "fc2_0"
  dropout_param {
    dropout_ratio: 0.5
  }
}
layer {
  name: "fc3_0"
  type: "InnerProduct"
  bottom: "fc2_0"
  top: "fc3_0"
  param {
    lr_mult: 1
  }
  param {
    lr_mult: 2
  }
  inner_product_param {
    num_output: 42
    weight_filler {
      type: "gaussian"
      std: 0.001
    }
    bias_filler {
      type: "constant"
    }
  }
}
layer {
  name: "loss"
  type: "SmoothL1Loss"
  bottom: "fc3_0"
  bottom: "pose"
  top: "loss"
  loss_weight: 1
  smooth_l1_loss_param {
    sigma: 10
  }
}
I0409 14:09:06.340093 23277 layer_factory.hpp:77] Creating layer data
I0409 14:09:06.340111 23277 net.cpp:84] Creating Layer data
I0409 14:09:06.340118 23277 net.cpp:380] data -> data
I0409 14:09:06.340131 23277 net.cpp:380] data -> pose
I0409 14:09:06.340191 23277 pose_data_layer.cpp:117] Opening file /home/workspace/Datasets/NYU/train_img.txt
…
I0409 14:44:07.399646 23277 pose_data_layer.cpp:269] Loading 66001 image...
I0409 14:45:09.757575 23277 pose_data_layer.cpp:269] Loading 68001 image...
I0409 14:46:07.959756 23277 pose_data_layer.cpp:269] Loading 70001 image...
I0409 14:47:10.816442 23277 pose_data_layer.cpp:269] Loading 72001 image...
I0409 14:47:30.832259 23277 pose_data_layer.cpp:282] Shuffling data
I0409 14:47:30.833479 23277 pose_data_layer.cpp:287] A total of 72757 images.
I0409 14:47:30.834220 23277 pose_data_layer.cpp:329] output data size: 128,1,96,96
I0409 14:47:30.849458 23277 net.cpp:122] Setting up data
I0409 14:47:30.849484 23277 net.cpp:129] Top shape: 128 1 96 96 (1179648)
I0409 14:47:30.849489 23277 net.cpp:129] Top shape: 128 42 (5376)
I0409 14:47:30.849493 23277 net.cpp:137] Memory required for data: 4740096
I0409 14:47:30.849500 23277 layer_factory.hpp:77] Creating layer conv0
I0409 14:47:30.849522 23277 net.cpp:84] Creating Layer conv0
I0409 14:47:30.849530 23277 net.cpp:406] conv0 <- data
I0409 14:47:30.849541 23277 net.cpp:380] conv0 -> conv0
I0409 14:47:31.485518 23277 net.cpp:122] Setting up conv0
I0409 14:47:31.485551 23277 net.cpp:129] Top shape: 128 16 96 96 (18874368)
I0409 14:47:31.485558 23277 net.cpp:137] Memory required for data: 80237568
I0409 14:47:31.485577 23277 layer_factory.hpp:77] Creating layer relu0
I0409 14:47:31.485594 23277 net.cpp:84] Creating Layer relu0
I0409 14:47:31.485599 23277 net.cpp:406] relu0 <- conv0
I0409 14:47:31.485607 23277 net.cpp:367] relu0 -> conv0 (in-place)
I0409 14:47:31.488898 23277 net.cpp:122] Setting up relu0
I0409 14:47:31.488912 23277 net.cpp:129] Top shape: 128 16 96 96 (18874368)
I0409 14:47:31.488919 23277 net.cpp:137] Memory required for data: 155735040
I0409 14:47:31.488924 23277 layer_factory.hpp:77] Creating layer conv1
I0409 14:47:31.488937 23277 net.cpp:84] Creating Layer conv1
I0409 14:47:31.488943 23277 net.cpp:406] conv1 <- conv0
I0409 14:47:31.488951 23277 net.cpp:380] conv1 -> conv1
I0409 14:47:31.501361 23277 net.cpp:122] Setting up conv1
I0409 14:47:31.501380 23277 net.cpp:129] Top shape: 128 16 96 96 (18874368)
I0409 14:47:31.501386 23277 net.cpp:137] Memory required for data: 231232512
I0409 14:47:31.501399 23277 layer_factory.hpp:77] Creating layer pool1
I0409 14:47:31.501410 23277 net.cpp:84] Creating Layer pool1
I0409 14:47:31.501416 23277 net.cpp:406] pool1 <- conv1
I0409 14:47:31.501423 23277 net.cpp:380] pool1 -> pool1
I0409 14:47:31.501471 23277 net.cpp:122] Setting up pool1
I0409 14:47:31.501480 23277 net.cpp:129] Top shape: 128 16 48 48 (4718592)
I0409 14:47:31.501484 23277 net.cpp:137] Memory required for data: 250106880
I0409 14:47:31.501489 23277 layer_factory.hpp:77] Creating layer relu1
I0409 14:47:31.501495 23277 net.cpp:84] Creating Layer relu1
I0409 14:47:31.501500 23277 net.cpp:406] relu1 <- pool1
I0409 14:47:31.501507 23277 net.cpp:367] relu1 -> pool1 (in-place)
I0409 14:47:31.503496 23277 net.cpp:122] Setting up relu1
I0409 14:47:31.503509 23277 net.cpp:129] Top shape: 128 16 48 48 (4718592)
I0409 14:47:31.503512 23277 net.cpp:137] Memory required for data: 268981248
I0409 14:47:31.503517 23277 layer_factory.hpp:77] Creating layer conv2_0
I0409 14:47:31.503530 23277 net.cpp:84] Creating Layer conv2_0
I0409 14:47:31.503535 23277 net.cpp:406] conv2_0 <- pool1
I0409 14:47:31.503542 23277 net.cpp:380] conv2_0 -> conv2_0
I0409 14:47:31.510408 23277 net.cpp:122] Setting up conv2_0
I0409 14:47:31.510422 23277 net.cpp:129] Top shape: 128 32 48 48 (9437184)
I0409 14:47:31.510426 23277 net.cpp:137] Memory required for data: 306729984
I0409 14:47:31.510433 23277 layer_factory.hpp:77] Creating layer relu2_0
I0409 14:47:31.510438 23277 net.cpp:84] Creating Layer relu2_0
I0409 14:47:31.510442 23277 net.cpp:406] relu2_0 <- conv2_0
I0409 14:47:31.510448 23277 net.cpp:367] relu2_0 -> conv2_0 (in-place)
I0409 14:47:31.512611 23277 net.cpp:122] Setting up relu2_0
I0409 14:47:31.512624 23277 net.cpp:129] Top shape: 128 32 48 48 (9437184)
I0409 14:47:31.512626 23277 net.cpp:137] Memory required for data: 344478720
I0409 14:47:31.512629 23277 layer_factory.hpp:77] Creating layer conv2_0_relu2_0_0_split
I0409 14:47:31.512635 23277 net.cpp:84] Creating Layer conv2_0_relu2_0_0_split
I0409 14:47:31.512639 23277 net.cpp:406] conv2_0_relu2_0_0_split <- conv2_0
I0409 14:47:31.512645 23277 net.cpp:380] conv2_0_relu2_0_0_split -> conv2_0_relu2_0_0_split_0
I0409 14:47:31.512652 23277 net.cpp:380] conv2_0_relu2_0_0_split -> conv2_0_relu2_0_0_split_1
I0409 14:47:31.512701 23277 net.cpp:122] Setting up conv2_0_relu2_0_0_split
I0409 14:47:31.512711 23277 net.cpp:129] Top shape: 128 32 48 48 (9437184)
I0409 14:47:31.512718 23277 net.cpp:129] Top shape: 128 32 48 48 (9437184)
I0409 14:47:31.512723 23277 net.cpp:137] Memory required for data: 419976192
I0409 14:47:31.512728 23277 layer_factory.hpp:77] Creating layer conv2
I0409 14:47:31.512739 23277 net.cpp:84] Creating Layer conv2
I0409 14:47:31.512745 23277 net.cpp:406] conv2 <- conv2_0_relu2_0_0_split_0
I0409 14:47:31.512753 23277 net.cpp:380] conv2 -> conv2
I0409 14:47:31.520931 23277 net.cpp:122] Setting up conv2
I0409 14:47:31.520951 23277 net.cpp:129] Top shape: 128 32 48 48 (9437184)
I0409 14:47:31.520954 23277 net.cpp:137] Memory required for data: 457724928
I0409 14:47:31.520962 23277 layer_factory.hpp:77] Creating layer relu2
I0409 14:47:31.520973 23277 net.cpp:84] Creating Layer relu2
I0409 14:47:31.520979 23277 net.cpp:406] relu2 <- conv2
I0409 14:47:31.520988 23277 net.cpp:367] relu2 -> conv2 (in-place)
I0409 14:47:31.525002 23277 net.cpp:122] Setting up relu2
I0409 14:47:31.525012 23277 net.cpp:129] Top shape: 128 32 48 48 (9437184)
I0409 14:47:31.525017 23277 net.cpp:137] Memory required for data: 495473664
I0409 14:47:31.525022 23277 layer_factory.hpp:77] Creating layer conv3
I0409 14:47:31.525034 23277 net.cpp:84] Creating Layer conv3
I0409 14:47:31.525040 23277 net.cpp:406] conv3 <- conv2
I0409 14:47:31.525048 23277 net.cpp:380] conv3 -> conv3
I0409 14:47:31.531834 23277 net.cpp:122] Setting up conv3
I0409 14:47:31.531847 23277 net.cpp:129] Top shape: 128 32 48 48 (9437184)
I0409 14:47:31.531849 23277 net.cpp:137] Memory required for data: 533222400
I0409 14:47:31.531857 23277 layer_factory.hpp:77] Creating layer res1
I0409 14:47:31.531863 23277 net.cpp:84] Creating Layer res1
I0409 14:47:31.531867 23277 net.cpp:406] res1 <- conv2_0_relu2_0_0_split_1
I0409 14:47:31.531872 23277 net.cpp:406] res1 <- conv3
I0409 14:47:31.531883 23277 net.cpp:380] res1 -> res1
I0409 14:47:31.531916 23277 net.cpp:122] Setting up res1
I0409 14:47:31.531925 23277 net.cpp:129] Top shape: 128 32 48 48 (9437184)
I0409 14:47:31.531929 23277 net.cpp:137] Memory required for data: 570971136
I0409 14:47:31.531934 23277 layer_factory.hpp:77] Creating layer pool2
I0409 14:47:31.531941 23277 net.cpp:84] Creating Layer pool2
I0409 14:47:31.531947 23277 net.cpp:406] pool2 <- res1
I0409 14:47:31.531955 23277 net.cpp:380] pool2 -> pool2
I0409 14:47:31.531997 23277 net.cpp:122] Setting up pool2
I0409 14:47:31.532007 23277 net.cpp:129] Top shape: 128 32 24 24 (2359296)
I0409 14:47:31.532012 23277 net.cpp:137] Memory required for data: 580408320
I0409 14:47:31.532018 23277 layer_factory.hpp:77] Creating layer relu3
I0409 14:47:31.532027 23277 net.cpp:84] Creating Layer relu3
I0409 14:47:31.532032 23277 net.cpp:406] relu3 <- pool2
I0409 14:47:31.532039 23277 net.cpp:367] relu3 -> pool2 (in-place)
I0409 14:47:31.533959 23277 net.cpp:122] Setting up relu3
I0409 14:47:31.533972 23277 net.cpp:129] Top shape: 128 32 24 24 (2359296)
I0409 14:47:31.533974 23277 net.cpp:137] Memory required for data: 589845504
I0409 14:47:31.533977 23277 layer_factory.hpp:77] Creating layer conv3_0
I0409 14:47:31.533985 23277 net.cpp:84] Creating Layer conv3_0
I0409 14:47:31.533988 23277 net.cpp:406] conv3_0 <- pool2
I0409 14:47:31.533995 23277 net.cpp:380] conv3_0 -> conv3_0
I0409 14:47:31.535439 23277 net.cpp:122] Setting up conv3_0
I0409 14:47:31.535455 23277 net.cpp:129] Top shape: 128 64 24 24 (4718592)
I0409 14:47:31.535460 23277 net.cpp:137] Memory required for data: 608719872
I0409 14:47:31.535468 23277 layer_factory.hpp:77] Creating layer relu3_0
I0409 14:47:31.535478 23277 net.cpp:84] Creating Layer relu3_0
I0409 14:47:31.535485 23277 net.cpp:406] relu3_0 <- conv3_0
I0409 14:47:31.535492 23277 net.cpp:367] relu3_0 -> conv3_0 (in-place)
I0409 14:47:31.536301 23277 net.cpp:122] Setting up relu3_0
I0409 14:47:31.536315 23277 net.cpp:129] Top shape: 128 64 24 24 (4718592)
I0409 14:47:31.536320 23277 net.cpp:137] Memory required for data: 627594240
I0409 14:47:31.536325 23277 layer_factory.hpp:77] Creating layer conv3_0_relu3_0_0_split
I0409 14:47:31.536332 23277 net.cpp:84] Creating Layer conv3_0_relu3_0_0_split
I0409 14:47:31.536339 23277 net.cpp:406] conv3_0_relu3_0_0_split <- conv3_0
I0409 14:47:31.536346 23277 net.cpp:380] conv3_0_relu3_0_0_split -> conv3_0_relu3_0_0_split_0
I0409 14:47:31.536355 23277 net.cpp:380] conv3_0_relu3_0_0_split -> conv3_0_relu3_0_0_split_1
I0409 14:47:31.536403 23277 net.cpp:122] Setting up conv3_0_relu3_0_0_split
I0409 14:47:31.536414 23277 net.cpp:129] Top shape: 128 64 24 24 (4718592)
I0409 14:47:31.536422 23277 net.cpp:129] Top shape: 128 64 24 24 (4718592)
I0409 14:47:31.536427 23277 net.cpp:137] Memory required for data: 665342976
I0409 14:47:31.536432 23277 layer_factory.hpp:77] Creating layer conv4
I0409 14:47:31.536444 23277 net.cpp:84] Creating Layer conv4
I0409 14:47:31.536450 23277 net.cpp:406] conv4 <- conv3_0_relu3_0_0_split_0
I0409 14:47:31.536460 23277 net.cpp:380] conv4 -> conv4
I0409 14:47:31.539430 23277 net.cpp:122] Setting up conv4
I0409 14:47:31.539443 23277 net.cpp:129] Top shape: 128 64 24 24 (4718592)
I0409 14:47:31.539448 23277 net.cpp:137] Memory required for data: 684217344
I0409 14:47:31.539458 23277 layer_factory.hpp:77] Creating layer relu4
I0409 14:47:31.539468 23277 net.cpp:84] Creating Layer relu4
I0409 14:47:31.539474 23277 net.cpp:406] relu4 <- conv4
I0409 14:47:31.539481 23277 net.cpp:367] relu4 -> conv4 (in-place)
I0409 14:47:31.539990 23277 net.cpp:122] Setting up relu4
I0409 14:47:31.540004 23277 net.cpp:129] Top shape: 128 64 24 24 (4718592)
I0409 14:47:31.540010 23277 net.cpp:137] Memory required for data: 703091712
I0409 14:47:31.540015 23277 layer_factory.hpp:77] Creating layer conv5
I0409 14:47:31.540029 23277 net.cpp:84] Creating Layer conv5
I0409 14:47:31.540035 23277 net.cpp:406] conv5 <- conv4
I0409 14:47:31.540045 23277 net.cpp:380] conv5 -> conv5
I0409 14:47:31.546159 23277 net.cpp:122] Setting up conv5
I0409 14:47:31.546175 23277 net.cpp:129] Top shape: 128 64 24 24 (4718592)
I0409 14:47:31.546180 23277 net.cpp:137] Memory required for data: 721966080
I0409 14:47:31.546188 23277 layer_factory.hpp:77] Creating layer res2
I0409 14:47:31.546197 23277 net.cpp:84] Creating Layer res2
I0409 14:47:31.546202 23277 net.cpp:406] res2 <- conv3_0_relu3_0_0_split_1
I0409 14:47:31.546211 23277 net.cpp:406] res2 <- conv5
I0409 14:47:31.546217 23277 net.cpp:380] res2 -> res2
I0409 14:47:31.546252 23277 net.cpp:122] Setting up res2
I0409 14:47:31.546262 23277 net.cpp:129] Top shape: 128 64 24 24 (4718592)
I0409 14:47:31.546267 23277 net.cpp:137] Memory required for data: 740840448
I0409 14:47:31.546272 23277 layer_factory.hpp:77] Creating layer pool3
I0409 14:47:31.546280 23277 net.cpp:84] Creating Layer pool3
I0409 14:47:31.546284 23277 net.cpp:406] pool3 <- res2
I0409 14:47:31.546289 23277 net.cpp:380] pool3 -> pool3
I0409 14:47:31.546324 23277 net.cpp:122] Setting up pool3
I0409 14:47:31.546330 23277 net.cpp:129] Top shape: 128 64 12 12 (1179648)
I0409 14:47:31.546334 23277 net.cpp:137] Memory required for data: 745559040
I0409 14:47:31.546335 23277 layer_factory.hpp:77] Creating layer relu5
I0409 14:47:31.546339 23277 net.cpp:84] Creating Layer relu5
I0409 14:47:31.546342 23277 net.cpp:406] relu5 <- pool3
I0409 14:47:31.546347 23277 net.cpp:367] relu5 -> pool3 (in-place)
I0409 14:47:31.548323 23277 net.cpp:122] Setting up relu5
I0409 14:47:31.548334 23277 net.cpp:129] Top shape: 128 64 12 12 (1179648)
I0409 14:47:31.548337 23277 net.cpp:137] Memory required for data: 750277632
I0409 14:47:31.548341 23277 layer_factory.hpp:77] Creating layer fc1_0
I0409 14:47:31.548348 23277 net.cpp:84] Creating Layer fc1_0
I0409 14:47:31.548352 23277 net.cpp:406] fc1_0 <- pool3
I0409 14:47:31.548355 23277 net.cpp:380] fc1_0 -> fc1_0
I0409 14:47:31.983135 23277 net.cpp:122] Setting up fc1_0
I0409 14:47:31.983157 23277 net.cpp:129] Top shape: 128 2048 (262144)
I0409 14:47:31.983161 23277 net.cpp:137] Memory required for data: 751326208
I0409 14:47:31.983175 23277 layer_factory.hpp:77] Creating layer relu6_0
I0409 14:47:31.983186 23277 net.cpp:84] Creating Layer relu6_0
I0409 14:47:31.983189 23277 net.cpp:406] relu6_0 <- fc1_0
I0409 14:47:31.983196 23277 net.cpp:367] relu6_0 -> fc1_0 (in-place)
I0409 14:47:31.983428 23277 net.cpp:122] Setting up relu6_0
I0409 14:47:31.983439 23277 net.cpp:129] Top shape: 128 2048 (262144)
I0409 14:47:31.983443 23277 net.cpp:137] Memory required for data: 752374784
I0409 14:47:31.983445 23277 layer_factory.hpp:77] Creating layer drop1_0
I0409 14:47:31.983451 23277 net.cpp:84] Creating Layer drop1_0
I0409 14:47:31.983455 23277 net.cpp:406] drop1_0 <- fc1_0
I0409 14:47:31.983459 23277 net.cpp:367] drop1_0 -> fc1_0 (in-place)
I0409 14:47:31.983481 23277 net.cpp:122] Setting up drop1_0
I0409 14:47:31.983486 23277 net.cpp:129] Top shape: 128 2048 (262144)
I0409 14:47:31.983489 23277 net.cpp:137] Memory required for data: 753423360
I0409 14:47:31.983491 23277 layer_factory.hpp:77] Creating layer fc2_0
I0409 14:47:31.983499 23277 net.cpp:84] Creating Layer fc2_0
I0409 14:47:31.983501 23277 net.cpp:406] fc2_0 <- fc1_0
I0409 14:47:31.983506 23277 net.cpp:380] fc2_0 -> fc2_0
I0409 14:47:32.076344 23277 net.cpp:122] Setting up fc2_0
I0409 14:47:32.076370 23277 net.cpp:129] Top shape: 128 2048 (262144)
I0409 14:47:32.076373 23277 net.cpp:137] Memory required for data: 754471936
I0409 14:47:32.076383 23277 layer_factory.hpp:77] Creating layer relu7_0
I0409 14:47:32.076392 23277 net.cpp:84] Creating Layer relu7_0
I0409 14:47:32.076397 23277 net.cpp:406] relu7_0 <- fc2_0
I0409 14:47:32.076405 23277 net.cpp:367] relu7_0 -> fc2_0 (in-place)
I0409 14:47:32.076912 23277 net.cpp:122] Setting up relu7_0
I0409 14:47:32.076926 23277 net.cpp:129] Top shape: 128 2048 (262144)
I0409 14:47:32.076930 23277 net.cpp:137] Memory required for data: 755520512
I0409 14:47:32.076932 23277 layer_factory.hpp:77] Creating layer drop2_0
I0409 14:47:32.076939 23277 net.cpp:84] Creating Layer drop2_0
I0409 14:47:32.076942 23277 net.cpp:406] drop2_0 <- fc2_0
I0409 14:47:32.076948 23277 net.cpp:367] drop2_0 -> fc2_0 (in-place)
I0409 14:47:32.076974 23277 net.cpp:122] Setting up drop2_0
I0409 14:47:32.076979 23277 net.cpp:129] Top shape: 128 2048 (262144)
I0409 14:47:32.076982 23277 net.cpp:137] Memory required for data: 756569088
I0409 14:47:32.076984 23277 layer_factory.hpp:77] Creating layer fc3_0
I0409 14:47:32.076992 23277 net.cpp:84] Creating Layer fc3_0
I0409 14:47:32.076995 23277 net.cpp:406] fc3_0 <- fc2_0
I0409 14:47:32.076999 23277 net.cpp:380] fc3_0 -> fc3_0
I0409 14:47:32.079375 23277 net.cpp:122] Setting up fc3_0
I0409 14:47:32.079387 23277 net.cpp:129] Top shape: 128 42 (5376)
I0409 14:47:32.079391 23277 net.cpp:137] Memory required for data: 756590592
I0409 14:47:32.079396 23277 layer_factory.hpp:77] Creating layer loss
I0409 14:47:32.079403 23277 net.cpp:84] Creating Layer loss
I0409 14:47:32.079406 23277 net.cpp:406] loss <- fc3_0
I0409 14:47:32.079409 23277 net.cpp:406] loss <- pose
I0409 14:47:32.079416 23277 net.cpp:380] loss -> loss
I0409 14:47:32.079530 23277 net.cpp:122] Setting up loss
…
  type: "PoseData"
  top: "data"
  top: "label"
  include {
    phase: TEST
  }
  transform_param {
    is_trans: false
    is_rotate: false
    is_zoom: false
  }
  pose_data_param {
    image_source: "/home/workspace/Datasets/NYU/test_img.txt"
    label_source: "/home/workspace/Datasets/NYU/test_label.txt"
    batch_size: 128
    shuffle: false
    new_height: 96
    new_width: 96
    root_folder: "/home/workspace/Datasets/NYU/"
    point_num: 14
    point_dim: 3
    fx: 588.03
    fy: 587.07
    output_center: true
    cube_length: 150
    dataset: NYU
  }
}
layer {
  name: "pose"
  type: "Slice"
  bottom: "label"
  top: "pose"
  top: "center"
  include {
    phase: TEST
  }
  slice_param {
    slice_dim: 1
    slice_point: 42
  }
}
layer {
  name: "conv0"
  type: "Convolution"
  bottom: "data"
  top: "conv0"
  param {
    lr_mult: 1
  }
  param {
    lr_mult: 2
  }
  convolution_param {
    num_output: 16
    pad: 1
    kernel_size: 3
    stride: 1
    weight_filler {
      type: "msra"
    }
    bias_filler {
      type: "constant"
    }
  }
}
layer {
  name: "relu0"
  type: "ReLU"
  bottom: "conv0"
  top: "conv0"
}
layer {
  name: "conv1"
  type: "Convolution"
  bottom: "conv0"
  top: "conv1"
  param {
    lr_mult: 1
  }
  param {
    lr_mult: 2
  }
  convolution_param {
    num_output: 16
    pad: 1
    kernel_size: 3
    stride: 1
    weight_filler {
      type: "msra"
    }
    bias_filler {
      type: "constant"
    }
  }
}
layer {
  name: "pool1"
  type: "Pooling"
  bottom: "conv1"
  top: "pool1"
  pooling_param {
    pool: MAX
    kernel_size: 2
    stride: 2
  }
}
layer {
  name: "relu1"
  type: "ReLU"
  bottom: "pool1"
  top: "pool1"
}
layer {
  name: "conv2_0"
  type: "Convolution"
  bottom: "pool1"
  top: "conv2_0"
  param {
    lr_mult: 1
  }
  param {
    lr_mult: 2
  }
  convolution_param {
    num_output: 32
    pad: 0
    kernel_size: 1
    stride: 1
    weight_filler {
      type: "msra"
    }
    bias_filler {
      type: "constant"
    }
  }
}
layer {
  name: "relu2_0"
  type: "ReLU"
  bottom: "conv2_0"
  top: "conv2_0"
}
layer {
  name: "conv2"
  type: "Convolution"
  bottom: "conv2_0"
  top: "conv2"
  param {
    lr_mult: 1
  }
  param {
    lr_mult: 2
  }
  convolution_param {
    num_output: 32
    pad: 1
    kernel_size: 3
    stride: 1
    weight_filler {
      type: "msra"
    }
    bias_filler {
      type: "constant"
    }
  }
}
layer {
  name: "relu2"
  type: "ReLU"
  bottom: "conv2"
  top: "conv2"
}
layer {
  name: "conv3"
  type: "Convolution"
  bottom: "conv2"
  top: "conv3"
  param {
    lr_mult: 1
  }
  param {
    lr_mult: 2
  }
  convolution_param {
    num_output: 32
    pad: 1
    kernel_size: 3
    stride: 1
    weight_filler {
      type: "msra"
    }
    bias_filler {
      type: "constant"
    }
  }
}
layer {
  name: "res1"
  type: "Eltwise"
  bottom: "conv2_0"
  bottom: "conv3"
  top: "res1"
}
layer {
  name: "pool2"
  type: "Pooling"
  bottom: "res1"
  top: "pool2"
  pooling_param {
    pool: MAX
    kernel_size: 2
    stride: 2
  }
}
layer {
  name: "relu3"
  type: "ReLU"
  bottom: "pool2"
  top: "pool2"
}
layer {
  name: "conv3_0"
  type: "Convolution"
  bottom: "pool2"
  top: "conv3_0"
  param {
    lr_mult: 1
  }
  param {
    lr_mult: 2
  }
  convolution_param {
    num_output: 64
    pad: 0
    kernel_size: 1
    stride: 1
    weight_filler {
      type: "msra"
    }
    bias_filler {
      type: "constant"
    }
  }
}
layer {
  name: "relu3_0"
  type: "ReLU"
  bottom: "conv3_0"
  top: "conv3_0"
}
layer {
  name: "conv4"
  type: "Convolution"
  bottom: "conv3_0"
  top: "conv4"
  param {
    lr_mult: 1
  }
  param {
    lr_mult: 2
  }
  convolution_param {
    num_output: 64
    pad: 1
    kernel_size: 3
    stride: 1
    weight_filler {
      type: "msra"
    }
    bias_filler {
      type: "constant"
    }
  }
}
layer {
  name: "relu4"
  type: "ReLU"
  bottom: "conv4"
  top: "conv4"
}
layer {
  name: "conv5"
  type: "Convolution"
  bottom: "conv4"
  top: "conv5"
  param {
    lr_mult: 1
  }
  param {
    lr_mult: 2
  }
  convolution_param {
    num_output: 64
    pad: 1
    kernel_size: 3
    stride: 1
    weight_filler {
      type: "msra"
    }
    bias_filler {
      type: "constant"
    }
  }
}
layer {
  name: "res2"
  type: "Eltwise"
  bottom: "conv3_0"
  bottom: "conv5"
  top: "res2"
}
layer {
  name: "pool3"
  type: "Pooling"
  bottom: "res2"
  top: "pool3"
  pooling_param {
    pool: MAX
    kernel_size: 2
    stride: 2
  }
}
layer {
  name: "relu5"
  type: "ReLU"
  bottom: "pool3"
  top: "pool3"
}
layer {
  name: "fc1_0"
  type: "InnerProduct"
  bottom: "pool3"
  top: "fc1_0"
  param {
    lr_mult: 1
  }
  param {
    lr_mult: 2
  }
  inner_product_param {
    num_output: 2048
    weight_filler {
      type: "gaussian"
      std: 0.001
    }
    bias_filler {
      type: "constant"
    }
  }
}
layer {
  name: "relu6_0"
  type: "ReLU"
  bottom: "fc1_0"
  top: "fc1_0"
}
layer {
  name: "drop1_0"
  type: "Dropout"
  bottom: "fc1_0"
  top: "fc1_0"
  dropout_param {
    dropout_ratio: 0.5
  }
}
layer {
  name: "fc2_0"
  type: "InnerProduct"
  bottom: "fc1_0"
  top: "fc2_0"
  param {
    lr_mult: 1
  }
  param {
    lr_mult: 2
  }
  inner_product_param {
    num_output: 2048
    weight_filler {
      type: "gaussian"
      std: 0.001
    }
    bias_filler {
      type: "constant"
    }
  }
}
layer {
  name: "relu7_0"
  type: "ReLU"
  bottom: "fc2_0"
  top: "fc2_0"
}
layer {
  name: "drop2_0"
  type: "Dropout"
  bottom: "fc2_0"
  top: "fc2_0"
  dropout_param {
    dropout_ratio: 0.5
  }
}
layer {
  name: "fc3_0"
  type: "InnerProduct"
  bottom: "fc2_0"
  top: "fc3_0"
  param {
    lr_mult: 1
  }
  param {
    lr_mult: 2
  }
  inner_product_param {
    num_output: 42
    weight_filler {
      type: "gaussian"
      std: 0.001
    }
    bias_filler {
      type: "constant"
    }
  }
}
layer {
  name: "loss"
  type: "SmoothL1Loss"
  bottom: "fc3_0"
  bottom: "pose"
  top: "loss"
  loss_weight: 1
  smooth_l1_loss_param {
    sigma: 10
  }
}
layer {
  name: "distance"
  type: "PoseDistance"
  bottom: "fc3_0"
  bottom: "pose"
  bottom: "center"
  top: "distance"
  loss_weight: 0
  include {
    phase: TEST
  }
  pose_distance_param {
    fx: 588.03
    fy: 587.07
    ux: 320
    uy: 240
    cube_length: 150
  }
}
I0409 14:47:32.132824 23277 layer_factory.hpp:77] Creating layer data
I0409 14:47:32.132843 23277 net.cpp:84] Creating Layer data
I0409 14:47:32.132884 23277 net.cpp:380] data -> data
I0409 14:47:32.132902 23277 net.cpp:380] data -> label
I0409 14:47:32.132916 23277 pose_data_layer.cpp:117] Opening file /home/workspace/Datasets/NYU/test_img.txt
I0409 14:47:32.164814 23277 pose_data_layer.cpp:119] Opening file /home/workspace/Datasets/NYU/test_label.txt
I0409 14:48:10.475055 23277 pose_data_layer.cpp:269] Loading 1244 image...
I0409 14:49:05.748556 23277 pose_data_layer.cpp:269] Loading 3244 image...
I0409 14:50:41.654356 23277 pose_data_layer.cpp:269] Loading 5244 image...
I0409 14:51:35.348297 23277 pose_data_layer.cpp:269] Loading 7244 image...
I0409 14:52:02.129124 23277 pose_data_layer.cpp:287] A total of 8252 images.
I0409 14:52:02.129288 23277 pose_data_layer.cpp:329] output data size: 128,1,96,96
I0409 14:52:02.149338 23277 net.cpp:122] Setting up data
I0409 14:52:02.149369 23277 net.cpp:129] Top shape: 128 1 96 96 (1179648)
I0409 14:52:02.149377 23277 net.cpp:129] Top shape: 128 45 (5760)
I0409 14:52:02.149382 23277 net.cpp:137] Memory required for data: 4741632
I0409 14:52:02.149391 23277 layer_factory.hpp:77] Creating layer pose
I0409 14:52:02.149411 23277 net.cpp:84] Creating Layer pose
I0409 14:52:02.149420 23277 net.cpp:406] pose <- label
I0409 14:52:02.149431 23277 net.cpp:380] pose -> pose
I0409 14:52:02.149446 23277 net.cpp:380] pose -> center
I0409 14:52:02.149508 23277 net.cpp:122] Setting up pose
I0409 14:52:02.149518 23277 net.cpp:129] Top shape: 128 42 (5376)
I0409 14:52:02.149526 23277 net.cpp:129] Top shape: 128 3 (384)
I0409 14:52:02.149533 23277 net.cpp:137] Memory required for data: 4764672
I0409 14:52:02.149538 23277 layer_factory.hpp:77] Creating layer pose_pose_0_split
I0409 14:52:02.149547 23277 net.cpp:84] Creating Layer pose_pose_0_split
I0409 14:52:02.149552 23277 net.cpp:406] pose_pose_0_split <- pose
I0409 14:52:02.149560 23277 net.cpp:380] pose_pose_0_split -> pose_pose_0_split_0
I0409 14:52:02.149571 23277 net.cpp:380] pose_pose_0_split -> pose_pose_0_split_1
I0409 14:52:02.149610 23277 net.cpp:122] Setting up pose_pose_0_split
I0409 14:52:02.149618 23277 net.cpp:129] Top shape: 128 42 (5376)
I0409 14:52:02.149624 23277 net.cpp:129] Top shape: 128 42 (5376)
I0409 14:52:02.149648 23277 net.cpp:137] Memory required for data: 4807680
I0409 14:52:02.149667 23277 layer_factory.hpp:77] Creating layer conv0
I0409 14:52:02.149698 23277 net.cpp:84] Creating Layer conv0
I0409 14:52:02.149715 23277 net.cpp:406] conv0 <- data
I0409 14:52:02.149727 23277 net.cpp:380] conv0 -> conv0
I0409 14:52:02.154352 23277 net.cpp:122] Setting up conv0
I0409 14:52:02.154367 23277 net.cpp:129] Top shape: 128 16 96 96 (18874368)
I0409 14:52:02.154373 23277 net.cpp:137] Memory required for data: 80305152
I0409 14:52:02.154387 23277 layer_factory.hpp:77] Creating layer relu0
I0409 14:52:02.154397 23277 net.cpp:84] Creating Layer relu0
I0409 14:52:02.154403 23277 net.cpp:406] relu0 <- conv0
I0409 14:52:02.154412 23277 net.cpp:367] relu0 -> conv0 (in-place)
I0409 14:52:02.154772 23277 net.cpp:122] Setting up relu0
I0409 14:52:02.154784 23277 net.cpp:129] Top shape: 128 16 96 96 (18874368)
I0409 14:52:02.154789 23277 net.cpp:137] Memory required for data: 155802624
I0409 14:52:02.154795 23277 layer_factory.hpp:77] Creating layer conv1
I0409 14:52:02.154809 23277 net.cpp:84] Creating Layer conv1
I0409 14:52:02.154814 23277 net.cpp:406] conv1 <- conv0
I0409 14:52:02.154824 23277 net.cpp:380] conv1 -> conv1
I0409 14:52:02.158453 23277 net.cpp:122] Setting up conv1
I0409 14:52:02.158473 23277 net.cpp:129] Top shape: 128 16 96 96 (18874368)
I0409 14:52:02.158478 23277 net.cpp:137] Memory required for data: 231300096
I0409 14:52:02.158491 23277 layer_factory.hpp:77] Creating layer pool1
I0409 14:52:02.158504 23277 net.cpp:84] Creating Layer pool1
I0409 14:52:02.158509 23277 net.cpp:406] pool1 <- conv1
I0409 14:52:02.158519 23277 net.cpp:380] pool1 -> pool1
I0409 14:52:02.158565 23277 net.cpp:122] Setting up pool1
I0409 14:52:02.158574 23277 net.cpp:129] Top shape: 128 16 48 48 (4718592)
I0409 14:52:02.158581 23277 net.cpp:137] Memory required for data: 250174464
I0409 14:52:02.158586 23277 layer_factory.hpp:77] Creating layer relu1
I0409 14:52:02.158596 23277 net.cpp:84] Creating Layer relu1
I0409 14:52:02.158601 23277 net.cpp:406] relu1 <- pool1
I0409 14:52:02.158609 23277 net.cpp:367] relu1 -> pool1 (in-place)
I0409 14:52:02.158825 23277 net.cpp:122] Setting up relu1
I0409 14:52:02.158854 23277 net.cpp:129] Top shape: 128 16 48 48 (4718592)
I0409 14:52:02.158870 23277 net.cpp:137] Memory required for data: 269048832
I0409 14:52:02.158885 23277 layer_factory.hpp:77] Creating layer conv2_0
I0409 14:52:02.158910 23277 net.cpp:84] Creating Layer conv2_0
I0409 14:52:02.158924 23277 net.cpp:406] conv2_0 <- pool1
I0409 14:52:02.158943 23277 net.cpp:380] conv2_0 -> conv2_0
I0409 14:52:02.165655 23277 net.cpp:122] Setting up conv2_0
I0409 14:52:02.165681 23277 net.cpp:129] Top shape: 128 32 48 48 (9437184)
I0409 14:52:02.165688 23277 net.cpp:137] Memory required for data: 306797568
I0409 14:52:02.165705 23277 layer_factory.hpp:77] Creating layer relu2_0
I0409 14:52:02.165717 23277 net.cpp:84] Creating Layer relu2_0
I0409 14:52:02.165724 23277 net.cpp:406] relu2_0 <- conv2_0
I0409 14:52:02.165732 23277 net.cpp:367] relu2_0 -> conv2_0 (in-place)
I0409 14:52:02.167613 23277 net.cpp:122] Setting up relu2_0
I0409 14:52:02.167628 23277 net.cpp:129] Top shape: 128 32 48 48 (9437184)
I0409 14:52:02.167634 23277 net.cpp:137] Memory required for data: 344546304
I0409 14:52:02.167640 23277 layer_factory.hpp:77] Creating layer conv2_0_relu2_0_0_split
I0409 14:52:02.167649 23277 net.cpp:84] Creating Layer conv2_0_relu2_0_0_split
I0409 14:52:02.167655 23277 net.cpp:406] conv2_0_relu2_0_0_split <- conv2_0
I0409 14:52:02.167665 23277 net.cpp:380] conv2_0_relu2_0_0_split -> conv2_0_relu2_0_0_split_0
I0409 14:52:02.167676 23277 net.cpp:380] conv2_0_relu2_0_0_split -> conv2_0_relu2_0_0_split_1
I0409 14:52:02.167729 23277 net.cpp:122] Setting up conv2_0_relu2_0_0_split
I0409 14:52:02.167738 23277 net.cpp:129] Top shape: 128 32 48 48 (9437184)
I0409 14:52:02.167745 23277 net.cpp:129] Top shape: 128 32 48 48 (9437184)
I0409 14:52:02.167810 23277 net.cpp:137] Memory required for data: 420043776
I0409 14:52:02.167815 23277 layer_factory.hpp:77] Creating layer conv2
I0409 14:52:02.167829 23277 net.cpp:84] Creating Layer conv2
I0409 14:52:02.167835 23277 net.cpp:406] conv2 <- conv2_0_relu2_0_0_split_0
I0409 14:52:02.167845 23277 net.cpp:380] conv2 -> conv2
I0409 14:52:02.174217 23277 net.cpp:122] Setting up conv2
I0409 14:52:02.174238 23277 net.cpp:129] Top shape: 128 32 48 48 (9437184)
I0409 14:52:02.174243 23277 net.cpp:137] Memory required for data: 457792512
I0409 14:52:02.174253 23277 layer_factory.hpp:77] Creating layer relu2
I0409 14:52:02.174264 23277 net.cpp:84] Creating Layer relu2
I0409 14:52:02.174271 23277 net.cpp:406] relu2 <- conv2
I0409 14:52:02.174280 23277 net.cpp:367] relu2 -> conv2 (in-place)
I0409 14:52:02.174450 23277 net.cpp:122] Setting up relu2
I0409 14:52:02.174463 23277 net.cpp:129] Top shape: 128 32 48 48 (9437184)
I0409 14:52:02.174468 23277 net.cpp:137] Memory required for data: 495541248
I0409 14:52:02.174474 23277 layer_factory.hpp:77] Creating layer conv3
I0409 14:52:02.174489 23277 net.cpp:84] Creating Layer conv3
I0409 14:52:02.174494 23277 net.cpp:406] conv3 <- conv2
I0409 14:52:02.174504 23277 net.cpp:380] conv3 -> conv3
I0409 14:52:02.180474 23277 net.cpp:122] Setting up conv3
I0409 14:52:02.180505 23277 net.cpp:129] Top shape: 128 32 48 48 (9437184)
I0409 14:52:02.180511 23277 net.cpp:137] Memory required for data: 533289984
I0409 14:52:02.180527 23277 layer_factory.hpp:77] Creating layer res1
I0409 14:52:02.180537 23277 net.cpp:84] Creating Layer res1
I0409 14:52:02.180560 23277 net.cpp:406] res1 <- conv2_0_relu2_0_0_split_1
I0409 14:52:02.180567 23277 net.cpp:406] res1 <- conv3
I0409 14:52:02.180572 23277 net.cpp:380] res1 -> res1
I0409 14:52:02.180603 23277 net.cpp:122] Setting up res1
I0409 14:52:02.180610 23277 net.cpp:129] Top shape: 128 32 48 48 (9437184)
I0409 14:52:02.180613 23277 net.cpp:137] Memory required for data: 571038720
I0409 14:52:02.180615 23277 layer_factory.hpp:77] Creating layer pool2
I0409 14:52:02.180622 23277 net.cpp:84] Creating Layer pool2
I0409 14:52:02.180625 23277 net.cpp:406] pool2 <- res1
I0409 14:52:02.180630 23277 net.cpp:380] pool2 -> pool2
I0409 14:52:02.180665 23277 net.cpp:122] Setting up pool2
I0409 14:52:02.180670 23277 net.cpp:129] Top shape: 128 32 24 24 (2359296)
I0409 14:52:02.180672 23277 net.cpp:137] Memory required for data: 580475904
I0409 14:52:02.180675 23277 layer_factory.hpp:77] Creating layer relu3
I0409 14:52:02.180682 23277 net.cpp:84] Creating Layer relu3
I0409 14:52:02.180686 23277 net.cpp:406] relu3 <- pool2
I0409 14:52:02.180690 23277 net.cpp:367] relu3 -> pool2 (in-place)
I0409 14:52:02.185412 23277 net.cpp:122] Setting up relu3
I0409 14:52:02.185425 23277 net.cpp:129] Top shape: 128 32 24 24 (2359296)
I0409 14:52:02.185430 23277 net.cpp:137] Memory required for data: 589913088
I0409 14:52:02.185442 23277 layer_factory.hpp:77] Creating layer conv3_0
I0409 14:52:02.185453 23277 net.cpp:84] Creating Layer conv3_0
I0409 14:52:02.185457 23277 net.cpp:406] conv3_0 <- pool2
I0409 14:52:02.185463 23277 net.cpp:380] conv3_0 -> conv3_0
I0409 14:52:02.188706 23277 net.cpp:122] Setting up conv3_0
I0409 14:52:02.188721 23277 net.cpp:129] Top shape: 128 64 24 24 (4718592)
I0409 14:52:02.188724 23277 net.cpp:137] Memory required for data: 608787456
I0409 14:52:02.188730 23277 layer_factory.hpp:77] Creating layer relu3_0
I0409 14:52:02.188735 23277 net.cpp:84] Creating Layer relu3_0
I0409 14:52:02.188740 23277 net.cpp:406] relu3_0 <- conv3_0
I0409 14:52:02.188745 23277 net.cpp:367] relu3_0 -> conv3_0 (in-place)
I0409 14:52:02.189832 23277 net.cpp:122] Setting up relu3_0
I0409 14:52:02.189844 23277 net.cpp:129] Top shape: 128 64 24 24 (4718592)
I0409 14:52:02.189848 23277 net.cpp:137] Memory required for data: 627661824
I0409 14:52:02.189851 23277 layer_factory.hpp:77] Creating layer conv3_0_relu3_0_0_split
I0409 14:52:02.189857 23277 net.cpp:84] Creating Layer conv3_0_relu3_0_0_split
I0409 14:52:02.189860 23277 net.cpp:406] conv3_0_relu3_0_0_split <- conv3_0
I0409 14:52:02.189865 23277 net.cpp:380] conv3_0_relu3_0_0_split -> conv3_0_relu3_0_0_split_0
I0409 14:52:02.189872 23277 net.cpp:380] conv3_0_relu3_0_0_split -> conv3_0_relu3_0_0_split_1
I0409 14:52:02.189909 23277 net.cpp:122] Setting up conv3_0_relu3_0_0_split
I0409 14:52:02.189918 23277 net.cpp:129] Top shape: 128 64 24 24 (4718592)
I0409 14:52:02.189924 23277 net.cpp:129] Top shape: 128 64 24 24 (4718592)
I0409 14:52:02.189927 23277 net.cpp:137] Memory required for data: 665410560
I0409 14:52:02.189932 23277 layer_factory.hpp:77] Creating layer conv4
I0409 14:52:02.189945 23277 net.cpp:84] Creating Layer conv4
I0409 14:52:02.189952 23277 net.cpp:406] conv4 <- conv3_0_relu3_0_0_split_0
I0409 14:52:02.189960 23277 net.cpp:380] conv4 -> conv4
I0409 14:52:02.195801 23277 net.cpp:122] Setting up conv4
I0409 14:52:02.195822 23277 net.cpp:129] Top shape: 128 64 24 24 (4718592)
I0409 14:52:02.195828 23277 net.cpp:137] Memory required for data: 684284928
I0409 14:52:02.195839 23277 layer_factory.hpp:77] Creating layer relu4
I0409 14:52:02.195850 23277 net.cpp:84] Creating Layer relu4
I0409 14:52:02.195858 23277 net.cpp:406] relu4 <- conv4
I0409 14:52:02.195868 23277 net.cpp:367] relu4 -> conv4 (in-place)
I0409 14:52:02.197981 23277 net.cpp:122] Setting up relu4
I0409 14:52:02.197993 23277 net.cpp:129] Top shape: 128 64 24 24 (4718592)
I0409 14:52:02.197999 23277 net.cpp:137] Memory required for data: 703159296
I0409 14:52:02.198004 23277 layer_factory.hpp:77] Creating layer conv5
I0409 14:52:02.198019 23277 net.cpp:84] Creating Layer conv5
I0409 14:52:02.198037 23277 net.cpp:406] conv5 <- conv4
I0409 14:52:02.198048 23277 net.cpp:380] conv5 -> conv5
I0409 14:52:02.204876 23277 net.cpp:122] Setting up conv5
I0409 14:52:02.204893 23277 net.cpp:129] Top shape: 128 64 24 24 (4718592)
I0409 14:52:02.204900 23277 net.cpp:137] Memory required for data: 722033664
I0409 14:52:02.204908 23277 layer_factory.hpp:77] Creating layer res2
I0409 14:52:02.204918 23277 net.cpp:84] Creating Layer res2
I0409 14:52:02.204926 23277 net.cpp:406] res2 <- conv3_0_relu3_0_0_split_1
I0409 14:52:02.204934 23277 net.cpp:406] res2 <- conv5
I0409 14:52:02.204942 23277 net.cpp:380] res2 -> res2
I0409 14:52:02.204974 23277 net.cpp:122] Setting up res2
I0409 14:52:02.204983 23277 net.cpp:129] Top shape: 128 64 24 24 (4718592)
I0409 14:52:02.204988 23277 net.cpp:137] Memory required for data: 740908032
I0409 14:52:02.204993 23277 layer_factory.hpp:77] Creating layer pool3
I0409 14:52:02.205003 23277 net.cpp:84] Creating Layer pool3
I0409 14:52:02.205008 23277 net.cpp:406] pool3 <- res2
I0409 14:52:02.205016 23277 net.cpp:380] pool3 -> pool3
I0409 14:52:02.205057 23277 net.cpp:122] Setting up pool3
I0409 14:52:02.205066 23277 net.cpp:129] Top shape: 128 64 12 12 (1179648)
I0409 14:52:02.205072 23277 net.cpp:137] Memory required for data: 745626624
I0409 14:52:02.205078 23277 layer_factory.hpp:77] Creating layer relu5
I0409 14:52:02.205086 23277 net.cpp:84] Creating Layer relu5
I0409 14:52:02.205092 23277 net.cpp:406] relu5 <- pool3
I0409 14:52:02.205101 23277 net.cpp:367] relu5 -> pool3 (in-place)
I0409 14:52:02.206349 23277 net.cpp:122] Setting up relu5
I0409 14:52:02.206362 23277 net.cpp:129] Top shape: 128 64 12 12 (1179648)
I0409 14:52:02.206368 23277 net.cpp:137] Memory required for data: 750345216
I0409 14:52:02.206373 23277 layer_factory.hpp:77] Creating layer fc1_0
I0409 14:52:02.206385 23277 net.cpp:84] Creating Layer fc1_0
I0409 14:52:02.206392 23277 net.cpp:406] fc1_0 <- pool3
I0409 14:52:02.206403 23277 net.cpp:380] fc1_0 -> fc1_0
I0409 14:52:02.643991 23277 net.cpp:122] Setting up fc1_0
I0409 14:52:02.644024 23277 net.cpp:129] Top shape: 128 2048 (262144)
I0409 14:52:02.644032 23277 net.cpp:137] Memory required for data: 751393792
I0409 14:52:02.644057 23277 layer_factory.hpp:77] Creating layer relu6_0
I0409 14:52:02.644071 23277 net.cpp:84] Creating Layer relu6_0
I0409 14:52:02.644083 23277 net.cpp:406] relu6_0 <- fc1_0
I0409 14:52:02.644093 23277 net.cpp:367] relu6_0 -> fc1_0 (in-place)
I0409 14:52:02.644364 23277 net.cpp:122] Setting up relu6_0
I0409 14:52:02.644378 23277 net.cpp:129] Top shape: 128 2048 (262144)
I0409 14:52:02.644383 23277 net.cpp:137] Memory required for data: 752442368
I0409 14:52:02.644389 23277 layer_factory.hpp:77] Creating layer drop1_0
I0409 14:52:02.644440 23277 net.cpp:84] Creating Layer drop1_0
I0409 14:52:02.644464 23277 net.cpp:406] drop1_0 <- fc1_0
I0409 14:52:02.644484 23277 net.cpp:367] drop1_0 -> fc1_0 (in-place)
I0409 14:52:02.644546 23277 net.cpp:122] Setting up drop1_0
I0409 14:52:02.644557 23277 net.cpp:129] Top shape: 128 2048 (262144)
I0409 14:52:02.644562 23277 net.cpp:137] Memory required for data: 753490944
I0409 14:52:02.644567 23277 layer_factory.hpp:77] Creating layer fc2_0
I0409 14:52:02.644578 23277 net.cpp:84] Creating Layer fc2_0
I0409 14:52:02.644584 23277 net.cpp:406] fc2_0 <- fc1_0
I0409 14:52:02.644593 23277 net.cpp:380] fc2_0 -> fc2_0
I0409 14:52:02.742790 23277 net.cpp:122] Setting up fc2_0
I0409 14:52:02.742825 23277 net.cpp:129] Top shape: 128 2048 (262144)
I0409 14:52:02.742831 23277 net.cpp:137] Memory required for data: 754539520
I0409 14:52:02.742846 23277 layer_factory.hpp:77] Creating layer relu7_0
I0409 14:52:02.742859 23277 net.cpp:84] Creating Layer relu7_0
I0409 14:52:02.742887 23277 net.cpp:406] relu7_0 <- fc2_0
I0409 14:52:02.742908 23277 net.cpp:367] relu7_0 -> fc2_0 (in-place)
I0409 14:52:02.743469 23277 net.cpp:122] Setting up relu7_0
I0409 14:52:02.743487 23277 net.cpp:129] Top shape: 128 2048 (262144)
I0409 14:52:02.743494 23277 net.cpp:137] Memory required for data: 755588096
I0409 14:52:02.743499 23277 layer_factory.hpp:77] Creating layer drop2_0
I0409 14:52:02.743528 23277 net.cpp:84] Creating Layer drop2_0
I0409 14:52:02.743537 23277 net.cpp:406] drop2_0 <- fc2_0
I0409 14:52:02.743552 23277 net.cpp:367] drop2_0 -> fc2_0 (in-place)
I0409 14:52:02.743600 23277 net.cpp:122] Setting up drop2_0
I0409 14:52:02.743609 23277 net.cpp:129] Top shape: 128 2048 (262144)
I0409 14:52:02.743614 23277 net.cpp:137] Memory required for data: 756636672
I0409 14:52:02.743620 23277 layer_factory.hpp:77] Creating layer fc3_0
I0409 14:52:02.743638 23277 net.cpp:84] Creating Layer fc3_0
I0409 14:52:02.743645 23277 net.cpp:406] fc3_0 <- fc2_0
I0409 14:52:02.743654 23277 net.cpp:380] fc3_0 -> fc3_0
I0409 14:52:02.745714 23277 net.cpp:122] Setting up fc3_0
I0409 14:52:02.745733 23277 net.cpp:129] Top shape: 128 42 (5376)
I0409 14:52:02.745739 23277 net.cpp:137] Memory required for data: 756658176
I0409 14:52:02.745750 23277 layer_factory.hpp:77] Creating layer fc3_0_fc3_0_0_split
I0409 14:52:02.745760 23277 net.cpp:84] Creating Layer fc3_0_fc3_0_0_split
I0409 14:52:02.745766 23277 net.cpp:406] fc3_0_fc3_0_0_split <- fc3_0
I0409 14:52:02.745774 23277 net.cpp:380] fc3_0_fc3_0_0_split -> fc3_0_fc3_0_0_split_0
I0409 14:52:02.745784 23277 net.cpp:380] fc3_0_fc3_0_0_split -> fc3_0_fc3_0_0_split_1
I0409 14:52:02.745841 23277 net.cpp:122] Setting up fc3_0_fc3_0_0_split
I0409 14:52:02.745852 23277 net.cpp:129] Top shape: 128 42 (5376)
I0409 14:52:02.745858 23277 net.cpp:129] Top shape: 128 42 (5376)
I0409 14:52:02.745862 23277 net.cpp:137] Memory required for data: 756701184
I0409 14:52:02.745867 23277 layer_factory.hpp:77] Creating layer loss
I0409 14:52:02.745877 23277 net.cpp:84] Creating Layer loss
I0409 14:52:02.745882 23277 net.cpp:406] loss <- fc3_0_fc3_0_0_split_0
I0409 14:52:02.745888 23277 net.cpp:406] loss <- pose_pose_0_split_0
I0409 14:52:02.745895 23277 net.cpp:380] loss -> loss
…
