…
  type: "PoseData"
  top: "data"
  top: "label"
  include {
    phase: TEST
  }
  transform_param {
    is_trans: false
    is_rotate: false
    is_zoom: false
  }
  pose_data_param {
    image_source: "/home/workspace/Datasets/NYU/test_img.txt"
    label_source: "/home/workspace/Datasets/NYU/test_label.txt"
    batch_size: 128
    shuffle: false
    new_height: 96
    new_width: 96
    root_folder: "/home/workspace/Datasets/NYU/"
    point_num: 14
    point_dim: 3
    fx: 588.03
    fy: 587.07
    output_center: true
    cube_length: 150
    dataset: NYU
  }
}
layer {
  name: "pose"
  type: "Slice"
  bottom: "label"
  top: "pose"
  top: "center"
  include {
    phase: TEST
  }
  slice_param {
    slice_dim: 1
    slice_point: 42
  }
}
layer {
  name: "conv0"
  type: "Convolution"
  bottom: "data"
  top: "conv0"
  param {
    lr_mult: 1
  }
  param {
    lr_mult: 2
  }
  convolution_param {
    num_output: 16
    pad: 1
    kernel_size: 3
    stride: 1
    weight_filler {
      type: "msra"
    }
    bias_filler {
      type: "constant"
    }
  }
}
layer {
  name: "relu0"
  type: "ReLU"
  bottom: "conv0"
  top: "conv0"
}
layer {
  name: "conv1"
  type: "Convolution"
  bottom: "conv0"
  top: "conv1"
  param {
    lr_mult: 1
  }
  param {
    lr_mult: 2
  }
  convolution_param {
    num_output: 16
    pad: 1
    kernel_size: 3
    stride: 1
    weight_filler {
      type: "msra"
    }
    bias_filler {
      type: "constant"
    }
  }
}
layer {
  name: "pool1"
  type: "Pooling"
  bottom: "conv1"
  top: "pool1"
  pooling_param {
    pool: MAX
    kernel_size: 2
    stride: 2
  }
}
layer {
  name: "relu1"
  type: "ReLU"
  bottom: "pool1"
  top: "pool1"
}
layer {
  name: "conv2_0"
  type: "Convolution"
  bottom: "pool1"
  top: "conv2_0"
  param {
    lr_mult: 1
  }
  param {
    lr_mult: 2
  }
  convolution_param {
    num_output: 32
    pad: 0
    kernel_size: 1
    stride: 1
    weight_filler {
      type: "msra"
    }
    bias_filler {
      type: "constant"
    }
  }
}
layer {
  name: "relu2_0"
  type: "ReLU"
  bottom: "conv2_0"
  top: "conv2_0"
}
layer {
  name: "conv2"
  type: "Convolution"
  bottom: "conv2_0"
  top: "conv2"
  param {
    lr_mult: 1
  }
  param {
    lr_mult: 2
  }
  convolution_param {
    num_output: 32
    pad: 1
    kernel_size: 3
    stride: 1
    weight_filler {
      type: "msra"
    }
    bias_filler {
      type: "constant"
    }
  }
}
layer {
  name: "relu2"
  type: "ReLU"
  bottom: "conv2"
  top: "conv2"
}
layer {
  name: "conv3"
  type: "Convolution"
  bottom: "conv2"
  top: "conv3"
  param {
    lr_mult: 1
  }
  param {
    lr_mult: 2
  }
  convolution_param {
    num_output: 32
    pad: 1
    kernel_size: 3
    stride: 1
    weight_filler {
      type: "msra"
    }
    bias_filler {
      type: "constant"
    }
  }
}
layer {
  name: "res1"
  type: "Eltwise"
  bottom: "conv2_0"
  bottom: "conv3"
  top: "res1"
}
layer {
  name: "pool2"
  type: "Pooling"
  bottom: "res1"
  top: "pool2"
  pooling_param {
    pool: MAX
    kernel_size: 2
    stride: 2
  }
}
layer {
  name: "relu3"
  type: "ReLU"
  bottom: "pool2"
  top: "pool2"
}
layer {
  name: "conv3_0"
  type: "Convolution"
  bottom: "pool2"
  top: "conv3_0"
  param {
    lr_mult: 1
  }
  param {
    lr_mult: 2
  }
  convolution_param {
    num_output: 64
    pad: 0
    kernel_size: 1
    stride: 1
    weight_filler {
      type: "msra"
    }
    bias_filler {
      type: "constant"
    }
  }
}
layer {
  name: "relu3_0"
  type: "ReLU"
  bottom: "conv3_0"
  top: "conv3_0"
}
layer {
  name: "conv4"
  type: "Convolution"
  bottom: "conv3_0"
  top: "conv4"
  param {
    lr_mult: 1
  }
  param {
    lr_mult: 2
  }
  convolution_param {
    num_output: 64
    pad: 1
    kernel_size: 3
    stride: 1
    weight_filler {
      type: "msra"
    }
    bias_filler {
      type: "constant"
    }
  }
}
layer {
  name: "relu4"
  type: "ReLU"
  bottom: "conv4"
  top: "conv4"
}
layer {
  name: "conv5"
  type: "Convolution"
  bottom: "conv4"
  top: "conv5"
  param {
    lr_mult: 1
  }
  param {
    lr_mult: 2
  }
  convolution_param {
    num_output: 64
    pad: 1
    kernel_size: 3
    stride: 1
    weight_filler {
      type: "msra"
    }
    bias_filler {
      type: "constant"
    }
  }
}
layer {
  name: "res2"
  type: "Eltwise"
  bottom: "conv3_0"
  bottom: "conv5"
  top: "res2"
}
layer {
  name: "pool3"
  type: "Pooling"
  bottom: "res2"
  top: "pool3"
  pooling_param {
    pool: MAX
    kernel_size: 2
    stride: 2
  }
}
layer {
  name: "relu5"
  type: "ReLU"
  bottom: "pool3"
  top: "pool3"
}
layer {
  name: "fc1_0"
  type: "InnerProduct"
  bottom: "pool3"
  top: "fc1_0"
  param {
    lr_mult: 1
  }
  param {
    lr_mult: 2
  }
  inner_product_param {
    num_output: 2048
    weight_filler {
      type: "gaussian"
      std: 0.001
    }
    bias_filler {
      type: "constant"
    }
  }
}
layer {
  name: "relu6_0"
  type: "ReLU"
  bottom: "fc1_0"
  top: "fc1_0"
}
layer {
  name: "drop1_0"
  type: "Dropout"
  bottom: "fc1_0"
  top: "fc1_0"
  dropout_param {
    dropout_ratio: 0.5
  }
}
layer {
  name: "fc2_0"
  type: "InnerProduct"
  bottom: "fc1_0"
  top: "fc2_0"
  param {
    lr_mult: 1
  }
  param {
    lr_mult: 2
  }
  inner_product_param {
    num_output: 2048
    weight_filler {
      type: "gaussian"
      std: 0.001
    }
    bias_filler {
      type: "constant"
    }
  }
}
layer {
  name: "relu7_0"
  type: "ReLU"
  bottom: "fc2_0"
  top: "fc2_0"
}
layer {
  name: "drop2_0"
  type: "Dropout"
  bottom: "fc2_0"
  top: "fc2_0"
  dropout_param {
    dropout_ratio: 0.5
  }
}
layer {
  name: "fc3_0"
  type: "InnerProduct"
  bottom: "fc2_0"
  top: "fc3_0"
  param {
    lr_mult: 1
  }
  param {
    lr_mult: 2
  }
  inner_product_param {
    num_output: 42
    weight_filler {
      type: "gaussian"
      std: 0.001
    }
    bias_filler {
      type: "constant"
    }
  }
}
layer {
  name: "error"
  type: "PoseDistance"
  bottom: "fc3_0"
  bottom: "pose"
  bottom: "center"
  top: "error"
  top: "output"
  include {
    phase: TEST
  }
  pose_distance_param {
    fx: 588.03
    fy: 587.07
    ux: 320
    uy: 240
    output_pose: true
    cube_length: 150
  }
}
I0410 15:36:32.177490  6092 layer_factory.hpp:77] Creating layer data
I0410 15:36:32.177523  6092 net.cpp:84] Creating Layer data
I0410 15:36:32.177531  6092 net.cpp:380] data -> data
I0410 15:36:32.177554  6092 net.cpp:380] data -> label
I0410 15:36:32.177575  6092 pose_data_layer.cpp:117] Opening file /home/workspace/Datasets/NYU/test_img.txt
I0410 15:36:32.177599  6092 pose_data_layer.cpp:119] Opening file /home/workspace/Datasets/NYU/test_label.txt
I0410 15:36:33.323019  6092 pose_data_layer.cpp:269] Loading 1 image...
I0410 15:37:34.209921  6092 pose_data_layer.cpp:269] Loading 2001 image...
I0410 15:38:27.545953  6092 pose_data_layer.cpp:269] Loading 4001 image...
I0410 15:39:20.750802  6092 pose_data_layer.cpp:269] Loading 6001 image...
I0410 15:40:14.588999  6092 pose_data_layer.cpp:269] Loading 8001 image...
I0410 15:40:20.861183  6092 pose_data_layer.cpp:287] A total of 8252 images.
I0410 15:40:21.025935  6092 pose_data_layer.cpp:329] output data size: 128,1,96,96
I0410 15:40:21.035663  6092 net.cpp:122] Setting up data
I0410 15:40:21.035698  6092 net.cpp:129] Top shape: 128 1 96 96 (1179648)
I0410 15:40:21.035703  6092 net.cpp:129] Top shape: 128 45 (5760)
I0410 15:40:21.035706  6092 net.cpp:137] Memory required for data: 4741632
I0410 15:40:21.035715  6092 layer_factory.hpp:77] Creating layer pose
I0410 15:40:21.035732  6092 net.cpp:84] Creating Layer pose
I0410 15:40:21.035784  6092 net.cpp:406] pose <- label
I0410 15:40:21.035794  6092 net.cpp:380] pose -> pose
I0410 15:40:21.035811  6092 net.cpp:380] pose -> center
I0410 15:40:21.035856  6092 net.cpp:122] Setting up pose
I0410 15:40:21.035863  6092 net.cpp:129] Top shape: 128 42 (5376)
I0410 15:40:21.035866  6092 net.cpp:129] Top shape: 128 3 (384)
I0410 15:40:21.035868  6092 net.cpp:137] Memory required for data: 4764672
I0410 15:40:21.035871  6092 layer_factory.hpp:77] Creating layer conv0
I0410 15:40:21.037045  6092 net.cpp:84] Creating Layer conv0
I0410 15:40:21.037094  6092 net.cpp:406] conv0 <- data
I0410 15:40:21.037108  6092 net.cpp:380] conv0 -> conv0
I0410 15:40:24.134383  6092 net.cpp:122] Setting up conv0
I0410 15:40:24.134415  6092 net.cpp:129] Top shape: 128 16 96 96 (18874368)
I0410 15:40:24.134419  6092 net.cpp:137] Memory required for data: 80262144
I0410 15:40:24.134438  6092 layer_factory.hpp:77] Creating layer relu0
I0410 15:40:24.134449  6092 net.cpp:84] Creating Layer relu0
I0410 15:40:24.134454  6092 net.cpp:406] relu0 <- conv0
I0410 15:40:24.134459  6092 net.cpp:367] relu0 -> conv0 (in-place)
I0410 15:40:24.134766  6092 net.cpp:122] Setting up relu0
I0410 15:40:24.134778  6092 net.cpp:129] Top shape: 128 16 96 96 (18874368)
I0410 15:40:24.134781  6092 net.cpp:137] Memory required for data: 155759616
I0410 15:40:24.134784  6092 layer_factory.hpp:77] Creating layer conv1
I0410 15:40:24.134796  6092 net.cpp:84] Creating Layer conv1
I0410 15:40:24.134801  6092 net.cpp:406] conv1 <- conv0
I0410 15:40:24.134807  6092 net.cpp:380] conv1 -> conv1
I0410 15:40:24.136154  6092 net.cpp:122] Setting up conv1
I0410 15:40:24.136167  6092 net.cpp:129] Top shape: 128 16 96 96 (18874368)
I0410 15:40:24.136170  6092 net.cpp:137] Memory required for data: 231257088
I0410 15:40:24.136178  6092 layer_factory.hpp:77] Creating layer pool1
I0410 15:40:24.136183  6092 net.cpp:84] Creating Layer pool1
I0410 15:40:24.136188  6092 net.cpp:406] pool1 <- conv1
I0410 15:40:24.136191  6092 net.cpp:380] pool1 -> pool1
I0410 15:40:24.136229  6092 net.cpp:122] Setting up pool1
I0410 15:40:24.136235  6092 net.cpp:129] Top shape: 128 16 48 48 (4718592)
I0410 15:40:24.136238  6092 net.cpp:137] Memory required for data: 250131456
I0410 15:40:24.136240  6092 layer_factory.hpp:77] Creating layer relu1
I0410 15:40:24.136245  6092 net.cpp:84] Creating Layer relu1
I0410 15:40:24.136247  6092 net.cpp:406] relu1 <- pool1
I0410 15:40:24.136251  6092 net.cpp:367] relu1 -> pool1 (in-place)
I0410 15:40:24.136420  6092 net.cpp:122] Setting up relu1
I0410 15:40:24.136430  6092 net.cpp:129] Top shape: 128 16 48 48 (4718592)
I0410 15:40:24.136433  6092 net.cpp:137] Memory required for data: 269005824
I0410 15:40:24.136436  6092 layer_factory.hpp:77] Creating layer conv2_0
I0410 15:40:24.136445  6092 net.cpp:84] Creating Layer conv2_0
I0410 15:40:24.136448  6092 net.cpp:406] conv2_0 <- pool1
I0410 15:40:24.136453  6092 net.cpp:380] conv2_0 -> conv2_0
I0410 15:40:24.137754  6092 net.cpp:122] Setting up conv2_0
I0410 15:40:24.137766  6092 net.cpp:129] Top shape: 128 32 48 48 (9437184)
I0410 15:40:24.137769  6092 net.cpp:137] Memory required for data: 306754560
I0410 15:40:24.137778  6092 layer_factory.hpp:77] Creating layer relu2_0
I0410 15:40:24.137784  6092 net.cpp:84] Creating Layer relu2_0
I0410 15:40:24.137786  6092 net.cpp:406] relu2_0 <- conv2_0
I0410 15:40:24.137792  6092 net.cpp:367] relu2_0 -> conv2_0 (in-place)
I0410 15:40:24.138082  6092 net.cpp:122] Setting up relu2_0
I0410 15:40:24.138092  6092 net.cpp:129] Top shape: 128 32 48 48 (9437184)
I0410 15:40:24.138111  6092 net.cpp:137] Memory required for data: 344503296
I0410 15:40:24.138114  6092 layer_factory.hpp:77] Creating layer conv2_0_relu2_0_0_split
I0410 15:40:24.138120  6092 net.cpp:84] Creating Layer conv2_0_relu2_0_0_split
I0410 15:40:24.138123  6092 net.cpp:406] conv2_0_relu2_0_0_split <- conv2_0
I0410 15:40:24.138129  6092 net.cpp:380] conv2_0_relu2_0_0_split -> conv2_0_relu2_0_0_split_0
I0410 15:40:24.138136  6092 net.cpp:380] conv2_0_relu2_0_0_split -> conv2_0_relu2_0_0_split_1
I0410 15:40:24.138169  6092 net.cpp:122] Setting up conv2_0_relu2_0_0_split
I0410 15:40:24.138175  6092 net.cpp:129] Top shape: 128 32 48 48 (9437184)
I0410 15:40:24.138178  6092 net.cpp:129] Top shape: 128 32 48 48 (9437184)
I0410 15:40:24.138180  6092 net.cpp:137] Memory required for data: 420000768
I0410 15:40:24.138183  6092 layer_factory.hpp:77] Creating layer conv2
I0410 15:40:24.138191  6092 net.cpp:84] Creating Layer conv2
I0410 15:40:24.138195  6092 net.cpp:406] conv2 <- conv2_0_relu2_0_0_split_0
I0410 15:40:24.138202  6092 net.cpp:380] conv2 -> conv2
I0410 15:40:24.139289  6092 net.cpp:122] Setting up conv2
I0410 15:40:24.139300  6092 net.cpp:129] Top shape: 128 32 48 48 (9437184)
I0410 15:40:24.139304  6092 net.cpp:137] Memory required for data: 457749504
I0410 15:40:24.139310  6092 layer_factory.hpp:77] Creating layer relu2
I0410 15:40:24.139317  6092 net.cpp:84] Creating Layer relu2
I0410 15:40:24.139322  6092 net.cpp:406] relu2 <- conv2
I0410 15:40:24.139325  6092 net.cpp:367] relu2 -> conv2 (in-place)
I0410 15:40:24.139478  6092 net.cpp:122] Setting up relu2
I0410 15:40:24.139487  6092 net.cpp:129] Top shape: 128 32 48 48 (9437184)
I0410 15:40:24.139492  6092 net.cpp:137] Memory required for data: 495498240
I0410 15:40:24.139494  6092 layer_factory.hpp:77] Creating layer conv3
I0410 15:40:24.139503  6092 net.cpp:84] Creating Layer conv3
I0410 15:40:24.139506  6092 net.cpp:406] conv3 <- conv2
I0410 15:40:24.139511  6092 net.cpp:380] conv3 -> conv3
I0410 15:40:24.140609  6092 net.cpp:122] Setting up conv3
I0410 15:40:24.140620  6092 net.cpp:129] Top shape: 128 32 48 48 (9437184)
I0410 15:40:24.140625  6092 net.cpp:137] Memory required for data: 533246976
I0410 15:40:24.140632  6092 layer_factory.hpp:77] Creating layer res1
I0410 15:40:24.140640  6092 net.cpp:84] Creating Layer res1
I0410 15:40:24.140643  6092 net.cpp:406] res1 <- conv2_0_relu2_0_0_split_1
I0410 15:40:24.140647  6092 net.cpp:406] res1 <- conv3
I0410 15:40:24.140652  6092 net.cpp:380] res1 -> res1
I0410 15:40:24.140942  6092 net.cpp:122] Setting up res1
I0410 15:40:24.140952  6092 net.cpp:129] Top shape: 128 32 48 48 (9437184)
I0410 15:40:24.140956  6092 net.cpp:137] Memory required for data: 570995712
I0410 15:40:24.140959  6092 layer_factory.hpp:77] Creating layer pool2
I0410 15:40:24.140964  6092 net.cpp:84] Creating Layer pool2
I0410 15:40:24.140967  6092 net.cpp:406] pool2 <- res1
I0410 15:40:24.140974  6092 net.cpp:380] pool2 -> pool2
I0410 15:40:24.141005  6092 net.cpp:122] Setting up pool2
I0410 15:40:24.141011  6092 net.cpp:129] Top shape: 128 32 24 24 (2359296)
I0410 15:40:24.141014  6092 net.cpp:137] Memory required for data: 580432896
I0410 15:40:24.141017  6092 layer_factory.hpp:77] Creating layer relu3
I0410 15:40:24.141021  6092 net.cpp:84] Creating Layer relu3
I0410 15:40:24.141024  6092 net.cpp:406] relu3 <- pool2
I0410 15:40:24.141028  6092 net.cpp:367] relu3 -> pool2 (in-place)
I0410 15:40:24.141321  6092 net.cpp:122] Setting up relu3
I0410 15:40:24.141332  6092 net.cpp:129] Top shape: 128 32 24 24 (2359296)
I0410 15:40:24.141335  6092 net.cpp:137] Memory required for data: 589870080
I0410 15:40:24.141338  6092 layer_factory.hpp:77] Creating layer conv3_0
I0410 15:40:24.141348  6092 net.cpp:84] Creating Layer conv3_0
I0410 15:40:24.141352  6092 net.cpp:406] conv3_0 <- pool2
I0410 15:40:24.141357  6092 net.cpp:380] conv3_0 -> conv3_0
I0410 15:40:24.142297  6092 net.cpp:122] Setting up conv3_0
I0410 15:40:24.142309  6092 net.cpp:129] Top shape: 128 64 24 24 (4718592)
I0410 15:40:24.142313  6092 net.cpp:137] Memory required for data: 608744448
I0410 15:40:24.142328  6092 layer_factory.hpp:77] Creating layer relu3_0
I0410 15:40:24.142335  6092 net.cpp:84] Creating Layer relu3_0
I0410 15:40:24.142340  6092 net.cpp:406] relu3_0 <- conv3_0
I0410 15:40:24.142344  6092 net.cpp:367] relu3_0 -> conv3_0 (in-place)
I0410 15:40:24.142657  6092 net.cpp:122] Setting up relu3_0
I0410 15:40:24.142668  6092 net.cpp:129] Top shape: 128 64 24 24 (4718592)
I0410 15:40:24.142671  6092 net.cpp:137] Memory required for data: 627618816
I0410 15:40:24.142674  6092 layer_factory.hpp:77] Creating layer conv3_0_relu3_0_0_split
I0410 15:40:24.142679  6092 net.cpp:84] Creating Layer conv3_0_relu3_0_0_split
I0410 15:40:24.142683  6092 net.cpp:406] conv3_0_relu3_0_0_split <- conv3_0
I0410 15:40:24.142689  6092 net.cpp:380] conv3_0_relu3_0_0_split -> conv3_0_relu3_0_0_split_0
I0410 15:40:24.142695  6092 net.cpp:380] conv3_0_relu3_0_0_split -> conv3_0_relu3_0_0_split_1
I0410 15:40:24.142729  6092 net.cpp:122] Setting up conv3_0_relu3_0_0_split
I0410 15:40:24.142735  6092 net.cpp:129] Top shape: 128 64 24 24 (4718592)
I0410 15:40:24.142740  6092 net.cpp:129] Top shape: 128 64 24 24 (4718592)
I0410 15:40:24.142743  6092 net.cpp:137] Memory required for data: 665367552
I0410 15:40:24.142745  6092 layer_factory.hpp:77] Creating layer conv4
I0410 15:40:24.142753  6092 net.cpp:84] Creating Layer conv4
I0410 15:40:24.142757  6092 net.cpp:406] conv4 <- conv3_0_relu3_0_0_split_0
I0410 15:40:24.142763  6092 net.cpp:380] conv4 -> conv4
I0410 15:40:24.145048  6092 net.cpp:122] Setting up conv4
I0410 15:40:24.145061  6092 net.cpp:129] Top shape: 128 64 24 24 (4718592)
I0410 15:40:24.145064  6092 net.cpp:137] Memory required for data: 684241920
I0410 15:40:24.145071  6092 layer_factory.hpp:77] Creating layer relu4
I0410 15:40:24.145078  6092 net.cpp:84] Creating Layer relu4
I0410 15:40:24.145082  6092 net.cpp:406] relu4 <- conv4
I0410 15:40:24.145087  6092 net.cpp:367] relu4 -> conv4 (in-place)
I0410 15:40:24.145401  6092 net.cpp:122] Setting up relu4
I0410 15:40:24.145412  6092 net.cpp:129] Top shape: 128 64 24 24 (4718592)
I0410 15:40:24.145416  6092 net.cpp:137] Memory required for data: 703116288
I0410 15:40:24.145419  6092 layer_factory.hpp:77] Creating layer conv5
I0410 15:40:24.145428  6092 net.cpp:84] Creating Layer conv5
I0410 15:40:24.145433  6092 net.cpp:406] conv5 <- conv4
I0410 15:40:24.145438  6092 net.cpp:380] conv5 -> conv5
I0410 15:40:24.147142  6092 net.cpp:122] Setting up conv5
I0410 15:40:24.147155  6092 net.cpp:129] Top shape: 128 64 24 24 (4718592)
I0410 15:40:24.147157  6092 net.cpp:137] Memory required for data: 721990656
I0410 15:40:24.147163  6092 layer_factory.hpp:77] Creating layer res2
I0410 15:40:24.147171  6092 net.cpp:84] Creating Layer res2
I0410 15:40:24.147176  6092 net.cpp:406] res2 <- conv3_0_relu3_0_0_split_1
I0410 15:40:24.147181  6092 net.cpp:406] res2 <- conv5
I0410 15:40:24.147184  6092 net.cpp:380] res2 -> res2
I0410 15:40:24.147205  6092 net.cpp:122] Setting up res2
I0410 15:40:24.147213  6092 net.cpp:129] Top shape: 128 64 24 24 (4718592)
I0410 15:40:24.147215  6092 net.cpp:137] Memory required for data: 740865024
I0410 15:40:24.147218  6092 layer_factory.hpp:77] Creating layer pool3
I0410 15:40:24.147223  6092 net.cpp:84] Creating Layer pool3
I0410 15:40:24.147228  6092 net.cpp:406] pool3 <- res2
I0410 15:40:24.147233  6092 net.cpp:380] pool3 -> pool3
I0410 15:40:24.147261  6092 net.cpp:122] Setting up pool3
I0410 15:40:24.147269  6092 net.cpp:129] Top shape: 128 64 12 12 (1179648)
I0410 15:40:24.147270  6092 net.cpp:137] Memory required for data: 745583616
I0410 15:40:24.147274  6092 layer_factory.hpp:77] Creating layer relu5
I0410 15:40:24.147277  6092 net.cpp:84] Creating Layer relu5
I0410 15:40:24.147279  6092 net.cpp:406] relu5 <- pool3
I0410 15:40:24.147284  6092 net.cpp:367] relu5 -> pool3 (in-place)
I0410 15:40:24.147577  6092 net.cpp:122] Setting up relu5
I0410 15:40:24.147588  6092 net.cpp:129] Top shape: 128 64 12 12 (1179648)
I0410 15:40:24.147590  6092 net.cpp:137] Memory required for data: 750302208
I0410 15:40:24.147604  6092 layer_factory.hpp:77] Creating layer fc1_0
I0410 15:40:24.147614  6092 net.cpp:84] Creating Layer fc1_0
I0410 15:40:24.147619  6092 net.cpp:406] fc1_0 <- pool3
I0410 15:40:24.147624  6092 net.cpp:380] fc1_0 -> fc1_0
I0410 15:40:24.590545  6092 net.cpp:122] Setting up fc1_0
I0410 15:40:24.590577  6092 net.cpp:129] Top shape: 128 2048 (262144)
I0410 15:40:24.590584  6092 net.cpp:137] Memory required for data: 751350784
I0410 15:40:24.590603  6092 layer_factory.hpp:77] Creating layer relu6_0
I0410 15:40:24.590620  6092 net.cpp:84] Creating Layer relu6_0
I0410 15:40:24.590636  6092 net.cpp:406] relu6_0 <- fc1_0
I0410 15:40:24.590646  6092 net.cpp:367] relu6_0 -> fc1_0 (in-place)
I0410 15:40:24.590941  6092 net.cpp:122] Setting up relu6_0
I0410 15:40:24.590956  6092 net.cpp:129] Top shape: 128 2048 (262144)
I0410 15:40:24.590962  6092 net.cpp:137] Memory required for data: 752399360
I0410 15:40:24.590968  6092 layer_factory.hpp:77] Creating layer drop1_0
I0410 15:40:24.590979  6092 net.cpp:84] Creating Layer drop1_0
I0410 15:40:24.590986  6092 net.cpp:406] drop1_0 <- fc1_0
I0410 15:40:24.590993  6092 net.cpp:367] drop1_0 -> fc1_0 (in-place)
I0410 15:40:24.591033  6092 net.cpp:122] Setting up drop1_0
I0410 15:40:24.591043  6092 net.cpp:129] Top shape: 128 2048 (262144)
I0410 15:40:24.591048  6092 net.cpp:137] Memory required for data: 753447936
I0410 15:40:24.591053  6092 layer_factory.hpp:77] Creating layer fc2_0
I0410 15:40:24.591063  6092 net.cpp:84] Creating Layer fc2_0
I0410 15:40:24.591068  6092 net.cpp:406] fc2_0 <- fc1_0
I0410 15:40:24.591078  6092 net.cpp:380] fc2_0 -> fc2_0
I0410 15:40:24.698340  6092 net.cpp:122] Setting up fc2_0
I0410 15:40:24.698364  6092 net.cpp:129] Top shape: 128 2048 (262144)
I0410 15:40:24.698369  6092 net.cpp:137] Memory required for data: 754496512
I0410 15:40:24.698377  6092 layer_factory.hpp:77] Creating layer relu7_0
I0410 15:40:24.698387  6092 net.cpp:84] Creating Layer relu7_0
I0410 15:40:24.698392  6092 net.cpp:406] relu7_0 <- fc2_0
I0410 15:40:24.698398  6092 net.cpp:367] relu7_0 -> fc2_0 (in-place)
I0410 15:40:24.698865  6092 net.cpp:122] Setting up relu7_0
I0410 15:40:24.698879  6092 net.cpp:129] Top shape: 128 2048 (262144)
I0410 15:40:24.698882  6092 net.cpp:137] Memory required for data: 755545088
I0410 15:40:24.698885  6092 layer_factory.hpp:77] Creating layer drop2_0
I0410 15:40:24.698892  6092 net.cpp:84] Creating Layer drop2_0
I0410 15:40:24.698896  6092 net.cpp:406] drop2_0 <- fc2_0
I0410 15:40:24.698904  6092 net.cpp:367] drop2_0 -> fc2_0 (in-place)
I0410 15:40:24.698930  6092 net.cpp:122] Setting up drop2_0
I0410 15:40:24.698935  6092 net.cpp:129] Top shape: 128 2048 (262144)
I0410 15:40:24.698937  6092 net.cpp:137] Memory required for data: 756593664
I0410 15:40:24.698940  6092 layer_factory.hpp:77] Creating layer fc3_0
I0410 15:40:24.698948  6092 net.cpp:84] Creating Layer fc3_0
I0410 15:40:24.698951  6092 net.cpp:406] fc3_0 <- fc2_0
I0410 15:40:24.698956  6092 net.cpp:380] fc3_0 -> fc3_0
I0410 15:40:24.701375  6092 net.cpp:122] Setting up fc3_0
I0410 15:40:24.701387  6092 net.cpp:129] Top shape: 128 42 (5376)
I0410 15:40:24.701391  6092 net.cpp:137] Memory required for data: 756615168
I0410 15:40:24.701400  6092 layer_factory.hpp:77] Creating layer error
I0410 15:40:24.701413  6092 pose_distance_layer.cpp:48] Size of ids: 0
I0410 15:40:24.701421  6092 net.cpp:84] Creating Layer error
I0410 15:40:24.701424  6092 net.cpp:406] error <- fc3_0
I0410 15:40:24.701428  6092 net.cpp:406] error <- pose
I0410 15:40:24.701433  6092 net.cpp:406] error <- center
I0410 15:40:24.701442  6092 net.cpp:380] error -> error
I0410 15:40:24.701452  6092 net.cpp:380] error -> output
I0410 15:40:24.701472  6092 net.cpp:122] Setting up error
I0410 15:40:24.701478  6092 net.cpp:129] Top shape: (1)
I0410 15:40:24.701481  6092 net.cpp:129] Top shape: 128 42 (5376)
I0410 15:40:24.701484  6092 net.cpp:137] Memory required for data: 756636676
I0410 15:40:24.701488  6092 net.cpp:200] error does not need backward computation.
I0410 15:40:24.701491  6092 net.cpp:200] fc3_0 does not need backward computation.
I0410 15:40:24.701508  6092 net.cpp:200] drop2_0 does not need backward computation.
I0410 15:40:24.701510  6092 net.cpp:200] relu7_0 does not need backward computation.
…
