…
    trans_dy: 10
    is_rotate: true
    rotate_deg: 180
    is_zoom: true
    zoom_scale: 0.1
  }
  pose_data_param {
    image_source: "/home/workspace/Datasets/MSRA/cvpr15_MSRAHandGestureDB/train_image_3.txt"
    label_source: "/home/workspace/Datasets/MSRA/cvpr15_MSRAHandGestureDB/train_label_3.txt"
    batch_size: 128
    shuffle: true
    new_height: 96
    new_width: 96
    root_folder: "/home/workspace/Datasets/MSRA/cvpr15_MSRAHandGestureDB/"
    point_num: 21
    point_dim: 3
    fx: 241.42
    fy: 241.42
    cube_length: 150
    dataset: MSRA
  }
}
layer {
  name: "conv0"
  type: "Convolution"
  bottom: "data"
  top: "conv0"
  param {
    lr_mult: 1
  }
  param {
    lr_mult: 2
  }
  convolution_param {
    num_output: 16
    pad: 1
    kernel_size: 3
    stride: 1
    weight_filler {
      type: "msra"
    }
    bias_filler {
      type: "constant"
    }
  }
}
layer {
  name: "relu0"
  type: "ReLU"
  bottom: "conv0"
  top: "conv0"
}
layer {
  name: "conv1"
  type: "Convolution"
  bottom: "conv0"
  top: "conv1"
  param {
    lr_mult: 1
  }
  param {
    lr_mult: 2
  }
  convolution_param {
    num_output: 16
    pad: 1
    kernel_size: 3
    stride: 1
    weight_filler {
      type: "msra"
    }
    bias_filler {
      type: "constant"
    }
  }
}
layer {
  name: "pool1"
  type: "Pooling"
  bottom: "conv1"
  top: "pool1"
  pooling_param {
    pool: MAX
    kernel_size: 2
    stride: 2
  }
}
layer {
  name: "relu1"
  type: "ReLU"
  bottom: "pool1"
  top: "pool1"
}
layer {
  name: "conv2_0"
  type: "Convolution"
  bottom: "pool1"
  top: "conv2_0"
  param {
    lr_mult: 1
  }
  param {
    lr_mult: 2
  }
  convolution_param {
    num_output: 32
    pad: 0
    kernel_size: 1
    stride: 1
    weight_filler {
      type: "msra"
    }
    bias_filler {
      type: "constant"
    }
  }
}
layer {
  name: "relu2_0"
  type: "ReLU"
  bottom: "conv2_0"
  top: "conv2_0"
}
layer {
  name: "conv2"
  type: "Convolution"
  bottom: "conv2_0"
  top: "conv2"
  param {
    lr_mult: 1
  }
  param {
    lr_mult: 2
  }
  convolution_param {
    num_output: 32
    pad: 1
    kernel_size: 3
    stride: 1
    weight_filler {
      type: "msra"
    }
    bias_filler {
      type: "constant"
    }
  }
}
layer {
  name: "relu2"
  type: "ReLU"
  bottom: "conv2"
  top: "conv2"
}
layer {
  name: "conv3"
  type: "Convolution"
  bottom: "conv2"
  top: "conv3"
  param {
    lr_mult: 1
  }
  param {
    lr_mult: 2
  }
  convolution_param {
    num_output: 32
    pad: 1
    kernel_size: 3
    stride: 1
    weight_filler {
      type: "msra"
    }
    bias_filler {
      type: "constant"
    }
  }
}
layer {
  name: "res1"
  type: "Eltwise"
  bottom: "conv2_0"
  bottom: "conv3"
  top: "res1"
}
layer {
  name: "pool2"
  type: "Pooling"
  bottom: "res1"
  top: "pool2"
  pooling_param {
    pool: MAX
    kernel_size: 2
    stride: 2
  }
}
layer {
  name: "relu3"
  type: "ReLU"
  bottom: "pool2"
  top: "pool2"
}
layer {
  name: "conv3_0"
  type: "Convolution"
  bottom: "pool2"
  top: "conv3_0"
  param {
    lr_mult: 1
  }
  param {
    lr_mult: 2
  }
  convolution_param {
    num_output: 64
    pad: 0
    kernel_size: 1
    stride: 1
    weight_filler {
      type: "msra"
    }
    bias_filler {
      type: "constant"
    }
  }
}
layer {
  name: "relu3_0"
  type: "ReLU"
  bottom: "conv3_0"
  top: "conv3_0"
}
layer {
  name: "conv4"
  type: "Convolution"
  bottom: "conv3_0"
  top: "conv4"
  param {
    lr_mult: 1
  }
  param {
    lr_mult: 2
  }
  convolution_param {
    num_output: 64
    pad: 1
    kernel_size: 3
    stride: 1
    weight_filler {
      type: "msra"
    }
    bias_filler {
      type: "constant"
    }
  }
}
layer {
  name: "relu4"
  type: "ReLU"
  bottom: "conv4"
  top: "conv4"
}
layer {
  name: "conv5"
  type: "Convolution"
  bottom: "conv4"
  top: "conv5"
  param {
    lr_mult: 1
  }
  param {
    lr_mult: 2
  }
  convolution_param {
    num_output: 64
    pad: 1
    kernel_size: 3
    stride: 1
    weight_filler {
      type: "msra"
    }
    bias_filler {
      type: "constant"
    }
  }
}
layer {
  name: "res2"
  type: "Eltwise"
  bottom: "conv3_0"
  bottom: "conv5"
  top: "res2"
}
layer {
  name: "pool3"
  type: "Pooling"
  bottom: "res2"
  top: "pool3"
  pooling_param {
    pool: MAX
    kernel_size: 2
    stride: 2
  }
}
layer {
  name: "relu5"
  type: "ReLU"
  bottom: "pool3"
  top: "pool3"
}
layer {
  name: "fc1"
  type: "InnerProduct"
  bottom: "pool3"
  top: "fc1"
  param {
    lr_mult: 1
  }
  param {
    lr_mult: 2
  }
  inner_product_param {
    num_output: 2048
    weight_filler {
      type: "gaussian"
      std: 0.001
    }
    bias_filler {
      type: "constant"
    }
  }
}
layer {
  name: "relu6"
  type: "ReLU"
  bottom: "fc1"
  top: "fc1"
}
layer {
  name: "drop1"
  type: "Dropout"
  bottom: "fc1"
  top: "fc1"
  dropout_param {
    dropout_ratio: 0.5
  }
}
layer {
  name: "fc2"
  type: "InnerProduct"
  bottom: "fc1"
  top: "fc2"
  param {
    lr_mult: 1
  }
  param {
    lr_mult: 2
  }
  inner_product_param {
    num_output: 2048
    weight_filler {
      type: "gaussian"
      std: 0.001
    }
    bias_filler {
      type: "constant"
    }
  }
}
layer {
  name: "relu7"
  type: "ReLU"
  bottom: "fc2"
  top: "fc2"
}
layer {
  name: "drop2"
  type: "Dropout"
  bottom: "fc2"
  top: "fc2"
  dropout_param {
    dropout_ratio: 0.5
  }
}
layer {
  name: "fc3"
  type: "InnerProduct"
  bottom: "fc2"
  top: "fc3"
  param {
    lr_mult: 1
  }
  param {
    lr_mult: 2
  }
  inner_product_param {
    num_output: 63
    weight_filler {
      type: "gaussian"
      std: 0.001
    }
    bias_filler {
      type: "constant"
    }
  }
}
layer {
  name: "loss"
  type: "SmoothL1Loss"
  bottom: "fc3"
  bottom: "pose"
  top: "loss"
  loss_weight: 1
  smooth_l1_loss_param {
    sigma: 10
  }
}
I0410 23:17:31.686450  4377 layer_factory.hpp:77] Creating layer data
I0410 23:17:31.686470  4377 net.cpp:84] Creating Layer data
I0410 23:17:31.686477  4377 net.cpp:380] data -> data
I0410 23:17:31.686491  4377 net.cpp:380] data -> pose
I0410 23:17:31.686561  4377 pose_data_layer.cpp:117] Opening file /home/workspace/Datasets/MSRA/cvpr15_MSRAHandGestureDB/train_image_3.txt
…
I0410 23:18:21.450258  4377 pose_data_layer.cpp:269] Loading 60001 image...
I0410 23:18:23.031119  4377 pose_data_layer.cpp:269] Loading 62001 image...
I0410 23:18:24.087738  4377 pose_data_layer.cpp:269] Loading 64001 image...
I0410 23:18:25.183924  4377 pose_data_layer.cpp:269] Loading 66001 image...
I0410 23:18:26.351672  4377 pose_data_layer.cpp:282] Shuffling data
I0410 23:18:26.352694  4377 pose_data_layer.cpp:287] A total of 67887 images.
I0410 23:18:26.353307  4377 pose_data_layer.cpp:329] output data size: 128,1,96,96
I0410 23:18:26.369825  4377 net.cpp:122] Setting up data
I0410 23:18:26.369863  4377 net.cpp:129] Top shape: 128 1 96 96 (1179648)
I0410 23:18:26.369873  4377 net.cpp:129] Top shape: 128 63 (8064)
I0410 23:18:26.369877  4377 net.cpp:137] Memory required for data: 4750848
I0410 23:18:26.369889  4377 layer_factory.hpp:77] Creating layer conv0
I0410 23:18:26.369916  4377 net.cpp:84] Creating Layer conv0
I0410 23:18:26.369951  4377 net.cpp:406] conv0 <- data
I0410 23:18:26.369964  4377 net.cpp:380] conv0 -> conv0
I0410 23:18:26.673130  4377 net.cpp:122] Setting up conv0
I0410 23:18:26.673159  4377 net.cpp:129] Top shape: 128 16 96 96 (18874368)
I0410 23:18:26.673162  4377 net.cpp:137] Memory required for data: 80248320
I0410 23:18:26.673177  4377 layer_factory.hpp:77] Creating layer relu0
I0410 23:18:26.673187  4377 net.cpp:84] Creating Layer relu0
I0410 23:18:26.673192  4377 net.cpp:406] relu0 <- conv0
I0410 23:18:26.673197  4377 net.cpp:367] relu0 -> conv0 (in-place)
I0410 23:18:26.673501  4377 net.cpp:122] Setting up relu0
I0410 23:18:26.673513  4377 net.cpp:129] Top shape: 128 16 96 96 (18874368)
I0410 23:18:26.673518  4377 net.cpp:137] Memory required for data: 155745792
I0410 23:18:26.673523  4377 layer_factory.hpp:77] Creating layer conv1
I0410 23:18:26.673537  4377 net.cpp:84] Creating Layer conv1
I0410 23:18:26.673540  4377 net.cpp:406] conv1 <- conv0
I0410 23:18:26.673545  4377 net.cpp:380] conv1 -> conv1
I0410 23:18:26.674962  4377 net.cpp:122] Setting up conv1
I0410 23:18:26.674976  4377 net.cpp:129] Top shape: 128 16 96 96 (18874368)
I0410 23:18:26.674979  4377 net.cpp:137] Memory required for data: 231243264
I0410 23:18:26.674988  4377 layer_factory.hpp:77] Creating layer pool1
I0410 23:18:26.674998  4377 net.cpp:84] Creating Layer pool1
I0410 23:18:26.675000  4377 net.cpp:406] pool1 <- conv1
I0410 23:18:26.675005  4377 net.cpp:380] pool1 -> pool1
I0410 23:18:26.675042  4377 net.cpp:122] Setting up pool1
I0410 23:18:26.675048  4377 net.cpp:129] Top shape: 128 16 48 48 (4718592)
I0410 23:18:26.675050  4377 net.cpp:137] Memory required for data: 250117632
I0410 23:18:26.675053  4377 layer_factory.hpp:77] Creating layer relu1
I0410 23:18:26.675057  4377 net.cpp:84] Creating Layer relu1
I0410 23:18:26.675060  4377 net.cpp:406] relu1 <- pool1
I0410 23:18:26.675065  4377 net.cpp:367] relu1 -> pool1 (in-place)
I0410 23:18:26.675218  4377 net.cpp:122] Setting up relu1
I0410 23:18:26.675227  4377 net.cpp:129] Top shape: 128 16 48 48 (4718592)
I0410 23:18:26.675230  4377 net.cpp:137] Memory required for data: 268992000
I0410 23:18:26.675232  4377 layer_factory.hpp:77] Creating layer conv2_0
I0410 23:18:26.675241  4377 net.cpp:84] Creating Layer conv2_0
I0410 23:18:26.675243  4377 net.cpp:406] conv2_0 <- pool1
I0410 23:18:26.675248  4377 net.cpp:380] conv2_0 -> conv2_0
I0410 23:18:26.676630  4377 net.cpp:122] Setting up conv2_0
I0410 23:18:26.676645  4377 net.cpp:129] Top shape: 128 32 48 48 (9437184)
I0410 23:18:26.676647  4377 net.cpp:137] Memory required for data: 306740736
I0410 23:18:26.676656  4377 layer_factory.hpp:77] Creating layer relu2_0
I0410 23:18:26.676666  4377 net.cpp:84] Creating Layer relu2_0
I0410 23:18:26.676671  4377 net.cpp:406] relu2_0 <- conv2_0
I0410 23:18:26.676681  4377 net.cpp:367] relu2_0 -> conv2_0 (in-place)
I0410 23:18:26.677091  4377 net.cpp:122] Setting up relu2_0
I0410 23:18:26.677103  4377 net.cpp:129] Top shape: 128 32 48 48 (9437184)
I0410 23:18:26.677106  4377 net.cpp:137] Memory required for data: 344489472
I0410 23:18:26.677109  4377 layer_factory.hpp:77] Creating layer conv2_0_relu2_0_0_split
I0410 23:18:26.677115  4377 net.cpp:84] Creating Layer conv2_0_relu2_0_0_split
I0410 23:18:26.677119  4377 net.cpp:406] conv2_0_relu2_0_0_split <- conv2_0
I0410 23:18:26.677126  4377 net.cpp:380] conv2_0_relu2_0_0_split -> conv2_0_relu2_0_0_split_0
I0410 23:18:26.677136  4377 net.cpp:380] conv2_0_relu2_0_0_split -> conv2_0_relu2_0_0_split_1
I0410 23:18:26.677178  4377 net.cpp:122] Setting up conv2_0_relu2_0_0_split
I0410 23:18:26.677187  4377 net.cpp:129] Top shape: 128 32 48 48 (9437184)
I0410 23:18:26.677192  4377 net.cpp:129] Top shape: 128 32 48 48 (9437184)
I0410 23:18:26.677197  4377 net.cpp:137] Memory required for data: 419986944
I0410 23:18:26.677201  4377 layer_factory.hpp:77] Creating layer conv2
I0410 23:18:26.677214  4377 net.cpp:84] Creating Layer conv2
I0410 23:18:26.677220  4377 net.cpp:406] conv2 <- conv2_0_relu2_0_0_split_0
I0410 23:18:26.677230  4377 net.cpp:380] conv2 -> conv2
I0410 23:18:26.678385  4377 net.cpp:122] Setting up conv2
I0410 23:18:26.678398  4377 net.cpp:129] Top shape: 128 32 48 48 (9437184)
I0410 23:18:26.678403  4377 net.cpp:137] Memory required for data: 457735680
I0410 23:18:26.678413  4377 layer_factory.hpp:77] Creating layer relu2
I0410 23:18:26.678424  4377 net.cpp:84] Creating Layer relu2
I0410 23:18:26.678431  4377 net.cpp:406] relu2 <- conv2
I0410 23:18:26.678437  4377 net.cpp:367] relu2 -> conv2 (in-place)
I0410 23:18:26.678601  4377 net.cpp:122] Setting up relu2
I0410 23:18:26.678611  4377 net.cpp:129] Top shape: 128 32 48 48 (9437184)
I0410 23:18:26.678616  4377 net.cpp:137] Memory required for data: 495484416
I0410 23:18:26.678620  4377 layer_factory.hpp:77] Creating layer conv3
I0410 23:18:26.678634  4377 net.cpp:84] Creating Layer conv3
I0410 23:18:26.678640  4377 net.cpp:406] conv3 <- conv2
I0410 23:18:26.678648  4377 net.cpp:380] conv3 -> conv3
I0410 23:18:26.679811  4377 net.cpp:122] Setting up conv3
I0410 23:18:26.679826  4377 net.cpp:129] Top shape: 128 32 48 48 (9437184)
I0410 23:18:26.679831  4377 net.cpp:137] Memory required for data: 533233152
I0410 23:18:26.679844  4377 layer_factory.hpp:77] Creating layer res1
I0410 23:18:26.679855  4377 net.cpp:84] Creating Layer res1
I0410 23:18:26.679862  4377 net.cpp:406] res1 <- conv2_0_relu2_0_0_split_1
I0410 23:18:26.679868  4377 net.cpp:406] res1 <- conv3
I0410 23:18:26.679874  4377 net.cpp:380] res1 -> res1
I0410 23:18:26.679903  4377 net.cpp:122] Setting up res1
I0410 23:18:26.679911  4377 net.cpp:129] Top shape: 128 32 48 48 (9437184)
I0410 23:18:26.679916  4377 net.cpp:137] Memory required for data: 570981888
I0410 23:18:26.679920  4377 layer_factory.hpp:77] Creating layer pool2
I0410 23:18:26.679930  4377 net.cpp:84] Creating Layer pool2
I0410 23:18:26.679936  4377 net.cpp:406] pool2 <- res1
I0410 23:18:26.679944  4377 net.cpp:380] pool2 -> pool2
I0410 23:18:26.679983  4377 net.cpp:122] Setting up pool2
I0410 23:18:26.679992  4377 net.cpp:129] Top shape: 128 32 24 24 (2359296)
I0410 23:18:26.679996  4377 net.cpp:137] Memory required for data: 580419072
I0410 23:18:26.680001  4377 layer_factory.hpp:77] Creating layer relu3
I0410 23:18:26.680009  4377 net.cpp:84] Creating Layer relu3
I0410 23:18:26.680016  4377 net.cpp:406] relu3 <- pool2
I0410 23:18:26.680022  4377 net.cpp:367] relu3 -> pool2 (in-place)
I0410 23:18:26.680336  4377 net.cpp:122] Setting up relu3
I0410 23:18:26.680348  4377 net.cpp:129] Top shape: 128 32 24 24 (2359296)
I0410 23:18:26.680353  4377 net.cpp:137] Memory required for data: 589856256
I0410 23:18:26.680358  4377 layer_factory.hpp:77] Creating layer conv3_0
I0410 23:18:26.680372  4377 net.cpp:84] Creating Layer conv3_0
I0410 23:18:26.680378  4377 net.cpp:406] conv3_0 <- pool2
I0410 23:18:26.680387  4377 net.cpp:380] conv3_0 -> conv3_0
I0410 23:18:26.681557  4377 net.cpp:122] Setting up conv3_0
I0410 23:18:26.681572  4377 net.cpp:129] Top shape: 128 64 24 24 (4718592)
I0410 23:18:26.681577  4377 net.cpp:137] Memory required for data: 608730624
I0410 23:18:26.681586  4377 layer_factory.hpp:77] Creating layer relu3_0
I0410 23:18:26.681602  4377 net.cpp:84] Creating Layer relu3_0
I0410 23:18:26.681607  4377 net.cpp:406] relu3_0 <- conv3_0
I0410 23:18:26.681613  4377 net.cpp:367] relu3_0 -> conv3_0 (in-place)
I0410 23:18:26.681952  4377 net.cpp:122] Setting up relu3_0
I0410 23:18:26.681964  4377 net.cpp:129] Top shape: 128 64 24 24 (4718592)
I0410 23:18:26.681970  4377 net.cpp:137] Memory required for data: 627604992
I0410 23:18:26.681975  4377 layer_factory.hpp:77] Creating layer conv3_0_relu3_0_0_split
I0410 23:18:26.681985  4377 net.cpp:84] Creating Layer conv3_0_relu3_0_0_split
I0410 23:18:26.681991  4377 net.cpp:406] conv3_0_relu3_0_0_split <- conv3_0
I0410 23:18:26.681999  4377 net.cpp:380] conv3_0_relu3_0_0_split -> conv3_0_relu3_0_0_split_0
I0410 23:18:26.682008  4377 net.cpp:380] conv3_0_relu3_0_0_split -> conv3_0_relu3_0_0_split_1
I0410 23:18:26.682052  4377 net.cpp:122] Setting up conv3_0_relu3_0_0_split
I0410 23:18:26.682060  4377 net.cpp:129] Top shape: 128 64 24 24 (4718592)
I0410 23:18:26.682067  4377 net.cpp:129] Top shape: 128 64 24 24 (4718592)
I0410 23:18:26.682072  4377 net.cpp:137] Memory required for data: 665353728
I0410 23:18:26.682077  4377 layer_factory.hpp:77] Creating layer conv4
I0410 23:18:26.682090  4377 net.cpp:84] Creating Layer conv4
I0410 23:18:26.682096  4377 net.cpp:406] conv4 <- conv3_0_relu3_0_0_split_0
I0410 23:18:26.682103  4377 net.cpp:380] conv4 -> conv4
I0410 23:18:26.684774  4377 net.cpp:122] Setting up conv4
I0410 23:18:26.684800  4377 net.cpp:129] Top shape: 128 64 24 24 (4718592)
I0410 23:18:26.684805  4377 net.cpp:137] Memory required for data: 684228096
I0410 23:18:26.684818  4377 layer_factory.hpp:77] Creating layer relu4
I0410 23:18:26.684831  4377 net.cpp:84] Creating Layer relu4
I0410 23:18:26.684839  4377 net.cpp:406] relu4 <- conv4
I0410 23:18:26.684849  4377 net.cpp:367] relu4 -> conv4 (in-place)
I0410 23:18:26.685062  4377 net.cpp:122] Setting up relu4
I0410 23:18:26.685073  4377 net.cpp:129] Top shape: 128 64 24 24 (4718592)
I0410 23:18:26.685077  4377 net.cpp:137] Memory required for data: 703102464
I0410 23:18:26.685082  4377 layer_factory.hpp:77] Creating layer conv5
I0410 23:18:26.685098  4377 net.cpp:84] Creating Layer conv5
I0410 23:18:26.685104  4377 net.cpp:406] conv5 <- conv4
I0410 23:18:26.685115  4377 net.cpp:380] conv5 -> conv5
I0410 23:18:26.687059  4377 net.cpp:122] Setting up conv5
I0410 23:18:26.687095  4377 net.cpp:129] Top shape: 128 64 24 24 (4718592)
I0410 23:18:26.687099  4377 net.cpp:137] Memory required for data: 721976832
I0410 23:18:26.687113  4377 layer_factory.hpp:77] Creating layer res2
I0410 23:18:26.687127  4377 net.cpp:84] Creating Layer res2
I0410 23:18:26.687135  4377 net.cpp:406] res2 <- conv3_0_relu3_0_0_split_1
I0410 23:18:26.687144  4377 net.cpp:406] res2 <- conv5
I0410 23:18:26.687152  4377 net.cpp:380] res2 -> res2
I0410 23:18:26.687188  4377 net.cpp:122] Setting up res2
I0410 23:18:26.687196  4377 net.cpp:129] Top shape: 128 64 24 24 (4718592)
I0410 23:18:26.687201  4377 net.cpp:137] Memory required for data: 740851200
I0410 23:18:26.687206  4377 layer_factory.hpp:77] Creating layer pool3
I0410 23:18:26.687213  4377 net.cpp:84] Creating Layer pool3
I0410 23:18:26.687219  4377 net.cpp:406] pool3 <- res2
I0410 23:18:26.687228  4377 net.cpp:380] pool3 -> pool3
I0410 23:18:26.687268  4377 net.cpp:122] Setting up pool3
I0410 23:18:26.687276  4377 net.cpp:129] Top shape: 128 64 12 12 (1179648)
I0410 23:18:26.687283  4377 net.cpp:137] Memory required for data: 745569792
I0410 23:18:26.687288  4377 layer_factory.hpp:77] Creating layer relu5
I0410 23:18:26.687295  4377 net.cpp:84] Creating Layer relu5
I0410 23:18:26.687300  4377 net.cpp:406] relu5 <- pool3
I0410 23:18:26.687307  4377 net.cpp:367] relu5 -> pool3 (in-place)
I0410 23:18:26.687625  4377 net.cpp:122] Setting up relu5
I0410 23:18:26.687638  4377 net.cpp:129] Top shape: 128 64 12 12 (1179648)
I0410 23:18:26.687642  4377 net.cpp:137] Memory required for data: 750288384
I0410 23:18:26.687646  4377 layer_factory.hpp:77] Creating layer fc1
I0410 23:18:26.687659  4377 net.cpp:84] Creating Layer fc1
I0410 23:18:26.687664  4377 net.cpp:406] fc1 <- pool3
I0410 23:18:26.687674  4377 net.cpp:380] fc1 -> fc1
I0410 23:18:27.115139  4377 net.cpp:122] Setting up fc1
I0410 23:18:27.115170  4377 net.cpp:129] Top shape: 128 2048 (262144)
I0410 23:18:27.115175  4377 net.cpp:137] Memory required for data: 751336960
I0410 23:18:27.115195  4377 layer_factory.hpp:77] Creating layer relu6
I0410 23:18:27.115221  4377 net.cpp:84] Creating Layer relu6
I0410 23:18:27.115229  4377 net.cpp:406] relu6 <- fc1
I0410 23:18:27.115239  4377 net.cpp:367] relu6 -> fc1 (in-place)
I0410 23:18:27.115486  4377 net.cpp:122] Setting up relu6
I0410 23:18:27.115499  4377 net.cpp:129] Top shape: 128 2048 (262144)
I0410 23:18:27.115504  4377 net.cpp:137] Memory required for data: 752385536
I0410 23:18:27.115509  4377 layer_factory.hpp:77] Creating layer drop1
I0410 23:18:27.115530  4377 net.cpp:84] Creating Layer drop1
I0410 23:18:27.115537  4377 net.cpp:406] drop1 <- fc1
I0410 23:18:27.115543  4377 net.cpp:367] drop1 -> fc1 (in-place)
I0410 23:18:27.115579  4377 net.cpp:122] Setting up drop1
I0410 23:18:27.115586  4377 net.cpp:129] Top shape: 128 2048 (262144)
I0410 23:18:27.115592  4377 net.cpp:137] Memory required for data: 753434112
I0410 23:18:27.115595  4377 layer_factory.hpp:77] Creating layer fc2
I0410 23:18:27.115605  4377 net.cpp:84] Creating Layer fc2
I0410 23:18:27.115610  4377 net.cpp:406] fc2 <- fc1
I0410 23:18:27.115619  4377 net.cpp:380] fc2 -> fc2
I0410 23:18:27.209306  4377 net.cpp:122] Setting up fc2
I0410 23:18:27.209336  4377 net.cpp:129] Top shape: 128 2048 (262144)
I0410 23:18:27.209341  4377 net.cpp:137] Memory required for data: 754482688
I0410 23:18:27.209353  4377 layer_factory.hpp:77] Creating layer relu7
I0410 23:18:27.209369  4377 net.cpp:84] Creating Layer relu7
I0410 23:18:27.209376  4377 net.cpp:406] relu7 <- fc2
I0410 23:18:27.209385  4377 net.cpp:367] relu7 -> fc2 (in-place)
I0410 23:18:27.209861  4377 net.cpp:122] Setting up relu7
I0410 23:18:27.209874  4377 net.cpp:129] Top shape: 128 2048 (262144)
I0410 23:18:27.209880  4377 net.cpp:137] Memory required for data: 755531264
I0410 23:18:27.209885  4377 layer_factory.hpp:77] Creating layer drop2
I0410 23:18:27.209913  4377 net.cpp:84] Creating Layer drop2
I0410 23:18:27.209919  4377 net.cpp:406] drop2 <- fc2
I0410 23:18:27.209928  4377 net.cpp:367] drop2 -> fc2 (in-place)
I0410 23:18:27.209969  4377 net.cpp:122] Setting up drop2
I0410 23:18:27.209982  4377 net.cpp:129] Top shape: 128 2048 (262144)
I0410 23:18:27.209996  4377 net.cpp:137] Memory required for data: 756579840
I0410 23:18:27.210001  4377 layer_factory.hpp:77] Creating layer fc3
I0410 23:18:27.210014  4377 net.cpp:84] Creating Layer fc3
I0410 23:18:27.210024  4377 net.cpp:406] fc3 <- fc2
I0410 23:18:27.210033  4377 net.cpp:380] fc3 -> fc3
I0410 23:18:27.213366  4377 net.cpp:122] Setting up fc3
I0410 23:18:27.213379  4377 net.cpp:129] Top shape: 128 63 (8064)
I0410 23:18:27.213384  4377 net.cpp:137] Memory required for data: 756612096
I0410 23:18:27.213394  4377 layer_factory.hpp:77] Creating layer loss
I0410 23:18:27.213407  4377 net.cpp:84] Creating Layer loss
I0410 23:18:27.213413  4377 net.cpp:406] loss <- fc3
I0410 23:18:27.213420  4377 net.cpp:406] loss <- pose
I0410 23:18:27.213428  4377 net.cpp:380] loss -> loss
I0410 23:18:27.213570  4377 net.cpp:122] Setting up loss
…
  transform_param {
    is_trans: false
    is_rotate: false
    is_zoom: false
  }
  pose_data_param {
    image_source: "/home/workspace/Datasets/MSRA/cvpr15_MSRAHandGestureDB/test_image_3.txt"
    label_source: "/home/workspace/Datasets/MSRA/cvpr15_MSRAHandGestureDB/test_label_3.txt"
    batch_size: 128
    shuffle: false
    new_height: 96
    new_width: 96
    root_folder: "/home/workspace/Datasets/MSRA/cvpr15_MSRAHandGestureDB/"
    point_num: 21
    point_dim: 3
    fx: 241.42
    fy: 241.42
    output_center: true
    cube_length: 150
    dataset: MSRA
  }
}
layer {
  name: "pose"
  type: "Slice"
  bottom: "label"
  top: "pose"
  top: "center"
  include {
    phase: TEST
  }
  slice_param {
    slice_dim: 1
    slice_point: 63
  }
}
layer {
  name: "conv0"
  type: "Convolution"
  bottom: "data"
  top: "conv0"
  param {
    lr_mult: 1
  }
  param {
    lr_mult: 2
  }
  convolution_param {
    num_output: 16
    pad: 1
    kernel_size: 3
    stride: 1
    weight_filler {
      type: "msra"
    }
    bias_filler {
      type: "constant"
    }
  }
}
layer {
  name: "relu0"
  type: "ReLU"
  bottom: "conv0"
  top: "conv0"
}
layer {
  name: "conv1"
  type: "Convolution"
  bottom: "conv0"
  top: "conv1"
  param {
    lr_mult: 1
  }
  param {
    lr_mult: 2
  }
  convolution_param {
    num_output: 16
    pad: 1
    kernel_size: 3
    stride: 1
    weight_filler {
      type: "msra"
    }
    bias_filler {
      type: "constant"
    }
  }
}
layer {
  name: "pool1"
  type: "Pooling"
  bottom: "conv1"
  top: "pool1"
  pooling_param {
    pool: MAX
    kernel_size: 2
    stride: 2
  }
}
layer {
  name: "relu1"
  type: "ReLU"
  bottom: "pool1"
  top: "pool1"
}
layer {
  name: "conv2_0"
  type: "Convolution"
  bottom: "pool1"
  top: "conv2_0"
  param {
    lr_mult: 1
  }
  param {
    lr_mult: 2
  }
  convolution_param {
    num_output: 32
    pad: 0
    kernel_size: 1
    stride: 1
    weight_filler {
      type: "msra"
    }
    bias_filler {
      type: "constant"
    }
  }
}
layer {
  name: "relu2_0"
  type: "ReLU"
  bottom: "conv2_0"
  top: "conv2_0"
}
layer {
  name: "conv2"
  type: "Convolution"
  bottom: "conv2_0"
  top: "conv2"
  param {
    lr_mult: 1
  }
  param {
    lr_mult: 2
  }
  convolution_param {
    num_output: 32
    pad: 1
    kernel_size: 3
    stride: 1
    weight_filler {
      type: "msra"
    }
    bias_filler {
      type: "constant"
    }
  }
}
layer {
  name: "relu2"
  type: "ReLU"
  bottom: "conv2"
  top: "conv2"
}
layer {
  name: "conv3"
  type: "Convolution"
  bottom: "conv2"
  top: "conv3"
  param {
    lr_mult: 1
  }
  param {
    lr_mult: 2
  }
  convolution_param {
    num_output: 32
    pad: 1
    kernel_size: 3
    stride: 1
    weight_filler {
      type: "msra"
    }
    bias_filler {
      type: "constant"
    }
  }
}
layer {
  name: "res1"
  type: "Eltwise"
  bottom: "conv2_0"
  bottom: "conv3"
  top: "res1"
}
layer {
  name: "pool2"
  type: "Pooling"
  bottom: "res1"
  top: "pool2"
  pooling_param {
    pool: MAX
    kernel_size: 2
    stride: 2
  }
}
layer {
  name: "relu3"
  type: "ReLU"
  bottom: "pool2"
  top: "pool2"
}
layer {
  name: "conv3_0"
  type: "Convolution"
  bottom: "pool2"
  top: "conv3_0"
  param {
    lr_mult: 1
  }
  param {
    lr_mult: 2
  }
  convolution_param {
    num_output: 64
    pad: 0
    kernel_size: 1
    stride: 1
    weight_filler {
      type: "msra"
    }
    bias_filler {
      type: "constant"
    }
  }
}
layer {
  name: "relu3_0"
  type: "ReLU"
  bottom: "conv3_0"
  top: "conv3_0"
}
layer {
  name: "conv4"
  type: "Convolution"
  bottom: "conv3_0"
  top: "conv4"
  param {
    lr_mult: 1
  }
  param {
    lr_mult: 2
  }
  convolution_param {
    num_output: 64
    pad: 1
    kernel_size: 3
    stride: 1
    weight_filler {
      type: "msra"
    }
    bias_filler {
      type: "constant"
    }
  }
}
layer {
  name: "relu4"
  type: "ReLU"
  bottom: "conv4"
  top: "conv4"
}
layer {
  name: "conv5"
  type: "Convolution"
  bottom: "conv4"
  top: "conv5"
  param {
    lr_mult: 1
  }
  param {
    lr_mult: 2
  }
  convolution_param {
    num_output: 64
    pad: 1
    kernel_size: 3
    stride: 1
    weight_filler {
      type: "msra"
    }
    bias_filler {
      type: "constant"
    }
  }
}
layer {
  name: "res2"
  type: "Eltwise"
  bottom: "conv3_0"
  bottom: "conv5"
  top: "res2"
}
layer {
  name: "pool3"
  type: "Pooling"
  bottom: "res2"
  top: "pool3"
  pooling_param {
    pool: MAX
    kernel_size: 2
    stride: 2
  }
}
layer {
  name: "relu5"
  type: "ReLU"
  bottom: "pool3"
  top: "pool3"
}
layer {
  name: "fc1"
  type: "InnerProduct"
  bottom: "pool3"
  top: "fc1"
  param {
    lr_mult: 1
  }
  param {
    lr_mult: 2
  }
  inner_product_param {
    num_output: 2048
    weight_filler {
      type: "gaussian"
      std: 0.001
    }
    bias_filler {
      type: "constant"
    }
  }
}
layer {
  name: "relu6"
  type: "ReLU"
  bottom: "fc1"
  top: "fc1"
}
layer {
  name: "drop1"
  type: "Dropout"
  bottom: "fc1"
  top: "fc1"
  dropout_param {
    dropout_ratio: 0.5
  }
}
layer {
  name: "fc2"
  type: "InnerProduct"
  bottom: "fc1"
  top: "fc2"
  param {
    lr_mult: 1
  }
  param {
    lr_mult: 2
  }
  inner_product_param {
    num_output: 2048
    weight_filler {
      type: "gaussian"
      std: 0.001
    }
    bias_filler {
      type: "constant"
    }
  }
}
layer {
  name: "relu7"
  type: "ReLU"
  bottom: "fc2"
  top: "fc2"
}
layer {
  name: "drop2"
  type: "Dropout"
  bottom: "fc2"
  top: "fc2"
  dropout_param {
    dropout_ratio: 0.5
  }
}
layer {
  name: "fc3"
  type: "InnerProduct"
  bottom: "fc2"
  top: "fc3"
  param {
    lr_mult: 1
  }
  param {
    lr_mult: 2
  }
  inner_product_param {
    num_output: 63
    weight_filler {
      type: "gaussian"
      std: 0.001
    }
    bias_filler {
      type: "constant"
    }
  }
}
layer {
  name: "loss"
  type: "SmoothL1Loss"
  bottom: "fc3"
  bottom: "pose"
  top: "loss"
  loss_weight: 1
  smooth_l1_loss_param {
    sigma: 10
  }
}
layer {
  name: "distance"
  type: "PoseDistance"
  bottom: "fc3"
  bottom: "pose"
  bottom: "center"
  top: "distance"
  loss_weight: 0
  include {
    phase: TEST
  }
  pose_distance_param {
    fx: 241.42
    fy: 241.42
    ux: 160
    uy: 120
    cube_length: 150
  }
}
I0410 23:18:27.214784  4377 layer_factory.hpp:77] Creating layer data
I0410 23:18:27.214802  4377 net.cpp:84] Creating Layer data
I0410 23:18:27.214809  4377 net.cpp:380] data -> data
I0410 23:18:27.214820  4377 net.cpp:380] data -> label
I0410 23:18:27.214835  4377 pose_data_layer.cpp:117] Opening file /home/workspace/Datasets/MSRA/cvpr15_MSRAHandGestureDB/test_image_3.txt
I0410 23:18:27.214864  4377 pose_data_layer.cpp:119] Opening file /home/workspace/Datasets/MSRA/cvpr15_MSRAHandGestureDB/test_label_3.txt
I0410 23:18:27.267695  4377 pose_data_layer.cpp:269] Loading 114 image...
I0410 23:18:27.731755  4377 pose_data_layer.cpp:269] Loading 2114 image...
I0410 23:18:28.206094  4377 pose_data_layer.cpp:269] Loading 4114 image...
I0410 23:18:28.663240  4377 pose_data_layer.cpp:269] Loading 6114 image...
I0410 23:18:29.125609  4377 pose_data_layer.cpp:269] Loading 8114 image...
I0410 23:18:29.227118  4377 pose_data_layer.cpp:287] A total of 8488 images.
I0410 23:18:29.227319  4377 pose_data_layer.cpp:329] output data size: 128,1,96,96
I0410 23:18:29.236383  4377 net.cpp:122] Setting up data
I0410 23:18:29.236412  4377 net.cpp:129] Top shape: 128 1 96 96 (1179648)
I0410 23:18:29.236419  4377 net.cpp:129] Top shape: 128 66 (8448)
I0410 23:18:29.236424  4377 net.cpp:137] Memory required for data: 4752384
I0410 23:18:29.236431  4377 layer_factory.hpp:77] Creating layer pose
I0410 23:18:29.236448  4377 net.cpp:84] Creating Layer pose
I0410 23:18:29.236481  4377 net.cpp:406] pose <- label
I0410 23:18:29.236493  4377 net.cpp:380] pose -> pose
I0410 23:18:29.236521  4377 net.cpp:380] pose -> center
I0410 23:18:29.236589  4377 net.cpp:122] Setting up pose
I0410 23:18:29.236599  4377 net.cpp:129] Top shape: 128 63 (8064)
I0410 23:18:29.236606  4377 net.cpp:129] Top shape: 128 3 (384)
I0410 23:18:29.236610  4377 net.cpp:137] Memory required for data: 4786176
I0410 23:18:29.236614  4377 layer_factory.hpp:77] Creating layer pose_pose_0_split
I0410 23:18:29.236624  4377 net.cpp:84] Creating Layer pose_pose_0_split
I0410 23:18:29.236641  4377 net.cpp:406] pose_pose_0_split <- pose
I0410 23:18:29.236649  4377 net.cpp:380] pose_pose_0_split -> pose_pose_0_split_0
I0410 23:18:29.236660  4377 net.cpp:380] pose_pose_0_split -> pose_pose_0_split_1
I0410 23:18:29.236703  4377 net.cpp:122] Setting up pose_pose_0_split
I0410 23:18:29.236712  4377 net.cpp:129] Top shape: 128 63 (8064)
I0410 23:18:29.236727  4377 net.cpp:129] Top shape: 128 63 (8064)
I0410 23:18:29.236732  4377 net.cpp:137] Memory required for data: 4850688
I0410 23:18:29.236737  4377 layer_factory.hpp:77] Creating layer conv0
I0410 23:18:29.236757  4377 net.cpp:84] Creating Layer conv0
I0410 23:18:29.236763  4377 net.cpp:406] conv0 <- data
I0410 23:18:29.236773  4377 net.cpp:380] conv0 -> conv0
I0410 23:18:29.238656  4377 net.cpp:122] Setting up conv0
I0410 23:18:29.238675  4377 net.cpp:129] Top shape: 128 16 96 96 (18874368)
I0410 23:18:29.238680  4377 net.cpp:137] Memory required for data: 80348160
I0410 23:18:29.238699  4377 layer_factory.hpp:77] Creating layer relu0
I0410 23:18:29.238709  4377 net.cpp:84] Creating Layer relu0
I0410 23:18:29.238714  4377 net.cpp:406] relu0 <- conv0
I0410 23:18:29.238721  4377 net.cpp:367] relu0 -> conv0 (in-place)
I0410 23:18:29.239171  4377 net.cpp:122] Setting up relu0
I0410 23:18:29.239184  4377 net.cpp:129] Top shape: 128 16 96 96 (18874368)
I0410 23:18:29.239192  4377 net.cpp:137] Memory required for data: 155845632
I0410 23:18:29.239197  4377 layer_factory.hpp:77] Creating layer conv1
I0410 23:18:29.239212  4377 net.cpp:84] Creating Layer conv1
I0410 23:18:29.239217  4377 net.cpp:406] conv1 <- conv0
I0410 23:18:29.239225  4377 net.cpp:380] conv1 -> conv1
I0410 23:18:29.240921  4377 net.cpp:122] Setting up conv1
I0410 23:18:29.240942  4377 net.cpp:129] Top shape: 128 16 96 96 (18874368)
I0410 23:18:29.240945  4377 net.cpp:137] Memory required for data: 231343104
I0410 23:18:29.240957  4377 layer_factory.hpp:77] Creating layer pool1
I0410 23:18:29.240967  4377 net.cpp:84] Creating Layer pool1
I0410 23:18:29.240974  4377 net.cpp:406] pool1 <- conv1
I0410 23:18:29.240985  4377 net.cpp:380] pool1 -> pool1
I0410 23:18:29.241032  4377 net.cpp:122] Setting up pool1
I0410 23:18:29.241041  4377 net.cpp:129] Top shape: 128 16 48 48 (4718592)
I0410 23:18:29.241048  4377 net.cpp:137] Memory required for data: 250217472
I0410 23:18:29.241055  4377 layer_factory.hpp:77] Creating layer relu1
I0410 23:18:29.241062  4377 net.cpp:84] Creating Layer relu1
I0410 23:18:29.241068  4377 net.cpp:406] relu1 <- pool1
I0410 23:18:29.241075  4377 net.cpp:367] relu1 -> pool1 (in-place)
I0410 23:18:29.241255  4377 net.cpp:122] Setting up relu1
I0410 23:18:29.241266  4377 net.cpp:129] Top shape: 128 16 48 48 (4718592)
I0410 23:18:29.241271  4377 net.cpp:137] Memory required for data: 269091840
I0410 23:18:29.241276  4377 layer_factory.hpp:77] Creating layer conv2_0
I0410 23:18:29.241292  4377 net.cpp:84] Creating Layer conv2_0
I0410 23:18:29.241298  4377 net.cpp:406] conv2_0 <- pool1
I0410 23:18:29.241308  4377 net.cpp:380] conv2_0 -> conv2_0
I0410 23:18:29.242384  4377 net.cpp:122] Setting up conv2_0
I0410 23:18:29.242398  4377 net.cpp:129] Top shape: 128 32 48 48 (9437184)
I0410 23:18:29.242404  4377 net.cpp:137] Memory required for data: 306840576
I0410 23:18:29.242416  4377 layer_factory.hpp:77] Creating layer relu2_0
I0410 23:18:29.242451  4377 net.cpp:84] Creating Layer relu2_0
I0410 23:18:29.242458  4377 net.cpp:406] relu2_0 <- conv2_0
I0410 23:18:29.242467  4377 net.cpp:367] relu2_0 -> conv2_0 (in-place)
I0410 23:18:29.242796  4377 net.cpp:122] Setting up relu2_0
I0410 23:18:29.242810  4377 net.cpp:129] Top shape: 128 32 48 48 (9437184)
I0410 23:18:29.242816  4377 net.cpp:137] Memory required for data: 344589312
I0410 23:18:29.242823  4377 layer_factory.hpp:77] Creating layer conv2_0_relu2_0_0_split
I0410 23:18:29.242833  4377 net.cpp:84] Creating Layer conv2_0_relu2_0_0_split
I0410 23:18:29.242838  4377 net.cpp:406] conv2_0_relu2_0_0_split <- conv2_0
I0410 23:18:29.242846  4377 net.cpp:380] conv2_0_relu2_0_0_split -> conv2_0_relu2_0_0_split_0
I0410 23:18:29.242856  4377 net.cpp:380] conv2_0_relu2_0_0_split -> conv2_0_relu2_0_0_split_1
I0410 23:18:29.242898  4377 net.cpp:122] Setting up conv2_0_relu2_0_0_split
I0410 23:18:29.242908  4377 net.cpp:129] Top shape: 128 32 48 48 (9437184)
I0410 23:18:29.242914  4377 net.cpp:129] Top shape: 128 32 48 48 (9437184)
I0410 23:18:29.242919  4377 net.cpp:137] Memory required for data: 420086784
I0410 23:18:29.242926  4377 layer_factory.hpp:77] Creating layer conv2
I0410 23:18:29.242939  4377 net.cpp:84] Creating Layer conv2
I0410 23:18:29.242944  4377 net.cpp:406] conv2 <- conv2_0_relu2_0_0_split_0
I0410 23:18:29.242954  4377 net.cpp:380] conv2 -> conv2
I0410 23:18:29.244185  4377 net.cpp:122] Setting up conv2
I0410 23:18:29.244199  4377 net.cpp:129] Top shape: 128 32 48 48 (9437184)
I0410 23:18:29.244204  4377 net.cpp:137] Memory required for data: 457835520
I0410 23:18:29.244215  4377 layer_factory.hpp:77] Creating layer relu2
I0410 23:18:29.244223  4377 net.cpp:84] Creating Layer relu2
I0410 23:18:29.244230  4377 net.cpp:406] relu2 <- conv2
I0410 23:18:29.244238  4377 net.cpp:367] relu2 -> conv2 (in-place)
I0410 23:18:29.244405  4377 net.cpp:122] Setting up relu2
I0410 23:18:29.244416  4377 net.cpp:129] Top shape: 128 32 48 48 (9437184)
I0410 23:18:29.244421  4377 net.cpp:137] Memory required for data: 495584256
I0410 23:18:29.244428  4377 layer_factory.hpp:77] Creating layer conv3
I0410 23:18:29.244442  4377 net.cpp:84] Creating Layer conv3
I0410 23:18:29.244447  4377 net.cpp:406] conv3 <- conv2
I0410 23:18:29.244457  4377 net.cpp:380] conv3 -> conv3
I0410 23:18:29.246683  4377 net.cpp:122] Setting up conv3
I0410 23:18:29.246701  4377 net.cpp:129] Top shape: 128 32 48 48 (9437184)
I0410 23:18:29.246706  4377 net.cpp:137] Memory required for data: 533332992
I0410 23:18:29.246721  4377 layer_factory.hpp:77] Creating layer res1
I0410 23:18:29.246731  4377 net.cpp:84] Creating Layer res1
I0410 23:18:29.246738  4377 net.cpp:406] res1 <- conv2_0_relu2_0_0_split_1
I0410 23:18:29.246747  4377 net.cpp:406] res1 <- conv3
I0410 23:18:29.246754  4377 net.cpp:380] res1 -> res1
I0410 23:18:29.246786  4377 net.cpp:122] Setting up res1
I0410 23:18:29.246798  4377 net.cpp:129] Top shape: 128 32 48 48 (9437184)
I0410 23:18:29.246815  4377 net.cpp:137] Memory required for data: 571081728
I0410 23:18:29.246821  4377 layer_factory.hpp:77] Creating layer pool2
I0410 23:18:29.246829  4377 net.cpp:84] Creating Layer pool2
I0410 23:18:29.246835  4377 net.cpp:406] pool2 <- res1
I0410 23:18:29.246851  4377 net.cpp:380] pool2 -> pool2
I0410 23:18:29.246896  4377 net.cpp:122] Setting up pool2
I0410 23:18:29.246906  4377 net.cpp:129] Top shape: 128 32 24 24 (2359296)
I0410 23:18:29.246919  4377 net.cpp:137] Memory required for data: 580518912
I0410 23:18:29.246924  4377 layer_factory.hpp:77] Creating layer relu3
I0410 23:18:29.246934  4377 net.cpp:84] Creating Layer relu3
I0410 23:18:29.246939  4377 net.cpp:406] relu3 <- pool2
I0410 23:18:29.246954  4377 net.cpp:367] relu3 -> pool2 (in-place)
I0410 23:18:29.247278  4377 net.cpp:122] Setting up relu3
I0410 23:18:29.247292  4377 net.cpp:129] Top shape: 128 32 24 24 (2359296)
I0410 23:18:29.247298  4377 net.cpp:137] Memory required for data: 589956096
I0410 23:18:29.247313  4377 layer_factory.hpp:77] Creating layer conv3_0
I0410 23:18:29.247326  4377 net.cpp:84] Creating Layer conv3_0
I0410 23:18:29.247333  4377 net.cpp:406] conv3_0 <- pool2
I0410 23:18:29.247345  4377 net.cpp:380] conv3_0 -> conv3_0
I0410 23:18:29.248432  4377 net.cpp:122] Setting up conv3_0
I0410 23:18:29.248447  4377 net.cpp:129] Top shape: 128 64 24 24 (4718592)
I0410 23:18:29.248452  4377 net.cpp:137] Memory required for data: 608830464
I0410 23:18:29.248473  4377 layer_factory.hpp:77] Creating layer relu3_0
I0410 23:18:29.248482  4377 net.cpp:84] Creating Layer relu3_0
I0410 23:18:29.248489  4377 net.cpp:406] relu3_0 <- conv3_0
I0410 23:18:29.248497  4377 net.cpp:367] relu3_0 -> conv3_0 (in-place)
I0410 23:18:29.248832  4377 net.cpp:122] Setting up relu3_0
I0410 23:18:29.248845  4377 net.cpp:129] Top shape: 128 64 24 24 (4718592)
I0410 23:18:29.248850  4377 net.cpp:137] Memory required for data: 627704832
I0410 23:18:29.248895  4377 layer_factory.hpp:77] Creating layer conv3_0_relu3_0_0_split
I0410 23:18:29.248916  4377 net.cpp:84] Creating Layer conv3_0_relu3_0_0_split
I0410 23:18:29.248924  4377 net.cpp:406] conv3_0_relu3_0_0_split <- conv3_0
I0410 23:18:29.248931  4377 net.cpp:380] conv3_0_relu3_0_0_split -> conv3_0_relu3_0_0_split_0
I0410 23:18:29.248941  4377 net.cpp:380] conv3_0_relu3_0_0_split -> conv3_0_relu3_0_0_split_1
I0410 23:18:29.248989  4377 net.cpp:122] Setting up conv3_0_relu3_0_0_split
I0410 23:18:29.248998  4377 net.cpp:129] Top shape: 128 64 24 24 (4718592)
I0410 23:18:29.249013  4377 net.cpp:129] Top shape: 128 64 24 24 (4718592)
I0410 23:18:29.249018  4377 net.cpp:137] Memory required for data: 665453568
I0410 23:18:29.249023  4377 layer_factory.hpp:77] Creating layer conv4
I0410 23:18:29.249037  4377 net.cpp:84] Creating Layer conv4
I0410 23:18:29.249048  4377 net.cpp:406] conv4 <- conv3_0_relu3_0_0_split_0
I0410 23:18:29.249058  4377 net.cpp:380] conv4 -> conv4
I0410 23:18:29.251005  4377 net.cpp:122] Setting up conv4
I0410 23:18:29.251022  4377 net.cpp:129] Top shape: 128 64 24 24 (4718592)
I0410 23:18:29.251027  4377 net.cpp:137] Memory required for data: 684327936
I0410 23:18:29.251037  4377 layer_factory.hpp:77] Creating layer relu4
I0410 23:18:29.251047  4377 net.cpp:84] Creating Layer relu4
I0410 23:18:29.251055  4377 net.cpp:406] relu4 <- conv4
I0410 23:18:29.251073  4377 net.cpp:367] relu4 -> conv4 (in-place)
I0410 23:18:29.251247  4377 net.cpp:122] Setting up relu4
I0410 23:18:29.251258  4377 net.cpp:129] Top shape: 128 64 24 24 (4718592)
I0410 23:18:29.251263  4377 net.cpp:137] Memory required for data: 703202304
I0410 23:18:29.251271  4377 layer_factory.hpp:77] Creating layer conv5
I0410 23:18:29.251292  4377 net.cpp:84] Creating Layer conv5
I0410 23:18:29.251299  4377 net.cpp:406] conv5 <- conv4
I0410 23:18:29.251307  4377 net.cpp:380] conv5 -> conv5
I0410 23:18:29.253331  4377 net.cpp:122] Setting up conv5
I0410 23:18:29.253371  4377 net.cpp:129] Top shape: 128 64 24 24 (4718592)
I0410 23:18:29.253384  4377 net.cpp:137] Memory required for data: 722076672
I0410 23:18:29.253401  4377 layer_factory.hpp:77] Creating layer res2
I0410 23:18:29.253417  4377 net.cpp:84] Creating Layer res2
I0410 23:18:29.253429  4377 net.cpp:406] res2 <- conv3_0_relu3_0_0_split_1
I0410 23:18:29.253443  4377 net.cpp:406] res2 <- conv5
I0410 23:18:29.253458  4377 net.cpp:380] res2 -> res2
I0410 23:18:29.253506  4377 net.cpp:122] Setting up res2
I0410 23:18:29.253530  4377 net.cpp:129] Top shape: 128 64 24 24 (4718592)
I0410 23:18:29.253542  4377 net.cpp:137] Memory required for data: 740951040
I0410 23:18:29.253553  4377 layer_factory.hpp:77] Creating layer pool3
I0410 23:18:29.253568  4377 net.cpp:84] Creating Layer pool3
I0410 23:18:29.253581  4377 net.cpp:406] pool3 <- res2
I0410 23:18:29.253594  4377 net.cpp:380] pool3 -> pool3
I0410 23:18:29.254204  4377 net.cpp:122] Setting up pool3
I0410 23:18:29.254232  4377 net.cpp:129] Top shape: 128 64 12 12 (1179648)
I0410 23:18:29.254251  4377 net.cpp:137] Memory required for data: 745669632
I0410 23:18:29.254273  4377 layer_factory.hpp:77] Creating layer relu5
I0410 23:18:29.254307  4377 net.cpp:84] Creating Layer relu5
I0410 23:18:29.254330  4377 net.cpp:406] relu5 <- pool3
I0410 23:18:29.254361  4377 net.cpp:367] relu5 -> pool3 (in-place)
I0410 23:18:29.254905  4377 net.cpp:122] Setting up relu5
I0410 23:18:29.254933  4377 net.cpp:129] Top shape: 128 64 12 12 (1179648)
I0410 23:18:29.254947  4377 net.cpp:137] Memory required for data: 750388224
I0410 23:18:29.254961  4377 layer_factory.hpp:77] Creating layer fc1
I0410 23:18:29.254979  4377 net.cpp:84] Creating Layer fc1
I0410 23:18:29.254993  4377 net.cpp:406] fc1 <- pool3
I0410 23:18:29.255024  4377 net.cpp:380] fc1 -> fc1
I0410 23:18:29.696651  4377 net.cpp:122] Setting up fc1
I0410 23:18:29.696681  4377 net.cpp:129] Top shape: 128 2048 (262144)
I0410 23:18:29.696683  4377 net.cpp:137] Memory required for data: 751436800
I0410 23:18:29.696699  4377 layer_factory.hpp:77] Creating layer relu6
I0410 23:18:29.696708  4377 net.cpp:84] Creating Layer relu6
I0410 23:18:29.696713  4377 net.cpp:406] relu6 <- fc1
I0410 23:18:29.696718  4377 net.cpp:367] relu6 -> fc1 (in-place)
I0410 23:18:29.696972  4377 net.cpp:122] Setting up relu6
I0410 23:18:29.696982  4377 net.cpp:129] Top shape: 128 2048 (262144)
I0410 23:18:29.696985  4377 net.cpp:137] Memory required for data: 752485376
I0410 23:18:29.696988  4377 layer_factory.hpp:77] Creating layer drop1
I0410 23:18:29.696995  4377 net.cpp:84] Creating Layer drop1
I0410 23:18:29.697000  4377 net.cpp:406] drop1 <- fc1
I0410 23:18:29.697005  4377 net.cpp:367] drop1 -> fc1 (in-place)
I0410 23:18:29.697036  4377 net.cpp:122] Setting up drop1
I0410 23:18:29.697042  4377 net.cpp:129] Top shape: 128 2048 (262144)
I0410 23:18:29.697044  4377 net.cpp:137] Memory required for data: 753533952
I0410 23:18:29.697047  4377 layer_factory.hpp:77] Creating layer fc2
I0410 23:18:29.697054  4377 net.cpp:84] Creating Layer fc2
I0410 23:18:29.697062  4377 net.cpp:406] fc2 <- fc1
I0410 23:18:29.697067  4377 net.cpp:380] fc2 -> fc2
I0410 23:18:29.790333  4377 net.cpp:122] Setting up fc2
I0410 23:18:29.790359  4377 net.cpp:129] Top shape: 128 2048 (262144)
I0410 23:18:29.790364  4377 net.cpp:137] Memory required for data: 754582528
I0410 23:18:29.790371  4377 layer_factory.hpp:77] Creating layer relu7
I0410 23:18:29.790380  4377 net.cpp:84] Creating Layer relu7
I0410 23:18:29.790385  4377 net.cpp:406] relu7 <- fc2
I0410 23:18:29.790390  4377 net.cpp:367] relu7 -> fc2 (in-place)
I0410 23:18:29.790866  4377 net.cpp:122] Setting up relu7
I0410 23:18:29.790879  4377 net.cpp:129] Top shape: 128 2048 (262144)
I0410 23:18:29.790884  4377 net.cpp:137] Memory required for data: 755631104
I0410 23:18:29.790889  4377 layer_factory.hpp:77] Creating layer drop2
I0410 23:18:29.790899  4377 net.cpp:84] Creating Layer drop2
I0410 23:18:29.790921  4377 net.cpp:406] drop2 <- fc2
I0410 23:18:29.790931  4377 net.cpp:367] drop2 -> fc2 (in-place)
I0410 23:18:29.790966  4377 net.cpp:122] Setting up drop2
I0410 23:18:29.790973  4377 net.cpp:129] Top shape: 128 2048 (262144)
I0410 23:18:29.790978  4377 net.cpp:137] Memory required for data: 756679680
I0410 23:18:29.790982  4377 layer_factory.hpp:77] Creating layer fc3
I0410 23:18:29.791015  4377 net.cpp:84] Creating Layer fc3
I0410 23:18:29.791033  4377 net.cpp:406] fc3 <- fc2
I0410 23:18:29.791051  4377 net.cpp:380] fc3 -> fc3
I0410 23:18:29.793973  4377 net.cpp:122] Setting up fc3
I0410 23:18:29.793985  4377 net.cpp:129] Top shape: 128 63 (8064)
I0410 23:18:29.793989  4377 net.cpp:137] Memory required for data: 756711936
I0410 23:18:29.793995  4377 layer_factory.hpp:77] Creating layer fc3_fc3_0_split
I0410 23:18:29.794000  4377 net.cpp:84] Creating Layer fc3_fc3_0_split
I0410 23:18:29.794003  4377 net.cpp:406] fc3_fc3_0_split <- fc3
I0410 23:18:29.794010  4377 net.cpp:380] fc3_fc3_0_split -> fc3_fc3_0_split_0
I0410 23:18:29.794018  4377 net.cpp:380] fc3_fc3_0_split -> fc3_fc3_0_split_1
I0410 23:18:29.794054  4377 net.cpp:122] Setting up fc3_fc3_0_split
I0410 23:18:29.794060  4377 net.cpp:129] Top shape: 128 63 (8064)
I0410 23:18:29.794064  4377 net.cpp:129] Top shape: 128 63 (8064)
I0410 23:18:29.794067  4377 net.cpp:137] Memory required for data: 756776448
I0410 23:18:29.794070  4377 layer_factory.hpp:77] Creating layer loss
I0410 23:18:29.794076  4377 net.cpp:84] Creating Layer loss
I0410 23:18:29.794080  4377 net.cpp:406] loss <- fc3_fc3_0_split_0
I0410 23:18:29.794083  4377 net.cpp:406] loss <- pose_pose_0_split_0
I0410 23:18:29.794090  4377 net.cpp:380] loss -> loss
…
  transform_param {
    is_trans: false
    is_rotate: false
    is_zoom: false
  }
  pose_data_param {
    image_source: "/home/workspace/Datasets/MSRA/cvpr15_MSRAHandGestureDB/test_image_3.txt"
    label_source: "/home/workspace/Datasets/MSRA/cvpr15_MSRAHandGestureDB/test_label_3.txt"
    batch_size: 128
    shuffle: false
    new_height: 96
    new_width: 96
    root_folder: "/home/workspace/Datasets/MSRA/cvpr15_MSRAHandGestureDB/"
    point_num: 21
    point_dim: 3
    fx: 241.42
    fy: 241.42
    output_center: true
    cube_length: 150
    dataset: MSRA
  }
}
layer {
  name: "pose"
  type: "Slice"
  bottom: "label"
  top: "pose"
  top: "center"
  include {
    phase: TEST
  }
  slice_param {
    slice_dim: 1
    slice_point: 63
  }
}
layer {
  name: "conv0"
  type: "Convolution"
  bottom: "data"
  top: "conv0"
  param {
    lr_mult: 1
  }
  param {
    lr_mult: 2
  }
  convolution_param {
    num_output: 16
    pad: 1
    kernel_size: 3
    stride: 1
    weight_filler {
      type: "msra"
    }
    bias_filler {
      type: "constant"
    }
  }
}
layer {
  name: "relu0"
  type: "ReLU"
  bottom: "conv0"
  top: "conv0"
}
layer {
  name: "conv1"
  type: "Convolution"
  bottom: "conv0"
  top: "conv1"
  param {
    lr_mult: 1
  }
  param {
    lr_mult: 2
  }
  convolution_param {
    num_output: 16
    pad: 1
    kernel_size: 3
    stride: 1
    weight_filler {
      type: "msra"
    }
    bias_filler {
      type: "constant"
    }
  }
}
layer {
  name: "pool1"
  type: "Pooling"
  bottom: "conv1"
  top: "pool1"
  pooling_param {
    pool: MAX
    kernel_size: 2
    stride: 2
  }
}
layer {
  name: "relu1"
  type: "ReLU"
  bottom: "pool1"
  top: "pool1"
}
layer {
  name: "conv2_0"
  type: "Convolution"
  bottom: "pool1"
  top: "conv2_0"
  param {
    lr_mult: 1
  }
  param {
    lr_mult: 2
  }
  convolution_param {
    num_output: 32
    pad: 0
    kernel_size: 1
    stride: 1
    weight_filler {
      type: "msra"
    }
    bias_filler {
      type: "constant"
    }
  }
}
layer {
  name: "relu2_0"
  type: "ReLU"
  bottom: "conv2_0"
  top: "conv2_0"
}
layer {
  name: "conv2"
  type: "Convolution"
  bottom: "conv2_0"
  top: "conv2"
  param {
    lr_mult: 1
  }
  param {
    lr_mult: 2
  }
  convolution_param {
    num_output: 32
    pad: 1
    kernel_size: 3
    stride: 1
    weight_filler {
      type: "msra"
    }
    bias_filler {
      type: "constant"
    }
  }
}
layer {
  name: "relu2"
  type: "ReLU"
  bottom: "conv2"
  top: "conv2"
}
layer {
  name: "conv3"
  type: "Convolution"
  bottom: "conv2"
  top: "conv3"
  param {
    lr_mult: 1
  }
  param {
    lr_mult: 2
  }
  convolution_param {
    num_output: 32
    pad: 1
    kernel_size: 3
    stride: 1
    weight_filler {
      type: "msra"
    }
    bias_filler {
      type: "constant"
    }
  }
}
layer {
  name: "res1"
  type: "Eltwise"
  bottom: "conv2_0"
  bottom: "conv3"
  top: "res1"
}
layer {
  name: "pool2"
  type: "Pooling"
  bottom: "res1"
  top: "pool2"
  pooling_param {
    pool: MAX
    kernel_size: 2
    stride: 2
  }
}
layer {
  name: "relu3"
  type: "ReLU"
  bottom: "pool2"
  top: "pool2"
}
layer {
  name: "conv3_0"
  type: "Convolution"
  bottom: "pool2"
  top: "conv3_0"
  param {
    lr_mult: 1
  }
  param {
    lr_mult: 2
  }
  convolution_param {
    num_output: 64
    pad: 0
    kernel_size: 1
    stride: 1
    weight_filler {
      type: "msra"
    }
    bias_filler {
      type: "constant"
    }
  }
}
layer {
  name: "relu3_0"
  type: "ReLU"
  bottom: "conv3_0"
  top: "conv3_0"
}
layer {
  name: "conv4"
  type: "Convolution"
  bottom: "conv3_0"
  top: "conv4"
  param {
    lr_mult: 1
  }
  param {
    lr_mult: 2
  }
  convolution_param {
    num_output: 64
    pad: 1
    kernel_size: 3
    stride: 1
    weight_filler {
      type: "msra"
    }
    bias_filler {
      type: "constant"
    }
  }
}
layer {
  name: "relu4"
  type: "ReLU"
  bottom: "conv4"
  top: "conv4"
}
layer {
  name: "conv5"
  type: "Convolution"
  bottom: "conv4"
  top: "conv5"
  param {
    lr_mult: 1
  }
  param {
    lr_mult: 2
  }
  convolution_param {
    num_output: 64
    pad: 1
    kernel_size: 3
    stride: 1
    weight_filler {
      type: "msra"
    }
    bias_filler {
      type: "constant"
    }
  }
}
layer {
  name: "res2"
  type: "Eltwise"
  bottom: "conv3_0"
  bottom: "conv5"
  top: "res2"
}
layer {
  name: "pool3"
  type: "Pooling"
  bottom: "res2"
  top: "pool3"
  pooling_param {
    pool: MAX
    kernel_size: 2
    stride: 2
  }
}
layer {
  name: "relu5"
  type: "ReLU"
  bottom: "pool3"
  top: "pool3"
}
layer {
  name: "fc1"
  type: "InnerProduct"
  bottom: "pool3"
  top: "fc1"
  param {
    lr_mult: 1
  }
  param {
    lr_mult: 2
  }
  inner_product_param {
    num_output: 2048
    weight_filler {
      type: "gaussian"
      std: 0.001
    }
    bias_filler {
      type: "constant"
    }
  }
}
layer {
  name: "relu6"
  type: "ReLU"
  bottom: "fc1"
  top: "fc1"
}
layer {
  name: "drop1"
  type: "Dropout"
  bottom: "fc1"
  top: "fc1"
  dropout_param {
    dropout_ratio: 0.5
  }
}
layer {
  name: "fc2"
  type: "InnerProduct"
  bottom: "fc1"
  top: "fc2"
  param {
    lr_mult: 1
  }
  param {
    lr_mult: 2
  }
  inner_product_param {
    num_output: 2048
    weight_filler {
      type: "gaussian"
      std: 0.001
    }
    bias_filler {
      type: "constant"
    }
  }
}
layer {
  name: "relu7"
  type: "ReLU"
  bottom: "fc2"
  top: "fc2"
}
layer {
  name: "drop2"
  type: "Dropout"
  bottom: "fc2"
  top: "fc2"
  dropout_param {
    dropout_ratio: 0.5
  }
}
layer {
  name: "fc3"
  type: "InnerProduct"
  bottom: "fc2"
  top: "fc3"
  param {
    lr_mult: 1
  }
  param {
    lr_mult: 2
  }
  inner_product_param {
    num_output: 63
    weight_filler {
      type: "gaussian"
      std: 0.001
    }
    bias_filler {
      type: "constant"
    }
  }
}
layer {
  name: "error"
  type: "PoseDistance"
  bottom: "fc3"
  bottom: "pose"
  bottom: "center"
  top: "error"
  top: "output"
  include {
    phase: TEST
  }
  pose_distance_param {
    fx: 241.42
    fy: 241.42
    ux: 160
    uy: 120
    output_pose: true
    cube_length: 150
  }
}
I0411 21:23:13.265436  6451 layer_factory.hpp:77] Creating layer data
I0411 21:23:13.265466  6451 net.cpp:84] Creating Layer data
I0411 21:23:13.265473  6451 net.cpp:380] data -> data
I0411 21:23:13.265496  6451 net.cpp:380] data -> label
I0411 21:23:13.266674  6451 pose_data_layer.cpp:117] Opening file /home/workspace/Datasets/MSRA/cvpr15_MSRAHandGestureDB/test_image_3.txt
I0411 21:23:13.266695  6451 pose_data_layer.cpp:119] Opening file /home/workspace/Datasets/MSRA/cvpr15_MSRAHandGestureDB/test_label_3.txt
I0411 21:23:13.874596  6451 pose_data_layer.cpp:269] Loading 1 image...
I0411 21:23:16.305347  6451 pose_data_layer.cpp:269] Loading 2001 image...
I0411 21:23:18.422596  6451 pose_data_layer.cpp:269] Loading 4001 image...
I0411 21:23:22.042567  6451 pose_data_layer.cpp:269] Loading 6001 image...
I0411 21:23:25.910434  6451 pose_data_layer.cpp:269] Loading 8001 image...
I0411 21:23:27.846709  6451 pose_data_layer.cpp:287] A total of 8488 images.
I0411 21:23:28.961731  6451 pose_data_layer.cpp:329] output data size: 128,1,96,96
I0411 21:23:29.495362  6451 net.cpp:122] Setting up data
I0411 21:23:29.496906  6451 net.cpp:129] Top shape: 128 1 96 96 (1179648)
I0411 21:23:29.496922  6451 net.cpp:129] Top shape: 128 66 (8448)
I0411 21:23:29.496927  6451 net.cpp:137] Memory required for data: 4752384
I0411 21:23:29.497830  6451 layer_factory.hpp:77] Creating layer pose
I0411 21:23:29.502316  6451 net.cpp:84] Creating Layer pose
I0411 21:23:29.502331  6451 net.cpp:406] pose <- label
I0411 21:23:29.503496  6451 net.cpp:380] pose -> pose
I0411 21:23:29.509438  6451 net.cpp:380] pose -> center
I0411 21:23:29.509497  6451 net.cpp:122] Setting up pose
I0411 21:23:29.509505  6451 net.cpp:129] Top shape: 128 63 (8064)
I0411 21:23:29.509508  6451 net.cpp:129] Top shape: 128 3 (384)
I0411 21:23:29.509726  6451 net.cpp:137] Memory required for data: 4786176
I0411 21:23:29.509733  6451 layer_factory.hpp:77] Creating layer conv0
I0411 21:23:29.509752  6451 net.cpp:84] Creating Layer conv0
I0411 21:23:29.509755  6451 net.cpp:406] conv0 <- data
I0411 21:23:29.509762  6451 net.cpp:380] conv0 -> conv0
I0411 21:23:49.004360  6451 net.cpp:122] Setting up conv0
I0411 21:23:49.004564  6451 net.cpp:129] Top shape: 128 16 96 96 (18874368)
I0411 21:23:49.004570  6451 net.cpp:137] Memory required for data: 80283648
I0411 21:23:49.041641  6451 layer_factory.hpp:77] Creating layer relu0
I0411 21:23:49.041677  6451 net.cpp:84] Creating Layer relu0
I0411 21:23:49.041685  6451 net.cpp:406] relu0 <- conv0
I0411 21:23:49.041707  6451 net.cpp:367] relu0 -> conv0 (in-place)
I0411 21:23:49.043593  6451 net.cpp:122] Setting up relu0
I0411 21:23:49.043609  6451 net.cpp:129] Top shape: 128 16 96 96 (18874368)
I0411 21:23:49.043614  6451 net.cpp:137] Memory required for data: 155781120
I0411 21:23:49.043617  6451 layer_factory.hpp:77] Creating layer conv1
I0411 21:23:49.043630  6451 net.cpp:84] Creating Layer conv1
I0411 21:23:49.043634  6451 net.cpp:406] conv1 <- conv0
I0411 21:23:49.043642  6451 net.cpp:380] conv1 -> conv1
I0411 21:23:49.050678  6451 net.cpp:122] Setting up conv1
I0411 21:23:49.050704  6451 net.cpp:129] Top shape: 128 16 96 96 (18874368)
I0411 21:23:49.050710  6451 net.cpp:137] Memory required for data: 231278592
I0411 21:23:49.050729  6451 layer_factory.hpp:77] Creating layer pool1
I0411 21:23:49.050742  6451 net.cpp:84] Creating Layer pool1
I0411 21:23:49.050750  6451 net.cpp:406] pool1 <- conv1
I0411 21:23:49.050760  6451 net.cpp:380] pool1 -> pool1
I0411 21:23:49.050825  6451 net.cpp:122] Setting up pool1
I0411 21:23:49.050835  6451 net.cpp:129] Top shape: 128 16 48 48 (4718592)
I0411 21:23:49.050840  6451 net.cpp:137] Memory required for data: 250152960
I0411 21:23:49.050845  6451 layer_factory.hpp:77] Creating layer relu1
I0411 21:23:49.050854  6451 net.cpp:84] Creating Layer relu1
I0411 21:23:49.050859  6451 net.cpp:406] relu1 <- pool1
I0411 21:23:49.050866  6451 net.cpp:367] relu1 -> pool1 (in-place)
I0411 21:23:49.051082  6451 net.cpp:122] Setting up relu1
I0411 21:23:49.051095  6451 net.cpp:129] Top shape: 128 16 48 48 (4718592)
I0411 21:23:49.051100  6451 net.cpp:137] Memory required for data: 269027328
I0411 21:23:49.051105  6451 layer_factory.hpp:77] Creating layer conv2_0
I0411 21:23:49.051120  6451 net.cpp:84] Creating Layer conv2_0
I0411 21:23:49.051125  6451 net.cpp:406] conv2_0 <- pool1
I0411 21:23:49.051133  6451 net.cpp:380] conv2_0 -> conv2_0
I0411 21:23:49.053719  6451 net.cpp:122] Setting up conv2_0
I0411 21:23:49.053736  6451 net.cpp:129] Top shape: 128 32 48 48 (9437184)
I0411 21:23:49.053742  6451 net.cpp:137] Memory required for data: 306776064
I0411 21:23:49.053755  6451 layer_factory.hpp:77] Creating layer relu2_0
I0411 21:23:49.053766  6451 net.cpp:84] Creating Layer relu2_0
I0411 21:23:49.053773  6451 net.cpp:406] relu2_0 <- conv2_0
I0411 21:23:49.053782  6451 net.cpp:367] relu2_0 -> conv2_0 (in-place)
I0411 21:23:49.054524  6451 net.cpp:122] Setting up relu2_0
I0411 21:23:49.054539  6451 net.cpp:129] Top shape: 128 32 48 48 (9437184)
I0411 21:23:49.054545  6451 net.cpp:137] Memory required for data: 344524800
I0411 21:23:49.054551  6451 layer_factory.hpp:77] Creating layer conv2_0_relu2_0_0_split
I0411 21:23:49.054565  6451 net.cpp:84] Creating Layer conv2_0_relu2_0_0_split
I0411 21:23:49.054572  6451 net.cpp:406] conv2_0_relu2_0_0_split <- conv2_0
I0411 21:23:49.054580  6451 net.cpp:380] conv2_0_relu2_0_0_split -> conv2_0_relu2_0_0_split_0
I0411 21:23:49.054592  6451 net.cpp:380] conv2_0_relu2_0_0_split -> conv2_0_relu2_0_0_split_1
I0411 21:23:49.054638  6451 net.cpp:122] Setting up conv2_0_relu2_0_0_split
I0411 21:23:49.054648  6451 net.cpp:129] Top shape: 128 32 48 48 (9437184)
I0411 21:23:49.054656  6451 net.cpp:129] Top shape: 128 32 48 48 (9437184)
I0411 21:23:49.054661  6451 net.cpp:137] Memory required for data: 420022272
I0411 21:23:49.054666  6451 layer_factory.hpp:77] Creating layer conv2
I0411 21:23:49.054677  6451 net.cpp:84] Creating Layer conv2
I0411 21:23:49.054683  6451 net.cpp:406] conv2 <- conv2_0_relu2_0_0_split_0
I0411 21:23:49.054692  6451 net.cpp:380] conv2 -> conv2
I0411 21:23:49.057003  6451 net.cpp:122] Setting up conv2
I0411 21:23:49.057019  6451 net.cpp:129] Top shape: 128 32 48 48 (9437184)
I0411 21:23:49.057026  6451 net.cpp:137] Memory required for data: 457771008
I0411 21:23:49.057054  6451 layer_factory.hpp:77] Creating layer relu2
I0411 21:23:49.057065  6451 net.cpp:84] Creating Layer relu2
I0411 21:23:49.057070  6451 net.cpp:406] relu2 <- conv2
I0411 21:23:49.057078  6451 net.cpp:367] relu2 -> conv2 (in-place)
I0411 21:23:49.057303  6451 net.cpp:122] Setting up relu2
I0411 21:23:49.057317  6451 net.cpp:129] Top shape: 128 32 48 48 (9437184)
I0411 21:23:49.057322  6451 net.cpp:137] Memory required for data: 495519744
I0411 21:23:49.057327  6451 layer_factory.hpp:77] Creating layer conv3
I0411 21:23:49.057345  6451 net.cpp:84] Creating Layer conv3
I0411 21:23:49.057353  6451 net.cpp:406] conv3 <- conv2
I0411 21:23:49.057361  6451 net.cpp:380] conv3 -> conv3
I0411 21:23:49.060011  6451 net.cpp:122] Setting up conv3
I0411 21:23:49.060029  6451 net.cpp:129] Top shape: 128 32 48 48 (9437184)
I0411 21:23:49.060035  6451 net.cpp:137] Memory required for data: 533268480
I0411 21:23:49.060050  6451 layer_factory.hpp:77] Creating layer res1
I0411 21:23:49.060075  6451 net.cpp:84] Creating Layer res1
I0411 21:23:49.060082  6451 net.cpp:406] res1 <- conv2_0_relu2_0_0_split_1
I0411 21:23:49.060091  6451 net.cpp:406] res1 <- conv3
I0411 21:23:49.060097  6451 net.cpp:380] res1 -> res1
I0411 21:23:49.060134  6451 net.cpp:122] Setting up res1
I0411 21:23:49.060144  6451 net.cpp:129] Top shape: 128 32 48 48 (9437184)
I0411 21:23:49.060149  6451 net.cpp:137] Memory required for data: 571017216
I0411 21:23:49.060155  6451 layer_factory.hpp:77] Creating layer pool2
I0411 21:23:49.060164  6451 net.cpp:84] Creating Layer pool2
I0411 21:23:49.060171  6451 net.cpp:406] pool2 <- res1
I0411 21:23:49.060181  6451 net.cpp:380] pool2 -> pool2
I0411 21:23:49.060247  6451 net.cpp:122] Setting up pool2
I0411 21:23:49.060257  6451 net.cpp:129] Top shape: 128 32 24 24 (2359296)
I0411 21:23:49.060263  6451 net.cpp:137] Memory required for data: 580454400
I0411 21:23:49.060268  6451 layer_factory.hpp:77] Creating layer relu3
I0411 21:23:49.060277  6451 net.cpp:84] Creating Layer relu3
I0411 21:23:49.060283  6451 net.cpp:406] relu3 <- pool2
I0411 21:23:49.060290  6451 net.cpp:367] relu3 -> pool2 (in-place)
I0411 21:23:49.060961  6451 net.cpp:122] Setting up relu3
I0411 21:23:49.060972  6451 net.cpp:129] Top shape: 128 32 24 24 (2359296)
I0411 21:23:49.060976  6451 net.cpp:137] Memory required for data: 589891584
I0411 21:23:49.060978  6451 layer_factory.hpp:77] Creating layer conv3_0
I0411 21:23:49.060991  6451 net.cpp:84] Creating Layer conv3_0
I0411 21:23:49.060994  6451 net.cpp:406] conv3_0 <- pool2
I0411 21:23:49.061000  6451 net.cpp:380] conv3_0 -> conv3_0
I0411 21:23:49.062350  6451 net.cpp:122] Setting up conv3_0
I0411 21:23:49.062362  6451 net.cpp:129] Top shape: 128 64 24 24 (4718592)
I0411 21:23:49.062366  6451 net.cpp:137] Memory required for data: 608765952
I0411 21:23:49.062372  6451 layer_factory.hpp:77] Creating layer relu3_0
I0411 21:23:49.062379  6451 net.cpp:84] Creating Layer relu3_0
I0411 21:23:49.062383  6451 net.cpp:406] relu3_0 <- conv3_0
I0411 21:23:49.062387  6451 net.cpp:367] relu3_0 -> conv3_0 (in-place)
I0411 21:23:49.062880  6451 net.cpp:122] Setting up relu3_0
I0411 21:23:49.062892  6451 net.cpp:129] Top shape: 128 64 24 24 (4718592)
I0411 21:23:49.062898  6451 net.cpp:137] Memory required for data: 627640320
I0411 21:23:49.062906  6451 layer_factory.hpp:77] Creating layer conv3_0_relu3_0_0_split
I0411 21:23:49.062911  6451 net.cpp:84] Creating Layer conv3_0_relu3_0_0_split
I0411 21:23:49.062916  6451 net.cpp:406] conv3_0_relu3_0_0_split <- conv3_0
I0411 21:23:49.062922  6451 net.cpp:380] conv3_0_relu3_0_0_split -> conv3_0_relu3_0_0_split_0
I0411 21:23:49.062927  6451 net.cpp:380] conv3_0_relu3_0_0_split -> conv3_0_relu3_0_0_split_1
I0411 21:23:49.062964  6451 net.cpp:122] Setting up conv3_0_relu3_0_0_split
I0411 21:23:49.062970  6451 net.cpp:129] Top shape: 128 64 24 24 (4718592)
I0411 21:23:49.062974  6451 net.cpp:129] Top shape: 128 64 24 24 (4718592)
I0411 21:23:49.062978  6451 net.cpp:137] Memory required for data: 665389056
I0411 21:23:49.062980  6451 layer_factory.hpp:77] Creating layer conv4
I0411 21:23:49.063000  6451 net.cpp:84] Creating Layer conv4
I0411 21:23:49.063005  6451 net.cpp:406] conv4 <- conv3_0_relu3_0_0_split_0
I0411 21:23:49.063011  6451 net.cpp:380] conv4 -> conv4
I0411 21:23:49.066262  6451 net.cpp:122] Setting up conv4
I0411 21:23:49.066275  6451 net.cpp:129] Top shape: 128 64 24 24 (4718592)
I0411 21:23:49.066279  6451 net.cpp:137] Memory required for data: 684263424
I0411 21:23:49.066285  6451 layer_factory.hpp:77] Creating layer relu4
I0411 21:23:49.066293  6451 net.cpp:84] Creating Layer relu4
I0411 21:23:49.066296  6451 net.cpp:406] relu4 <- conv4
I0411 21:23:49.066300  6451 net.cpp:367] relu4 -> conv4 (in-place)
I0411 21:23:49.066463  6451 net.cpp:122] Setting up relu4
I0411 21:23:49.066473  6451 net.cpp:129] Top shape: 128 64 24 24 (4718592)
I0411 21:23:49.066476  6451 net.cpp:137] Memory required for data: 703137792
I0411 21:23:49.066479  6451 layer_factory.hpp:77] Creating layer conv5
I0411 21:23:49.066490  6451 net.cpp:84] Creating Layer conv5
I0411 21:23:49.066498  6451 net.cpp:406] conv5 <- conv4
I0411 21:23:49.066506  6451 net.cpp:380] conv5 -> conv5
I0411 21:23:49.068738  6451 net.cpp:122] Setting up conv5
I0411 21:23:49.068751  6451 net.cpp:129] Top shape: 128 64 24 24 (4718592)
I0411 21:23:49.068755  6451 net.cpp:137] Memory required for data: 722012160
I0411 21:23:49.068761  6451 layer_factory.hpp:77] Creating layer res2
I0411 21:23:49.068769  6451 net.cpp:84] Creating Layer res2
I0411 21:23:49.068773  6451 net.cpp:406] res2 <- conv3_0_relu3_0_0_split_1
I0411 21:23:49.068778  6451 net.cpp:406] res2 <- conv5
I0411 21:23:49.068783  6451 net.cpp:380] res2 -> res2
I0411 21:23:49.068806  6451 net.cpp:122] Setting up res2
I0411 21:23:49.068814  6451 net.cpp:129] Top shape: 128 64 24 24 (4718592)
I0411 21:23:49.068816  6451 net.cpp:137] Memory required for data: 740886528
I0411 21:23:49.068819  6451 layer_factory.hpp:77] Creating layer pool3
I0411 21:23:49.068825  6451 net.cpp:84] Creating Layer pool3
I0411 21:23:49.068828  6451 net.cpp:406] pool3 <- res2
I0411 21:23:49.068833  6451 net.cpp:380] pool3 -> pool3
I0411 21:23:49.068871  6451 net.cpp:122] Setting up pool3
I0411 21:23:49.068883  6451 net.cpp:129] Top shape: 128 64 12 12 (1179648)
I0411 21:23:49.068886  6451 net.cpp:137] Memory required for data: 745605120
I0411 21:23:49.068888  6451 layer_factory.hpp:77] Creating layer relu5
I0411 21:23:49.068892  6451 net.cpp:84] Creating Layer relu5
I0411 21:23:49.068897  6451 net.cpp:406] relu5 <- pool3
I0411 21:23:49.068900  6451 net.cpp:367] relu5 -> pool3 (in-place)
I0411 21:23:49.069381  6451 net.cpp:122] Setting up relu5
I0411 21:23:49.069393  6451 net.cpp:129] Top shape: 128 64 12 12 (1179648)
I0411 21:23:49.069396  6451 net.cpp:137] Memory required for data: 750323712
I0411 21:23:49.069401  6451 layer_factory.hpp:77] Creating layer fc1
I0411 21:23:49.069408  6451 net.cpp:84] Creating Layer fc1
I0411 21:23:49.069412  6451 net.cpp:406] fc1 <- pool3
I0411 21:23:49.069418  6451 net.cpp:380] fc1 -> fc1
I0411 21:23:51.984969  6451 net.cpp:122] Setting up fc1
I0411 21:23:51.985002  6451 net.cpp:129] Top shape: 128 2048 (262144)
I0411 21:23:51.985005  6451 net.cpp:137] Memory required for data: 751372288
I0411 21:23:51.985019  6451 layer_factory.hpp:77] Creating layer relu6
I0411 21:23:51.985031  6451 net.cpp:84] Creating Layer relu6
I0411 21:23:51.985036  6451 net.cpp:406] relu6 <- fc1
I0411 21:23:51.985044  6451 net.cpp:367] relu6 -> fc1 (in-place)
I0411 21:23:51.985275  6451 net.cpp:122] Setting up relu6
I0411 21:23:51.985285  6451 net.cpp:129] Top shape: 128 2048 (262144)
I0411 21:23:51.985288  6451 net.cpp:137] Memory required for data: 752420864
I0411 21:23:51.985291  6451 layer_factory.hpp:77] Creating layer drop1
I0411 21:23:51.985303  6451 net.cpp:84] Creating Layer drop1
I0411 21:23:51.985306  6451 net.cpp:406] drop1 <- fc1
I0411 21:23:51.985311  6451 net.cpp:367] drop1 -> fc1 (in-place)
I0411 21:23:51.985337  6451 net.cpp:122] Setting up drop1
I0411 21:23:51.985343  6451 net.cpp:129] Top shape: 128 2048 (262144)
I0411 21:23:51.985363  6451 net.cpp:137] Memory required for data: 753469440
I0411 21:23:51.985366  6451 layer_factory.hpp:77] Creating layer fc2
I0411 21:23:51.985373  6451 net.cpp:84] Creating Layer fc2
I0411 21:23:51.985378  6451 net.cpp:406] fc2 <- fc1
I0411 21:23:51.985383  6451 net.cpp:380] fc2 -> fc2
I0411 21:23:53.780361  6451 net.cpp:122] Setting up fc2
I0411 21:23:53.780391  6451 net.cpp:129] Top shape: 128 2048 (262144)
I0411 21:23:53.780395  6451 net.cpp:137] Memory required for data: 754518016
I0411 21:23:53.780405  6451 layer_factory.hpp:77] Creating layer relu7
I0411 21:23:53.780414  6451 net.cpp:84] Creating Layer relu7
I0411 21:23:53.780419  6451 net.cpp:406] relu7 <- fc2
I0411 21:23:53.780427  6451 net.cpp:367] relu7 -> fc2 (in-place)
I0411 21:23:53.781062  6451 net.cpp:122] Setting up relu7
I0411 21:23:53.781075  6451 net.cpp:129] Top shape: 128 2048 (262144)
I0411 21:23:53.781077  6451 net.cpp:137] Memory required for data: 755566592
I0411 21:23:53.781080  6451 layer_factory.hpp:77] Creating layer drop2
I0411 21:23:53.781086  6451 net.cpp:84] Creating Layer drop2
I0411 21:23:53.781090  6451 net.cpp:406] drop2 <- fc2
I0411 21:23:53.781095  6451 net.cpp:367] drop2 -> fc2 (in-place)
I0411 21:23:53.781116  6451 net.cpp:122] Setting up drop2
I0411 21:23:53.781122  6451 net.cpp:129] Top shape: 128 2048 (262144)
I0411 21:23:53.781126  6451 net.cpp:137] Memory required for data: 756615168
I0411 21:23:53.781127  6451 layer_factory.hpp:77] Creating layer fc3
I0411 21:23:53.781136  6451 net.cpp:84] Creating Layer fc3
I0411 21:23:53.781138  6451 net.cpp:406] fc3 <- fc2
I0411 21:23:53.781144  6451 net.cpp:380] fc3 -> fc3
I0411 21:23:53.784360  6451 net.cpp:122] Setting up fc3
I0411 21:23:53.784373  6451 net.cpp:129] Top shape: 128 63 (8064)
I0411 21:23:53.784375  6451 net.cpp:137] Memory required for data: 756647424
I0411 21:23:53.784381  6451 layer_factory.hpp:77] Creating layer error
I0411 21:23:53.784397  6451 pose_distance_layer.cpp:48] Size of ids: 0
I0411 21:23:53.784404  6451 net.cpp:84] Creating Layer error
I0411 21:23:53.784407  6451 net.cpp:406] error <- fc3
I0411 21:23:53.784412  6451 net.cpp:406] error <- pose
I0411 21:23:53.784416  6451 net.cpp:406] error <- center
I0411 21:23:53.784425  6451 net.cpp:380] error -> error
I0411 21:23:53.784437  6451 net.cpp:380] error -> output
I0411 21:23:53.785078  6451 net.cpp:122] Setting up error
I0411 21:23:53.785091  6451 net.cpp:129] Top shape: (1)
I0411 21:23:53.785095  6451 net.cpp:129] Top shape: 128 63 (8064)
I0411 21:23:53.785099  6451 net.cpp:137] Memory required for data: 756679684
I0411 21:23:53.785102  6451 net.cpp:200] error does not need backward computation.
I0411 21:23:53.785106  6451 net.cpp:200] fc3 does not need backward computation.
I0411 21:23:53.785109  6451 net.cpp:200] drop2 does not need backward computation.
I0411 21:23:53.785114  6451 net.cpp:200] relu7 does not need backward computation.
…
