…
    trans_dy: 10
    is_rotate: true
    rotate_deg: 180
    is_zoom: true
    zoom_scale: 0.1
  }
  pose_data_param {
    image_source: "/home/workspace/Datasets/MSRA/cvpr15_MSRAHandGestureDB/train_image_5.txt"
    label_source: "/home/workspace/Datasets/MSRA/cvpr15_MSRAHandGestureDB/train_label_5.txt"
    batch_size: 128
    shuffle: true
    new_height: 96
    new_width: 96
    root_folder: "/home/workspace/Datasets/MSRA/cvpr15_MSRAHandGestureDB/"
    point_num: 21
    point_dim: 3
    fx: 241.42
    fy: 241.42
    cube_length: 150
    dataset: MSRA
  }
}
layer {
  name: "conv0"
  type: "Convolution"
  bottom: "data"
  top: "conv0"
  param {
    lr_mult: 1
  }
  param {
    lr_mult: 2
  }
  convolution_param {
    num_output: 16
    pad: 1
    kernel_size: 3
    stride: 1
    weight_filler {
      type: "msra"
    }
    bias_filler {
      type: "constant"
    }
  }
}
layer {
  name: "relu0"
  type: "ReLU"
  bottom: "conv0"
  top: "conv0"
}
layer {
  name: "conv1"
  type: "Convolution"
  bottom: "conv0"
  top: "conv1"
  param {
    lr_mult: 1
  }
  param {
    lr_mult: 2
  }
  convolution_param {
    num_output: 16
    pad: 1
    kernel_size: 3
    stride: 1
    weight_filler {
      type: "msra"
    }
    bias_filler {
      type: "constant"
    }
  }
}
layer {
  name: "pool1"
  type: "Pooling"
  bottom: "conv1"
  top: "pool1"
  pooling_param {
    pool: MAX
    kernel_size: 2
    stride: 2
  }
}
layer {
  name: "relu1"
  type: "ReLU"
  bottom: "pool1"
  top: "pool1"
}
layer {
  name: "conv2_0"
  type: "Convolution"
  bottom: "pool1"
  top: "conv2_0"
  param {
    lr_mult: 1
  }
  param {
    lr_mult: 2
  }
  convolution_param {
    num_output: 32
    pad: 0
    kernel_size: 1
    stride: 1
    weight_filler {
      type: "msra"
    }
    bias_filler {
      type: "constant"
    }
  }
}
layer {
  name: "relu2_0"
  type: "ReLU"
  bottom: "conv2_0"
  top: "conv2_0"
}
layer {
  name: "conv2"
  type: "Convolution"
  bottom: "conv2_0"
  top: "conv2"
  param {
    lr_mult: 1
  }
  param {
    lr_mult: 2
  }
  convolution_param {
    num_output: 32
    pad: 1
    kernel_size: 3
    stride: 1
    weight_filler {
      type: "msra"
    }
    bias_filler {
      type: "constant"
    }
  }
}
layer {
  name: "relu2"
  type: "ReLU"
  bottom: "conv2"
  top: "conv2"
}
layer {
  name: "conv3"
  type: "Convolution"
  bottom: "conv2"
  top: "conv3"
  param {
    lr_mult: 1
  }
  param {
    lr_mult: 2
  }
  convolution_param {
    num_output: 32
    pad: 1
    kernel_size: 3
    stride: 1
    weight_filler {
      type: "msra"
    }
    bias_filler {
      type: "constant"
    }
  }
}
layer {
  name: "res1"
  type: "Eltwise"
  bottom: "conv2_0"
  bottom: "conv3"
  top: "res1"
}
layer {
  name: "pool2"
  type: "Pooling"
  bottom: "res1"
  top: "pool2"
  pooling_param {
    pool: MAX
    kernel_size: 2
    stride: 2
  }
}
layer {
  name: "relu3"
  type: "ReLU"
  bottom: "pool2"
  top: "pool2"
}
layer {
  name: "conv3_0"
  type: "Convolution"
  bottom: "pool2"
  top: "conv3_0"
  param {
    lr_mult: 1
  }
  param {
    lr_mult: 2
  }
  convolution_param {
    num_output: 64
    pad: 0
    kernel_size: 1
    stride: 1
    weight_filler {
      type: "msra"
    }
    bias_filler {
      type: "constant"
    }
  }
}
layer {
  name: "relu3_0"
  type: "ReLU"
  bottom: "conv3_0"
  top: "conv3_0"
}
layer {
  name: "conv4"
  type: "Convolution"
  bottom: "conv3_0"
  top: "conv4"
  param {
    lr_mult: 1
  }
  param {
    lr_mult: 2
  }
  convolution_param {
    num_output: 64
    pad: 1
    kernel_size: 3
    stride: 1
    weight_filler {
      type: "msra"
    }
    bias_filler {
      type: "constant"
    }
  }
}
layer {
  name: "relu4"
  type: "ReLU"
  bottom: "conv4"
  top: "conv4"
}
layer {
  name: "conv5"
  type: "Convolution"
  bottom: "conv4"
  top: "conv5"
  param {
    lr_mult: 1
  }
  param {
    lr_mult: 2
  }
  convolution_param {
    num_output: 64
    pad: 1
    kernel_size: 3
    stride: 1
    weight_filler {
      type: "msra"
    }
    bias_filler {
      type: "constant"
    }
  }
}
layer {
  name: "res2"
  type: "Eltwise"
  bottom: "conv3_0"
  bottom: "conv5"
  top: "res2"
}
layer {
  name: "pool3"
  type: "Pooling"
  bottom: "res2"
  top: "pool3"
  pooling_param {
    pool: MAX
    kernel_size: 2
    stride: 2
  }
}
layer {
  name: "relu5"
  type: "ReLU"
  bottom: "pool3"
  top: "pool3"
}
layer {
  name: "fc1"
  type: "InnerProduct"
  bottom: "pool3"
  top: "fc1"
  param {
    lr_mult: 1
  }
  param {
    lr_mult: 2
  }
  inner_product_param {
    num_output: 2048
    weight_filler {
      type: "gaussian"
      std: 0.001
    }
    bias_filler {
      type: "constant"
    }
  }
}
layer {
  name: "relu6"
  type: "ReLU"
  bottom: "fc1"
  top: "fc1"
}
layer {
  name: "drop1"
  type: "Dropout"
  bottom: "fc1"
  top: "fc1"
  dropout_param {
    dropout_ratio: 0.5
  }
}
layer {
  name: "fc2"
  type: "InnerProduct"
  bottom: "fc1"
  top: "fc2"
  param {
    lr_mult: 1
  }
  param {
    lr_mult: 2
  }
  inner_product_param {
    num_output: 2048
    weight_filler {
      type: "gaussian"
      std: 0.001
    }
    bias_filler {
      type: "constant"
    }
  }
}
layer {
  name: "relu7"
  type: "ReLU"
  bottom: "fc2"
  top: "fc2"
}
layer {
  name: "drop2"
  type: "Dropout"
  bottom: "fc2"
  top: "fc2"
  dropout_param {
    dropout_ratio: 0.5
  }
}
layer {
  name: "fc3"
  type: "InnerProduct"
  bottom: "fc2"
  top: "fc3"
  param {
    lr_mult: 1
  }
  param {
    lr_mult: 2
  }
  inner_product_param {
    num_output: 63
    weight_filler {
      type: "gaussian"
      std: 0.001
    }
    bias_filler {
      type: "constant"
    }
  }
}
layer {
  name: "loss"
  type: "SmoothL1Loss"
  bottom: "fc3"
  bottom: "pose"
  top: "loss"
  loss_weight: 1
  smooth_l1_loss_param {
    sigma: 10
  }
}
I0410 23:17:49.549690  4476 layer_factory.hpp:77] Creating layer data
I0410 23:17:49.549703  4476 net.cpp:84] Creating Layer data
I0410 23:17:49.549707  4476 net.cpp:380] data -> data
I0410 23:17:49.549716  4476 net.cpp:380] data -> pose
I0410 23:17:49.549774  4476 pose_data_layer.cpp:117] Opening file /home/workspace/Datasets/MSRA/cvpr15_MSRAHandGestureDB/train_image_5.txt
…
I0410 23:18:21.458289  4476 pose_data_layer.cpp:269] Loading 60001 image...
I0410 23:18:23.034593  4476 pose_data_layer.cpp:269] Loading 62001 image...
I0410 23:18:24.091132  4476 pose_data_layer.cpp:269] Loading 64001 image...
I0410 23:18:25.191532  4476 pose_data_layer.cpp:269] Loading 66001 image...
I0410 23:18:26.351676  4476 pose_data_layer.cpp:282] Shuffling data
I0410 23:18:26.353322  4476 pose_data_layer.cpp:287] A total of 67878 images.
I0410 23:18:26.354033  4476 pose_data_layer.cpp:329] output data size: 128,1,96,96
I0410 23:18:26.370335  4476 net.cpp:122] Setting up data
I0410 23:18:26.370358  4476 net.cpp:129] Top shape: 128 1 96 96 (1179648)
I0410 23:18:26.370367  4476 net.cpp:129] Top shape: 128 63 (8064)
I0410 23:18:26.370371  4476 net.cpp:137] Memory required for data: 4750848
I0410 23:18:26.370378  4476 layer_factory.hpp:77] Creating layer conv0
I0410 23:18:26.370398  4476 net.cpp:84] Creating Layer conv0
I0410 23:18:26.370404  4476 net.cpp:406] conv0 <- data
I0410 23:18:26.370414  4476 net.cpp:380] conv0 -> conv0
I0410 23:18:26.703542  4476 net.cpp:122] Setting up conv0
I0410 23:18:26.703601  4476 net.cpp:129] Top shape: 128 16 96 96 (18874368)
I0410 23:18:26.703609  4476 net.cpp:137] Memory required for data: 80248320
I0410 23:18:26.703631  4476 layer_factory.hpp:77] Creating layer relu0
I0410 23:18:26.703652  4476 net.cpp:84] Creating Layer relu0
I0410 23:18:26.703709  4476 net.cpp:406] relu0 <- conv0
I0410 23:18:26.703749  4476 net.cpp:367] relu0 -> conv0 (in-place)
I0410 23:18:26.704303  4476 net.cpp:122] Setting up relu0
I0410 23:18:26.704325  4476 net.cpp:129] Top shape: 128 16 96 96 (18874368)
I0410 23:18:26.704331  4476 net.cpp:137] Memory required for data: 155745792
I0410 23:18:26.704339  4476 layer_factory.hpp:77] Creating layer conv1
I0410 23:18:26.704363  4476 net.cpp:84] Creating Layer conv1
I0410 23:18:26.704371  4476 net.cpp:406] conv1 <- conv0
I0410 23:18:26.704381  4476 net.cpp:380] conv1 -> conv1
I0410 23:18:26.706859  4476 net.cpp:122] Setting up conv1
I0410 23:18:26.706892  4476 net.cpp:129] Top shape: 128 16 96 96 (18874368)
I0410 23:18:26.706897  4476 net.cpp:137] Memory required for data: 231243264
I0410 23:18:26.706917  4476 layer_factory.hpp:77] Creating layer pool1
I0410 23:18:26.706931  4476 net.cpp:84] Creating Layer pool1
I0410 23:18:26.706938  4476 net.cpp:406] pool1 <- conv1
I0410 23:18:26.706946  4476 net.cpp:380] pool1 -> pool1
I0410 23:18:26.707016  4476 net.cpp:122] Setting up pool1
I0410 23:18:26.707033  4476 net.cpp:129] Top shape: 128 16 48 48 (4718592)
I0410 23:18:26.707038  4476 net.cpp:137] Memory required for data: 250117632
I0410 23:18:26.707044  4476 layer_factory.hpp:77] Creating layer relu1
I0410 23:18:26.707056  4476 net.cpp:84] Creating Layer relu1
I0410 23:18:26.707063  4476 net.cpp:406] relu1 <- pool1
I0410 23:18:26.707070  4476 net.cpp:367] relu1 -> pool1 (in-place)
I0410 23:18:26.707319  4476 net.cpp:122] Setting up relu1
I0410 23:18:26.707334  4476 net.cpp:129] Top shape: 128 16 48 48 (4718592)
I0410 23:18:26.707339  4476 net.cpp:137] Memory required for data: 268992000
I0410 23:18:26.707345  4476 layer_factory.hpp:77] Creating layer conv2_0
I0410 23:18:26.707363  4476 net.cpp:84] Creating Layer conv2_0
I0410 23:18:26.707370  4476 net.cpp:406] conv2_0 <- pool1
I0410 23:18:26.707379  4476 net.cpp:380] conv2_0 -> conv2_0
I0410 23:18:26.709908  4476 net.cpp:122] Setting up conv2_0
I0410 23:18:26.709957  4476 net.cpp:129] Top shape: 128 32 48 48 (9437184)
I0410 23:18:26.709967  4476 net.cpp:137] Memory required for data: 306740736
I0410 23:18:26.710000  4476 layer_factory.hpp:77] Creating layer relu2_0
I0410 23:18:26.710027  4476 net.cpp:84] Creating Layer relu2_0
I0410 23:18:26.710039  4476 net.cpp:406] relu2_0 <- conv2_0
I0410 23:18:26.710053  4476 net.cpp:367] relu2_0 -> conv2_0 (in-place)
I0410 23:18:26.711100  4476 net.cpp:122] Setting up relu2_0
I0410 23:18:26.711140  4476 net.cpp:129] Top shape: 128 32 48 48 (9437184)
I0410 23:18:26.711149  4476 net.cpp:137] Memory required for data: 344489472
I0410 23:18:26.711160  4476 layer_factory.hpp:77] Creating layer conv2_0_relu2_0_0_split
I0410 23:18:26.711184  4476 net.cpp:84] Creating Layer conv2_0_relu2_0_0_split
I0410 23:18:26.711194  4476 net.cpp:406] conv2_0_relu2_0_0_split <- conv2_0
I0410 23:18:26.711208  4476 net.cpp:380] conv2_0_relu2_0_0_split -> conv2_0_relu2_0_0_split_0
I0410 23:18:26.711225  4476 net.cpp:380] conv2_0_relu2_0_0_split -> conv2_0_relu2_0_0_split_1
I0410 23:18:26.711351  4476 net.cpp:122] Setting up conv2_0_relu2_0_0_split
I0410 23:18:26.711372  4476 net.cpp:129] Top shape: 128 32 48 48 (9437184)
I0410 23:18:26.711381  4476 net.cpp:129] Top shape: 128 32 48 48 (9437184)
I0410 23:18:26.711388  4476 net.cpp:137] Memory required for data: 419986944
I0410 23:18:26.711396  4476 layer_factory.hpp:77] Creating layer conv2
I0410 23:18:26.711421  4476 net.cpp:84] Creating Layer conv2
I0410 23:18:26.711428  4476 net.cpp:406] conv2 <- conv2_0_relu2_0_0_split_0
I0410 23:18:26.711439  4476 net.cpp:380] conv2 -> conv2
I0410 23:18:26.713227  4476 net.cpp:122] Setting up conv2
I0410 23:18:26.713256  4476 net.cpp:129] Top shape: 128 32 48 48 (9437184)
I0410 23:18:26.713261  4476 net.cpp:137] Memory required for data: 457735680
I0410 23:18:26.713274  4476 layer_factory.hpp:77] Creating layer relu2
I0410 23:18:26.713289  4476 net.cpp:84] Creating Layer relu2
I0410 23:18:26.713296  4476 net.cpp:406] relu2 <- conv2
I0410 23:18:26.713309  4476 net.cpp:367] relu2 -> conv2 (in-place)
I0410 23:18:26.713542  4476 net.cpp:122] Setting up relu2
I0410 23:18:26.713557  4476 net.cpp:129] Top shape: 128 32 48 48 (9437184)
I0410 23:18:26.713562  4476 net.cpp:137] Memory required for data: 495484416
I0410 23:18:26.713569  4476 layer_factory.hpp:77] Creating layer conv3
I0410 23:18:26.713584  4476 net.cpp:84] Creating Layer conv3
I0410 23:18:26.713590  4476 net.cpp:406] conv3 <- conv2
I0410 23:18:26.713600  4476 net.cpp:380] conv3 -> conv3
I0410 23:18:26.715173  4476 net.cpp:122] Setting up conv3
I0410 23:18:26.715198  4476 net.cpp:129] Top shape: 128 32 48 48 (9437184)
I0410 23:18:26.715201  4476 net.cpp:137] Memory required for data: 533233152
I0410 23:18:26.715215  4476 layer_factory.hpp:77] Creating layer res1
I0410 23:18:26.715227  4476 net.cpp:84] Creating Layer res1
I0410 23:18:26.715234  4476 net.cpp:406] res1 <- conv2_0_relu2_0_0_split_1
I0410 23:18:26.715243  4476 net.cpp:406] res1 <- conv3
I0410 23:18:26.715251  4476 net.cpp:380] res1 -> res1
I0410 23:18:26.715291  4476 net.cpp:122] Setting up res1
I0410 23:18:26.715301  4476 net.cpp:129] Top shape: 128 32 48 48 (9437184)
I0410 23:18:26.715306  4476 net.cpp:137] Memory required for data: 570981888
I0410 23:18:26.715312  4476 layer_factory.hpp:77] Creating layer pool2
I0410 23:18:26.715323  4476 net.cpp:84] Creating Layer pool2
I0410 23:18:26.715328  4476 net.cpp:406] pool2 <- res1
I0410 23:18:26.715335  4476 net.cpp:380] pool2 -> pool2
I0410 23:18:26.715385  4476 net.cpp:122] Setting up pool2
I0410 23:18:26.715396  4476 net.cpp:129] Top shape: 128 32 24 24 (2359296)
I0410 23:18:26.715401  4476 net.cpp:137] Memory required for data: 580419072
I0410 23:18:26.715406  4476 layer_factory.hpp:77] Creating layer relu3
I0410 23:18:26.715415  4476 net.cpp:84] Creating Layer relu3
I0410 23:18:26.715420  4476 net.cpp:406] relu3 <- pool2
I0410 23:18:26.715428  4476 net.cpp:367] relu3 -> pool2 (in-place)
I0410 23:18:26.715904  4476 net.cpp:122] Setting up relu3
I0410 23:18:26.715920  4476 net.cpp:129] Top shape: 128 32 24 24 (2359296)
I0410 23:18:26.715926  4476 net.cpp:137] Memory required for data: 589856256
I0410 23:18:26.715932  4476 layer_factory.hpp:77] Creating layer conv3_0
I0410 23:18:26.715947  4476 net.cpp:84] Creating Layer conv3_0
I0410 23:18:26.715953  4476 net.cpp:406] conv3_0 <- pool2
I0410 23:18:26.715963  4476 net.cpp:380] conv3_0 -> conv3_0
I0410 23:18:26.717278  4476 net.cpp:122] Setting up conv3_0
I0410 23:18:26.717299  4476 net.cpp:129] Top shape: 128 64 24 24 (4718592)
I0410 23:18:26.717303  4476 net.cpp:137] Memory required for data: 608730624
I0410 23:18:26.717314  4476 layer_factory.hpp:77] Creating layer relu3_0
I0410 23:18:26.717330  4476 net.cpp:84] Creating Layer relu3_0
I0410 23:18:26.717337  4476 net.cpp:406] relu3_0 <- conv3_0
I0410 23:18:26.717346  4476 net.cpp:367] relu3_0 -> conv3_0 (in-place)
I0410 23:18:26.717752  4476 net.cpp:122] Setting up relu3_0
I0410 23:18:26.717766  4476 net.cpp:129] Top shape: 128 64 24 24 (4718592)
I0410 23:18:26.717770  4476 net.cpp:137] Memory required for data: 627604992
I0410 23:18:26.717775  4476 layer_factory.hpp:77] Creating layer conv3_0_relu3_0_0_split
I0410 23:18:26.717784  4476 net.cpp:84] Creating Layer conv3_0_relu3_0_0_split
I0410 23:18:26.717790  4476 net.cpp:406] conv3_0_relu3_0_0_split <- conv3_0
I0410 23:18:26.717798  4476 net.cpp:380] conv3_0_relu3_0_0_split -> conv3_0_relu3_0_0_split_0
I0410 23:18:26.717809  4476 net.cpp:380] conv3_0_relu3_0_0_split -> conv3_0_relu3_0_0_split_1
I0410 23:18:26.717866  4476 net.cpp:122] Setting up conv3_0_relu3_0_0_split
I0410 23:18:26.717877  4476 net.cpp:129] Top shape: 128 64 24 24 (4718592)
I0410 23:18:26.717885  4476 net.cpp:129] Top shape: 128 64 24 24 (4718592)
I0410 23:18:26.717890  4476 net.cpp:137] Memory required for data: 665353728
I0410 23:18:26.717895  4476 layer_factory.hpp:77] Creating layer conv4
I0410 23:18:26.717911  4476 net.cpp:84] Creating Layer conv4
I0410 23:18:26.717916  4476 net.cpp:406] conv4 <- conv3_0_relu3_0_0_split_0
I0410 23:18:26.717926  4476 net.cpp:380] conv4 -> conv4
I0410 23:18:26.721066  4476 net.cpp:122] Setting up conv4
I0410 23:18:26.721101  4476 net.cpp:129] Top shape: 128 64 24 24 (4718592)
I0410 23:18:26.721105  4476 net.cpp:137] Memory required for data: 684228096
I0410 23:18:26.721120  4476 layer_factory.hpp:77] Creating layer relu4
I0410 23:18:26.721137  4476 net.cpp:84] Creating Layer relu4
I0410 23:18:26.721144  4476 net.cpp:406] relu4 <- conv4
I0410 23:18:26.721155  4476 net.cpp:367] relu4 -> conv4 (in-place)
I0410 23:18:26.721427  4476 net.cpp:122] Setting up relu4
I0410 23:18:26.721444  4476 net.cpp:129] Top shape: 128 64 24 24 (4718592)
I0410 23:18:26.721451  4476 net.cpp:137] Memory required for data: 703102464
I0410 23:18:26.721455  4476 layer_factory.hpp:77] Creating layer conv5
I0410 23:18:26.721472  4476 net.cpp:84] Creating Layer conv5
I0410 23:18:26.721479  4476 net.cpp:406] conv5 <- conv4
I0410 23:18:26.721491  4476 net.cpp:380] conv5 -> conv5
I0410 23:18:26.724203  4476 net.cpp:122] Setting up conv5
I0410 23:18:26.724223  4476 net.cpp:129] Top shape: 128 64 24 24 (4718592)
I0410 23:18:26.724227  4476 net.cpp:137] Memory required for data: 721976832
I0410 23:18:26.724236  4476 layer_factory.hpp:77] Creating layer res2
I0410 23:18:26.724246  4476 net.cpp:84] Creating Layer res2
I0410 23:18:26.724253  4476 net.cpp:406] res2 <- conv3_0_relu3_0_0_split_1
I0410 23:18:26.724261  4476 net.cpp:406] res2 <- conv5
I0410 23:18:26.724270  4476 net.cpp:380] res2 -> res2
I0410 23:18:26.724318  4476 net.cpp:122] Setting up res2
I0410 23:18:26.724329  4476 net.cpp:129] Top shape: 128 64 24 24 (4718592)
I0410 23:18:26.724335  4476 net.cpp:137] Memory required for data: 740851200
I0410 23:18:26.724339  4476 layer_factory.hpp:77] Creating layer pool3
I0410 23:18:26.724352  4476 net.cpp:84] Creating Layer pool3
I0410 23:18:26.724357  4476 net.cpp:406] pool3 <- res2
I0410 23:18:26.724366  4476 net.cpp:380] pool3 -> pool3
I0410 23:18:26.724426  4476 net.cpp:122] Setting up pool3
I0410 23:18:26.724436  4476 net.cpp:129] Top shape: 128 64 12 12 (1179648)
I0410 23:18:26.724442  4476 net.cpp:137] Memory required for data: 745569792
I0410 23:18:26.724447  4476 layer_factory.hpp:77] Creating layer relu5
I0410 23:18:26.724457  4476 net.cpp:84] Creating Layer relu5
I0410 23:18:26.724462  4476 net.cpp:406] relu5 <- pool3
I0410 23:18:26.724470  4476 net.cpp:367] relu5 -> pool3 (in-place)
I0410 23:18:26.725001  4476 net.cpp:122] Setting up relu5
I0410 23:18:26.725021  4476 net.cpp:129] Top shape: 128 64 12 12 (1179648)
I0410 23:18:26.725028  4476 net.cpp:137] Memory required for data: 750288384
I0410 23:18:26.725033  4476 layer_factory.hpp:77] Creating layer fc1
I0410 23:18:26.725046  4476 net.cpp:84] Creating Layer fc1
I0410 23:18:26.725054  4476 net.cpp:406] fc1 <- pool3
I0410 23:18:26.725064  4476 net.cpp:380] fc1 -> fc1
I0410 23:18:27.150723  4476 net.cpp:122] Setting up fc1
I0410 23:18:27.150753  4476 net.cpp:129] Top shape: 128 2048 (262144)
I0410 23:18:27.150756  4476 net.cpp:137] Memory required for data: 751336960
I0410 23:18:27.150770  4476 layer_factory.hpp:77] Creating layer relu6
I0410 23:18:27.150780  4476 net.cpp:84] Creating Layer relu6
I0410 23:18:27.150784  4476 net.cpp:406] relu6 <- fc1
I0410 23:18:27.150790  4476 net.cpp:367] relu6 -> fc1 (in-place)
I0410 23:18:27.151008  4476 net.cpp:122] Setting up relu6
I0410 23:18:27.151017  4476 net.cpp:129] Top shape: 128 2048 (262144)
I0410 23:18:27.151021  4476 net.cpp:137] Memory required for data: 752385536
I0410 23:18:27.151023  4476 layer_factory.hpp:77] Creating layer drop1
I0410 23:18:27.151028  4476 net.cpp:84] Creating Layer drop1
I0410 23:18:27.151031  4476 net.cpp:406] drop1 <- fc1
I0410 23:18:27.151036  4476 net.cpp:367] drop1 -> fc1 (in-place)
I0410 23:18:27.151054  4476 net.cpp:122] Setting up drop1
I0410 23:18:27.151058  4476 net.cpp:129] Top shape: 128 2048 (262144)
I0410 23:18:27.151060  4476 net.cpp:137] Memory required for data: 753434112
I0410 23:18:27.151062  4476 layer_factory.hpp:77] Creating layer fc2
I0410 23:18:27.151069  4476 net.cpp:84] Creating Layer fc2
I0410 23:18:27.151072  4476 net.cpp:406] fc2 <- fc1
I0410 23:18:27.151077  4476 net.cpp:380] fc2 -> fc2
I0410 23:18:27.244366  4476 net.cpp:122] Setting up fc2
I0410 23:18:27.244385  4476 net.cpp:129] Top shape: 128 2048 (262144)
I0410 23:18:27.244387  4476 net.cpp:137] Memory required for data: 754482688
I0410 23:18:27.244395  4476 layer_factory.hpp:77] Creating layer relu7
I0410 23:18:27.244403  4476 net.cpp:84] Creating Layer relu7
I0410 23:18:27.244410  4476 net.cpp:406] relu7 <- fc2
I0410 23:18:27.244416  4476 net.cpp:367] relu7 -> fc2 (in-place)
I0410 23:18:27.244995  4476 net.cpp:122] Setting up relu7
I0410 23:18:27.245007  4476 net.cpp:129] Top shape: 128 2048 (262144)
I0410 23:18:27.245009  4476 net.cpp:137] Memory required for data: 755531264
I0410 23:18:27.245012  4476 layer_factory.hpp:77] Creating layer drop2
I0410 23:18:27.245019  4476 net.cpp:84] Creating Layer drop2
I0410 23:18:27.245023  4476 net.cpp:406] drop2 <- fc2
I0410 23:18:27.245026  4476 net.cpp:367] drop2 -> fc2 (in-place)
I0410 23:18:27.245046  4476 net.cpp:122] Setting up drop2
I0410 23:18:27.245052  4476 net.cpp:129] Top shape: 128 2048 (262144)
I0410 23:18:27.245055  4476 net.cpp:137] Memory required for data: 756579840
I0410 23:18:27.245057  4476 layer_factory.hpp:77] Creating layer fc3
I0410 23:18:27.245064  4476 net.cpp:84] Creating Layer fc3
I0410 23:18:27.245066  4476 net.cpp:406] fc3 <- fc2
I0410 23:18:27.245072  4476 net.cpp:380] fc3 -> fc3
I0410 23:18:27.248330  4476 net.cpp:122] Setting up fc3
I0410 23:18:27.248343  4476 net.cpp:129] Top shape: 128 63 (8064)
I0410 23:18:27.248347  4476 net.cpp:137] Memory required for data: 756612096
I0410 23:18:27.248351  4476 layer_factory.hpp:77] Creating layer loss
I0410 23:18:27.248358  4476 net.cpp:84] Creating Layer loss
I0410 23:18:27.248361  4476 net.cpp:406] loss <- fc3
I0410 23:18:27.248365  4476 net.cpp:406] loss <- pose
I0410 23:18:27.248369  4476 net.cpp:380] loss -> loss
I0410 23:18:27.248497  4476 net.cpp:122] Setting up loss
…
  transform_param {
    is_trans: false
    is_rotate: false
    is_zoom: false
  }
  pose_data_param {
    image_source: "/home/workspace/Datasets/MSRA/cvpr15_MSRAHandGestureDB/test_image_5.txt"
    label_source: "/home/workspace/Datasets/MSRA/cvpr15_MSRAHandGestureDB/test_label_5.txt"
    batch_size: 128
    shuffle: false
    new_height: 96
    new_width: 96
    root_folder: "/home/workspace/Datasets/MSRA/cvpr15_MSRAHandGestureDB/"
    point_num: 21
    point_dim: 3
    fx: 241.42
    fy: 241.42
    output_center: true
    cube_length: 150
    dataset: MSRA
  }
}
layer {
  name: "pose"
  type: "Slice"
  bottom: "label"
  top: "pose"
  top: "center"
  include {
    phase: TEST
  }
  slice_param {
    slice_dim: 1
    slice_point: 63
  }
}
layer {
  name: "conv0"
  type: "Convolution"
  bottom: "data"
  top: "conv0"
  param {
    lr_mult: 1
  }
  param {
    lr_mult: 2
  }
  convolution_param {
    num_output: 16
    pad: 1
    kernel_size: 3
    stride: 1
    weight_filler {
      type: "msra"
    }
    bias_filler {
      type: "constant"
    }
  }
}
layer {
  name: "relu0"
  type: "ReLU"
  bottom: "conv0"
  top: "conv0"
}
layer {
  name: "conv1"
  type: "Convolution"
  bottom: "conv0"
  top: "conv1"
  param {
    lr_mult: 1
  }
  param {
    lr_mult: 2
  }
  convolution_param {
    num_output: 16
    pad: 1
    kernel_size: 3
    stride: 1
    weight_filler {
      type: "msra"
    }
    bias_filler {
      type: "constant"
    }
  }
}
layer {
  name: "pool1"
  type: "Pooling"
  bottom: "conv1"
  top: "pool1"
  pooling_param {
    pool: MAX
    kernel_size: 2
    stride: 2
  }
}
layer {
  name: "relu1"
  type: "ReLU"
  bottom: "pool1"
  top: "pool1"
}
layer {
  name: "conv2_0"
  type: "Convolution"
  bottom: "pool1"
  top: "conv2_0"
  param {
    lr_mult: 1
  }
  param {
    lr_mult: 2
  }
  convolution_param {
    num_output: 32
    pad: 0
    kernel_size: 1
    stride: 1
    weight_filler {
      type: "msra"
    }
    bias_filler {
      type: "constant"
    }
  }
}
layer {
  name: "relu2_0"
  type: "ReLU"
  bottom: "conv2_0"
  top: "conv2_0"
}
layer {
  name: "conv2"
  type: "Convolution"
  bottom: "conv2_0"
  top: "conv2"
  param {
    lr_mult: 1
  }
  param {
    lr_mult: 2
  }
  convolution_param {
    num_output: 32
    pad: 1
    kernel_size: 3
    stride: 1
    weight_filler {
      type: "msra"
    }
    bias_filler {
      type: "constant"
    }
  }
}
layer {
  name: "relu2"
  type: "ReLU"
  bottom: "conv2"
  top: "conv2"
}
layer {
  name: "conv3"
  type: "Convolution"
  bottom: "conv2"
  top: "conv3"
  param {
    lr_mult: 1
  }
  param {
    lr_mult: 2
  }
  convolution_param {
    num_output: 32
    pad: 1
    kernel_size: 3
    stride: 1
    weight_filler {
      type: "msra"
    }
    bias_filler {
      type: "constant"
    }
  }
}
layer {
  name: "res1"
  type: "Eltwise"
  bottom: "conv2_0"
  bottom: "conv3"
  top: "res1"
}
layer {
  name: "pool2"
  type: "Pooling"
  bottom: "res1"
  top: "pool2"
  pooling_param {
    pool: MAX
    kernel_size: 2
    stride: 2
  }
}
layer {
  name: "relu3"
  type: "ReLU"
  bottom: "pool2"
  top: "pool2"
}
layer {
  name: "conv3_0"
  type: "Convolution"
  bottom: "pool2"
  top: "conv3_0"
  param {
    lr_mult: 1
  }
  param {
    lr_mult: 2
  }
  convolution_param {
    num_output: 64
    pad: 0
    kernel_size: 1
    stride: 1
    weight_filler {
      type: "msra"
    }
    bias_filler {
      type: "constant"
    }
  }
}
layer {
  name: "relu3_0"
  type: "ReLU"
  bottom: "conv3_0"
  top: "conv3_0"
}
layer {
  name: "conv4"
  type: "Convolution"
  bottom: "conv3_0"
  top: "conv4"
  param {
    lr_mult: 1
  }
  param {
    lr_mult: 2
  }
  convolution_param {
    num_output: 64
    pad: 1
    kernel_size: 3
    stride: 1
    weight_filler {
      type: "msra"
    }
    bias_filler {
      type: "constant"
    }
  }
}
layer {
  name: "relu4"
  type: "ReLU"
  bottom: "conv4"
  top: "conv4"
}
layer {
  name: "conv5"
  type: "Convolution"
  bottom: "conv4"
  top: "conv5"
  param {
    lr_mult: 1
  }
  param {
    lr_mult: 2
  }
  convolution_param {
    num_output: 64
    pad: 1
    kernel_size: 3
    stride: 1
    weight_filler {
      type: "msra"
    }
    bias_filler {
      type: "constant"
    }
  }
}
layer {
  name: "res2"
  type: "Eltwise"
  bottom: "conv3_0"
  bottom: "conv5"
  top: "res2"
}
layer {
  name: "pool3"
  type: "Pooling"
  bottom: "res2"
  top: "pool3"
  pooling_param {
    pool: MAX
    kernel_size: 2
    stride: 2
  }
}
layer {
  name: "relu5"
  type: "ReLU"
  bottom: "pool3"
  top: "pool3"
}
layer {
  name: "fc1"
  type: "InnerProduct"
  bottom: "pool3"
  top: "fc1"
  param {
    lr_mult: 1
  }
  param {
    lr_mult: 2
  }
  inner_product_param {
    num_output: 2048
    weight_filler {
      type: "gaussian"
      std: 0.001
    }
    bias_filler {
      type: "constant"
    }
  }
}
layer {
  name: "relu6"
  type: "ReLU"
  bottom: "fc1"
  top: "fc1"
}
layer {
  name: "drop1"
  type: "Dropout"
  bottom: "fc1"
  top: "fc1"
  dropout_param {
    dropout_ratio: 0.5
  }
}
layer {
  name: "fc2"
  type: "InnerProduct"
  bottom: "fc1"
  top: "fc2"
  param {
    lr_mult: 1
  }
  param {
    lr_mult: 2
  }
  inner_product_param {
    num_output: 2048
    weight_filler {
      type: "gaussian"
      std: 0.001
    }
    bias_filler {
      type: "constant"
    }
  }
}
layer {
  name: "relu7"
  type: "ReLU"
  bottom: "fc2"
  top: "fc2"
}
layer {
  name: "drop2"
  type: "Dropout"
  bottom: "fc2"
  top: "fc2"
  dropout_param {
    dropout_ratio: 0.5
  }
}
layer {
  name: "fc3"
  type: "InnerProduct"
  bottom: "fc2"
  top: "fc3"
  param {
    lr_mult: 1
  }
  param {
    lr_mult: 2
  }
  inner_product_param {
    num_output: 63
    weight_filler {
      type: "gaussian"
      std: 0.001
    }
    bias_filler {
      type: "constant"
    }
  }
}
layer {
  name: "loss"
  type: "SmoothL1Loss"
  bottom: "fc3"
  bottom: "pose"
  top: "loss"
  loss_weight: 1
  smooth_l1_loss_param {
    sigma: 10
  }
}
layer {
  name: "distance"
  type: "PoseDistance"
  bottom: "fc3"
  bottom: "pose"
  bottom: "center"
  top: "distance"
  loss_weight: 0
  include {
    phase: TEST
  }
  pose_distance_param {
    fx: 241.42
    fy: 241.42
    ux: 160
    uy: 120
    cube_length: 150
  }
}
I0410 23:18:27.249516  4476 layer_factory.hpp:77] Creating layer data
I0410 23:18:27.249526  4476 net.cpp:84] Creating Layer data
I0410 23:18:27.249531  4476 net.cpp:380] data -> data
I0410 23:18:27.249538  4476 net.cpp:380] data -> label
I0410 23:18:27.249547  4476 pose_data_layer.cpp:117] Opening file /home/workspace/Datasets/MSRA/cvpr15_MSRAHandGestureDB/test_image_5.txt
I0410 23:18:27.249565  4476 pose_data_layer.cpp:119] Opening file /home/workspace/Datasets/MSRA/cvpr15_MSRAHandGestureDB/test_label_5.txt
I0410 23:18:27.299602  4476 pose_data_layer.cpp:269] Loading 123 image...
I0410 23:18:27.762306  4476 pose_data_layer.cpp:269] Loading 2123 image...
I0410 23:18:28.228777  4476 pose_data_layer.cpp:269] Loading 4123 image...
I0410 23:18:28.685817  4476 pose_data_layer.cpp:269] Loading 6123 image...
I0410 23:18:29.158427  4476 pose_data_layer.cpp:269] Loading 8123 image...
I0410 23:18:29.260583  4476 pose_data_layer.cpp:287] A total of 8497 images.
I0410 23:18:29.260802  4476 pose_data_layer.cpp:329] output data size: 128,1,96,96
I0410 23:18:29.276286  4476 net.cpp:122] Setting up data
I0410 23:18:29.276335  4476 net.cpp:129] Top shape: 128 1 96 96 (1179648)
I0410 23:18:29.276345  4476 net.cpp:129] Top shape: 128 66 (8448)
I0410 23:18:29.276350  4476 net.cpp:137] Memory required for data: 4752384
I0410 23:18:29.276363  4476 layer_factory.hpp:77] Creating layer pose
I0410 23:18:29.276392  4476 net.cpp:84] Creating Layer pose
I0410 23:18:29.276401  4476 net.cpp:406] pose <- label
I0410 23:18:29.276412  4476 net.cpp:380] pose -> pose
I0410 23:18:29.276432  4476 net.cpp:380] pose -> center
I0410 23:18:29.276638  4476 net.cpp:122] Setting up pose
I0410 23:18:29.276651  4476 net.cpp:129] Top shape: 128 63 (8064)
I0410 23:18:29.276660  4476 net.cpp:129] Top shape: 128 3 (384)
I0410 23:18:29.276665  4476 net.cpp:137] Memory required for data: 4786176
I0410 23:18:29.276671  4476 layer_factory.hpp:77] Creating layer pose_pose_0_split
I0410 23:18:29.276684  4476 net.cpp:84] Creating Layer pose_pose_0_split
I0410 23:18:29.276690  4476 net.cpp:406] pose_pose_0_split <- pose
I0410 23:18:29.276698  4476 net.cpp:380] pose_pose_0_split -> pose_pose_0_split_0
I0410 23:18:29.276742  4476 net.cpp:380] pose_pose_0_split -> pose_pose_0_split_1
I0410 23:18:29.276846  4476 net.cpp:122] Setting up pose_pose_0_split
I0410 23:18:29.276919  4476 net.cpp:129] Top shape: 128 63 (8064)
I0410 23:18:29.276928  4476 net.cpp:129] Top shape: 128 63 (8064)
I0410 23:18:29.276957  4476 net.cpp:137] Memory required for data: 4850688
I0410 23:18:29.276967  4476 layer_factory.hpp:77] Creating layer conv0
I0410 23:18:29.276996  4476 net.cpp:84] Creating Layer conv0
I0410 23:18:29.277004  4476 net.cpp:406] conv0 <- data
I0410 23:18:29.277015  4476 net.cpp:380] conv0 -> conv0
I0410 23:18:29.280827  4476 net.cpp:122] Setting up conv0
I0410 23:18:29.280912  4476 net.cpp:129] Top shape: 128 16 96 96 (18874368)
I0410 23:18:29.280921  4476 net.cpp:137] Memory required for data: 80348160
I0410 23:18:29.280939  4476 layer_factory.hpp:77] Creating layer relu0
I0410 23:18:29.280953  4476 net.cpp:84] Creating Layer relu0
I0410 23:18:29.280959  4476 net.cpp:406] relu0 <- conv0
I0410 23:18:29.280966  4476 net.cpp:367] relu0 -> conv0 (in-place)
I0410 23:18:29.281671  4476 net.cpp:122] Setting up relu0
I0410 23:18:29.281692  4476 net.cpp:129] Top shape: 128 16 96 96 (18874368)
I0410 23:18:29.281697  4476 net.cpp:137] Memory required for data: 155845632
I0410 23:18:29.281704  4476 layer_factory.hpp:77] Creating layer conv1
I0410 23:18:29.281729  4476 net.cpp:84] Creating Layer conv1
I0410 23:18:29.281739  4476 net.cpp:406] conv1 <- conv0
I0410 23:18:29.281751  4476 net.cpp:380] conv1 -> conv1
I0410 23:18:29.283670  4476 net.cpp:122] Setting up conv1
I0410 23:18:29.283695  4476 net.cpp:129] Top shape: 128 16 96 96 (18874368)
I0410 23:18:29.283701  4476 net.cpp:137] Memory required for data: 231343104
I0410 23:18:29.283716  4476 layer_factory.hpp:77] Creating layer pool1
I0410 23:18:29.283728  4476 net.cpp:84] Creating Layer pool1
I0410 23:18:29.283736  4476 net.cpp:406] pool1 <- conv1
I0410 23:18:29.283746  4476 net.cpp:380] pool1 -> pool1
I0410 23:18:29.283803  4476 net.cpp:122] Setting up pool1
I0410 23:18:29.283814  4476 net.cpp:129] Top shape: 128 16 48 48 (4718592)
I0410 23:18:29.283820  4476 net.cpp:137] Memory required for data: 250217472
I0410 23:18:29.283824  4476 layer_factory.hpp:77] Creating layer relu1
I0410 23:18:29.283833  4476 net.cpp:84] Creating Layer relu1
I0410 23:18:29.283838  4476 net.cpp:406] relu1 <- pool1
I0410 23:18:29.283845  4476 net.cpp:367] relu1 -> pool1 (in-place)
I0410 23:18:29.284116  4476 net.cpp:122] Setting up relu1
I0410 23:18:29.284139  4476 net.cpp:129] Top shape: 128 16 48 48 (4718592)
I0410 23:18:29.284153  4476 net.cpp:137] Memory required for data: 269091840
I0410 23:18:29.284168  4476 layer_factory.hpp:77] Creating layer conv2_0
I0410 23:18:29.284193  4476 net.cpp:84] Creating Layer conv2_0
I0410 23:18:29.284206  4476 net.cpp:406] conv2_0 <- pool1
I0410 23:18:29.284224  4476 net.cpp:380] conv2_0 -> conv2_0
I0410 23:18:29.285740  4476 net.cpp:122] Setting up conv2_0
I0410 23:18:29.285774  4476 net.cpp:129] Top shape: 128 32 48 48 (9437184)
I0410 23:18:29.285789  4476 net.cpp:137] Memory required for data: 306840576
I0410 23:18:29.285810  4476 layer_factory.hpp:77] Creating layer relu2_0
I0410 23:18:29.285830  4476 net.cpp:84] Creating Layer relu2_0
I0410 23:18:29.285842  4476 net.cpp:406] relu2_0 <- conv2_0
I0410 23:18:29.285856  4476 net.cpp:367] relu2_0 -> conv2_0 (in-place)
I0410 23:18:29.286298  4476 net.cpp:122] Setting up relu2_0
I0410 23:18:29.286324  4476 net.cpp:129] Top shape: 128 32 48 48 (9437184)
I0410 23:18:29.286335  4476 net.cpp:137] Memory required for data: 344589312
I0410 23:18:29.286347  4476 layer_factory.hpp:77] Creating layer conv2_0_relu2_0_0_split
I0410 23:18:29.286376  4476 net.cpp:84] Creating Layer conv2_0_relu2_0_0_split
I0410 23:18:29.286391  4476 net.cpp:406] conv2_0_relu2_0_0_split <- conv2_0
I0410 23:18:29.286406  4476 net.cpp:380] conv2_0_relu2_0_0_split -> conv2_0_relu2_0_0_split_0
I0410 23:18:29.286424  4476 net.cpp:380] conv2_0_relu2_0_0_split -> conv2_0_relu2_0_0_split_1
I0410 23:18:29.286489  4476 net.cpp:122] Setting up conv2_0_relu2_0_0_split
I0410 23:18:29.286507  4476 net.cpp:129] Top shape: 128 32 48 48 (9437184)
I0410 23:18:29.286522  4476 net.cpp:129] Top shape: 128 32 48 48 (9437184)
I0410 23:18:29.286533  4476 net.cpp:137] Memory required for data: 420086784
I0410 23:18:29.286545  4476 layer_factory.hpp:77] Creating layer conv2
I0410 23:18:29.286566  4476 net.cpp:84] Creating Layer conv2
I0410 23:18:29.286582  4476 net.cpp:406] conv2 <- conv2_0_relu2_0_0_split_0
I0410 23:18:29.286598  4476 net.cpp:380] conv2 -> conv2
I0410 23:18:29.288383  4476 net.cpp:122] Setting up conv2
I0410 23:18:29.288414  4476 net.cpp:129] Top shape: 128 32 48 48 (9437184)
I0410 23:18:29.288431  4476 net.cpp:137] Memory required for data: 457835520
I0410 23:18:29.288450  4476 layer_factory.hpp:77] Creating layer relu2
I0410 23:18:29.288467  4476 net.cpp:84] Creating Layer relu2
I0410 23:18:29.288482  4476 net.cpp:406] relu2 <- conv2
I0410 23:18:29.288499  4476 net.cpp:367] relu2 -> conv2 (in-place)
I0410 23:18:29.288743  4476 net.cpp:122] Setting up relu2
I0410 23:18:29.288765  4476 net.cpp:129] Top shape: 128 32 48 48 (9437184)
I0410 23:18:29.288781  4476 net.cpp:137] Memory required for data: 495584256
I0410 23:18:29.288794  4476 layer_factory.hpp:77] Creating layer conv3
I0410 23:18:29.288815  4476 net.cpp:84] Creating Layer conv3
I0410 23:18:29.288830  4476 net.cpp:406] conv3 <- conv2
I0410 23:18:29.288848  4476 net.cpp:380] conv3 -> conv3
I0410 23:18:29.291916  4476 net.cpp:122] Setting up conv3
I0410 23:18:29.291973  4476 net.cpp:129] Top shape: 128 32 48 48 (9437184)
I0410 23:18:29.291988  4476 net.cpp:137] Memory required for data: 533332992
I0410 23:18:29.292016  4476 layer_factory.hpp:77] Creating layer res1
I0410 23:18:29.292038  4476 net.cpp:84] Creating Layer res1
I0410 23:18:29.292047  4476 net.cpp:406] res1 <- conv2_0_relu2_0_0_split_1
I0410 23:18:29.292057  4476 net.cpp:406] res1 <- conv3
I0410 23:18:29.292064  4476 net.cpp:380] res1 -> res1
I0410 23:18:29.292109  4476 net.cpp:122] Setting up res1
I0410 23:18:29.292120  4476 net.cpp:129] Top shape: 128 32 48 48 (9437184)
I0410 23:18:29.292125  4476 net.cpp:137] Memory required for data: 571081728
I0410 23:18:29.292130  4476 layer_factory.hpp:77] Creating layer pool2
I0410 23:18:29.292140  4476 net.cpp:84] Creating Layer pool2
I0410 23:18:29.292145  4476 net.cpp:406] pool2 <- res1
I0410 23:18:29.292152  4476 net.cpp:380] pool2 -> pool2
I0410 23:18:29.292207  4476 net.cpp:122] Setting up pool2
I0410 23:18:29.292217  4476 net.cpp:129] Top shape: 128 32 24 24 (2359296)
I0410 23:18:29.292220  4476 net.cpp:137] Memory required for data: 580518912
I0410 23:18:29.292224  4476 layer_factory.hpp:77] Creating layer relu3
I0410 23:18:29.292234  4476 net.cpp:84] Creating Layer relu3
I0410 23:18:29.292239  4476 net.cpp:406] relu3 <- pool2
I0410 23:18:29.292245  4476 net.cpp:367] relu3 -> pool2 (in-place)
I0410 23:18:29.293059  4476 net.cpp:122] Setting up relu3
I0410 23:18:29.293076  4476 net.cpp:129] Top shape: 128 32 24 24 (2359296)
I0410 23:18:29.293081  4476 net.cpp:137] Memory required for data: 589956096
I0410 23:18:29.293092  4476 layer_factory.hpp:77] Creating layer conv3_0
I0410 23:18:29.293112  4476 net.cpp:84] Creating Layer conv3_0
I0410 23:18:29.293117  4476 net.cpp:406] conv3_0 <- pool2
I0410 23:18:29.293126  4476 net.cpp:380] conv3_0 -> conv3_0
I0410 23:18:29.294855  4476 net.cpp:122] Setting up conv3_0
I0410 23:18:29.294891  4476 net.cpp:129] Top shape: 128 64 24 24 (4718592)
I0410 23:18:29.294906  4476 net.cpp:137] Memory required for data: 608830464
I0410 23:18:29.294925  4476 layer_factory.hpp:77] Creating layer relu3_0
I0410 23:18:29.294945  4476 net.cpp:84] Creating Layer relu3_0
I0410 23:18:29.294970  4476 net.cpp:406] relu3_0 <- conv3_0
I0410 23:18:29.294986  4476 net.cpp:367] relu3_0 -> conv3_0 (in-place)
I0410 23:18:29.295433  4476 net.cpp:122] Setting up relu3_0
I0410 23:18:29.295460  4476 net.cpp:129] Top shape: 128 64 24 24 (4718592)
I0410 23:18:29.295475  4476 net.cpp:137] Memory required for data: 627704832
I0410 23:18:29.295490  4476 layer_factory.hpp:77] Creating layer conv3_0_relu3_0_0_split
I0410 23:18:29.295507  4476 net.cpp:84] Creating Layer conv3_0_relu3_0_0_split
I0410 23:18:29.295521  4476 net.cpp:406] conv3_0_relu3_0_0_split <- conv3_0
I0410 23:18:29.295536  4476 net.cpp:380] conv3_0_relu3_0_0_split -> conv3_0_relu3_0_0_split_0
I0410 23:18:29.295554  4476 net.cpp:380] conv3_0_relu3_0_0_split -> conv3_0_relu3_0_0_split_1
I0410 23:18:29.295621  4476 net.cpp:122] Setting up conv3_0_relu3_0_0_split
I0410 23:18:29.295645  4476 net.cpp:129] Top shape: 128 64 24 24 (4718592)
I0410 23:18:29.295660  4476 net.cpp:129] Top shape: 128 64 24 24 (4718592)
I0410 23:18:29.295672  4476 net.cpp:137] Memory required for data: 665453568
I0410 23:18:29.295684  4476 layer_factory.hpp:77] Creating layer conv4
I0410 23:18:29.295708  4476 net.cpp:84] Creating Layer conv4
I0410 23:18:29.295723  4476 net.cpp:406] conv4 <- conv3_0_relu3_0_0_split_0
I0410 23:18:29.295740  4476 net.cpp:380] conv4 -> conv4
I0410 23:18:29.298737  4476 net.cpp:122] Setting up conv4
I0410 23:18:29.298756  4476 net.cpp:129] Top shape: 128 64 24 24 (4718592)
I0410 23:18:29.298761  4476 net.cpp:137] Memory required for data: 684327936
I0410 23:18:29.298776  4476 layer_factory.hpp:77] Creating layer relu4
I0410 23:18:29.298789  4476 net.cpp:84] Creating Layer relu4
I0410 23:18:29.298796  4476 net.cpp:406] relu4 <- conv4
I0410 23:18:29.298804  4476 net.cpp:367] relu4 -> conv4 (in-place)
I0410 23:18:29.299036  4476 net.cpp:122] Setting up relu4
I0410 23:18:29.299053  4476 net.cpp:129] Top shape: 128 64 24 24 (4718592)
I0410 23:18:29.299059  4476 net.cpp:137] Memory required for data: 703202304
I0410 23:18:29.299065  4476 layer_factory.hpp:77] Creating layer conv5
I0410 23:18:29.299079  4476 net.cpp:84] Creating Layer conv5
I0410 23:18:29.299087  4476 net.cpp:406] conv5 <- conv4
I0410 23:18:29.299093  4476 net.cpp:380] conv5 -> conv5
I0410 23:18:29.301699  4476 net.cpp:122] Setting up conv5
I0410 23:18:29.301723  4476 net.cpp:129] Top shape: 128 64 24 24 (4718592)
I0410 23:18:29.301725  4476 net.cpp:137] Memory required for data: 722076672
I0410 23:18:29.301735  4476 layer_factory.hpp:77] Creating layer res2
I0410 23:18:29.301744  4476 net.cpp:84] Creating Layer res2
I0410 23:18:29.301749  4476 net.cpp:406] res2 <- conv3_0_relu3_0_0_split_1
I0410 23:18:29.301754  4476 net.cpp:406] res2 <- conv5
I0410 23:18:29.301759  4476 net.cpp:380] res2 -> res2
I0410 23:18:29.301789  4476 net.cpp:122] Setting up res2
I0410 23:18:29.301795  4476 net.cpp:129] Top shape: 128 64 24 24 (4718592)
I0410 23:18:29.301805  4476 net.cpp:137] Memory required for data: 740951040
I0410 23:18:29.301808  4476 layer_factory.hpp:77] Creating layer pool3
I0410 23:18:29.301815  4476 net.cpp:84] Creating Layer pool3
I0410 23:18:29.301817  4476 net.cpp:406] pool3 <- res2
I0410 23:18:29.301822  4476 net.cpp:380] pool3 -> pool3
I0410 23:18:29.301857  4476 net.cpp:122] Setting up pool3
I0410 23:18:29.301863  4476 net.cpp:129] Top shape: 128 64 12 12 (1179648)
I0410 23:18:29.301877  4476 net.cpp:137] Memory required for data: 745669632
I0410 23:18:29.301878  4476 layer_factory.hpp:77] Creating layer relu5
I0410 23:18:29.301883  4476 net.cpp:84] Creating Layer relu5
I0410 23:18:29.301887  4476 net.cpp:406] relu5 <- pool3
I0410 23:18:29.301890  4476 net.cpp:367] relu5 -> pool3 (in-place)
I0410 23:18:29.302232  4476 net.cpp:122] Setting up relu5
I0410 23:18:29.302243  4476 net.cpp:129] Top shape: 128 64 12 12 (1179648)
I0410 23:18:29.302247  4476 net.cpp:137] Memory required for data: 750388224
I0410 23:18:29.302248  4476 layer_factory.hpp:77] Creating layer fc1
I0410 23:18:29.302256  4476 net.cpp:84] Creating Layer fc1
I0410 23:18:29.302260  4476 net.cpp:406] fc1 <- pool3
I0410 23:18:29.302266  4476 net.cpp:380] fc1 -> fc1
I0410 23:18:29.729254  4476 net.cpp:122] Setting up fc1
I0410 23:18:29.729279  4476 net.cpp:129] Top shape: 128 2048 (262144)
I0410 23:18:29.729282  4476 net.cpp:137] Memory required for data: 751436800
I0410 23:18:29.729296  4476 layer_factory.hpp:77] Creating layer relu6
I0410 23:18:29.729305  4476 net.cpp:84] Creating Layer relu6
I0410 23:18:29.729310  4476 net.cpp:406] relu6 <- fc1
I0410 23:18:29.729315  4476 net.cpp:367] relu6 -> fc1 (in-place)
I0410 23:18:29.729547  4476 net.cpp:122] Setting up relu6
I0410 23:18:29.729554  4476 net.cpp:129] Top shape: 128 2048 (262144)
I0410 23:18:29.729557  4476 net.cpp:137] Memory required for data: 752485376
I0410 23:18:29.729560  4476 layer_factory.hpp:77] Creating layer drop1
I0410 23:18:29.729566  4476 net.cpp:84] Creating Layer drop1
I0410 23:18:29.729578  4476 net.cpp:406] drop1 <- fc1
I0410 23:18:29.729583  4476 net.cpp:367] drop1 -> fc1 (in-place)
I0410 23:18:29.729604  4476 net.cpp:122] Setting up drop1
I0410 23:18:29.729610  4476 net.cpp:129] Top shape: 128 2048 (262144)
I0410 23:18:29.729612  4476 net.cpp:137] Memory required for data: 753533952
I0410 23:18:29.729615  4476 layer_factory.hpp:77] Creating layer fc2
I0410 23:18:29.729621  4476 net.cpp:84] Creating Layer fc2
I0410 23:18:29.729625  4476 net.cpp:406] fc2 <- fc1
I0410 23:18:29.729630  4476 net.cpp:380] fc2 -> fc2
I0410 23:18:29.822836  4476 net.cpp:122] Setting up fc2
I0410 23:18:29.822865  4476 net.cpp:129] Top shape: 128 2048 (262144)
I0410 23:18:29.822867  4476 net.cpp:137] Memory required for data: 754582528
I0410 23:18:29.822875  4476 layer_factory.hpp:77] Creating layer relu7
I0410 23:18:29.822885  4476 net.cpp:84] Creating Layer relu7
I0410 23:18:29.822890  4476 net.cpp:406] relu7 <- fc2
I0410 23:18:29.822896  4476 net.cpp:367] relu7 -> fc2 (in-place)
I0410 23:18:29.823348  4476 net.cpp:122] Setting up relu7
I0410 23:18:29.823359  4476 net.cpp:129] Top shape: 128 2048 (262144)
I0410 23:18:29.823361  4476 net.cpp:137] Memory required for data: 755631104
I0410 23:18:29.823364  4476 layer_factory.hpp:77] Creating layer drop2
I0410 23:18:29.823370  4476 net.cpp:84] Creating Layer drop2
I0410 23:18:29.823374  4476 net.cpp:406] drop2 <- fc2
I0410 23:18:29.823379  4476 net.cpp:367] drop2 -> fc2 (in-place)
I0410 23:18:29.823400  4476 net.cpp:122] Setting up drop2
I0410 23:18:29.823408  4476 net.cpp:129] Top shape: 128 2048 (262144)
I0410 23:18:29.823412  4476 net.cpp:137] Memory required for data: 756679680
I0410 23:18:29.823417  4476 layer_factory.hpp:77] Creating layer fc3
I0410 23:18:29.823432  4476 net.cpp:84] Creating Layer fc3
I0410 23:18:29.823458  4476 net.cpp:406] fc3 <- fc2
I0410 23:18:29.823469  4476 net.cpp:380] fc3 -> fc3
I0410 23:18:29.826519  4476 net.cpp:122] Setting up fc3
I0410 23:18:29.826534  4476 net.cpp:129] Top shape: 128 63 (8064)
I0410 23:18:29.826539  4476 net.cpp:137] Memory required for data: 756711936
I0410 23:18:29.826548  4476 layer_factory.hpp:77] Creating layer fc3_fc3_0_split
I0410 23:18:29.826558  4476 net.cpp:84] Creating Layer fc3_fc3_0_split
I0410 23:18:29.826565  4476 net.cpp:406] fc3_fc3_0_split <- fc3
I0410 23:18:29.826575  4476 net.cpp:380] fc3_fc3_0_split -> fc3_fc3_0_split_0
I0410 23:18:29.826586  4476 net.cpp:380] fc3_fc3_0_split -> fc3_fc3_0_split_1
I0410 23:18:29.826624  4476 net.cpp:122] Setting up fc3_fc3_0_split
I0410 23:18:29.826632  4476 net.cpp:129] Top shape: 128 63 (8064)
I0410 23:18:29.826638  4476 net.cpp:129] Top shape: 128 63 (8064)
I0410 23:18:29.826644  4476 net.cpp:137] Memory required for data: 756776448
I0410 23:18:29.826650  4476 layer_factory.hpp:77] Creating layer loss
I0410 23:18:29.826660  4476 net.cpp:84] Creating Layer loss
I0410 23:18:29.826668  4476 net.cpp:406] loss <- fc3_fc3_0_split_0
I0410 23:18:29.826674  4476 net.cpp:406] loss <- pose_pose_0_split_0
I0410 23:18:29.826683  4476 net.cpp:380] loss -> loss
…
  transform_param {
    is_trans: false
    is_rotate: false
    is_zoom: false
  }
  pose_data_param {
    image_source: "/home/workspace/Datasets/MSRA/cvpr15_MSRAHandGestureDB/test_image_5.txt"
    label_source: "/home/workspace/Datasets/MSRA/cvpr15_MSRAHandGestureDB/test_label_5.txt"
    batch_size: 128
    shuffle: false
    new_height: 96
    new_width: 96
    root_folder: "/home/workspace/Datasets/MSRA/cvpr15_MSRAHandGestureDB/"
    point_num: 21
    point_dim: 3
    fx: 241.42
    fy: 241.42
    output_center: true
    cube_length: 150
    dataset: MSRA
  }
}
layer {
  name: "pose"
  type: "Slice"
  bottom: "label"
  top: "pose"
  top: "center"
  include {
    phase: TEST
  }
  slice_param {
    slice_dim: 1
    slice_point: 63
  }
}
layer {
  name: "conv0"
  type: "Convolution"
  bottom: "data"
  top: "conv0"
  param {
    lr_mult: 1
  }
  param {
    lr_mult: 2
  }
  convolution_param {
    num_output: 16
    pad: 1
    kernel_size: 3
    stride: 1
    weight_filler {
      type: "msra"
    }
    bias_filler {
      type: "constant"
    }
  }
}
layer {
  name: "relu0"
  type: "ReLU"
  bottom: "conv0"
  top: "conv0"
}
layer {
  name: "conv1"
  type: "Convolution"
  bottom: "conv0"
  top: "conv1"
  param {
    lr_mult: 1
  }
  param {
    lr_mult: 2
  }
  convolution_param {
    num_output: 16
    pad: 1
    kernel_size: 3
    stride: 1
    weight_filler {
      type: "msra"
    }
    bias_filler {
      type: "constant"
    }
  }
}
layer {
  name: "pool1"
  type: "Pooling"
  bottom: "conv1"
  top: "pool1"
  pooling_param {
    pool: MAX
    kernel_size: 2
    stride: 2
  }
}
layer {
  name: "relu1"
  type: "ReLU"
  bottom: "pool1"
  top: "pool1"
}
layer {
  name: "conv2_0"
  type: "Convolution"
  bottom: "pool1"
  top: "conv2_0"
  param {
    lr_mult: 1
  }
  param {
    lr_mult: 2
  }
  convolution_param {
    num_output: 32
    pad: 0
    kernel_size: 1
    stride: 1
    weight_filler {
      type: "msra"
    }
    bias_filler {
      type: "constant"
    }
  }
}
layer {
  name: "relu2_0"
  type: "ReLU"
  bottom: "conv2_0"
  top: "conv2_0"
}
layer {
  name: "conv2"
  type: "Convolution"
  bottom: "conv2_0"
  top: "conv2"
  param {
    lr_mult: 1
  }
  param {
    lr_mult: 2
  }
  convolution_param {
    num_output: 32
    pad: 1
    kernel_size: 3
    stride: 1
    weight_filler {
      type: "msra"
    }
    bias_filler {
      type: "constant"
    }
  }
}
layer {
  name: "relu2"
  type: "ReLU"
  bottom: "conv2"
  top: "conv2"
}
layer {
  name: "conv3"
  type: "Convolution"
  bottom: "conv2"
  top: "conv3"
  param {
    lr_mult: 1
  }
  param {
    lr_mult: 2
  }
  convolution_param {
    num_output: 32
    pad: 1
    kernel_size: 3
    stride: 1
    weight_filler {
      type: "msra"
    }
    bias_filler {
      type: "constant"
    }
  }
}
layer {
  name: "res1"
  type: "Eltwise"
  bottom: "conv2_0"
  bottom: "conv3"
  top: "res1"
}
layer {
  name: "pool2"
  type: "Pooling"
  bottom: "res1"
  top: "pool2"
  pooling_param {
    pool: MAX
    kernel_size: 2
    stride: 2
  }
}
layer {
  name: "relu3"
  type: "ReLU"
  bottom: "pool2"
  top: "pool2"
}
layer {
  name: "conv3_0"
  type: "Convolution"
  bottom: "pool2"
  top: "conv3_0"
  param {
    lr_mult: 1
  }
  param {
    lr_mult: 2
  }
  convolution_param {
    num_output: 64
    pad: 0
    kernel_size: 1
    stride: 1
    weight_filler {
      type: "msra"
    }
    bias_filler {
      type: "constant"
    }
  }
}
layer {
  name: "relu3_0"
  type: "ReLU"
  bottom: "conv3_0"
  top: "conv3_0"
}
layer {
  name: "conv4"
  type: "Convolution"
  bottom: "conv3_0"
  top: "conv4"
  param {
    lr_mult: 1
  }
  param {
    lr_mult: 2
  }
  convolution_param {
    num_output: 64
    pad: 1
    kernel_size: 3
    stride: 1
    weight_filler {
      type: "msra"
    }
    bias_filler {
      type: "constant"
    }
  }
}
layer {
  name: "relu4"
  type: "ReLU"
  bottom: "conv4"
  top: "conv4"
}
layer {
  name: "conv5"
  type: "Convolution"
  bottom: "conv4"
  top: "conv5"
  param {
    lr_mult: 1
  }
  param {
    lr_mult: 2
  }
  convolution_param {
    num_output: 64
    pad: 1
    kernel_size: 3
    stride: 1
    weight_filler {
      type: "msra"
    }
    bias_filler {
      type: "constant"
    }
  }
}
layer {
  name: "res2"
  type: "Eltwise"
  bottom: "conv3_0"
  bottom: "conv5"
  top: "res2"
}
layer {
  name: "pool3"
  type: "Pooling"
  bottom: "res2"
  top: "pool3"
  pooling_param {
    pool: MAX
    kernel_size: 2
    stride: 2
  }
}
layer {
  name: "relu5"
  type: "ReLU"
  bottom: "pool3"
  top: "pool3"
}
layer {
  name: "fc1"
  type: "InnerProduct"
  bottom: "pool3"
  top: "fc1"
  param {
    lr_mult: 1
  }
  param {
    lr_mult: 2
  }
  inner_product_param {
    num_output: 2048
    weight_filler {
      type: "gaussian"
      std: 0.001
    }
    bias_filler {
      type: "constant"
    }
  }
}
layer {
  name: "relu6"
  type: "ReLU"
  bottom: "fc1"
  top: "fc1"
}
layer {
  name: "drop1"
  type: "Dropout"
  bottom: "fc1"
  top: "fc1"
  dropout_param {
    dropout_ratio: 0.5
  }
}
layer {
  name: "fc2"
  type: "InnerProduct"
  bottom: "fc1"
  top: "fc2"
  param {
    lr_mult: 1
  }
  param {
    lr_mult: 2
  }
  inner_product_param {
    num_output: 2048
    weight_filler {
      type: "gaussian"
      std: 0.001
    }
    bias_filler {
      type: "constant"
    }
  }
}
layer {
  name: "relu7"
  type: "ReLU"
  bottom: "fc2"
  top: "fc2"
}
layer {
  name: "drop2"
  type: "Dropout"
  bottom: "fc2"
  top: "fc2"
  dropout_param {
    dropout_ratio: 0.5
  }
}
layer {
  name: "fc3"
  type: "InnerProduct"
  bottom: "fc2"
  top: "fc3"
  param {
    lr_mult: 1
  }
  param {
    lr_mult: 2
  }
  inner_product_param {
    num_output: 63
    weight_filler {
      type: "gaussian"
      std: 0.001
    }
    bias_filler {
      type: "constant"
    }
  }
}
layer {
  name: "error"
  type: "PoseDistance"
  bottom: "fc3"
  bottom: "pose"
  bottom: "center"
  top: "error"
  top: "output"
  include {
    phase: TEST
  }
  pose_distance_param {
    fx: 241.42
    fy: 241.42
    ux: 160
    uy: 120
    output_pose: true
    cube_length: 150
  }
}
I0411 21:23:16.713279  6475 layer_factory.hpp:77] Creating layer data
I0411 21:23:16.713304  6475 net.cpp:84] Creating Layer data
I0411 21:23:16.713310  6475 net.cpp:380] data -> data
I0411 21:23:16.713330  6475 net.cpp:380] data -> label
I0411 21:23:16.713349  6475 pose_data_layer.cpp:117] Opening file /home/workspace/Datasets/MSRA/cvpr15_MSRAHandGestureDB/test_image_5.txt
I0411 21:23:16.713366  6475 pose_data_layer.cpp:119] Opening file /home/workspace/Datasets/MSRA/cvpr15_MSRAHandGestureDB/test_label_5.txt
I0411 21:23:16.895750  6475 pose_data_layer.cpp:269] Loading 1 image...
I0411 21:23:19.040989  6475 pose_data_layer.cpp:269] Loading 2001 image...
I0411 21:23:23.765200  6475 pose_data_layer.cpp:269] Loading 4001 image...
I0411 21:23:27.967523  6475 pose_data_layer.cpp:269] Loading 6001 image...
I0411 21:23:39.355692  6475 pose_data_layer.cpp:269] Loading 8001 image...
I0411 21:23:39.719826  6475 pose_data_layer.cpp:287] A total of 8497 images.
I0411 21:23:48.965499  6475 pose_data_layer.cpp:329] output data size: 128,1,96,96
I0411 21:23:49.003643  6475 net.cpp:122] Setting up data
I0411 21:23:49.003680  6475 net.cpp:129] Top shape: 128 1 96 96 (1179648)
I0411 21:23:49.003691  6475 net.cpp:129] Top shape: 128 66 (8448)
I0411 21:23:49.003697  6475 net.cpp:137] Memory required for data: 4752384
I0411 21:23:49.005951  6475 layer_factory.hpp:77] Creating layer pose
I0411 21:23:49.007650  6475 net.cpp:84] Creating Layer pose
I0411 21:23:49.041471  6475 net.cpp:406] pose <- label
I0411 21:23:49.041501  6475 net.cpp:380] pose -> pose
I0411 21:23:49.042405  6475 net.cpp:380] pose -> center
I0411 21:23:49.042982  6475 net.cpp:122] Setting up pose
I0411 21:23:49.043012  6475 net.cpp:129] Top shape: 128 63 (8064)
I0411 21:23:49.043017  6475 net.cpp:129] Top shape: 128 3 (384)
I0411 21:23:49.043040  6475 net.cpp:137] Memory required for data: 4786176
I0411 21:23:49.043045  6475 layer_factory.hpp:77] Creating layer conv0
I0411 21:23:49.043072  6475 net.cpp:84] Creating Layer conv0
I0411 21:23:49.043078  6475 net.cpp:406] conv0 <- data
I0411 21:23:49.043085  6475 net.cpp:380] conv0 -> conv0
I0411 21:23:57.017155  6475 net.cpp:122] Setting up conv0
I0411 21:23:57.017213  6475 net.cpp:129] Top shape: 128 16 96 96 (18874368)
I0411 21:23:57.017223  6475 net.cpp:137] Memory required for data: 80283648
I0411 21:23:57.017256  6475 layer_factory.hpp:77] Creating layer relu0
I0411 21:23:57.017268  6475 net.cpp:84] Creating Layer relu0
I0411 21:23:57.017273  6475 net.cpp:406] relu0 <- conv0
I0411 21:23:57.017279  6475 net.cpp:367] relu0 -> conv0 (in-place)
I0411 21:23:57.018014  6475 net.cpp:122] Setting up relu0
I0411 21:23:57.018028  6475 net.cpp:129] Top shape: 128 16 96 96 (18874368)
I0411 21:23:57.018046  6475 net.cpp:137] Memory required for data: 155781120
I0411 21:23:57.018054  6475 layer_factory.hpp:77] Creating layer conv1
I0411 21:23:57.018071  6475 net.cpp:84] Creating Layer conv1
I0411 21:23:57.018077  6475 net.cpp:406] conv1 <- conv0
I0411 21:23:57.018087  6475 net.cpp:380] conv1 -> conv1
I0411 21:23:57.019843  6475 net.cpp:122] Setting up conv1
I0411 21:23:57.019858  6475 net.cpp:129] Top shape: 128 16 96 96 (18874368)
I0411 21:23:57.019865  6475 net.cpp:137] Memory required for data: 231278592
I0411 21:23:57.019879  6475 layer_factory.hpp:77] Creating layer pool1
I0411 21:23:57.019889  6475 net.cpp:84] Creating Layer pool1
I0411 21:23:57.019896  6475 net.cpp:406] pool1 <- conv1
I0411 21:23:57.019906  6475 net.cpp:380] pool1 -> pool1
I0411 21:23:57.019955  6475 net.cpp:122] Setting up pool1
I0411 21:23:57.019964  6475 net.cpp:129] Top shape: 128 16 48 48 (4718592)
I0411 21:23:57.019969  6475 net.cpp:137] Memory required for data: 250152960
I0411 21:23:57.019975  6475 layer_factory.hpp:77] Creating layer relu1
I0411 21:23:57.019985  6475 net.cpp:84] Creating Layer relu1
I0411 21:23:57.019990  6475 net.cpp:406] relu1 <- pool1
I0411 21:23:57.019997  6475 net.cpp:367] relu1 -> pool1 (in-place)
I0411 21:23:57.020157  6475 net.cpp:122] Setting up relu1
I0411 21:23:57.020169  6475 net.cpp:129] Top shape: 128 16 48 48 (4718592)
I0411 21:23:57.020174  6475 net.cpp:137] Memory required for data: 269027328
I0411 21:23:57.020181  6475 layer_factory.hpp:77] Creating layer conv2_0
I0411 21:23:57.020193  6475 net.cpp:84] Creating Layer conv2_0
I0411 21:23:57.020198  6475 net.cpp:406] conv2_0 <- pool1
I0411 21:23:57.020207  6475 net.cpp:380] conv2_0 -> conv2_0
I0411 21:23:57.021906  6475 net.cpp:122] Setting up conv2_0
I0411 21:23:57.021921  6475 net.cpp:129] Top shape: 128 32 48 48 (9437184)
I0411 21:23:57.021927  6475 net.cpp:137] Memory required for data: 306776064
I0411 21:23:57.021940  6475 layer_factory.hpp:77] Creating layer relu2_0
I0411 21:23:57.021952  6475 net.cpp:84] Creating Layer relu2_0
I0411 21:23:57.021958  6475 net.cpp:406] relu2_0 <- conv2_0
I0411 21:23:57.021967  6475 net.cpp:367] relu2_0 -> conv2_0 (in-place)
I0411 21:23:57.022425  6475 net.cpp:122] Setting up relu2_0
I0411 21:23:57.022439  6475 net.cpp:129] Top shape: 128 32 48 48 (9437184)
I0411 21:23:57.022446  6475 net.cpp:137] Memory required for data: 344524800
I0411 21:23:57.022452  6475 layer_factory.hpp:77] Creating layer conv2_0_relu2_0_0_split
I0411 21:23:57.022601  6475 net.cpp:84] Creating Layer conv2_0_relu2_0_0_split
I0411 21:23:57.022608  6475 net.cpp:406] conv2_0_relu2_0_0_split <- conv2_0
I0411 21:23:57.022617  6475 net.cpp:380] conv2_0_relu2_0_0_split -> conv2_0_relu2_0_0_split_0
I0411 21:23:57.022627  6475 net.cpp:380] conv2_0_relu2_0_0_split -> conv2_0_relu2_0_0_split_1
I0411 21:23:57.022667  6475 net.cpp:122] Setting up conv2_0_relu2_0_0_split
I0411 21:23:57.022677  6475 net.cpp:129] Top shape: 128 32 48 48 (9437184)
I0411 21:23:57.022684  6475 net.cpp:129] Top shape: 128 32 48 48 (9437184)
I0411 21:23:57.022689  6475 net.cpp:137] Memory required for data: 420022272
I0411 21:23:57.022694  6475 layer_factory.hpp:77] Creating layer conv2
I0411 21:23:57.022707  6475 net.cpp:84] Creating Layer conv2
I0411 21:23:57.022712  6475 net.cpp:406] conv2 <- conv2_0_relu2_0_0_split_0
I0411 21:23:57.022722  6475 net.cpp:380] conv2 -> conv2
I0411 21:23:57.024180  6475 net.cpp:122] Setting up conv2
I0411 21:23:57.024194  6475 net.cpp:129] Top shape: 128 32 48 48 (9437184)
I0411 21:23:57.024200  6475 net.cpp:137] Memory required for data: 457771008
I0411 21:23:57.024211  6475 layer_factory.hpp:77] Creating layer relu2
I0411 21:23:57.024219  6475 net.cpp:84] Creating Layer relu2
I0411 21:23:57.024224  6475 net.cpp:406] relu2 <- conv2
I0411 21:23:57.024233  6475 net.cpp:367] relu2 -> conv2 (in-place)
I0411 21:23:57.024386  6475 net.cpp:122] Setting up relu2
I0411 21:23:57.024397  6475 net.cpp:129] Top shape: 128 32 48 48 (9437184)
I0411 21:23:57.024404  6475 net.cpp:137] Memory required for data: 495519744
I0411 21:23:57.024410  6475 layer_factory.hpp:77] Creating layer conv3
I0411 21:23:57.024422  6475 net.cpp:84] Creating Layer conv3
I0411 21:23:57.024427  6475 net.cpp:406] conv3 <- conv2
I0411 21:23:57.024437  6475 net.cpp:380] conv3 -> conv3
I0411 21:23:57.025945  6475 net.cpp:122] Setting up conv3
I0411 21:23:57.025974  6475 net.cpp:129] Top shape: 128 32 48 48 (9437184)
I0411 21:23:57.025980  6475 net.cpp:137] Memory required for data: 533268480
I0411 21:23:57.025993  6475 layer_factory.hpp:77] Creating layer res1
I0411 21:23:57.026005  6475 net.cpp:84] Creating Layer res1
I0411 21:23:57.026011  6475 net.cpp:406] res1 <- conv2_0_relu2_0_0_split_1
I0411 21:23:57.026018  6475 net.cpp:406] res1 <- conv3
I0411 21:23:57.026026  6475 net.cpp:380] res1 -> res1
I0411 21:23:57.026053  6475 net.cpp:122] Setting up res1
I0411 21:23:57.026062  6475 net.cpp:129] Top shape: 128 32 48 48 (9437184)
I0411 21:23:57.026068  6475 net.cpp:137] Memory required for data: 571017216
I0411 21:23:57.026074  6475 layer_factory.hpp:77] Creating layer pool2
I0411 21:23:57.026082  6475 net.cpp:84] Creating Layer pool2
I0411 21:23:57.026087  6475 net.cpp:406] pool2 <- res1
I0411 21:23:57.026095  6475 net.cpp:380] pool2 -> pool2
I0411 21:23:57.026130  6475 net.cpp:122] Setting up pool2
I0411 21:23:57.026139  6475 net.cpp:129] Top shape: 128 32 24 24 (2359296)
I0411 21:23:57.026144  6475 net.cpp:137] Memory required for data: 580454400
I0411 21:23:57.026150  6475 layer_factory.hpp:77] Creating layer relu3
I0411 21:23:57.026157  6475 net.cpp:84] Creating Layer relu3
I0411 21:23:57.026162  6475 net.cpp:406] relu3 <- pool2
I0411 21:23:57.026175  6475 net.cpp:367] relu3 -> pool2 (in-place)
I0411 21:23:57.026651  6475 net.cpp:122] Setting up relu3
I0411 21:23:57.026664  6475 net.cpp:129] Top shape: 128 32 24 24 (2359296)
I0411 21:23:57.026671  6475 net.cpp:137] Memory required for data: 589891584
I0411 21:23:57.026677  6475 layer_factory.hpp:77] Creating layer conv3_0
I0411 21:23:57.026691  6475 net.cpp:84] Creating Layer conv3_0
I0411 21:23:57.026697  6475 net.cpp:406] conv3_0 <- pool2
I0411 21:23:57.026707  6475 net.cpp:380] conv3_0 -> conv3_0
I0411 21:23:57.028082  6475 net.cpp:122] Setting up conv3_0
I0411 21:23:57.028096  6475 net.cpp:129] Top shape: 128 64 24 24 (4718592)
I0411 21:23:57.028102  6475 net.cpp:137] Memory required for data: 608765952
I0411 21:23:57.028110  6475 layer_factory.hpp:77] Creating layer relu3_0
I0411 21:23:57.028115  6475 net.cpp:84] Creating Layer relu3_0
I0411 21:23:57.028127  6475 net.cpp:406] relu3_0 <- conv3_0
I0411 21:23:57.028132  6475 net.cpp:367] relu3_0 -> conv3_0 (in-place)
I0411 21:23:57.028630  6475 net.cpp:122] Setting up relu3_0
I0411 21:23:57.028640  6475 net.cpp:129] Top shape: 128 64 24 24 (4718592)
I0411 21:23:57.028643  6475 net.cpp:137] Memory required for data: 627640320
I0411 21:23:57.028646  6475 layer_factory.hpp:77] Creating layer conv3_0_relu3_0_0_split
I0411 21:23:57.028652  6475 net.cpp:84] Creating Layer conv3_0_relu3_0_0_split
I0411 21:23:57.028656  6475 net.cpp:406] conv3_0_relu3_0_0_split <- conv3_0
I0411 21:23:57.028661  6475 net.cpp:380] conv3_0_relu3_0_0_split -> conv3_0_relu3_0_0_split_0
I0411 21:23:57.028669  6475 net.cpp:380] conv3_0_relu3_0_0_split -> conv3_0_relu3_0_0_split_1
I0411 21:23:57.028707  6475 net.cpp:122] Setting up conv3_0_relu3_0_0_split
I0411 21:23:57.028713  6475 net.cpp:129] Top shape: 128 64 24 24 (4718592)
I0411 21:23:57.028719  6475 net.cpp:129] Top shape: 128 64 24 24 (4718592)
I0411 21:23:57.028722  6475 net.cpp:137] Memory required for data: 665389056
I0411 21:23:57.028724  6475 layer_factory.hpp:77] Creating layer conv4
I0411 21:23:57.028733  6475 net.cpp:84] Creating Layer conv4
I0411 21:23:57.028736  6475 net.cpp:406] conv4 <- conv3_0_relu3_0_0_split_0
I0411 21:23:57.028741  6475 net.cpp:380] conv4 -> conv4
I0411 21:23:57.031944  6475 net.cpp:122] Setting up conv4
I0411 21:23:57.031958  6475 net.cpp:129] Top shape: 128 64 24 24 (4718592)
I0411 21:23:57.031965  6475 net.cpp:137] Memory required for data: 684263424
I0411 21:23:57.031975  6475 layer_factory.hpp:77] Creating layer relu4
I0411 21:23:57.031983  6475 net.cpp:84] Creating Layer relu4
I0411 21:23:57.031988  6475 net.cpp:406] relu4 <- conv4
I0411 21:23:57.031999  6475 net.cpp:367] relu4 -> conv4 (in-place)
I0411 21:23:57.032163  6475 net.cpp:122] Setting up relu4
I0411 21:23:57.032183  6475 net.cpp:129] Top shape: 128 64 24 24 (4718592)
I0411 21:23:57.032189  6475 net.cpp:137] Memory required for data: 703137792
I0411 21:23:57.032196  6475 layer_factory.hpp:77] Creating layer conv5
I0411 21:23:57.032208  6475 net.cpp:84] Creating Layer conv5
I0411 21:23:57.032214  6475 net.cpp:406] conv5 <- conv4
I0411 21:23:57.032224  6475 net.cpp:380] conv5 -> conv5
I0411 21:23:57.034308  6475 net.cpp:122] Setting up conv5
I0411 21:23:57.034323  6475 net.cpp:129] Top shape: 128 64 24 24 (4718592)
I0411 21:23:57.034332  6475 net.cpp:137] Memory required for data: 722012160
I0411 21:23:57.034341  6475 layer_factory.hpp:77] Creating layer res2
I0411 21:23:57.034349  6475 net.cpp:84] Creating Layer res2
I0411 21:23:57.034355  6475 net.cpp:406] res2 <- conv3_0_relu3_0_0_split_1
I0411 21:23:57.034363  6475 net.cpp:406] res2 <- conv5
I0411 21:23:57.034370  6475 net.cpp:380] res2 -> res2
I0411 21:23:57.034397  6475 net.cpp:122] Setting up res2
I0411 21:23:57.034406  6475 net.cpp:129] Top shape: 128 64 24 24 (4718592)
I0411 21:23:57.034411  6475 net.cpp:137] Memory required for data: 740886528
I0411 21:23:57.034417  6475 layer_factory.hpp:77] Creating layer pool3
I0411 21:23:57.034427  6475 net.cpp:84] Creating Layer pool3
I0411 21:23:57.034432  6475 net.cpp:406] pool3 <- res2
I0411 21:23:57.034440  6475 net.cpp:380] pool3 -> pool3
I0411 21:23:57.034477  6475 net.cpp:122] Setting up pool3
I0411 21:23:57.034487  6475 net.cpp:129] Top shape: 128 64 12 12 (1179648)
I0411 21:23:57.034492  6475 net.cpp:137] Memory required for data: 745605120
I0411 21:23:57.034497  6475 layer_factory.hpp:77] Creating layer relu5
I0411 21:23:57.034505  6475 net.cpp:84] Creating Layer relu5
I0411 21:23:57.034510  6475 net.cpp:406] relu5 <- pool3
I0411 21:23:57.034520  6475 net.cpp:367] relu5 -> pool3 (in-place)
I0411 21:23:57.034986  6475 net.cpp:122] Setting up relu5
I0411 21:23:57.034999  6475 net.cpp:129] Top shape: 128 64 12 12 (1179648)
I0411 21:23:57.035006  6475 net.cpp:137] Memory required for data: 750323712
I0411 21:23:57.035012  6475 layer_factory.hpp:77] Creating layer fc1
I0411 21:23:57.035023  6475 net.cpp:84] Creating Layer fc1
I0411 21:23:57.035028  6475 net.cpp:406] fc1 <- pool3
I0411 21:23:57.035048  6475 net.cpp:380] fc1 -> fc1
I0411 21:23:57.462373  6475 net.cpp:122] Setting up fc1
I0411 21:23:57.462404  6475 net.cpp:129] Top shape: 128 2048 (262144)
I0411 21:23:57.462411  6475 net.cpp:137] Memory required for data: 751372288
I0411 21:23:57.462429  6475 layer_factory.hpp:77] Creating layer relu6
I0411 21:23:57.462438  6475 net.cpp:84] Creating Layer relu6
I0411 21:23:57.462445  6475 net.cpp:406] relu6 <- fc1
I0411 21:23:57.462453  6475 net.cpp:367] relu6 -> fc1 (in-place)
I0411 21:23:57.462741  6475 net.cpp:122] Setting up relu6
I0411 21:23:57.462755  6475 net.cpp:129] Top shape: 128 2048 (262144)
I0411 21:23:57.462761  6475 net.cpp:137] Memory required for data: 752420864
I0411 21:23:57.462767  6475 layer_factory.hpp:77] Creating layer drop1
I0411 21:23:57.462777  6475 net.cpp:84] Creating Layer drop1
I0411 21:23:57.462793  6475 net.cpp:406] drop1 <- fc1
I0411 21:23:57.462805  6475 net.cpp:367] drop1 -> fc1 (in-place)
I0411 21:23:57.462836  6475 net.cpp:122] Setting up drop1
I0411 21:23:57.462846  6475 net.cpp:129] Top shape: 128 2048 (262144)
I0411 21:23:57.462852  6475 net.cpp:137] Memory required for data: 753469440
I0411 21:23:57.462857  6475 layer_factory.hpp:77] Creating layer fc2
I0411 21:23:57.462868  6475 net.cpp:84] Creating Layer fc2
I0411 21:23:57.462874  6475 net.cpp:406] fc2 <- fc1
I0411 21:23:57.462884  6475 net.cpp:380] fc2 -> fc2
I0411 21:23:57.559993  6475 net.cpp:122] Setting up fc2
I0411 21:23:57.560019  6475 net.cpp:129] Top shape: 128 2048 (262144)
I0411 21:23:57.560022  6475 net.cpp:137] Memory required for data: 754518016
I0411 21:23:57.560034  6475 layer_factory.hpp:77] Creating layer relu7
I0411 21:23:57.560044  6475 net.cpp:84] Creating Layer relu7
I0411 21:23:57.560047  6475 net.cpp:406] relu7 <- fc2
I0411 21:23:57.560055  6475 net.cpp:367] relu7 -> fc2 (in-place)
I0411 21:23:57.560874  6475 net.cpp:122] Setting up relu7
I0411 21:23:57.560889  6475 net.cpp:129] Top shape: 128 2048 (262144)
I0411 21:23:57.560892  6475 net.cpp:137] Memory required for data: 755566592
I0411 21:23:57.560896  6475 layer_factory.hpp:77] Creating layer drop2
I0411 21:23:57.560905  6475 net.cpp:84] Creating Layer drop2
I0411 21:23:57.560909  6475 net.cpp:406] drop2 <- fc2
I0411 21:23:57.560914  6475 net.cpp:367] drop2 -> fc2 (in-place)
I0411 21:23:57.560947  6475 net.cpp:122] Setting up drop2
I0411 21:23:57.560957  6475 net.cpp:129] Top shape: 128 2048 (262144)
I0411 21:23:57.560962  6475 net.cpp:137] Memory required for data: 756615168
I0411 21:23:57.560967  6475 layer_factory.hpp:77] Creating layer fc3
I0411 21:23:57.560977  6475 net.cpp:84] Creating Layer fc3
I0411 21:23:57.560983  6475 net.cpp:406] fc3 <- fc2
I0411 21:23:57.560993  6475 net.cpp:380] fc3 -> fc3
I0411 21:23:57.564461  6475 net.cpp:122] Setting up fc3
I0411 21:23:57.564476  6475 net.cpp:129] Top shape: 128 63 (8064)
I0411 21:23:57.564481  6475 net.cpp:137] Memory required for data: 756647424
I0411 21:23:57.564487  6475 layer_factory.hpp:77] Creating layer error
I0411 21:23:57.564498  6475 pose_distance_layer.cpp:48] Size of ids: 0
I0411 21:23:57.564504  6475 net.cpp:84] Creating Layer error
I0411 21:23:57.564508  6475 net.cpp:406] error <- fc3
I0411 21:23:57.564515  6475 net.cpp:406] error <- pose
I0411 21:23:57.564522  6475 net.cpp:406] error <- center
I0411 21:23:57.564538  6475 net.cpp:380] error -> error
I0411 21:23:57.564551  6475 net.cpp:380] error -> output
I0411 21:23:57.564590  6475 net.cpp:122] Setting up error
I0411 21:23:57.564600  6475 net.cpp:129] Top shape: (1)
I0411 21:23:57.564607  6475 net.cpp:129] Top shape: 128 63 (8064)
I0411 21:23:57.564612  6475 net.cpp:137] Memory required for data: 756679684
I0411 21:23:57.564620  6475 net.cpp:200] error does not need backward computation.
I0411 21:23:57.564626  6475 net.cpp:200] fc3 does not need backward computation.
I0411 21:23:57.564632  6475 net.cpp:200] drop2 does not need backward computation.
I0411 21:23:57.564637  6475 net.cpp:200] relu7 does not need backward computation.
…
