…
    trans_dy: 10
    is_rotate: true
    rotate_deg: 180
    is_zoom: true
    zoom_scale: 0.1
  }
  pose_data_param {
    image_source: "/home/workspace/Datasets/MSRA/cvpr15_MSRAHandGestureDB/train_image_2.txt"
    label_source: "/home/workspace/Datasets/MSRA/cvpr15_MSRAHandGestureDB/train_label_2.txt"
    batch_size: 128
    shuffle: true
    new_height: 96
    new_width: 96
    root_folder: "/home/workspace/Datasets/MSRA/cvpr15_MSRAHandGestureDB/"
    point_num: 21
    point_dim: 3
    fx: 241.42
    fy: 241.42
    cube_length: 150
    dataset: MSRA
  }
}
layer {
  name: "conv0"
  type: "Convolution"
  bottom: "data"
  top: "conv0"
  param {
    lr_mult: 1
  }
  param {
    lr_mult: 2
  }
  convolution_param {
    num_output: 16
    pad: 1
    kernel_size: 3
    stride: 1
    weight_filler {
      type: "msra"
    }
    bias_filler {
      type: "constant"
    }
  }
}
layer {
  name: "relu0"
  type: "ReLU"
  bottom: "conv0"
  top: "conv0"
}
layer {
  name: "conv1"
  type: "Convolution"
  bottom: "conv0"
  top: "conv1"
  param {
    lr_mult: 1
  }
  param {
    lr_mult: 2
  }
  convolution_param {
    num_output: 16
    pad: 1
    kernel_size: 3
    stride: 1
    weight_filler {
      type: "msra"
    }
    bias_filler {
      type: "constant"
    }
  }
}
layer {
  name: "pool1"
  type: "Pooling"
  bottom: "conv1"
  top: "pool1"
  pooling_param {
    pool: MAX
    kernel_size: 2
    stride: 2
  }
}
layer {
  name: "relu1"
  type: "ReLU"
  bottom: "pool1"
  top: "pool1"
}
layer {
  name: "conv2_0"
  type: "Convolution"
  bottom: "pool1"
  top: "conv2_0"
  param {
    lr_mult: 1
  }
  param {
    lr_mult: 2
  }
  convolution_param {
    num_output: 32
    pad: 0
    kernel_size: 1
    stride: 1
    weight_filler {
      type: "msra"
    }
    bias_filler {
      type: "constant"
    }
  }
}
layer {
  name: "relu2_0"
  type: "ReLU"
  bottom: "conv2_0"
  top: "conv2_0"
}
layer {
  name: "conv2"
  type: "Convolution"
  bottom: "conv2_0"
  top: "conv2"
  param {
    lr_mult: 1
  }
  param {
    lr_mult: 2
  }
  convolution_param {
    num_output: 32
    pad: 1
    kernel_size: 3
    stride: 1
    weight_filler {
      type: "msra"
    }
    bias_filler {
      type: "constant"
    }
  }
}
layer {
  name: "relu2"
  type: "ReLU"
  bottom: "conv2"
  top: "conv2"
}
layer {
  name: "conv3"
  type: "Convolution"
  bottom: "conv2"
  top: "conv3"
  param {
    lr_mult: 1
  }
  param {
    lr_mult: 2
  }
  convolution_param {
    num_output: 32
    pad: 1
    kernel_size: 3
    stride: 1
    weight_filler {
      type: "msra"
    }
    bias_filler {
      type: "constant"
    }
  }
}
layer {
  name: "res1"
  type: "Eltwise"
  bottom: "conv2_0"
  bottom: "conv3"
  top: "res1"
}
layer {
  name: "pool2"
  type: "Pooling"
  bottom: "res1"
  top: "pool2"
  pooling_param {
    pool: MAX
    kernel_size: 2
    stride: 2
  }
}
layer {
  name: "relu3"
  type: "ReLU"
  bottom: "pool2"
  top: "pool2"
}
layer {
  name: "conv3_0"
  type: "Convolution"
  bottom: "pool2"
  top: "conv3_0"
  param {
    lr_mult: 1
  }
  param {
    lr_mult: 2
  }
  convolution_param {
    num_output: 64
    pad: 0
    kernel_size: 1
    stride: 1
    weight_filler {
      type: "msra"
    }
    bias_filler {
      type: "constant"
    }
  }
}
layer {
  name: "relu3_0"
  type: "ReLU"
  bottom: "conv3_0"
  top: "conv3_0"
}
layer {
  name: "conv4"
  type: "Convolution"
  bottom: "conv3_0"
  top: "conv4"
  param {
    lr_mult: 1
  }
  param {
    lr_mult: 2
  }
  convolution_param {
    num_output: 64
    pad: 1
    kernel_size: 3
    stride: 1
    weight_filler {
      type: "msra"
    }
    bias_filler {
      type: "constant"
    }
  }
}
layer {
  name: "relu4"
  type: "ReLU"
  bottom: "conv4"
  top: "conv4"
}
layer {
  name: "conv5"
  type: "Convolution"
  bottom: "conv4"
  top: "conv5"
  param {
    lr_mult: 1
  }
  param {
    lr_mult: 2
  }
  convolution_param {
    num_output: 64
    pad: 1
    kernel_size: 3
    stride: 1
    weight_filler {
      type: "msra"
    }
    bias_filler {
      type: "constant"
    }
  }
}
layer {
  name: "res2"
  type: "Eltwise"
  bottom: "conv3_0"
  bottom: "conv5"
  top: "res2"
}
layer {
  name: "pool3"
  type: "Pooling"
  bottom: "res2"
  top: "pool3"
  pooling_param {
    pool: MAX
    kernel_size: 2
    stride: 2
  }
}
layer {
  name: "relu5"
  type: "ReLU"
  bottom: "pool3"
  top: "pool3"
}
layer {
  name: "fc1"
  type: "InnerProduct"
  bottom: "pool3"
  top: "fc1"
  param {
    lr_mult: 1
  }
  param {
    lr_mult: 2
  }
  inner_product_param {
    num_output: 2048
    weight_filler {
      type: "gaussian"
      std: 0.001
    }
    bias_filler {
      type: "constant"
    }
  }
}
layer {
  name: "relu6"
  type: "ReLU"
  bottom: "fc1"
  top: "fc1"
}
layer {
  name: "drop1"
  type: "Dropout"
  bottom: "fc1"
  top: "fc1"
  dropout_param {
    dropout_ratio: 0.5
  }
}
layer {
  name: "fc2"
  type: "InnerProduct"
  bottom: "fc1"
  top: "fc2"
  param {
    lr_mult: 1
  }
  param {
    lr_mult: 2
  }
  inner_product_param {
    num_output: 2048
    weight_filler {
      type: "gaussian"
      std: 0.001
    }
    bias_filler {
      type: "constant"
    }
  }
}
layer {
  name: "relu7"
  type: "ReLU"
  bottom: "fc2"
  top: "fc2"
}
layer {
  name: "drop2"
  type: "Dropout"
  bottom: "fc2"
  top: "fc2"
  dropout_param {
    dropout_ratio: 0.5
  }
}
layer {
  name: "fc3"
  type: "InnerProduct"
  bottom: "fc2"
  top: "fc3"
  param {
    lr_mult: 1
  }
  param {
    lr_mult: 2
  }
  inner_product_param {
    num_output: 63
    weight_filler {
      type: "gaussian"
      std: 0.001
    }
    bias_filler {
      type: "constant"
    }
  }
}
layer {
  name: "loss"
  type: "SmoothL1Loss"
  bottom: "fc3"
  bottom: "pose"
  top: "loss"
  loss_weight: 1
  smooth_l1_loss_param {
    sigma: 10
  }
}
I0410 02:35:49.516675  3943 layer_factory.hpp:77] Creating layer data
I0410 02:35:49.516688  3943 net.cpp:84] Creating Layer data
I0410 02:35:49.516692  3943 net.cpp:380] data -> data
I0410 02:35:49.516701  3943 net.cpp:380] data -> pose
I0410 02:35:49.516759  3943 pose_data_layer.cpp:117] Opening file /home/workspace/Datasets/MSRA/cvpr15_MSRAHandGestureDB/train_image_2.txt
…
I0410 02:36:52.500555  3943 pose_data_layer.cpp:269] Loading 60001 image...
I0410 02:36:55.474890  3943 pose_data_layer.cpp:269] Loading 62001 image...
I0410 02:36:57.037135  3943 pose_data_layer.cpp:269] Loading 64001 image...
I0410 02:36:58.229655  3943 pose_data_layer.cpp:269] Loading 66001 image...
I0410 02:37:00.634766  3943 pose_data_layer.cpp:282] Shuffling data
I0410 02:37:00.635730  3943 pose_data_layer.cpp:287] A total of 67963 images.
I0410 02:37:00.636340  3943 pose_data_layer.cpp:329] output data size: 128,1,96,96
I0410 02:37:00.661653  3943 net.cpp:122] Setting up data
I0410 02:37:00.661676  3943 net.cpp:129] Top shape: 128 1 96 96 (1179648)
I0410 02:37:00.661681  3943 net.cpp:129] Top shape: 128 63 (8064)
I0410 02:37:00.661684  3943 net.cpp:137] Memory required for data: 4750848
I0410 02:37:00.661691  3943 layer_factory.hpp:77] Creating layer conv0
I0410 02:37:00.661715  3943 net.cpp:84] Creating Layer conv0
I0410 02:37:00.661720  3943 net.cpp:406] conv0 <- data
I0410 02:37:00.661727  3943 net.cpp:380] conv0 -> conv0
I0410 02:37:01.636456  3943 net.cpp:122] Setting up conv0
I0410 02:37:01.636481  3943 net.cpp:129] Top shape: 128 16 96 96 (18874368)
I0410 02:37:01.636483  3943 net.cpp:137] Memory required for data: 80248320
I0410 02:37:01.636497  3943 layer_factory.hpp:77] Creating layer relu0
I0410 02:37:01.636509  3943 net.cpp:84] Creating Layer relu0
I0410 02:37:01.636515  3943 net.cpp:406] relu0 <- conv0
I0410 02:37:01.636520  3943 net.cpp:367] relu0 -> conv0 (in-place)
I0410 02:37:01.642009  3943 net.cpp:122] Setting up relu0
I0410 02:37:01.642021  3943 net.cpp:129] Top shape: 128 16 96 96 (18874368)
I0410 02:37:01.642024  3943 net.cpp:137] Memory required for data: 155745792
I0410 02:37:01.642027  3943 layer_factory.hpp:77] Creating layer conv1
I0410 02:37:01.642038  3943 net.cpp:84] Creating Layer conv1
I0410 02:37:01.642045  3943 net.cpp:406] conv1 <- conv0
I0410 02:37:01.642056  3943 net.cpp:380] conv1 -> conv1
I0410 02:37:01.658931  3943 net.cpp:122] Setting up conv1
I0410 02:37:01.658958  3943 net.cpp:129] Top shape: 128 16 96 96 (18874368)
I0410 02:37:01.658963  3943 net.cpp:137] Memory required for data: 231243264
I0410 02:37:01.658979  3943 layer_factory.hpp:77] Creating layer pool1
I0410 02:37:01.659030  3943 net.cpp:84] Creating Layer pool1
I0410 02:37:01.659039  3943 net.cpp:406] pool1 <- conv1
I0410 02:37:01.659050  3943 net.cpp:380] pool1 -> pool1
I0410 02:37:01.659111  3943 net.cpp:122] Setting up pool1
I0410 02:37:01.659121  3943 net.cpp:129] Top shape: 128 16 48 48 (4718592)
I0410 02:37:01.659126  3943 net.cpp:137] Memory required for data: 250117632
I0410 02:37:01.659129  3943 layer_factory.hpp:77] Creating layer relu1
I0410 02:37:01.659140  3943 net.cpp:84] Creating Layer relu1
I0410 02:37:01.659150  3943 net.cpp:406] relu1 <- pool1
I0410 02:37:01.659159  3943 net.cpp:367] relu1 -> pool1 (in-place)
I0410 02:37:01.664608  3943 net.cpp:122] Setting up relu1
I0410 02:37:01.664641  3943 net.cpp:129] Top shape: 128 16 48 48 (4718592)
I0410 02:37:01.664656  3943 net.cpp:137] Memory required for data: 268992000
I0410 02:37:01.664670  3943 layer_factory.hpp:77] Creating layer conv2_0
I0410 02:37:01.664696  3943 net.cpp:84] Creating Layer conv2_0
I0410 02:37:01.664711  3943 net.cpp:406] conv2_0 <- pool1
I0410 02:37:01.664731  3943 net.cpp:380] conv2_0 -> conv2_0
I0410 02:37:01.676332  3943 net.cpp:122] Setting up conv2_0
I0410 02:37:01.676357  3943 net.cpp:129] Top shape: 128 32 48 48 (9437184)
I0410 02:37:01.676363  3943 net.cpp:137] Memory required for data: 306740736
I0410 02:37:01.676383  3943 layer_factory.hpp:77] Creating layer relu2_0
I0410 02:37:01.676401  3943 net.cpp:84] Creating Layer relu2_0
I0410 02:37:01.676410  3943 net.cpp:406] relu2_0 <- conv2_0
I0410 02:37:01.676419  3943 net.cpp:367] relu2_0 -> conv2_0 (in-place)
I0410 02:37:01.680033  3943 net.cpp:122] Setting up relu2_0
I0410 02:37:01.680050  3943 net.cpp:129] Top shape: 128 32 48 48 (9437184)
I0410 02:37:01.680055  3943 net.cpp:137] Memory required for data: 344489472
I0410 02:37:01.680061  3943 layer_factory.hpp:77] Creating layer conv2_0_relu2_0_0_split
I0410 02:37:01.680074  3943 net.cpp:84] Creating Layer conv2_0_relu2_0_0_split
I0410 02:37:01.680096  3943 net.cpp:406] conv2_0_relu2_0_0_split <- conv2_0
I0410 02:37:01.680107  3943 net.cpp:380] conv2_0_relu2_0_0_split -> conv2_0_relu2_0_0_split_0
I0410 02:37:01.680119  3943 net.cpp:380] conv2_0_relu2_0_0_split -> conv2_0_relu2_0_0_split_1
I0410 02:37:01.680176  3943 net.cpp:122] Setting up conv2_0_relu2_0_0_split
I0410 02:37:01.680184  3943 net.cpp:129] Top shape: 128 32 48 48 (9437184)
I0410 02:37:01.680191  3943 net.cpp:129] Top shape: 128 32 48 48 (9437184)
I0410 02:37:01.680197  3943 net.cpp:137] Memory required for data: 419986944
I0410 02:37:01.680202  3943 layer_factory.hpp:77] Creating layer conv2
I0410 02:37:01.680218  3943 net.cpp:84] Creating Layer conv2
I0410 02:37:01.680224  3943 net.cpp:406] conv2 <- conv2_0_relu2_0_0_split_0
I0410 02:37:01.680233  3943 net.cpp:380] conv2 -> conv2
I0410 02:37:01.693109  3943 net.cpp:122] Setting up conv2
I0410 02:37:01.693137  3943 net.cpp:129] Top shape: 128 32 48 48 (9437184)
I0410 02:37:01.693142  3943 net.cpp:137] Memory required for data: 457735680
I0410 02:37:01.693154  3943 layer_factory.hpp:77] Creating layer relu2
I0410 02:37:01.693166  3943 net.cpp:84] Creating Layer relu2
I0410 02:37:01.693197  3943 net.cpp:406] relu2 <- conv2
I0410 02:37:01.693208  3943 net.cpp:367] relu2 -> conv2 (in-place)
I0410 02:37:01.697046  3943 net.cpp:122] Setting up relu2
I0410 02:37:01.697060  3943 net.cpp:129] Top shape: 128 32 48 48 (9437184)
I0410 02:37:01.697065  3943 net.cpp:137] Memory required for data: 495484416
I0410 02:37:01.697070  3943 layer_factory.hpp:77] Creating layer conv3
I0410 02:37:01.697089  3943 net.cpp:84] Creating Layer conv3
I0410 02:37:01.697098  3943 net.cpp:406] conv3 <- conv2
I0410 02:37:01.697109  3943 net.cpp:380] conv3 -> conv3
I0410 02:37:01.716488  3943 net.cpp:122] Setting up conv3
I0410 02:37:01.716516  3943 net.cpp:129] Top shape: 128 32 48 48 (9437184)
I0410 02:37:01.716521  3943 net.cpp:137] Memory required for data: 533233152
I0410 02:37:01.716537  3943 layer_factory.hpp:77] Creating layer res1
I0410 02:37:01.716578  3943 net.cpp:84] Creating Layer res1
I0410 02:37:01.716584  3943 net.cpp:406] res1 <- conv2_0_relu2_0_0_split_1
I0410 02:37:01.716593  3943 net.cpp:406] res1 <- conv3
I0410 02:37:01.716601  3943 net.cpp:380] res1 -> res1
I0410 02:37:01.716645  3943 net.cpp:122] Setting up res1
I0410 02:37:01.716655  3943 net.cpp:129] Top shape: 128 32 48 48 (9437184)
I0410 02:37:01.716660  3943 net.cpp:137] Memory required for data: 570981888
I0410 02:37:01.716665  3943 layer_factory.hpp:77] Creating layer pool2
I0410 02:37:01.716693  3943 net.cpp:84] Creating Layer pool2
I0410 02:37:01.716701  3943 net.cpp:406] pool2 <- res1
I0410 02:37:01.716707  3943 net.cpp:380] pool2 -> pool2
I0410 02:37:01.716765  3943 net.cpp:122] Setting up pool2
I0410 02:37:01.716774  3943 net.cpp:129] Top shape: 128 32 24 24 (2359296)
I0410 02:37:01.716778  3943 net.cpp:137] Memory required for data: 580419072
I0410 02:37:01.716784  3943 layer_factory.hpp:77] Creating layer relu3
I0410 02:37:01.716800  3943 net.cpp:84] Creating Layer relu3
I0410 02:37:01.716806  3943 net.cpp:406] relu3 <- pool2
I0410 02:37:01.716814  3943 net.cpp:367] relu3 -> pool2 (in-place)
I0410 02:37:01.719761  3943 net.cpp:122] Setting up relu3
I0410 02:37:01.719775  3943 net.cpp:129] Top shape: 128 32 24 24 (2359296)
I0410 02:37:01.719780  3943 net.cpp:137] Memory required for data: 589856256
I0410 02:37:01.719785  3943 layer_factory.hpp:77] Creating layer conv3_0
I0410 02:37:01.719800  3943 net.cpp:84] Creating Layer conv3_0
I0410 02:37:01.719807  3943 net.cpp:406] conv3_0 <- pool2
I0410 02:37:01.719817  3943 net.cpp:380] conv3_0 -> conv3_0
I0410 02:37:01.729182  3943 net.cpp:122] Setting up conv3_0
I0410 02:37:01.729198  3943 net.cpp:129] Top shape: 128 64 24 24 (4718592)
I0410 02:37:01.729204  3943 net.cpp:137] Memory required for data: 608730624
I0410 02:37:01.729214  3943 layer_factory.hpp:77] Creating layer relu3_0
I0410 02:37:01.729233  3943 net.cpp:84] Creating Layer relu3_0
I0410 02:37:01.729238  3943 net.cpp:406] relu3_0 <- conv3_0
I0410 02:37:01.729245  3943 net.cpp:367] relu3_0 -> conv3_0 (in-place)
I0410 02:37:01.732599  3943 net.cpp:122] Setting up relu3_0
I0410 02:37:01.732625  3943 net.cpp:129] Top shape: 128 64 24 24 (4718592)
I0410 02:37:01.732630  3943 net.cpp:137] Memory required for data: 627604992
I0410 02:37:01.732635  3943 layer_factory.hpp:77] Creating layer conv3_0_relu3_0_0_split
I0410 02:37:01.732643  3943 net.cpp:84] Creating Layer conv3_0_relu3_0_0_split
I0410 02:37:01.732648  3943 net.cpp:406] conv3_0_relu3_0_0_split <- conv3_0
I0410 02:37:01.732656  3943 net.cpp:380] conv3_0_relu3_0_0_split -> conv3_0_relu3_0_0_split_0
I0410 02:37:01.732664  3943 net.cpp:380] conv3_0_relu3_0_0_split -> conv3_0_relu3_0_0_split_1
I0410 02:37:01.732720  3943 net.cpp:122] Setting up conv3_0_relu3_0_0_split
I0410 02:37:01.732728  3943 net.cpp:129] Top shape: 128 64 24 24 (4718592)
I0410 02:37:01.732733  3943 net.cpp:129] Top shape: 128 64 24 24 (4718592)
I0410 02:37:01.732738  3943 net.cpp:137] Memory required for data: 665353728
I0410 02:37:01.732741  3943 layer_factory.hpp:77] Creating layer conv4
I0410 02:37:01.732753  3943 net.cpp:84] Creating Layer conv4
I0410 02:37:01.732758  3943 net.cpp:406] conv4 <- conv3_0_relu3_0_0_split_0
I0410 02:37:01.732766  3943 net.cpp:380] conv4 -> conv4
I0410 02:37:01.745569  3943 net.cpp:122] Setting up conv4
I0410 02:37:01.745590  3943 net.cpp:129] Top shape: 128 64 24 24 (4718592)
I0410 02:37:01.745595  3943 net.cpp:137] Memory required for data: 684228096
I0410 02:37:01.745609  3943 layer_factory.hpp:77] Creating layer relu4
I0410 02:37:01.745620  3943 net.cpp:84] Creating Layer relu4
I0410 02:37:01.745627  3943 net.cpp:406] relu4 <- conv4
I0410 02:37:01.745635  3943 net.cpp:367] relu4 -> conv4 (in-place)
I0410 02:37:01.748566  3943 net.cpp:122] Setting up relu4
I0410 02:37:01.748579  3943 net.cpp:129] Top shape: 128 64 24 24 (4718592)
I0410 02:37:01.748581  3943 net.cpp:137] Memory required for data: 703102464
I0410 02:37:01.748586  3943 layer_factory.hpp:77] Creating layer conv5
I0410 02:37:01.748601  3943 net.cpp:84] Creating Layer conv5
I0410 02:37:01.748610  3943 net.cpp:406] conv5 <- conv4
I0410 02:37:01.748618  3943 net.cpp:380] conv5 -> conv5
I0410 02:37:01.760277  3943 net.cpp:122] Setting up conv5
I0410 02:37:01.760293  3943 net.cpp:129] Top shape: 128 64 24 24 (4718592)
I0410 02:37:01.760298  3943 net.cpp:137] Memory required for data: 721976832
I0410 02:37:01.760306  3943 layer_factory.hpp:77] Creating layer res2
I0410 02:37:01.760316  3943 net.cpp:84] Creating Layer res2
I0410 02:37:01.760321  3943 net.cpp:406] res2 <- conv3_0_relu3_0_0_split_1
I0410 02:37:01.760327  3943 net.cpp:406] res2 <- conv5
I0410 02:37:01.760334  3943 net.cpp:380] res2 -> res2
I0410 02:37:01.760368  3943 net.cpp:122] Setting up res2
I0410 02:37:01.760399  3943 net.cpp:129] Top shape: 128 64 24 24 (4718592)
I0410 02:37:01.760414  3943 net.cpp:137] Memory required for data: 740851200
I0410 02:37:01.760428  3943 layer_factory.hpp:77] Creating layer pool3
I0410 02:37:01.760447  3943 net.cpp:84] Creating Layer pool3
I0410 02:37:01.760462  3943 net.cpp:406] pool3 <- res2
I0410 02:37:01.760478  3943 net.cpp:380] pool3 -> pool3
I0410 02:37:01.760542  3943 net.cpp:122] Setting up pool3
I0410 02:37:01.760563  3943 net.cpp:129] Top shape: 128 64 12 12 (1179648)
I0410 02:37:01.760576  3943 net.cpp:137] Memory required for data: 745569792
I0410 02:37:01.760589  3943 layer_factory.hpp:77] Creating layer relu5
I0410 02:37:01.760605  3943 net.cpp:84] Creating Layer relu5
I0410 02:37:01.760619  3943 net.cpp:406] relu5 <- pool3
I0410 02:37:01.760637  3943 net.cpp:367] relu5 -> pool3 (in-place)
I0410 02:37:01.763906  3943 net.cpp:122] Setting up relu5
I0410 02:37:01.763945  3943 net.cpp:129] Top shape: 128 64 12 12 (1179648)
I0410 02:37:01.763962  3943 net.cpp:137] Memory required for data: 750288384
I0410 02:37:01.763976  3943 layer_factory.hpp:77] Creating layer fc1
I0410 02:37:01.763998  3943 net.cpp:84] Creating Layer fc1
I0410 02:37:01.764012  3943 net.cpp:406] fc1 <- pool3
I0410 02:37:01.764032  3943 net.cpp:380] fc1 -> fc1
I0410 02:37:02.227443  3943 net.cpp:122] Setting up fc1
I0410 02:37:02.227481  3943 net.cpp:129] Top shape: 128 2048 (262144)
I0410 02:37:02.227486  3943 net.cpp:137] Memory required for data: 751336960
I0410 02:37:02.227509  3943 layer_factory.hpp:77] Creating layer relu6
I0410 02:37:02.227540  3943 net.cpp:84] Creating Layer relu6
I0410 02:37:02.227548  3943 net.cpp:406] relu6 <- fc1
I0410 02:37:02.227560  3943 net.cpp:367] relu6 -> fc1 (in-place)
I0410 02:37:02.227800  3943 net.cpp:122] Setting up relu6
I0410 02:37:02.227810  3943 net.cpp:129] Top shape: 128 2048 (262144)
I0410 02:37:02.227815  3943 net.cpp:137] Memory required for data: 752385536
I0410 02:37:02.227820  3943 layer_factory.hpp:77] Creating layer drop1
I0410 02:37:02.227830  3943 net.cpp:84] Creating Layer drop1
I0410 02:37:02.227843  3943 net.cpp:406] drop1 <- fc1
I0410 02:37:02.227860  3943 net.cpp:367] drop1 -> fc1 (in-place)
I0410 02:37:02.227890  3943 net.cpp:122] Setting up drop1
I0410 02:37:02.227897  3943 net.cpp:129] Top shape: 128 2048 (262144)
I0410 02:37:02.227902  3943 net.cpp:137] Memory required for data: 753434112
I0410 02:37:02.227906  3943 layer_factory.hpp:77] Creating layer fc2
I0410 02:37:02.227916  3943 net.cpp:84] Creating Layer fc2
I0410 02:37:02.227921  3943 net.cpp:406] fc2 <- fc1
I0410 02:37:02.227927  3943 net.cpp:380] fc2 -> fc2
I0410 02:37:02.325352  3943 net.cpp:122] Setting up fc2
I0410 02:37:02.325383  3943 net.cpp:129] Top shape: 128 2048 (262144)
I0410 02:37:02.325389  3943 net.cpp:137] Memory required for data: 754482688
I0410 02:37:02.325402  3943 layer_factory.hpp:77] Creating layer relu7
I0410 02:37:02.325417  3943 net.cpp:84] Creating Layer relu7
I0410 02:37:02.325424  3943 net.cpp:406] relu7 <- fc2
I0410 02:37:02.325471  3943 net.cpp:367] relu7 -> fc2 (in-place)
I0410 02:37:02.326159  3943 net.cpp:122] Setting up relu7
I0410 02:37:02.326191  3943 net.cpp:129] Top shape: 128 2048 (262144)
I0410 02:37:02.326210  3943 net.cpp:137] Memory required for data: 755531264
I0410 02:37:02.326225  3943 layer_factory.hpp:77] Creating layer drop2
I0410 02:37:02.326242  3943 net.cpp:84] Creating Layer drop2
I0410 02:37:02.326256  3943 net.cpp:406] drop2 <- fc2
I0410 02:37:02.326279  3943 net.cpp:367] drop2 -> fc2 (in-place)
I0410 02:37:02.326329  3943 net.cpp:122] Setting up drop2
I0410 02:37:02.326349  3943 net.cpp:129] Top shape: 128 2048 (262144)
I0410 02:37:02.326362  3943 net.cpp:137] Memory required for data: 756579840
I0410 02:37:02.326375  3943 layer_factory.hpp:77] Creating layer fc3
I0410 02:37:02.326395  3943 net.cpp:84] Creating Layer fc3
I0410 02:37:02.326408  3943 net.cpp:406] fc3 <- fc2
I0410 02:37:02.326424  3943 net.cpp:380] fc3 -> fc3
I0410 02:37:02.331063  3943 net.cpp:122] Setting up fc3
I0410 02:37:02.331110  3943 net.cpp:129] Top shape: 128 63 (8064)
I0410 02:37:02.331127  3943 net.cpp:137] Memory required for data: 756612096
I0410 02:37:02.331148  3943 layer_factory.hpp:77] Creating layer loss
I0410 02:37:02.331174  3943 net.cpp:84] Creating Layer loss
I0410 02:37:02.331190  3943 net.cpp:406] loss <- fc3
I0410 02:37:02.331205  3943 net.cpp:406] loss <- pose
I0410 02:37:02.331220  3943 net.cpp:380] loss -> loss
I0410 02:37:02.331426  3943 net.cpp:122] Setting up loss
…
  transform_param {
    is_trans: false
    is_rotate: false
    is_zoom: false
  }
  pose_data_param {
    image_source: "/home/workspace/Datasets/MSRA/cvpr15_MSRAHandGestureDB/test_image_2.txt"
    label_source: "/home/workspace/Datasets/MSRA/cvpr15_MSRAHandGestureDB/test_label_2.txt"
    batch_size: 128
    shuffle: false
    new_height: 96
    new_width: 96
    root_folder: "/home/workspace/Datasets/MSRA/cvpr15_MSRAHandGestureDB/"
    point_num: 21
    point_dim: 3
    fx: 241.42
    fy: 241.42
    output_center: true
    cube_length: 150
    dataset: MSRA
  }
}
layer {
  name: "pose"
  type: "Slice"
  bottom: "label"
  top: "pose"
  top: "center"
  include {
    phase: TEST
  }
  slice_param {
    slice_dim: 1
    slice_point: 63
  }
}
layer {
  name: "conv0"
  type: "Convolution"
  bottom: "data"
  top: "conv0"
  param {
    lr_mult: 1
  }
  param {
    lr_mult: 2
  }
  convolution_param {
    num_output: 16
    pad: 1
    kernel_size: 3
    stride: 1
    weight_filler {
      type: "msra"
    }
    bias_filler {
      type: "constant"
    }
  }
}
layer {
  name: "relu0"
  type: "ReLU"
  bottom: "conv0"
  top: "conv0"
}
layer {
  name: "conv1"
  type: "Convolution"
  bottom: "conv0"
  top: "conv1"
  param {
    lr_mult: 1
  }
  param {
    lr_mult: 2
  }
  convolution_param {
    num_output: 16
    pad: 1
    kernel_size: 3
    stride: 1
    weight_filler {
      type: "msra"
    }
    bias_filler {
      type: "constant"
    }
  }
}
layer {
  name: "pool1"
  type: "Pooling"
  bottom: "conv1"
  top: "pool1"
  pooling_param {
    pool: MAX
    kernel_size: 2
    stride: 2
  }
}
layer {
  name: "relu1"
  type: "ReLU"
  bottom: "pool1"
  top: "pool1"
}
layer {
  name: "conv2_0"
  type: "Convolution"
  bottom: "pool1"
  top: "conv2_0"
  param {
    lr_mult: 1
  }
  param {
    lr_mult: 2
  }
  convolution_param {
    num_output: 32
    pad: 0
    kernel_size: 1
    stride: 1
    weight_filler {
      type: "msra"
    }
    bias_filler {
      type: "constant"
    }
  }
}
layer {
  name: "relu2_0"
  type: "ReLU"
  bottom: "conv2_0"
  top: "conv2_0"
}
layer {
  name: "conv2"
  type: "Convolution"
  bottom: "conv2_0"
  top: "conv2"
  param {
    lr_mult: 1
  }
  param {
    lr_mult: 2
  }
  convolution_param {
    num_output: 32
    pad: 1
    kernel_size: 3
    stride: 1
    weight_filler {
      type: "msra"
    }
    bias_filler {
      type: "constant"
    }
  }
}
layer {
  name: "relu2"
  type: "ReLU"
  bottom: "conv2"
  top: "conv2"
}
layer {
  name: "conv3"
  type: "Convolution"
  bottom: "conv2"
  top: "conv3"
  param {
    lr_mult: 1
  }
  param {
    lr_mult: 2
  }
  convolution_param {
    num_output: 32
    pad: 1
    kernel_size: 3
    stride: 1
    weight_filler {
      type: "msra"
    }
    bias_filler {
      type: "constant"
    }
  }
}
layer {
  name: "res1"
  type: "Eltwise"
  bottom: "conv2_0"
  bottom: "conv3"
  top: "res1"
}
layer {
  name: "pool2"
  type: "Pooling"
  bottom: "res1"
  top: "pool2"
  pooling_param {
    pool: MAX
    kernel_size: 2
    stride: 2
  }
}
layer {
  name: "relu3"
  type: "ReLU"
  bottom: "pool2"
  top: "pool2"
}
layer {
  name: "conv3_0"
  type: "Convolution"
  bottom: "pool2"
  top: "conv3_0"
  param {
    lr_mult: 1
  }
  param {
    lr_mult: 2
  }
  convolution_param {
    num_output: 64
    pad: 0
    kernel_size: 1
    stride: 1
    weight_filler {
      type: "msra"
    }
    bias_filler {
      type: "constant"
    }
  }
}
layer {
  name: "relu3_0"
  type: "ReLU"
  bottom: "conv3_0"
  top: "conv3_0"
}
layer {
  name: "conv4"
  type: "Convolution"
  bottom: "conv3_0"
  top: "conv4"
  param {
    lr_mult: 1
  }
  param {
    lr_mult: 2
  }
  convolution_param {
    num_output: 64
    pad: 1
    kernel_size: 3
    stride: 1
    weight_filler {
      type: "msra"
    }
    bias_filler {
      type: "constant"
    }
  }
}
layer {
  name: "relu4"
  type: "ReLU"
  bottom: "conv4"
  top: "conv4"
}
layer {
  name: "conv5"
  type: "Convolution"
  bottom: "conv4"
  top: "conv5"
  param {
    lr_mult: 1
  }
  param {
    lr_mult: 2
  }
  convolution_param {
    num_output: 64
    pad: 1
    kernel_size: 3
    stride: 1
    weight_filler {
      type: "msra"
    }
    bias_filler {
      type: "constant"
    }
  }
}
layer {
  name: "res2"
  type: "Eltwise"
  bottom: "conv3_0"
  bottom: "conv5"
  top: "res2"
}
layer {
  name: "pool3"
  type: "Pooling"
  bottom: "res2"
  top: "pool3"
  pooling_param {
    pool: MAX
    kernel_size: 2
    stride: 2
  }
}
layer {
  name: "relu5"
  type: "ReLU"
  bottom: "pool3"
  top: "pool3"
}
layer {
  name: "fc1"
  type: "InnerProduct"
  bottom: "pool3"
  top: "fc1"
  param {
    lr_mult: 1
  }
  param {
    lr_mult: 2
  }
  inner_product_param {
    num_output: 2048
    weight_filler {
      type: "gaussian"
      std: 0.001
    }
    bias_filler {
      type: "constant"
    }
  }
}
layer {
  name: "relu6"
  type: "ReLU"
  bottom: "fc1"
  top: "fc1"
}
layer {
  name: "drop1"
  type: "Dropout"
  bottom: "fc1"
  top: "fc1"
  dropout_param {
    dropout_ratio: 0.5
  }
}
layer {
  name: "fc2"
  type: "InnerProduct"
  bottom: "fc1"
  top: "fc2"
  param {
    lr_mult: 1
  }
  param {
    lr_mult: 2
  }
  inner_product_param {
    num_output: 2048
    weight_filler {
      type: "gaussian"
      std: 0.001
    }
    bias_filler {
      type: "constant"
    }
  }
}
layer {
  name: "relu7"
  type: "ReLU"
  bottom: "fc2"
  top: "fc2"
}
layer {
  name: "drop2"
  type: "Dropout"
  bottom: "fc2"
  top: "fc2"
  dropout_param {
    dropout_ratio: 0.5
  }
}
layer {
  name: "fc3"
  type: "InnerProduct"
  bottom: "fc2"
  top: "fc3"
  param {
    lr_mult: 1
  }
  param {
    lr_mult: 2
  }
  inner_product_param {
    num_output: 63
    weight_filler {
      type: "gaussian"
      std: 0.001
    }
    bias_filler {
      type: "constant"
    }
  }
}
layer {
  name: "loss"
  type: "SmoothL1Loss"
  bottom: "fc3"
  bottom: "pose"
  top: "loss"
  loss_weight: 1
  smooth_l1_loss_param {
    sigma: 10
  }
}
layer {
  name: "distance"
  type: "PoseDistance"
  bottom: "fc3"
  bottom: "pose"
  bottom: "center"
  top: "distance"
  loss_weight: 0
  include {
    phase: TEST
  }
  pose_distance_param {
    fx: 241.42
    fy: 241.42
    ux: 160
    uy: 120
    cube_length: 150
  }
}
I0410 02:37:02.396001  3943 layer_factory.hpp:77] Creating layer data
I0410 02:37:02.396026  3943 net.cpp:84] Creating Layer data
I0410 02:37:02.396036  3943 net.cpp:380] data -> data
I0410 02:37:02.396052  3943 net.cpp:380] data -> label
I0410 02:37:02.396071  3943 pose_data_layer.cpp:117] Opening file /home/workspace/Datasets/MSRA/cvpr15_MSRAHandGestureDB/test_image_2.txt
I0410 02:37:02.396107  3943 pose_data_layer.cpp:119] Opening file /home/workspace/Datasets/MSRA/cvpr15_MSRAHandGestureDB/test_label_2.txt
I0410 02:37:02.705617  3943 pose_data_layer.cpp:269] Loading 38 image...
I0410 02:37:08.450551  3943 pose_data_layer.cpp:269] Loading 2038 image...
I0410 02:37:15.713739  3943 pose_data_layer.cpp:269] Loading 4038 image...
I0410 02:37:23.148409  3943 pose_data_layer.cpp:269] Loading 6038 image...
I0410 02:37:27.020561  3943 pose_data_layer.cpp:269] Loading 8038 image...
I0410 02:37:27.517531  3943 pose_data_layer.cpp:287] A total of 8412 images.
I0410 02:37:27.517760  3943 pose_data_layer.cpp:329] output data size: 128,1,96,96
I0410 02:37:27.655445  3943 net.cpp:122] Setting up data
I0410 02:37:27.655481  3943 net.cpp:129] Top shape: 128 1 96 96 (1179648)
I0410 02:37:27.655490  3943 net.cpp:129] Top shape: 128 66 (8448)
I0410 02:37:27.655495  3943 net.cpp:137] Memory required for data: 4752384
I0410 02:37:27.655505  3943 layer_factory.hpp:77] Creating layer pose
I0410 02:37:27.737232  3943 net.cpp:84] Creating Layer pose
I0410 02:37:27.737257  3943 net.cpp:406] pose <- label
I0410 02:37:27.737274  3943 net.cpp:380] pose -> pose
I0410 02:37:27.737293  3943 net.cpp:380] pose -> center
I0410 02:37:27.737402  3943 net.cpp:122] Setting up pose
I0410 02:37:27.737414  3943 net.cpp:129] Top shape: 128 63 (8064)
I0410 02:37:27.737431  3943 net.cpp:129] Top shape: 128 3 (384)
I0410 02:37:27.737435  3943 net.cpp:137] Memory required for data: 4786176
I0410 02:37:27.737440  3943 layer_factory.hpp:77] Creating layer pose_pose_0_split
I0410 02:37:27.737452  3943 net.cpp:84] Creating Layer pose_pose_0_split
I0410 02:37:27.737460  3943 net.cpp:406] pose_pose_0_split <- pose
I0410 02:37:27.737468  3943 net.cpp:380] pose_pose_0_split -> pose_pose_0_split_0
I0410 02:37:27.737475  3943 net.cpp:380] pose_pose_0_split -> pose_pose_0_split_1
I0410 02:37:27.737542  3943 net.cpp:122] Setting up pose_pose_0_split
I0410 02:37:27.737552  3943 net.cpp:129] Top shape: 128 63 (8064)
I0410 02:37:27.737557  3943 net.cpp:129] Top shape: 128 63 (8064)
I0410 02:37:27.737561  3943 net.cpp:137] Memory required for data: 4850688
I0410 02:37:27.737565  3943 layer_factory.hpp:77] Creating layer conv0
I0410 02:37:27.753249  3943 net.cpp:84] Creating Layer conv0
I0410 02:37:27.753271  3943 net.cpp:406] conv0 <- data
I0410 02:37:27.753284  3943 net.cpp:380] conv0 -> conv0
I0410 02:37:27.767114  3943 net.cpp:122] Setting up conv0
I0410 02:37:27.767146  3943 net.cpp:129] Top shape: 128 16 96 96 (18874368)
I0410 02:37:27.767153  3943 net.cpp:137] Memory required for data: 80348160
I0410 02:37:27.767169  3943 layer_factory.hpp:77] Creating layer relu0
I0410 02:37:27.767181  3943 net.cpp:84] Creating Layer relu0
I0410 02:37:27.767187  3943 net.cpp:406] relu0 <- conv0
I0410 02:37:27.767195  3943 net.cpp:367] relu0 -> conv0 (in-place)
I0410 02:37:27.767827  3943 net.cpp:122] Setting up relu0
I0410 02:37:27.767839  3943 net.cpp:129] Top shape: 128 16 96 96 (18874368)
I0410 02:37:27.767844  3943 net.cpp:137] Memory required for data: 155845632
I0410 02:37:27.767849  3943 layer_factory.hpp:77] Creating layer conv1
I0410 02:37:27.767863  3943 net.cpp:84] Creating Layer conv1
I0410 02:37:27.767868  3943 net.cpp:406] conv1 <- conv0
I0410 02:37:27.767876  3943 net.cpp:380] conv1 -> conv1
I0410 02:37:27.783675  3943 net.cpp:122] Setting up conv1
I0410 02:37:27.783697  3943 net.cpp:129] Top shape: 128 16 96 96 (18874368)
I0410 02:37:27.783702  3943 net.cpp:137] Memory required for data: 231343104
I0410 02:37:27.783718  3943 layer_factory.hpp:77] Creating layer pool1
I0410 02:37:27.783741  3943 net.cpp:84] Creating Layer pool1
I0410 02:37:27.783751  3943 net.cpp:406] pool1 <- conv1
I0410 02:37:27.783771  3943 net.cpp:380] pool1 -> pool1
I0410 02:37:27.865301  3943 net.cpp:122] Setting up pool1
I0410 02:37:27.865326  3943 net.cpp:129] Top shape: 128 16 48 48 (4718592)
I0410 02:37:27.865330  3943 net.cpp:137] Memory required for data: 250217472
I0410 02:37:27.865334  3943 layer_factory.hpp:77] Creating layer relu1
I0410 02:37:27.865344  3943 net.cpp:84] Creating Layer relu1
I0410 02:37:27.865348  3943 net.cpp:406] relu1 <- pool1
I0410 02:37:27.865355  3943 net.cpp:367] relu1 -> pool1 (in-place)
I0410 02:37:27.865612  3943 net.cpp:122] Setting up relu1
I0410 02:37:27.865623  3943 net.cpp:129] Top shape: 128 16 48 48 (4718592)
I0410 02:37:27.865626  3943 net.cpp:137] Memory required for data: 269091840
I0410 02:37:27.865629  3943 layer_factory.hpp:77] Creating layer conv2_0
I0410 02:37:27.865645  3943 net.cpp:84] Creating Layer conv2_0
I0410 02:37:27.865650  3943 net.cpp:406] conv2_0 <- pool1
I0410 02:37:27.865658  3943 net.cpp:380] conv2_0 -> conv2_0
I0410 02:37:27.877727  3943 net.cpp:122] Setting up conv2_0
I0410 02:37:27.877760  3943 net.cpp:129] Top shape: 128 32 48 48 (9437184)
I0410 02:37:27.877768  3943 net.cpp:137] Memory required for data: 306840576
I0410 02:37:27.877789  3943 layer_factory.hpp:77] Creating layer relu2_0
I0410 02:37:27.877820  3943 net.cpp:84] Creating Layer relu2_0
I0410 02:37:27.877851  3943 net.cpp:406] relu2_0 <- conv2_0
I0410 02:37:27.877874  3943 net.cpp:367] relu2_0 -> conv2_0 (in-place)
I0410 02:37:27.882457  3943 net.cpp:122] Setting up relu2_0
I0410 02:37:27.882473  3943 net.cpp:129] Top shape: 128 32 48 48 (9437184)
I0410 02:37:27.882479  3943 net.cpp:137] Memory required for data: 344589312
I0410 02:37:27.882486  3943 layer_factory.hpp:77] Creating layer conv2_0_relu2_0_0_split
I0410 02:37:27.882496  3943 net.cpp:84] Creating Layer conv2_0_relu2_0_0_split
I0410 02:37:27.882503  3943 net.cpp:406] conv2_0_relu2_0_0_split <- conv2_0
I0410 02:37:27.882511  3943 net.cpp:380] conv2_0_relu2_0_0_split -> conv2_0_relu2_0_0_split_0
I0410 02:37:27.882521  3943 net.cpp:380] conv2_0_relu2_0_0_split -> conv2_0_relu2_0_0_split_1
I0410 02:37:27.882596  3943 net.cpp:122] Setting up conv2_0_relu2_0_0_split
I0410 02:37:27.882609  3943 net.cpp:129] Top shape: 128 32 48 48 (9437184)
I0410 02:37:27.882616  3943 net.cpp:129] Top shape: 128 32 48 48 (9437184)
I0410 02:37:27.882619  3943 net.cpp:137] Memory required for data: 420086784
I0410 02:37:27.882624  3943 layer_factory.hpp:77] Creating layer conv2
I0410 02:37:27.882640  3943 net.cpp:84] Creating Layer conv2
I0410 02:37:27.882645  3943 net.cpp:406] conv2 <- conv2_0_relu2_0_0_split_0
I0410 02:37:27.882654  3943 net.cpp:380] conv2 -> conv2
I0410 02:37:27.900841  3943 net.cpp:122] Setting up conv2
I0410 02:37:27.900879  3943 net.cpp:129] Top shape: 128 32 48 48 (9437184)
I0410 02:37:27.900887  3943 net.cpp:137] Memory required for data: 457835520
I0410 02:37:27.900898  3943 layer_factory.hpp:77] Creating layer relu2
I0410 02:37:27.900912  3943 net.cpp:84] Creating Layer relu2
I0410 02:37:27.900919  3943 net.cpp:406] relu2 <- conv2
I0410 02:37:27.900930  3943 net.cpp:367] relu2 -> conv2 (in-place)
I0410 02:37:27.907510  3943 net.cpp:122] Setting up relu2
I0410 02:37:27.907524  3943 net.cpp:129] Top shape: 128 32 48 48 (9437184)
I0410 02:37:27.907531  3943 net.cpp:137] Memory required for data: 495584256
I0410 02:37:27.907536  3943 layer_factory.hpp:77] Creating layer conv3
I0410 02:37:27.907552  3943 net.cpp:84] Creating Layer conv3
I0410 02:37:27.907558  3943 net.cpp:406] conv3 <- conv2
I0410 02:37:27.907568  3943 net.cpp:380] conv3 -> conv3
I0410 02:37:27.925158  3943 net.cpp:122] Setting up conv3
I0410 02:37:27.925174  3943 net.cpp:129] Top shape: 128 32 48 48 (9437184)
I0410 02:37:27.925180  3943 net.cpp:137] Memory required for data: 533332992
I0410 02:37:27.925197  3943 layer_factory.hpp:77] Creating layer res1
I0410 02:37:27.925812  3943 net.cpp:84] Creating Layer res1
I0410 02:37:27.925825  3943 net.cpp:406] res1 <- conv2_0_relu2_0_0_split_1
I0410 02:37:27.925835  3943 net.cpp:406] res1 <- conv3
I0410 02:37:27.925845  3943 net.cpp:380] res1 -> res1
I0410 02:37:27.925890  3943 net.cpp:122] Setting up res1
I0410 02:37:27.925900  3943 net.cpp:129] Top shape: 128 32 48 48 (9437184)
I0410 02:37:27.925905  3943 net.cpp:137] Memory required for data: 571081728
I0410 02:37:27.925911  3943 layer_factory.hpp:77] Creating layer pool2
I0410 02:37:27.925921  3943 net.cpp:84] Creating Layer pool2
I0410 02:37:27.925927  3943 net.cpp:406] pool2 <- res1
I0410 02:37:27.925935  3943 net.cpp:380] pool2 -> pool2
I0410 02:37:27.925981  3943 net.cpp:122] Setting up pool2
I0410 02:37:27.925990  3943 net.cpp:129] Top shape: 128 32 24 24 (2359296)
I0410 02:37:27.925997  3943 net.cpp:137] Memory required for data: 580518912
I0410 02:37:27.926002  3943 layer_factory.hpp:77] Creating layer relu3
I0410 02:37:27.926013  3943 net.cpp:84] Creating Layer relu3
I0410 02:37:27.926018  3943 net.cpp:406] relu3 <- pool2
I0410 02:37:27.926026  3943 net.cpp:367] relu3 -> pool2 (in-place)
I0410 02:37:27.930583  3943 net.cpp:122] Setting up relu3
I0410 02:37:27.930598  3943 net.cpp:129] Top shape: 128 32 24 24 (2359296)
I0410 02:37:27.930604  3943 net.cpp:137] Memory required for data: 589956096
I0410 02:37:27.930609  3943 layer_factory.hpp:77] Creating layer conv3_0
I0410 02:37:27.930626  3943 net.cpp:84] Creating Layer conv3_0
I0410 02:37:27.930631  3943 net.cpp:406] conv3_0 <- pool2
I0410 02:37:27.930641  3943 net.cpp:380] conv3_0 -> conv3_0
I0410 02:37:27.947129  3943 net.cpp:122] Setting up conv3_0
I0410 02:37:27.947150  3943 net.cpp:129] Top shape: 128 64 24 24 (4718592)
I0410 02:37:27.947154  3943 net.cpp:137] Memory required for data: 608830464
I0410 02:37:27.947162  3943 layer_factory.hpp:77] Creating layer relu3_0
I0410 02:37:27.947172  3943 net.cpp:84] Creating Layer relu3_0
I0410 02:37:27.947180  3943 net.cpp:406] relu3_0 <- conv3_0
I0410 02:37:27.947187  3943 net.cpp:367] relu3_0 -> conv3_0 (in-place)
I0410 02:37:27.952718  3943 net.cpp:122] Setting up relu3_0
I0410 02:37:27.952733  3943 net.cpp:129] Top shape: 128 64 24 24 (4718592)
I0410 02:37:27.952739  3943 net.cpp:137] Memory required for data: 627704832
I0410 02:37:27.952744  3943 layer_factory.hpp:77] Creating layer conv3_0_relu3_0_0_split
I0410 02:37:27.952752  3943 net.cpp:84] Creating Layer conv3_0_relu3_0_0_split
I0410 02:37:27.952759  3943 net.cpp:406] conv3_0_relu3_0_0_split <- conv3_0
I0410 02:37:27.952769  3943 net.cpp:380] conv3_0_relu3_0_0_split -> conv3_0_relu3_0_0_split_0
I0410 02:37:27.952780  3943 net.cpp:380] conv3_0_relu3_0_0_split -> conv3_0_relu3_0_0_split_1
I0410 02:37:27.952827  3943 net.cpp:122] Setting up conv3_0_relu3_0_0_split
I0410 02:37:27.952836  3943 net.cpp:129] Top shape: 128 64 24 24 (4718592)
I0410 02:37:27.952843  3943 net.cpp:129] Top shape: 128 64 24 24 (4718592)
I0410 02:37:27.952849  3943 net.cpp:137] Memory required for data: 665453568
I0410 02:37:27.952872  3943 layer_factory.hpp:77] Creating layer conv4
I0410 02:37:27.952888  3943 net.cpp:84] Creating Layer conv4
I0410 02:37:27.952893  3943 net.cpp:406] conv4 <- conv3_0_relu3_0_0_split_0
I0410 02:37:27.952903  3943 net.cpp:380] conv4 -> conv4
I0410 02:37:27.970705  3943 net.cpp:122] Setting up conv4
I0410 02:37:27.970731  3943 net.cpp:129] Top shape: 128 64 24 24 (4718592)
I0410 02:37:27.970736  3943 net.cpp:137] Memory required for data: 684327936
I0410 02:37:27.970748  3943 layer_factory.hpp:77] Creating layer relu4
I0410 02:37:27.970760  3943 net.cpp:84] Creating Layer relu4
I0410 02:37:27.970767  3943 net.cpp:406] relu4 <- conv4
I0410 02:37:27.970777  3943 net.cpp:367] relu4 -> conv4 (in-place)
I0410 02:37:27.976516  3943 net.cpp:122] Setting up relu4
I0410 02:37:27.976531  3943 net.cpp:129] Top shape: 128 64 24 24 (4718592)
I0410 02:37:27.976536  3943 net.cpp:137] Memory required for data: 703202304
I0410 02:37:27.976541  3943 layer_factory.hpp:77] Creating layer conv5
I0410 02:37:27.976559  3943 net.cpp:84] Creating Layer conv5
I0410 02:37:27.976570  3943 net.cpp:406] conv5 <- conv4
I0410 02:37:27.976580  3943 net.cpp:380] conv5 -> conv5
I0410 02:37:27.996794  3943 net.cpp:122] Setting up conv5
I0410 02:37:27.996821  3943 net.cpp:129] Top shape: 128 64 24 24 (4718592)
I0410 02:37:27.996826  3943 net.cpp:137] Memory required for data: 722076672
I0410 02:37:27.996839  3943 layer_factory.hpp:77] Creating layer res2
I0410 02:37:27.996883  3943 net.cpp:84] Creating Layer res2
I0410 02:37:27.996893  3943 net.cpp:406] res2 <- conv3_0_relu3_0_0_split_1
I0410 02:37:27.996902  3943 net.cpp:406] res2 <- conv5
I0410 02:37:27.996927  3943 net.cpp:380] res2 -> res2
I0410 02:37:27.996971  3943 net.cpp:122] Setting up res2
I0410 02:37:27.996982  3943 net.cpp:129] Top shape: 128 64 24 24 (4718592)
I0410 02:37:27.996987  3943 net.cpp:137] Memory required for data: 740951040
I0410 02:37:27.997009  3943 layer_factory.hpp:77] Creating layer pool3
I0410 02:37:27.997020  3943 net.cpp:84] Creating Layer pool3
I0410 02:37:27.997026  3943 net.cpp:406] pool3 <- res2
I0410 02:37:27.997036  3943 net.cpp:380] pool3 -> pool3
I0410 02:37:27.997084  3943 net.cpp:122] Setting up pool3
I0410 02:37:27.997093  3943 net.cpp:129] Top shape: 128 64 12 12 (1179648)
I0410 02:37:27.997098  3943 net.cpp:137] Memory required for data: 745669632
I0410 02:37:27.997103  3943 layer_factory.hpp:77] Creating layer relu5
I0410 02:37:27.997112  3943 net.cpp:84] Creating Layer relu5
I0410 02:37:27.997118  3943 net.cpp:406] relu5 <- pool3
I0410 02:37:27.997126  3943 net.cpp:367] relu5 -> pool3 (in-place)
I0410 02:37:28.001163  3943 net.cpp:122] Setting up relu5
I0410 02:37:28.001178  3943 net.cpp:129] Top shape: 128 64 12 12 (1179648)
I0410 02:37:28.001183  3943 net.cpp:137] Memory required for data: 750388224
I0410 02:37:28.001188  3943 layer_factory.hpp:77] Creating layer fc1
I0410 02:37:28.001201  3943 net.cpp:84] Creating Layer fc1
I0410 02:37:28.001224  3943 net.cpp:406] fc1 <- pool3
I0410 02:37:28.001235  3943 net.cpp:380] fc1 -> fc1
I0410 02:37:28.522127  3943 net.cpp:122] Setting up fc1
I0410 02:37:28.522187  3943 net.cpp:129] Top shape: 128 2048 (262144)
I0410 02:37:28.522203  3943 net.cpp:137] Memory required for data: 751436800
I0410 02:37:28.522235  3943 layer_factory.hpp:77] Creating layer relu6
I0410 02:37:28.522258  3943 net.cpp:84] Creating Layer relu6
I0410 02:37:28.522274  3943 net.cpp:406] relu6 <- fc1
I0410 02:37:28.522289  3943 net.cpp:367] relu6 -> fc1 (in-place)
I0410 02:37:28.522619  3943 net.cpp:122] Setting up relu6
I0410 02:37:28.522644  3943 net.cpp:129] Top shape: 128 2048 (262144)
I0410 02:37:28.522660  3943 net.cpp:137] Memory required for data: 752485376
I0410 02:37:28.522675  3943 layer_factory.hpp:77] Creating layer drop1
I0410 02:37:28.522696  3943 net.cpp:84] Creating Layer drop1
I0410 02:37:28.522711  3943 net.cpp:406] drop1 <- fc1
I0410 02:37:28.522727  3943 net.cpp:367] drop1 -> fc1 (in-place)
I0410 02:37:28.522771  3943 net.cpp:122] Setting up drop1
I0410 02:37:28.522791  3943 net.cpp:129] Top shape: 128 2048 (262144)
I0410 02:37:28.522804  3943 net.cpp:137] Memory required for data: 753533952
I0410 02:37:28.522819  3943 layer_factory.hpp:77] Creating layer fc2
I0410 02:37:28.522836  3943 net.cpp:84] Creating Layer fc2
I0410 02:37:28.522850  3943 net.cpp:406] fc2 <- fc1
I0410 02:37:28.522867  3943 net.cpp:380] fc2 -> fc2
I0410 02:37:28.616616  3943 net.cpp:122] Setting up fc2
I0410 02:37:28.616642  3943 net.cpp:129] Top shape: 128 2048 (262144)
I0410 02:37:28.616645  3943 net.cpp:137] Memory required for data: 754582528
I0410 02:37:28.616655  3943 layer_factory.hpp:77] Creating layer relu7
I0410 02:37:28.616664  3943 net.cpp:84] Creating Layer relu7
I0410 02:37:28.616669  3943 net.cpp:406] relu7 <- fc2
I0410 02:37:28.616675  3943 net.cpp:367] relu7 -> fc2 (in-place)
I0410 02:37:28.617235  3943 net.cpp:122] Setting up relu7
I0410 02:37:28.617247  3943 net.cpp:129] Top shape: 128 2048 (262144)
I0410 02:37:28.617250  3943 net.cpp:137] Memory required for data: 755631104
I0410 02:37:28.617254  3943 layer_factory.hpp:77] Creating layer drop2
I0410 02:37:28.617259  3943 net.cpp:84] Creating Layer drop2
I0410 02:37:28.617264  3943 net.cpp:406] drop2 <- fc2
I0410 02:37:28.617269  3943 net.cpp:367] drop2 -> fc2 (in-place)
I0410 02:37:28.617290  3943 net.cpp:122] Setting up drop2
I0410 02:37:28.617296  3943 net.cpp:129] Top shape: 128 2048 (262144)
I0410 02:37:28.617298  3943 net.cpp:137] Memory required for data: 756679680
I0410 02:37:28.617301  3943 layer_factory.hpp:77] Creating layer fc3
I0410 02:37:28.617313  3943 net.cpp:84] Creating Layer fc3
I0410 02:37:28.617316  3943 net.cpp:406] fc3 <- fc2
I0410 02:37:28.617321  3943 net.cpp:380] fc3 -> fc3
I0410 02:37:28.620164  3943 net.cpp:122] Setting up fc3
I0410 02:37:28.620172  3943 net.cpp:129] Top shape: 128 63 (8064)
I0410 02:37:28.620175  3943 net.cpp:137] Memory required for data: 756711936
I0410 02:37:28.620180  3943 layer_factory.hpp:77] Creating layer fc3_fc3_0_split
I0410 02:37:28.620187  3943 net.cpp:84] Creating Layer fc3_fc3_0_split
I0410 02:37:28.620190  3943 net.cpp:406] fc3_fc3_0_split <- fc3
I0410 02:37:28.620194  3943 net.cpp:380] fc3_fc3_0_split -> fc3_fc3_0_split_0
I0410 02:37:28.620200  3943 net.cpp:380] fc3_fc3_0_split -> fc3_fc3_0_split_1
I0410 02:37:28.620231  3943 net.cpp:122] Setting up fc3_fc3_0_split
I0410 02:37:28.620237  3943 net.cpp:129] Top shape: 128 63 (8064)
I0410 02:37:28.620241  3943 net.cpp:129] Top shape: 128 63 (8064)
I0410 02:37:28.620244  3943 net.cpp:137] Memory required for data: 756776448
I0410 02:37:28.620246  3943 layer_factory.hpp:77] Creating layer loss
I0410 02:37:28.623126  3943 net.cpp:84] Creating Layer loss
I0410 02:37:28.623140  3943 net.cpp:406] loss <- fc3_fc3_0_split_0
I0410 02:37:28.623155  3943 net.cpp:406] loss <- pose_pose_0_split_0
I0410 02:37:28.623165  3943 net.cpp:380] loss -> loss
…
