…
    trans_dy: 10
    is_rotate: true
    rotate_deg: 180
    is_zoom: true
    zoom_scale: 0.1
  }
  pose_data_param {
    image_source: "/home/workspace/Datasets/MSRA/cvpr15_MSRAHandGestureDB/train_image_7.txt"
    label_source: "/home/workspace/Datasets/MSRA/cvpr15_MSRAHandGestureDB/train_label_7.txt"
    batch_size: 128
    shuffle: true
    new_height: 96
    new_width: 96
    root_folder: "/home/workspace/Datasets/MSRA/cvpr15_MSRAHandGestureDB/"
    point_num: 21
    point_dim: 3
    fx: 241.42
    fy: 241.42
    cube_length: 150
    dataset: MSRA
  }
}
layer {
  name: "conv0"
  type: "Convolution"
  bottom: "data"
  top: "conv0"
  param {
    lr_mult: 1
  }
  param {
    lr_mult: 2
  }
  convolution_param {
    num_output: 16
    pad: 1
    kernel_size: 3
    stride: 1
    weight_filler {
      type: "msra"
    }
    bias_filler {
      type: "constant"
    }
  }
}
layer {
  name: "relu0"
  type: "ReLU"
  bottom: "conv0"
  top: "conv0"
}
layer {
  name: "conv1"
  type: "Convolution"
  bottom: "conv0"
  top: "conv1"
  param {
    lr_mult: 1
  }
  param {
    lr_mult: 2
  }
  convolution_param {
    num_output: 16
    pad: 1
    kernel_size: 3
    stride: 1
    weight_filler {
      type: "msra"
    }
    bias_filler {
      type: "constant"
    }
  }
}
layer {
  name: "pool1"
  type: "Pooling"
  bottom: "conv1"
  top: "pool1"
  pooling_param {
    pool: MAX
    kernel_size: 2
    stride: 2
  }
}
layer {
  name: "relu1"
  type: "ReLU"
  bottom: "pool1"
  top: "pool1"
}
layer {
  name: "conv2_0"
  type: "Convolution"
  bottom: "pool1"
  top: "conv2_0"
  param {
    lr_mult: 1
  }
  param {
    lr_mult: 2
  }
  convolution_param {
    num_output: 32
    pad: 0
    kernel_size: 1
    stride: 1
    weight_filler {
      type: "msra"
    }
    bias_filler {
      type: "constant"
    }
  }
}
layer {
  name: "relu2_0"
  type: "ReLU"
  bottom: "conv2_0"
  top: "conv2_0"
}
layer {
  name: "conv2"
  type: "Convolution"
  bottom: "conv2_0"
  top: "conv2"
  param {
    lr_mult: 1
  }
  param {
    lr_mult: 2
  }
  convolution_param {
    num_output: 32
    pad: 1
    kernel_size: 3
    stride: 1
    weight_filler {
      type: "msra"
    }
    bias_filler {
      type: "constant"
    }
  }
}
layer {
  name: "relu2"
  type: "ReLU"
  bottom: "conv2"
  top: "conv2"
}
layer {
  name: "conv3"
  type: "Convolution"
  bottom: "conv2"
  top: "conv3"
  param {
    lr_mult: 1
  }
  param {
    lr_mult: 2
  }
  convolution_param {
    num_output: 32
    pad: 1
    kernel_size: 3
    stride: 1
    weight_filler {
      type: "msra"
    }
    bias_filler {
      type: "constant"
    }
  }
}
layer {
  name: "res1"
  type: "Eltwise"
  bottom: "conv2_0"
  bottom: "conv3"
  top: "res1"
}
layer {
  name: "pool2"
  type: "Pooling"
  bottom: "res1"
  top: "pool2"
  pooling_param {
    pool: MAX
    kernel_size: 2
    stride: 2
  }
}
layer {
  name: "relu3"
  type: "ReLU"
  bottom: "pool2"
  top: "pool2"
}
layer {
  name: "conv3_0"
  type: "Convolution"
  bottom: "pool2"
  top: "conv3_0"
  param {
    lr_mult: 1
  }
  param {
    lr_mult: 2
  }
  convolution_param {
    num_output: 64
    pad: 0
    kernel_size: 1
    stride: 1
    weight_filler {
      type: "msra"
    }
    bias_filler {
      type: "constant"
    }
  }
}
layer {
  name: "relu3_0"
  type: "ReLU"
  bottom: "conv3_0"
  top: "conv3_0"
}
layer {
  name: "conv4"
  type: "Convolution"
  bottom: "conv3_0"
  top: "conv4"
  param {
    lr_mult: 1
  }
  param {
    lr_mult: 2
  }
  convolution_param {
    num_output: 64
    pad: 1
    kernel_size: 3
    stride: 1
    weight_filler {
      type: "msra"
    }
    bias_filler {
      type: "constant"
    }
  }
}
layer {
  name: "relu4"
  type: "ReLU"
  bottom: "conv4"
  top: "conv4"
}
layer {
  name: "conv5"
  type: "Convolution"
  bottom: "conv4"
  top: "conv5"
  param {
    lr_mult: 1
  }
  param {
    lr_mult: 2
  }
  convolution_param {
    num_output: 64
    pad: 1
    kernel_size: 3
    stride: 1
    weight_filler {
      type: "msra"
    }
    bias_filler {
      type: "constant"
    }
  }
}
layer {
  name: "res2"
  type: "Eltwise"
  bottom: "conv3_0"
  bottom: "conv5"
  top: "res2"
}
layer {
  name: "pool3"
  type: "Pooling"
  bottom: "res2"
  top: "pool3"
  pooling_param {
    pool: MAX
    kernel_size: 2
    stride: 2
  }
}
layer {
  name: "relu5"
  type: "ReLU"
  bottom: "pool3"
  top: "pool3"
}
layer {
  name: "fc1"
  type: "InnerProduct"
  bottom: "pool3"
  top: "fc1"
  param {
    lr_mult: 1
  }
  param {
    lr_mult: 2
  }
  inner_product_param {
    num_output: 2048
    weight_filler {
      type: "gaussian"
      std: 0.001
    }
    bias_filler {
      type: "constant"
    }
  }
}
layer {
  name: "relu6"
  type: "ReLU"
  bottom: "fc1"
  top: "fc1"
}
layer {
  name: "drop1"
  type: "Dropout"
  bottom: "fc1"
  top: "fc1"
  dropout_param {
    dropout_ratio: 0.5
  }
}
layer {
  name: "fc2"
  type: "InnerProduct"
  bottom: "fc1"
  top: "fc2"
  param {
    lr_mult: 1
  }
  param {
    lr_mult: 2
  }
  inner_product_param {
    num_output: 2048
    weight_filler {
      type: "gaussian"
      std: 0.001
    }
    bias_filler {
      type: "constant"
    }
  }
}
layer {
  name: "relu7"
  type: "ReLU"
  bottom: "fc2"
  top: "fc2"
}
layer {
  name: "drop2"
  type: "Dropout"
  bottom: "fc2"
  top: "fc2"
  dropout_param {
    dropout_ratio: 0.5
  }
}
layer {
  name: "fc3"
  type: "InnerProduct"
  bottom: "fc2"
  top: "fc3"
  param {
    lr_mult: 1
  }
  param {
    lr_mult: 2
  }
  inner_product_param {
    num_output: 63
    weight_filler {
      type: "gaussian"
      std: 0.001
    }
    bias_filler {
      type: "constant"
    }
  }
}
layer {
  name: "loss"
  type: "SmoothL1Loss"
  bottom: "fc3"
  bottom: "pose"
  top: "loss"
  loss_weight: 1
  smooth_l1_loss_param {
    sigma: 10
  }
}
I0412 11:24:46.634325 29794 layer_factory.hpp:77] Creating layer data
I0412 11:24:46.634342 29794 net.cpp:84] Creating Layer data
I0412 11:24:46.634349 29794 net.cpp:380] data -> data
I0412 11:24:46.634362 29794 net.cpp:380] data -> pose
I0412 11:24:46.634433 29794 pose_data_layer.cpp:117] Opening file /home/workspace/Datasets/MSRA/cvpr15_MSRAHandGestureDB/train_image_7.txt
…
I0412 11:25:32.226572 29794 pose_data_layer.cpp:269] Loading 60001 image...
I0412 11:25:32.727476 29794 pose_data_layer.cpp:269] Loading 62001 image...
I0412 11:25:33.202564 29794 pose_data_layer.cpp:269] Loading 64001 image...
I0412 11:25:33.838141 29794 pose_data_layer.cpp:269] Loading 66001 image...
I0412 11:25:34.293665 29794 pose_data_layer.cpp:282] Shuffling data
I0412 11:25:34.294747 29794 pose_data_layer.cpp:287] A total of 67877 images.
I0412 11:25:34.295555 29794 pose_data_layer.cpp:329] output data size: 128,1,96,96
I0412 11:25:34.308055 29794 net.cpp:122] Setting up data
I0412 11:25:34.308079 29794 net.cpp:129] Top shape: 128 1 96 96 (1179648)
I0412 11:25:34.308086 29794 net.cpp:129] Top shape: 128 63 (8064)
I0412 11:25:34.308092 29794 net.cpp:137] Memory required for data: 4750848
I0412 11:25:34.308099 29794 layer_factory.hpp:77] Creating layer conv0
I0412 11:25:34.308135 29794 net.cpp:84] Creating Layer conv0
I0412 11:25:34.308154 29794 net.cpp:406] conv0 <- data
I0412 11:25:34.308172 29794 net.cpp:380] conv0 -> conv0
I0412 11:25:34.888432 29794 net.cpp:122] Setting up conv0
I0412 11:25:34.888453 29794 net.cpp:129] Top shape: 128 16 96 96 (18874368)
I0412 11:25:34.888455 29794 net.cpp:137] Memory required for data: 80248320
I0412 11:25:34.888468 29794 layer_factory.hpp:77] Creating layer relu0
I0412 11:25:34.888478 29794 net.cpp:84] Creating Layer relu0
I0412 11:25:34.888484 29794 net.cpp:406] relu0 <- conv0
I0412 11:25:34.888487 29794 net.cpp:367] relu0 -> conv0 (in-place)
I0412 11:25:34.889533 29794 net.cpp:122] Setting up relu0
I0412 11:25:34.889545 29794 net.cpp:129] Top shape: 128 16 96 96 (18874368)
I0412 11:25:34.889549 29794 net.cpp:137] Memory required for data: 155745792
I0412 11:25:34.889552 29794 layer_factory.hpp:77] Creating layer conv1
I0412 11:25:34.889564 29794 net.cpp:84] Creating Layer conv1
I0412 11:25:34.889567 29794 net.cpp:406] conv1 <- conv0
I0412 11:25:34.889572 29794 net.cpp:380] conv1 -> conv1
I0412 11:25:34.895660 29794 net.cpp:122] Setting up conv1
I0412 11:25:34.895679 29794 net.cpp:129] Top shape: 128 16 96 96 (18874368)
I0412 11:25:34.895686 29794 net.cpp:137] Memory required for data: 231243264
I0412 11:25:34.895699 29794 layer_factory.hpp:77] Creating layer pool1
I0412 11:25:34.895711 29794 net.cpp:84] Creating Layer pool1
I0412 11:25:34.895717 29794 net.cpp:406] pool1 <- conv1
I0412 11:25:34.895723 29794 net.cpp:380] pool1 -> pool1
I0412 11:25:34.895776 29794 net.cpp:122] Setting up pool1
I0412 11:25:34.895788 29794 net.cpp:129] Top shape: 128 16 48 48 (4718592)
I0412 11:25:34.895793 29794 net.cpp:137] Memory required for data: 250117632
I0412 11:25:34.895798 29794 layer_factory.hpp:77] Creating layer relu1
I0412 11:25:34.895807 29794 net.cpp:84] Creating Layer relu1
I0412 11:25:34.895813 29794 net.cpp:406] relu1 <- pool1
I0412 11:25:34.895822 29794 net.cpp:367] relu1 -> pool1 (in-place)
I0412 11:25:34.897356 29794 net.cpp:122] Setting up relu1
I0412 11:25:34.897372 29794 net.cpp:129] Top shape: 128 16 48 48 (4718592)
I0412 11:25:34.897374 29794 net.cpp:137] Memory required for data: 268992000
I0412 11:25:34.897378 29794 layer_factory.hpp:77] Creating layer conv2_0
I0412 11:25:34.897388 29794 net.cpp:84] Creating Layer conv2_0
I0412 11:25:34.897393 29794 net.cpp:406] conv2_0 <- pool1
I0412 11:25:34.897399 29794 net.cpp:380] conv2_0 -> conv2_0
I0412 11:25:34.902956 29794 net.cpp:122] Setting up conv2_0
I0412 11:25:34.902972 29794 net.cpp:129] Top shape: 128 32 48 48 (9437184)
I0412 11:25:34.902976 29794 net.cpp:137] Memory required for data: 306740736
I0412 11:25:34.902987 29794 layer_factory.hpp:77] Creating layer relu2_0
I0412 11:25:34.902995 29794 net.cpp:84] Creating Layer relu2_0
I0412 11:25:34.903000 29794 net.cpp:406] relu2_0 <- conv2_0
I0412 11:25:34.903007 29794 net.cpp:367] relu2_0 -> conv2_0 (in-place)
I0412 11:25:34.905361 29794 net.cpp:122] Setting up relu2_0
I0412 11:25:34.905376 29794 net.cpp:129] Top shape: 128 32 48 48 (9437184)
I0412 11:25:34.905381 29794 net.cpp:137] Memory required for data: 344489472
I0412 11:25:34.905387 29794 layer_factory.hpp:77] Creating layer conv2_0_relu2_0_0_split
I0412 11:25:34.905400 29794 net.cpp:84] Creating Layer conv2_0_relu2_0_0_split
I0412 11:25:34.905422 29794 net.cpp:406] conv2_0_relu2_0_0_split <- conv2_0
I0412 11:25:34.905432 29794 net.cpp:380] conv2_0_relu2_0_0_split -> conv2_0_relu2_0_0_split_0
I0412 11:25:34.905443 29794 net.cpp:380] conv2_0_relu2_0_0_split -> conv2_0_relu2_0_0_split_1
I0412 11:25:34.905490 29794 net.cpp:122] Setting up conv2_0_relu2_0_0_split
I0412 11:25:34.905500 29794 net.cpp:129] Top shape: 128 32 48 48 (9437184)
I0412 11:25:34.905506 29794 net.cpp:129] Top shape: 128 32 48 48 (9437184)
I0412 11:25:34.905511 29794 net.cpp:137] Memory required for data: 419986944
I0412 11:25:34.905516 29794 layer_factory.hpp:77] Creating layer conv2
I0412 11:25:34.905529 29794 net.cpp:84] Creating Layer conv2
I0412 11:25:34.905534 29794 net.cpp:406] conv2 <- conv2_0_relu2_0_0_split_0
I0412 11:25:34.905542 29794 net.cpp:380] conv2 -> conv2
I0412 11:25:34.908090 29794 net.cpp:122] Setting up conv2
I0412 11:25:34.908107 29794 net.cpp:129] Top shape: 128 32 48 48 (9437184)
I0412 11:25:34.908112 29794 net.cpp:137] Memory required for data: 457735680
I0412 11:25:34.908123 29794 layer_factory.hpp:77] Creating layer relu2
I0412 11:25:34.908133 29794 net.cpp:84] Creating Layer relu2
I0412 11:25:34.908138 29794 net.cpp:406] relu2 <- conv2
I0412 11:25:34.908146 29794 net.cpp:367] relu2 -> conv2 (in-place)
I0412 11:25:34.908385 29794 net.cpp:122] Setting up relu2
I0412 11:25:34.908396 29794 net.cpp:129] Top shape: 128 32 48 48 (9437184)
I0412 11:25:34.908401 29794 net.cpp:137] Memory required for data: 495484416
I0412 11:25:34.908406 29794 layer_factory.hpp:77] Creating layer conv3
I0412 11:25:34.908419 29794 net.cpp:84] Creating Layer conv3
I0412 11:25:34.908426 29794 net.cpp:406] conv3 <- conv2
I0412 11:25:34.908437 29794 net.cpp:380] conv3 -> conv3
I0412 11:25:34.913218 29794 net.cpp:122] Setting up conv3
I0412 11:25:34.913264 29794 net.cpp:129] Top shape: 128 32 48 48 (9437184)
I0412 11:25:34.913275 29794 net.cpp:137] Memory required for data: 533233152
I0412 11:25:34.913302 29794 layer_factory.hpp:77] Creating layer res1
I0412 11:25:34.913350 29794 net.cpp:84] Creating Layer res1
I0412 11:25:34.913362 29794 net.cpp:406] res1 <- conv2_0_relu2_0_0_split_1
I0412 11:25:34.913375 29794 net.cpp:406] res1 <- conv3
I0412 11:25:34.913384 29794 net.cpp:380] res1 -> res1
I0412 11:25:34.913455 29794 net.cpp:122] Setting up res1
I0412 11:25:34.913466 29794 net.cpp:129] Top shape: 128 32 48 48 (9437184)
I0412 11:25:34.913487 29794 net.cpp:137] Memory required for data: 570981888
I0412 11:25:34.913496 29794 layer_factory.hpp:77] Creating layer pool2
I0412 11:25:34.913511 29794 net.cpp:84] Creating Layer pool2
I0412 11:25:34.913517 29794 net.cpp:406] pool2 <- res1
I0412 11:25:34.913527 29794 net.cpp:380] pool2 -> pool2
I0412 11:25:34.913614 29794 net.cpp:122] Setting up pool2
I0412 11:25:34.913625 29794 net.cpp:129] Top shape: 128 32 24 24 (2359296)
I0412 11:25:34.913642 29794 net.cpp:137] Memory required for data: 580419072
I0412 11:25:34.913650 29794 layer_factory.hpp:77] Creating layer relu3
I0412 11:25:34.913669 29794 net.cpp:84] Creating Layer relu3
I0412 11:25:34.913676 29794 net.cpp:406] relu3 <- pool2
I0412 11:25:34.913684 29794 net.cpp:367] relu3 -> pool2 (in-place)
I0412 11:25:34.915275 29794 net.cpp:122] Setting up relu3
I0412 11:25:34.915302 29794 net.cpp:129] Top shape: 128 32 24 24 (2359296)
I0412 11:25:34.915308 29794 net.cpp:137] Memory required for data: 589856256
I0412 11:25:34.915315 29794 layer_factory.hpp:77] Creating layer conv3_0
I0412 11:25:34.915357 29794 net.cpp:84] Creating Layer conv3_0
I0412 11:25:34.915367 29794 net.cpp:406] conv3_0 <- pool2
I0412 11:25:34.915381 29794 net.cpp:380] conv3_0 -> conv3_0
I0412 11:25:34.922114 29794 net.cpp:122] Setting up conv3_0
I0412 11:25:34.922140 29794 net.cpp:129] Top shape: 128 64 24 24 (4718592)
I0412 11:25:34.922147 29794 net.cpp:137] Memory required for data: 608730624
I0412 11:25:34.922158 29794 layer_factory.hpp:77] Creating layer relu3_0
I0412 11:25:34.922174 29794 net.cpp:84] Creating Layer relu3_0
I0412 11:25:34.922179 29794 net.cpp:406] relu3_0 <- conv3_0
I0412 11:25:34.922186 29794 net.cpp:367] relu3_0 -> conv3_0 (in-place)
I0412 11:25:34.924247 29794 net.cpp:122] Setting up relu3_0
I0412 11:25:34.924260 29794 net.cpp:129] Top shape: 128 64 24 24 (4718592)
I0412 11:25:34.924266 29794 net.cpp:137] Memory required for data: 627604992
I0412 11:25:34.924271 29794 layer_factory.hpp:77] Creating layer conv3_0_relu3_0_0_split
I0412 11:25:34.924284 29794 net.cpp:84] Creating Layer conv3_0_relu3_0_0_split
I0412 11:25:34.924290 29794 net.cpp:406] conv3_0_relu3_0_0_split <- conv3_0
I0412 11:25:34.924298 29794 net.cpp:380] conv3_0_relu3_0_0_split -> conv3_0_relu3_0_0_split_0
I0412 11:25:34.924311 29794 net.cpp:380] conv3_0_relu3_0_0_split -> conv3_0_relu3_0_0_split_1
I0412 11:25:34.924362 29794 net.cpp:122] Setting up conv3_0_relu3_0_0_split
I0412 11:25:34.924371 29794 net.cpp:129] Top shape: 128 64 24 24 (4718592)
I0412 11:25:34.924377 29794 net.cpp:129] Top shape: 128 64 24 24 (4718592)
I0412 11:25:34.924382 29794 net.cpp:137] Memory required for data: 665353728
I0412 11:25:34.924387 29794 layer_factory.hpp:77] Creating layer conv4
I0412 11:25:34.924402 29794 net.cpp:84] Creating Layer conv4
I0412 11:25:34.924407 29794 net.cpp:406] conv4 <- conv3_0_relu3_0_0_split_0
I0412 11:25:34.924417 29794 net.cpp:380] conv4 -> conv4
I0412 11:25:34.928961 29794 net.cpp:122] Setting up conv4
I0412 11:25:34.928974 29794 net.cpp:129] Top shape: 128 64 24 24 (4718592)
I0412 11:25:34.928979 29794 net.cpp:137] Memory required for data: 684228096
I0412 11:25:34.928989 29794 layer_factory.hpp:77] Creating layer relu4
I0412 11:25:34.928999 29794 net.cpp:84] Creating Layer relu4
I0412 11:25:34.929005 29794 net.cpp:406] relu4 <- conv4
I0412 11:25:34.929015 29794 net.cpp:367] relu4 -> conv4 (in-place)
I0412 11:25:34.930776 29794 net.cpp:122] Setting up relu4
I0412 11:25:34.930788 29794 net.cpp:129] Top shape: 128 64 24 24 (4718592)
I0412 11:25:34.930793 29794 net.cpp:137] Memory required for data: 703102464
I0412 11:25:34.930799 29794 layer_factory.hpp:77] Creating layer conv5
I0412 11:25:34.930814 29794 net.cpp:84] Creating Layer conv5
I0412 11:25:34.930819 29794 net.cpp:406] conv5 <- conv4
I0412 11:25:34.930830 29794 net.cpp:380] conv5 -> conv5
I0412 11:25:34.937045 29794 net.cpp:122] Setting up conv5
I0412 11:25:34.937063 29794 net.cpp:129] Top shape: 128 64 24 24 (4718592)
I0412 11:25:34.937072 29794 net.cpp:137] Memory required for data: 721976832
I0412 11:25:34.937083 29794 layer_factory.hpp:77] Creating layer res2
I0412 11:25:34.937093 29794 net.cpp:84] Creating Layer res2
I0412 11:25:34.937099 29794 net.cpp:406] res2 <- conv3_0_relu3_0_0_split_1
I0412 11:25:34.937106 29794 net.cpp:406] res2 <- conv5
I0412 11:25:34.937114 29794 net.cpp:380] res2 -> res2
I0412 11:25:34.937146 29794 net.cpp:122] Setting up res2
I0412 11:25:34.937155 29794 net.cpp:129] Top shape: 128 64 24 24 (4718592)
I0412 11:25:34.937158 29794 net.cpp:137] Memory required for data: 740851200
I0412 11:25:34.937165 29794 layer_factory.hpp:77] Creating layer pool3
I0412 11:25:34.937175 29794 net.cpp:84] Creating Layer pool3
I0412 11:25:34.937180 29794 net.cpp:406] pool3 <- res2
I0412 11:25:34.937186 29794 net.cpp:380] pool3 -> pool3
I0412 11:25:34.937224 29794 net.cpp:122] Setting up pool3
I0412 11:25:34.937233 29794 net.cpp:129] Top shape: 128 64 12 12 (1179648)
I0412 11:25:34.937237 29794 net.cpp:137] Memory required for data: 745569792
I0412 11:25:34.937243 29794 layer_factory.hpp:77] Creating layer relu5
I0412 11:25:34.937249 29794 net.cpp:84] Creating Layer relu5
I0412 11:25:34.937255 29794 net.cpp:406] relu5 <- pool3
I0412 11:25:34.937263 29794 net.cpp:367] relu5 -> pool3 (in-place)
I0412 11:25:34.939273 29794 net.cpp:122] Setting up relu5
I0412 11:25:34.939286 29794 net.cpp:129] Top shape: 128 64 12 12 (1179648)
I0412 11:25:34.939291 29794 net.cpp:137] Memory required for data: 750288384
I0412 11:25:34.939296 29794 layer_factory.hpp:77] Creating layer fc1
I0412 11:25:34.939306 29794 net.cpp:84] Creating Layer fc1
I0412 11:25:34.939311 29794 net.cpp:406] fc1 <- pool3
I0412 11:25:34.939321 29794 net.cpp:380] fc1 -> fc1
I0412 11:25:35.357265 29794 net.cpp:122] Setting up fc1
I0412 11:25:35.357297 29794 net.cpp:129] Top shape: 128 2048 (262144)
I0412 11:25:35.357303 29794 net.cpp:137] Memory required for data: 751336960
I0412 11:25:35.357326 29794 layer_factory.hpp:77] Creating layer relu6
I0412 11:25:35.357355 29794 net.cpp:84] Creating Layer relu6
I0412 11:25:35.357363 29794 net.cpp:406] relu6 <- fc1
I0412 11:25:35.357378 29794 net.cpp:367] relu6 -> fc1 (in-place)
I0412 11:25:35.357636 29794 net.cpp:122] Setting up relu6
I0412 11:25:35.357647 29794 net.cpp:129] Top shape: 128 2048 (262144)
I0412 11:25:35.357652 29794 net.cpp:137] Memory required for data: 752385536
I0412 11:25:35.357657 29794 layer_factory.hpp:77] Creating layer drop1
I0412 11:25:35.357684 29794 net.cpp:84] Creating Layer drop1
I0412 11:25:35.357689 29794 net.cpp:406] drop1 <- fc1
I0412 11:25:35.357698 29794 net.cpp:367] drop1 -> fc1 (in-place)
I0412 11:25:35.357744 29794 net.cpp:122] Setting up drop1
I0412 11:25:35.357753 29794 net.cpp:129] Top shape: 128 2048 (262144)
I0412 11:25:35.357756 29794 net.cpp:137] Memory required for data: 753434112
I0412 11:25:35.357761 29794 layer_factory.hpp:77] Creating layer fc2
I0412 11:25:35.357781 29794 net.cpp:84] Creating Layer fc2
I0412 11:25:35.357786 29794 net.cpp:406] fc2 <- fc1
I0412 11:25:35.357796 29794 net.cpp:380] fc2 -> fc2
I0412 11:25:35.452428 29794 net.cpp:122] Setting up fc2
I0412 11:25:35.452450 29794 net.cpp:129] Top shape: 128 2048 (262144)
I0412 11:25:35.452455 29794 net.cpp:137] Memory required for data: 754482688
I0412 11:25:35.452466 29794 layer_factory.hpp:77] Creating layer relu7
I0412 11:25:35.452478 29794 net.cpp:84] Creating Layer relu7
I0412 11:25:35.452486 29794 net.cpp:406] relu7 <- fc2
I0412 11:25:35.452493 29794 net.cpp:367] relu7 -> fc2 (in-place)
I0412 11:25:35.452986 29794 net.cpp:122] Setting up relu7
I0412 11:25:35.452999 29794 net.cpp:129] Top shape: 128 2048 (262144)
I0412 11:25:35.453004 29794 net.cpp:137] Memory required for data: 755531264
I0412 11:25:35.453009 29794 layer_factory.hpp:77] Creating layer drop2
I0412 11:25:35.453022 29794 net.cpp:84] Creating Layer drop2
I0412 11:25:35.453028 29794 net.cpp:406] drop2 <- fc2
I0412 11:25:35.453035 29794 net.cpp:367] drop2 -> fc2 (in-place)
I0412 11:25:35.453068 29794 net.cpp:122] Setting up drop2
I0412 11:25:35.453075 29794 net.cpp:129] Top shape: 128 2048 (262144)
I0412 11:25:35.453080 29794 net.cpp:137] Memory required for data: 756579840
I0412 11:25:35.453084 29794 layer_factory.hpp:77] Creating layer fc3
I0412 11:25:35.453095 29794 net.cpp:84] Creating Layer fc3
I0412 11:25:35.453101 29794 net.cpp:406] fc3 <- fc2
I0412 11:25:35.453110 29794 net.cpp:380] fc3 -> fc3
I0412 11:25:35.456392 29794 net.cpp:122] Setting up fc3
I0412 11:25:35.456404 29794 net.cpp:129] Top shape: 128 63 (8064)
I0412 11:25:35.456409 29794 net.cpp:137] Memory required for data: 756612096
I0412 11:25:35.456419 29794 layer_factory.hpp:77] Creating layer loss
I0412 11:25:35.456429 29794 net.cpp:84] Creating Layer loss
I0412 11:25:35.456435 29794 net.cpp:406] loss <- fc3
I0412 11:25:35.456442 29794 net.cpp:406] loss <- pose
I0412 11:25:35.456450 29794 net.cpp:380] loss -> loss
I0412 11:25:35.456588 29794 net.cpp:122] Setting up loss
…
  transform_param {
    is_trans: false
    is_rotate: false
    is_zoom: false
  }
  pose_data_param {
    image_source: "/home/workspace/Datasets/MSRA/cvpr15_MSRAHandGestureDB/test_image_7.txt"
    label_source: "/home/workspace/Datasets/MSRA/cvpr15_MSRAHandGestureDB/test_label_7.txt"
    batch_size: 128
    shuffle: false
    new_height: 96
    new_width: 96
    root_folder: "/home/workspace/Datasets/MSRA/cvpr15_MSRAHandGestureDB/"
    point_num: 21
    point_dim: 3
    fx: 241.42
    fy: 241.42
    output_center: true
    cube_length: 150
    dataset: MSRA
  }
}
layer {
  name: "pose"
  type: "Slice"
  bottom: "label"
  top: "pose"
  top: "center"
  include {
    phase: TEST
  }
  slice_param {
    slice_dim: 1
    slice_point: 63
  }
}
layer {
  name: "conv0"
  type: "Convolution"
  bottom: "data"
  top: "conv0"
  param {
    lr_mult: 1
  }
  param {
    lr_mult: 2
  }
  convolution_param {
    num_output: 16
    pad: 1
    kernel_size: 3
    stride: 1
    weight_filler {
      type: "msra"
    }
    bias_filler {
      type: "constant"
    }
  }
}
layer {
  name: "relu0"
  type: "ReLU"
  bottom: "conv0"
  top: "conv0"
}
layer {
  name: "conv1"
  type: "Convolution"
  bottom: "conv0"
  top: "conv1"
  param {
    lr_mult: 1
  }
  param {
    lr_mult: 2
  }
  convolution_param {
    num_output: 16
    pad: 1
    kernel_size: 3
    stride: 1
    weight_filler {
      type: "msra"
    }
    bias_filler {
      type: "constant"
    }
  }
}
layer {
  name: "pool1"
  type: "Pooling"
  bottom: "conv1"
  top: "pool1"
  pooling_param {
    pool: MAX
    kernel_size: 2
    stride: 2
  }
}
layer {
  name: "relu1"
  type: "ReLU"
  bottom: "pool1"
  top: "pool1"
}
layer {
  name: "conv2_0"
  type: "Convolution"
  bottom: "pool1"
  top: "conv2_0"
  param {
    lr_mult: 1
  }
  param {
    lr_mult: 2
  }
  convolution_param {
    num_output: 32
    pad: 0
    kernel_size: 1
    stride: 1
    weight_filler {
      type: "msra"
    }
    bias_filler {
      type: "constant"
    }
  }
}
layer {
  name: "relu2_0"
  type: "ReLU"
  bottom: "conv2_0"
  top: "conv2_0"
}
layer {
  name: "conv2"
  type: "Convolution"
  bottom: "conv2_0"
  top: "conv2"
  param {
    lr_mult: 1
  }
  param {
    lr_mult: 2
  }
  convolution_param {
    num_output: 32
    pad: 1
    kernel_size: 3
    stride: 1
    weight_filler {
      type: "msra"
    }
    bias_filler {
      type: "constant"
    }
  }
}
layer {
  name: "relu2"
  type: "ReLU"
  bottom: "conv2"
  top: "conv2"
}
layer {
  name: "conv3"
  type: "Convolution"
  bottom: "conv2"
  top: "conv3"
  param {
    lr_mult: 1
  }
  param {
    lr_mult: 2
  }
  convolution_param {
    num_output: 32
    pad: 1
    kernel_size: 3
    stride: 1
    weight_filler {
      type: "msra"
    }
    bias_filler {
      type: "constant"
    }
  }
}
layer {
  name: "res1"
  type: "Eltwise"
  bottom: "conv2_0"
  bottom: "conv3"
  top: "res1"
}
layer {
  name: "pool2"
  type: "Pooling"
  bottom: "res1"
  top: "pool2"
  pooling_param {
    pool: MAX
    kernel_size: 2
    stride: 2
  }
}
layer {
  name: "relu3"
  type: "ReLU"
  bottom: "pool2"
  top: "pool2"
}
layer {
  name: "conv3_0"
  type: "Convolution"
  bottom: "pool2"
  top: "conv3_0"
  param {
    lr_mult: 1
  }
  param {
    lr_mult: 2
  }
  convolution_param {
    num_output: 64
    pad: 0
    kernel_size: 1
    stride: 1
    weight_filler {
      type: "msra"
    }
    bias_filler {
      type: "constant"
    }
  }
}
layer {
  name: "relu3_0"
  type: "ReLU"
  bottom: "conv3_0"
  top: "conv3_0"
}
layer {
  name: "conv4"
  type: "Convolution"
  bottom: "conv3_0"
  top: "conv4"
  param {
    lr_mult: 1
  }
  param {
    lr_mult: 2
  }
  convolution_param {
    num_output: 64
    pad: 1
    kernel_size: 3
    stride: 1
    weight_filler {
      type: "msra"
    }
    bias_filler {
      type: "constant"
    }
  }
}
layer {
  name: "relu4"
  type: "ReLU"
  bottom: "conv4"
  top: "conv4"
}
layer {
  name: "conv5"
  type: "Convolution"
  bottom: "conv4"
  top: "conv5"
  param {
    lr_mult: 1
  }
  param {
    lr_mult: 2
  }
  convolution_param {
    num_output: 64
    pad: 1
    kernel_size: 3
    stride: 1
    weight_filler {
      type: "msra"
    }
    bias_filler {
      type: "constant"
    }
  }
}
layer {
  name: "res2"
  type: "Eltwise"
  bottom: "conv3_0"
  bottom: "conv5"
  top: "res2"
}
layer {
  name: "pool3"
  type: "Pooling"
  bottom: "res2"
  top: "pool3"
  pooling_param {
    pool: MAX
    kernel_size: 2
    stride: 2
  }
}
layer {
  name: "relu5"
  type: "ReLU"
  bottom: "pool3"
  top: "pool3"
}
layer {
  name: "fc1"
  type: "InnerProduct"
  bottom: "pool3"
  top: "fc1"
  param {
    lr_mult: 1
  }
  param {
    lr_mult: 2
  }
  inner_product_param {
    num_output: 2048
    weight_filler {
      type: "gaussian"
      std: 0.001
    }
    bias_filler {
      type: "constant"
    }
  }
}
layer {
  name: "relu6"
  type: "ReLU"
  bottom: "fc1"
  top: "fc1"
}
layer {
  name: "drop1"
  type: "Dropout"
  bottom: "fc1"
  top: "fc1"
  dropout_param {
    dropout_ratio: 0.5
  }
}
layer {
  name: "fc2"
  type: "InnerProduct"
  bottom: "fc1"
  top: "fc2"
  param {
    lr_mult: 1
  }
  param {
    lr_mult: 2
  }
  inner_product_param {
    num_output: 2048
    weight_filler {
      type: "gaussian"
      std: 0.001
    }
    bias_filler {
      type: "constant"
    }
  }
}
layer {
  name: "relu7"
  type: "ReLU"
  bottom: "fc2"
  top: "fc2"
}
layer {
  name: "drop2"
  type: "Dropout"
  bottom: "fc2"
  top: "fc2"
  dropout_param {
    dropout_ratio: 0.5
  }
}
layer {
  name: "fc3"
  type: "InnerProduct"
  bottom: "fc2"
  top: "fc3"
  param {
    lr_mult: 1
  }
  param {
    lr_mult: 2
  }
  inner_product_param {
    num_output: 63
    weight_filler {
      type: "gaussian"
      std: 0.001
    }
    bias_filler {
      type: "constant"
    }
  }
}
layer {
  name: "loss"
  type: "SmoothL1Loss"
  bottom: "fc3"
  bottom: "pose"
  top: "loss"
  loss_weight: 1
  smooth_l1_loss_param {
    sigma: 10
  }
}
layer {
  name: "distance"
  type: "PoseDistance"
  bottom: "fc3"
  bottom: "pose"
  bottom: "center"
  top: "distance"
  loss_weight: 0
  include {
    phase: TEST
  }
  pose_distance_param {
    fx: 241.42
    fy: 241.42
    ux: 160
    uy: 120
    cube_length: 150
  }
}
I0412 11:25:35.457823 29794 layer_factory.hpp:77] Creating layer data
I0412 11:25:35.457839 29794 net.cpp:84] Creating Layer data
I0412 11:25:35.457845 29794 net.cpp:380] data -> data
I0412 11:25:35.457856 29794 net.cpp:380] data -> label
I0412 11:25:35.457868 29794 pose_data_layer.cpp:117] Opening file /home/workspace/Datasets/MSRA/cvpr15_MSRAHandGestureDB/test_image_7.txt
I0412 11:25:35.457892 29794 pose_data_layer.cpp:119] Opening file /home/workspace/Datasets/MSRA/cvpr15_MSRAHandGestureDB/test_label_7.txt
I0412 11:25:35.498641 29794 pose_data_layer.cpp:269] Loading 124 image...
I0412 11:25:35.970033 29794 pose_data_layer.cpp:269] Loading 2124 image...
I0412 11:25:36.456955 29794 pose_data_layer.cpp:269] Loading 4124 image...
I0412 11:25:36.918828 29794 pose_data_layer.cpp:269] Loading 6124 image...
I0412 11:25:37.376724 29794 pose_data_layer.cpp:269] Loading 8124 image...
I0412 11:25:37.480022 29794 pose_data_layer.cpp:287] A total of 8498 images.
I0412 11:25:37.480226 29794 pose_data_layer.cpp:329] output data size: 128,1,96,96
I0412 11:25:37.489637 29794 net.cpp:122] Setting up data
I0412 11:25:37.489666 29794 net.cpp:129] Top shape: 128 1 96 96 (1179648)
I0412 11:25:37.489673 29794 net.cpp:129] Top shape: 128 66 (8448)
I0412 11:25:37.489678 29794 net.cpp:137] Memory required for data: 4752384
I0412 11:25:37.489686 29794 layer_factory.hpp:77] Creating layer pose
I0412 11:25:37.489703 29794 net.cpp:84] Creating Layer pose
I0412 11:25:37.489727 29794 net.cpp:406] pose <- label
I0412 11:25:37.489739 29794 net.cpp:380] pose -> pose
I0412 11:25:37.489768 29794 net.cpp:380] pose -> center
I0412 11:25:37.489835 29794 net.cpp:122] Setting up pose
I0412 11:25:37.489845 29794 net.cpp:129] Top shape: 128 63 (8064)
I0412 11:25:37.489851 29794 net.cpp:129] Top shape: 128 3 (384)
I0412 11:25:37.489856 29794 net.cpp:137] Memory required for data: 4786176
I0412 11:25:37.489859 29794 layer_factory.hpp:77] Creating layer pose_pose_0_split
I0412 11:25:37.489867 29794 net.cpp:84] Creating Layer pose_pose_0_split
I0412 11:25:37.489887 29794 net.cpp:406] pose_pose_0_split <- pose
I0412 11:25:37.489895 29794 net.cpp:380] pose_pose_0_split -> pose_pose_0_split_0
I0412 11:25:37.489905 29794 net.cpp:380] pose_pose_0_split -> pose_pose_0_split_1
I0412 11:25:37.489948 29794 net.cpp:122] Setting up pose_pose_0_split
I0412 11:25:37.489958 29794 net.cpp:129] Top shape: 128 63 (8064)
I0412 11:25:37.489974 29794 net.cpp:129] Top shape: 128 63 (8064)
I0412 11:25:37.489979 29794 net.cpp:137] Memory required for data: 4850688
I0412 11:25:37.489984 29794 layer_factory.hpp:77] Creating layer conv0
I0412 11:25:37.490000 29794 net.cpp:84] Creating Layer conv0
I0412 11:25:37.490005 29794 net.cpp:406] conv0 <- data
I0412 11:25:37.490015 29794 net.cpp:380] conv0 -> conv0
I0412 11:25:37.495314 29794 net.cpp:122] Setting up conv0
I0412 11:25:37.495340 29794 net.cpp:129] Top shape: 128 16 96 96 (18874368)
I0412 11:25:37.495347 29794 net.cpp:137] Memory required for data: 80348160
I0412 11:25:37.495363 29794 layer_factory.hpp:77] Creating layer relu0
I0412 11:25:37.495379 29794 net.cpp:84] Creating Layer relu0
I0412 11:25:37.495388 29794 net.cpp:406] relu0 <- conv0
I0412 11:25:37.495396 29794 net.cpp:367] relu0 -> conv0 (in-place)
I0412 11:25:37.497670 29794 net.cpp:122] Setting up relu0
I0412 11:25:37.497687 29794 net.cpp:129] Top shape: 128 16 96 96 (18874368)
I0412 11:25:37.497694 29794 net.cpp:137] Memory required for data: 155845632
I0412 11:25:37.497714 29794 layer_factory.hpp:77] Creating layer conv1
I0412 11:25:37.497733 29794 net.cpp:84] Creating Layer conv1
I0412 11:25:37.497740 29794 net.cpp:406] conv1 <- conv0
I0412 11:25:37.497750 29794 net.cpp:380] conv1 -> conv1
I0412 11:25:37.501510 29794 net.cpp:122] Setting up conv1
I0412 11:25:37.501526 29794 net.cpp:129] Top shape: 128 16 96 96 (18874368)
I0412 11:25:37.501533 29794 net.cpp:137] Memory required for data: 231343104
I0412 11:25:37.501547 29794 layer_factory.hpp:77] Creating layer pool1
I0412 11:25:37.501574 29794 net.cpp:84] Creating Layer pool1
I0412 11:25:37.501581 29794 net.cpp:406] pool1 <- conv1
I0412 11:25:37.501590 29794 net.cpp:380] pool1 -> pool1
I0412 11:25:37.501648 29794 net.cpp:122] Setting up pool1
I0412 11:25:37.501667 29794 net.cpp:129] Top shape: 128 16 48 48 (4718592)
I0412 11:25:37.501673 29794 net.cpp:137] Memory required for data: 250217472
I0412 11:25:37.501679 29794 layer_factory.hpp:77] Creating layer relu1
I0412 11:25:37.501689 29794 net.cpp:84] Creating Layer relu1
I0412 11:25:37.501695 29794 net.cpp:406] relu1 <- pool1
I0412 11:25:37.501703 29794 net.cpp:367] relu1 -> pool1 (in-place)
I0412 11:25:37.501895 29794 net.cpp:122] Setting up relu1
I0412 11:25:37.501905 29794 net.cpp:129] Top shape: 128 16 48 48 (4718592)
I0412 11:25:37.501910 29794 net.cpp:137] Memory required for data: 269091840
I0412 11:25:37.501915 29794 layer_factory.hpp:77] Creating layer conv2_0
I0412 11:25:37.501931 29794 net.cpp:84] Creating Layer conv2_0
I0412 11:25:37.501937 29794 net.cpp:406] conv2_0 <- pool1
I0412 11:25:37.501946 29794 net.cpp:380] conv2_0 -> conv2_0
I0412 11:25:37.507125 29794 net.cpp:122] Setting up conv2_0
I0412 11:25:37.507150 29794 net.cpp:129] Top shape: 128 32 48 48 (9437184)
I0412 11:25:37.507155 29794 net.cpp:137] Memory required for data: 306840576
I0412 11:25:37.507174 29794 layer_factory.hpp:77] Creating layer relu2_0
I0412 11:25:37.507187 29794 net.cpp:84] Creating Layer relu2_0
I0412 11:25:37.507205 29794 net.cpp:406] relu2_0 <- conv2_0
I0412 11:25:37.507215 29794 net.cpp:367] relu2_0 -> conv2_0 (in-place)
I0412 11:25:37.509181 29794 net.cpp:122] Setting up relu2_0
I0412 11:25:37.509202 29794 net.cpp:129] Top shape: 128 32 48 48 (9437184)
I0412 11:25:37.509207 29794 net.cpp:137] Memory required for data: 344589312
I0412 11:25:37.509213 29794 layer_factory.hpp:77] Creating layer conv2_0_relu2_0_0_split
I0412 11:25:37.509223 29794 net.cpp:84] Creating Layer conv2_0_relu2_0_0_split
I0412 11:25:37.509232 29794 net.cpp:406] conv2_0_relu2_0_0_split <- conv2_0
I0412 11:25:37.509241 29794 net.cpp:380] conv2_0_relu2_0_0_split -> conv2_0_relu2_0_0_split_0
I0412 11:25:37.509253 29794 net.cpp:380] conv2_0_relu2_0_0_split -> conv2_0_relu2_0_0_split_1
I0412 11:25:37.509349 29794 net.cpp:122] Setting up conv2_0_relu2_0_0_split
I0412 11:25:37.509359 29794 net.cpp:129] Top shape: 128 32 48 48 (9437184)
I0412 11:25:37.509366 29794 net.cpp:129] Top shape: 128 32 48 48 (9437184)
I0412 11:25:37.509371 29794 net.cpp:137] Memory required for data: 420086784
I0412 11:25:37.509379 29794 layer_factory.hpp:77] Creating layer conv2
I0412 11:25:37.509403 29794 net.cpp:84] Creating Layer conv2
I0412 11:25:37.509410 29794 net.cpp:406] conv2 <- conv2_0_relu2_0_0_split_0
I0412 11:25:37.509420 29794 net.cpp:380] conv2 -> conv2
I0412 11:25:37.516598 29794 net.cpp:122] Setting up conv2
I0412 11:25:37.516618 29794 net.cpp:129] Top shape: 128 32 48 48 (9437184)
I0412 11:25:37.516623 29794 net.cpp:137] Memory required for data: 457835520
I0412 11:25:37.516631 29794 layer_factory.hpp:77] Creating layer relu2
I0412 11:25:37.516640 29794 net.cpp:84] Creating Layer relu2
I0412 11:25:37.516644 29794 net.cpp:406] relu2 <- conv2
I0412 11:25:37.516652 29794 net.cpp:367] relu2 -> conv2 (in-place)
I0412 11:25:37.517869 29794 net.cpp:122] Setting up relu2
I0412 11:25:37.517881 29794 net.cpp:129] Top shape: 128 32 48 48 (9437184)
I0412 11:25:37.517885 29794 net.cpp:137] Memory required for data: 495584256
I0412 11:25:37.517889 29794 layer_factory.hpp:77] Creating layer conv3
I0412 11:25:37.517904 29794 net.cpp:84] Creating Layer conv3
I0412 11:25:37.517910 29794 net.cpp:406] conv3 <- conv2
I0412 11:25:37.517920 29794 net.cpp:380] conv3 -> conv3
I0412 11:25:37.524989 29794 net.cpp:122] Setting up conv3
I0412 11:25:37.525017 29794 net.cpp:129] Top shape: 128 32 48 48 (9437184)
I0412 11:25:37.525023 29794 net.cpp:137] Memory required for data: 533332992
I0412 11:25:37.525044 29794 layer_factory.hpp:77] Creating layer res1
I0412 11:25:37.525063 29794 net.cpp:84] Creating Layer res1
I0412 11:25:37.525072 29794 net.cpp:406] res1 <- conv2_0_relu2_0_0_split_1
I0412 11:25:37.525086 29794 net.cpp:406] res1 <- conv3
I0412 11:25:37.525096 29794 net.cpp:380] res1 -> res1
I0412 11:25:37.525138 29794 net.cpp:122] Setting up res1
I0412 11:25:37.525149 29794 net.cpp:129] Top shape: 128 32 48 48 (9437184)
I0412 11:25:37.525154 29794 net.cpp:137] Memory required for data: 571081728
I0412 11:25:37.525161 29794 layer_factory.hpp:77] Creating layer pool2
I0412 11:25:37.525176 29794 net.cpp:84] Creating Layer pool2
I0412 11:25:37.525182 29794 net.cpp:406] pool2 <- res1
I0412 11:25:37.525190 29794 net.cpp:380] pool2 -> pool2
I0412 11:25:37.525247 29794 net.cpp:122] Setting up pool2
I0412 11:25:37.525256 29794 net.cpp:129] Top shape: 128 32 24 24 (2359296)
I0412 11:25:37.525261 29794 net.cpp:137] Memory required for data: 580518912
I0412 11:25:37.525267 29794 layer_factory.hpp:77] Creating layer relu3
I0412 11:25:37.525282 29794 net.cpp:84] Creating Layer relu3
I0412 11:25:37.525287 29794 net.cpp:406] relu3 <- pool2
I0412 11:25:37.525297 29794 net.cpp:367] relu3 -> pool2 (in-place)
I0412 11:25:37.527926 29794 net.cpp:122] Setting up relu3
I0412 11:25:37.527938 29794 net.cpp:129] Top shape: 128 32 24 24 (2359296)
I0412 11:25:37.527945 29794 net.cpp:137] Memory required for data: 589956096
I0412 11:25:37.527951 29794 layer_factory.hpp:77] Creating layer conv3_0
I0412 11:25:37.527967 29794 net.cpp:84] Creating Layer conv3_0
I0412 11:25:37.527973 29794 net.cpp:406] conv3_0 <- pool2
I0412 11:25:37.527983 29794 net.cpp:380] conv3_0 -> conv3_0
I0412 11:25:37.532487 29794 net.cpp:122] Setting up conv3_0
I0412 11:25:37.532505 29794 net.cpp:129] Top shape: 128 64 24 24 (4718592)
I0412 11:25:37.532511 29794 net.cpp:137] Memory required for data: 608830464
I0412 11:25:37.532523 29794 layer_factory.hpp:77] Creating layer relu3_0
I0412 11:25:37.532564 29794 net.cpp:84] Creating Layer relu3_0
I0412 11:25:37.532591 29794 net.cpp:406] relu3_0 <- conv3_0
I0412 11:25:37.532608 29794 net.cpp:367] relu3_0 -> conv3_0 (in-place)
I0412 11:25:37.534931 29794 net.cpp:122] Setting up relu3_0
I0412 11:25:37.534965 29794 net.cpp:129] Top shape: 128 64 24 24 (4718592)
I0412 11:25:37.534972 29794 net.cpp:137] Memory required for data: 627704832
I0412 11:25:37.534981 29794 layer_factory.hpp:77] Creating layer conv3_0_relu3_0_0_split
I0412 11:25:37.534996 29794 net.cpp:84] Creating Layer conv3_0_relu3_0_0_split
I0412 11:25:37.535004 29794 net.cpp:406] conv3_0_relu3_0_0_split <- conv3_0
I0412 11:25:37.535015 29794 net.cpp:380] conv3_0_relu3_0_0_split -> conv3_0_relu3_0_0_split_0
I0412 11:25:37.535071 29794 net.cpp:380] conv3_0_relu3_0_0_split -> conv3_0_relu3_0_0_split_1
I0412 11:25:37.535221 29794 net.cpp:122] Setting up conv3_0_relu3_0_0_split
I0412 11:25:37.535233 29794 net.cpp:129] Top shape: 128 64 24 24 (4718592)
I0412 11:25:37.535238 29794 net.cpp:129] Top shape: 128 64 24 24 (4718592)
I0412 11:25:37.535243 29794 net.cpp:137] Memory required for data: 665453568
I0412 11:25:37.535248 29794 layer_factory.hpp:77] Creating layer conv4
I0412 11:25:37.535284 29794 net.cpp:84] Creating Layer conv4
I0412 11:25:37.535290 29794 net.cpp:406] conv4 <- conv3_0_relu3_0_0_split_0
I0412 11:25:37.535298 29794 net.cpp:380] conv4 -> conv4
I0412 11:25:37.541285 29794 net.cpp:122] Setting up conv4
I0412 11:25:37.541329 29794 net.cpp:129] Top shape: 128 64 24 24 (4718592)
I0412 11:25:37.541337 29794 net.cpp:137] Memory required for data: 684327936
I0412 11:25:37.541353 29794 layer_factory.hpp:77] Creating layer relu4
I0412 11:25:37.541371 29794 net.cpp:84] Creating Layer relu4
I0412 11:25:37.541379 29794 net.cpp:406] relu4 <- conv4
I0412 11:25:37.541389 29794 net.cpp:367] relu4 -> conv4 (in-place)
I0412 11:25:37.543494 29794 net.cpp:122] Setting up relu4
I0412 11:25:37.543509 29794 net.cpp:129] Top shape: 128 64 24 24 (4718592)
I0412 11:25:37.543514 29794 net.cpp:137] Memory required for data: 703202304
I0412 11:25:37.543519 29794 layer_factory.hpp:77] Creating layer conv5
I0412 11:25:37.543534 29794 net.cpp:84] Creating Layer conv5
I0412 11:25:37.543542 29794 net.cpp:406] conv5 <- conv4
I0412 11:25:37.543550 29794 net.cpp:380] conv5 -> conv5
I0412 11:25:37.549616 29794 net.cpp:122] Setting up conv5
I0412 11:25:37.549659 29794 net.cpp:129] Top shape: 128 64 24 24 (4718592)
I0412 11:25:37.549674 29794 net.cpp:137] Memory required for data: 722076672
I0412 11:25:37.549695 29794 layer_factory.hpp:77] Creating layer res2
I0412 11:25:37.549713 29794 net.cpp:84] Creating Layer res2
I0412 11:25:37.549729 29794 net.cpp:406] res2 <- conv3_0_relu3_0_0_split_1
I0412 11:25:37.549746 29794 net.cpp:406] res2 <- conv5
I0412 11:25:37.549762 29794 net.cpp:380] res2 -> res2
I0412 11:25:37.549824 29794 net.cpp:122] Setting up res2
I0412 11:25:37.549845 29794 net.cpp:129] Top shape: 128 64 24 24 (4718592)
I0412 11:25:37.549859 29794 net.cpp:137] Memory required for data: 740951040
I0412 11:25:37.549870 29794 layer_factory.hpp:77] Creating layer pool3
I0412 11:25:37.549888 29794 net.cpp:84] Creating Layer pool3
I0412 11:25:37.549901 29794 net.cpp:406] pool3 <- res2
I0412 11:25:37.549917 29794 net.cpp:380] pool3 -> pool3
I0412 11:25:37.549991 29794 net.cpp:122] Setting up pool3
I0412 11:25:37.550010 29794 net.cpp:129] Top shape: 128 64 12 12 (1179648)
I0412 11:25:37.550024 29794 net.cpp:137] Memory required for data: 745669632
I0412 11:25:37.550035 29794 layer_factory.hpp:77] Creating layer relu5
I0412 11:25:37.550051 29794 net.cpp:84] Creating Layer relu5
I0412 11:25:37.550065 29794 net.cpp:406] relu5 <- pool3
I0412 11:25:37.550079 29794 net.cpp:367] relu5 -> pool3 (in-place)
I0412 11:25:37.551780 29794 net.cpp:122] Setting up relu5
I0412 11:25:37.551810 29794 net.cpp:129] Top shape: 128 64 12 12 (1179648)
I0412 11:25:37.551817 29794 net.cpp:137] Memory required for data: 750388224
I0412 11:25:37.551822 29794 layer_factory.hpp:77] Creating layer fc1
I0412 11:25:37.551833 29794 net.cpp:84] Creating Layer fc1
I0412 11:25:37.551851 29794 net.cpp:406] fc1 <- pool3
I0412 11:25:37.551861 29794 net.cpp:380] fc1 -> fc1
I0412 11:25:37.995627 29794 net.cpp:122] Setting up fc1
I0412 11:25:37.995658 29794 net.cpp:129] Top shape: 128 2048 (262144)
I0412 11:25:37.995663 29794 net.cpp:137] Memory required for data: 751436800
I0412 11:25:37.995679 29794 layer_factory.hpp:77] Creating layer relu6
I0412 11:25:37.995689 29794 net.cpp:84] Creating Layer relu6
I0412 11:25:37.995694 29794 net.cpp:406] relu6 <- fc1
I0412 11:25:37.995700 29794 net.cpp:367] relu6 -> fc1 (in-place)
I0412 11:25:37.995967 29794 net.cpp:122] Setting up relu6
I0412 11:25:37.995980 29794 net.cpp:129] Top shape: 128 2048 (262144)
I0412 11:25:37.995982 29794 net.cpp:137] Memory required for data: 752485376
I0412 11:25:37.995985 29794 layer_factory.hpp:77] Creating layer drop1
I0412 11:25:37.995991 29794 net.cpp:84] Creating Layer drop1
I0412 11:25:37.995995 29794 net.cpp:406] drop1 <- fc1
I0412 11:25:37.995999 29794 net.cpp:367] drop1 -> fc1 (in-place)
I0412 11:25:37.996031 29794 net.cpp:122] Setting up drop1
I0412 11:25:37.996038 29794 net.cpp:129] Top shape: 128 2048 (262144)
I0412 11:25:37.996042 29794 net.cpp:137] Memory required for data: 753533952
I0412 11:25:37.996044 29794 layer_factory.hpp:77] Creating layer fc2
I0412 11:25:37.996052 29794 net.cpp:84] Creating Layer fc2
I0412 11:25:37.996055 29794 net.cpp:406] fc2 <- fc1
I0412 11:25:37.996060 29794 net.cpp:380] fc2 -> fc2
I0412 11:25:38.091109 29794 net.cpp:122] Setting up fc2
I0412 11:25:38.091135 29794 net.cpp:129] Top shape: 128 2048 (262144)
I0412 11:25:38.091140 29794 net.cpp:137] Memory required for data: 754582528
I0412 11:25:38.091150 29794 layer_factory.hpp:77] Creating layer relu7
I0412 11:25:38.091159 29794 net.cpp:84] Creating Layer relu7
I0412 11:25:38.091164 29794 net.cpp:406] relu7 <- fc2
I0412 11:25:38.091171 29794 net.cpp:367] relu7 -> fc2 (in-place)
I0412 11:25:38.091732 29794 net.cpp:122] Setting up relu7
I0412 11:25:38.091747 29794 net.cpp:129] Top shape: 128 2048 (262144)
I0412 11:25:38.091749 29794 net.cpp:137] Memory required for data: 755631104
I0412 11:25:38.091753 29794 layer_factory.hpp:77] Creating layer drop2
I0412 11:25:38.091761 29794 net.cpp:84] Creating Layer drop2
I0412 11:25:38.091766 29794 net.cpp:406] drop2 <- fc2
I0412 11:25:38.091773 29794 net.cpp:367] drop2 -> fc2 (in-place)
I0412 11:25:38.091804 29794 net.cpp:122] Setting up drop2
I0412 11:25:38.091810 29794 net.cpp:129] Top shape: 128 2048 (262144)
I0412 11:25:38.091814 29794 net.cpp:137] Memory required for data: 756679680
I0412 11:25:38.091815 29794 layer_factory.hpp:77] Creating layer fc3
I0412 11:25:38.091828 29794 net.cpp:84] Creating Layer fc3
I0412 11:25:38.091832 29794 net.cpp:406] fc3 <- fc2
I0412 11:25:38.091838 29794 net.cpp:380] fc3 -> fc3
I0412 11:25:38.094715 29794 net.cpp:122] Setting up fc3
I0412 11:25:38.094724 29794 net.cpp:129] Top shape: 128 63 (8064)
I0412 11:25:38.094728 29794 net.cpp:137] Memory required for data: 756711936
I0412 11:25:38.094734 29794 layer_factory.hpp:77] Creating layer fc3_fc3_0_split
I0412 11:25:38.094739 29794 net.cpp:84] Creating Layer fc3_fc3_0_split
I0412 11:25:38.094743 29794 net.cpp:406] fc3_fc3_0_split <- fc3
I0412 11:25:38.094748 29794 net.cpp:380] fc3_fc3_0_split -> fc3_fc3_0_split_0
I0412 11:25:38.094753 29794 net.cpp:380] fc3_fc3_0_split -> fc3_fc3_0_split_1
I0412 11:25:38.094785 29794 net.cpp:122] Setting up fc3_fc3_0_split
I0412 11:25:38.094791 29794 net.cpp:129] Top shape: 128 63 (8064)
I0412 11:25:38.094794 29794 net.cpp:129] Top shape: 128 63 (8064)
I0412 11:25:38.094797 29794 net.cpp:137] Memory required for data: 756776448
I0412 11:25:38.094800 29794 layer_factory.hpp:77] Creating layer loss
I0412 11:25:38.094806 29794 net.cpp:84] Creating Layer loss
I0412 11:25:38.094811 29794 net.cpp:406] loss <- fc3_fc3_0_split_0
I0412 11:25:38.094818 29794 net.cpp:406] loss <- pose_pose_0_split_0
I0412 11:25:38.094825 29794 net.cpp:380] loss -> loss
…
  transform_param {
    is_trans: false
    is_rotate: false
    is_zoom: false
  }
  pose_data_param {
    image_source: "/home/workspace/Datasets/MSRA/cvpr15_MSRAHandGestureDB/test_image_7.txt"
    label_source: "/home/workspace/Datasets/MSRA/cvpr15_MSRAHandGestureDB/test_label_7.txt"
    batch_size: 128
    shuffle: false
    new_height: 96
    new_width: 96
    root_folder: "/home/workspace/Datasets/MSRA/cvpr15_MSRAHandGestureDB/"
    point_num: 21
    point_dim: 3
    fx: 241.42
    fy: 241.42
    output_center: true
    cube_length: 150
    dataset: MSRA
  }
}
layer {
  name: "pose"
  type: "Slice"
  bottom: "label"
  top: "pose"
  top: "center"
  include {
    phase: TEST
  }
  slice_param {
    slice_dim: 1
    slice_point: 63
  }
}
layer {
  name: "conv0"
  type: "Convolution"
  bottom: "data"
  top: "conv0"
  param {
    lr_mult: 1
  }
  param {
    lr_mult: 2
  }
  convolution_param {
    num_output: 16
    pad: 1
    kernel_size: 3
    stride: 1
    weight_filler {
      type: "msra"
    }
    bias_filler {
      type: "constant"
    }
  }
}
layer {
  name: "relu0"
  type: "ReLU"
  bottom: "conv0"
  top: "conv0"
}
layer {
  name: "conv1"
  type: "Convolution"
  bottom: "conv0"
  top: "conv1"
  param {
    lr_mult: 1
  }
  param {
    lr_mult: 2
  }
  convolution_param {
    num_output: 16
    pad: 1
    kernel_size: 3
    stride: 1
    weight_filler {
      type: "msra"
    }
    bias_filler {
      type: "constant"
    }
  }
}
layer {
  name: "pool1"
  type: "Pooling"
  bottom: "conv1"
  top: "pool1"
  pooling_param {
    pool: MAX
    kernel_size: 2
    stride: 2
  }
}
layer {
  name: "relu1"
  type: "ReLU"
  bottom: "pool1"
  top: "pool1"
}
layer {
  name: "conv2_0"
  type: "Convolution"
  bottom: "pool1"
  top: "conv2_0"
  param {
    lr_mult: 1
  }
  param {
    lr_mult: 2
  }
  convolution_param {
    num_output: 32
    pad: 0
    kernel_size: 1
    stride: 1
    weight_filler {
      type: "msra"
    }
    bias_filler {
      type: "constant"
    }
  }
}
layer {
  name: "relu2_0"
  type: "ReLU"
  bottom: "conv2_0"
  top: "conv2_0"
}
layer {
  name: "conv2"
  type: "Convolution"
  bottom: "conv2_0"
  top: "conv2"
  param {
    lr_mult: 1
  }
  param {
    lr_mult: 2
  }
  convolution_param {
    num_output: 32
    pad: 1
    kernel_size: 3
    stride: 1
    weight_filler {
      type: "msra"
    }
    bias_filler {
      type: "constant"
    }
  }
}
layer {
  name: "relu2"
  type: "ReLU"
  bottom: "conv2"
  top: "conv2"
}
layer {
  name: "conv3"
  type: "Convolution"
  bottom: "conv2"
  top: "conv3"
  param {
    lr_mult: 1
  }
  param {
    lr_mult: 2
  }
  convolution_param {
    num_output: 32
    pad: 1
    kernel_size: 3
    stride: 1
    weight_filler {
      type: "msra"
    }
    bias_filler {
      type: "constant"
    }
  }
}
layer {
  name: "res1"
  type: "Eltwise"
  bottom: "conv2_0"
  bottom: "conv3"
  top: "res1"
}
layer {
  name: "pool2"
  type: "Pooling"
  bottom: "res1"
  top: "pool2"
  pooling_param {
    pool: MAX
    kernel_size: 2
    stride: 2
  }
}
layer {
  name: "relu3"
  type: "ReLU"
  bottom: "pool2"
  top: "pool2"
}
layer {
  name: "conv3_0"
  type: "Convolution"
  bottom: "pool2"
  top: "conv3_0"
  param {
    lr_mult: 1
  }
  param {
    lr_mult: 2
  }
  convolution_param {
    num_output: 64
    pad: 0
    kernel_size: 1
    stride: 1
    weight_filler {
      type: "msra"
    }
    bias_filler {
      type: "constant"
    }
  }
}
layer {
  name: "relu3_0"
  type: "ReLU"
  bottom: "conv3_0"
  top: "conv3_0"
}
layer {
  name: "conv4"
  type: "Convolution"
  bottom: "conv3_0"
  top: "conv4"
  param {
    lr_mult: 1
  }
  param {
    lr_mult: 2
  }
  convolution_param {
    num_output: 64
    pad: 1
    kernel_size: 3
    stride: 1
    weight_filler {
      type: "msra"
    }
    bias_filler {
      type: "constant"
    }
  }
}
layer {
  name: "relu4"
  type: "ReLU"
  bottom: "conv4"
  top: "conv4"
}
layer {
  name: "conv5"
  type: "Convolution"
  bottom: "conv4"
  top: "conv5"
  param {
    lr_mult: 1
  }
  param {
    lr_mult: 2
  }
  convolution_param {
    num_output: 64
    pad: 1
    kernel_size: 3
    stride: 1
    weight_filler {
      type: "msra"
    }
    bias_filler {
      type: "constant"
    }
  }
}
layer {
  name: "res2"
  type: "Eltwise"
  bottom: "conv3_0"
  bottom: "conv5"
  top: "res2"
}
layer {
  name: "pool3"
  type: "Pooling"
  bottom: "res2"
  top: "pool3"
  pooling_param {
    pool: MAX
    kernel_size: 2
    stride: 2
  }
}
layer {
  name: "relu5"
  type: "ReLU"
  bottom: "pool3"
  top: "pool3"
}
layer {
  name: "fc1"
  type: "InnerProduct"
  bottom: "pool3"
  top: "fc1"
  param {
    lr_mult: 1
  }
  param {
    lr_mult: 2
  }
  inner_product_param {
    num_output: 2048
    weight_filler {
      type: "gaussian"
      std: 0.001
    }
    bias_filler {
      type: "constant"
    }
  }
}
layer {
  name: "relu6"
  type: "ReLU"
  bottom: "fc1"
  top: "fc1"
}
layer {
  name: "drop1"
  type: "Dropout"
  bottom: "fc1"
  top: "fc1"
  dropout_param {
    dropout_ratio: 0.5
  }
}
layer {
  name: "fc2"
  type: "InnerProduct"
  bottom: "fc1"
  top: "fc2"
  param {
    lr_mult: 1
  }
  param {
    lr_mult: 2
  }
  inner_product_param {
    num_output: 2048
    weight_filler {
      type: "gaussian"
      std: 0.001
    }
    bias_filler {
      type: "constant"
    }
  }
}
layer {
  name: "relu7"
  type: "ReLU"
  bottom: "fc2"
  top: "fc2"
}
layer {
  name: "drop2"
  type: "Dropout"
  bottom: "fc2"
  top: "fc2"
  dropout_param {
    dropout_ratio: 0.5
  }
}
layer {
  name: "fc3"
  type: "InnerProduct"
  bottom: "fc2"
  top: "fc3"
  param {
    lr_mult: 1
  }
  param {
    lr_mult: 2
  }
  inner_product_param {
    num_output: 63
    weight_filler {
      type: "gaussian"
      std: 0.001
    }
    bias_filler {
      type: "constant"
    }
  }
}
layer {
  name: "error"
  type: "PoseDistance"
  bottom: "fc3"
  bottom: "pose"
  bottom: "center"
  top: "error"
  top: "output"
  include {
    phase: TEST
  }
  pose_distance_param {
    fx: 241.42
    fy: 241.42
    ux: 160
    uy: 120
    output_pose: true
    cube_length: 150
  }
}
I0413 04:58:02.693397  8882 layer_factory.hpp:77] Creating layer data
I0413 04:58:02.693441  8882 net.cpp:84] Creating Layer data
I0413 04:58:02.693457  8882 net.cpp:380] data -> data
I0413 04:58:02.693491  8882 net.cpp:380] data -> label
I0413 04:58:02.693524  8882 pose_data_layer.cpp:117] Opening file /home/workspace/Datasets/MSRA/cvpr15_MSRAHandGestureDB/test_image_7.txt
I0413 04:58:02.693567  8882 pose_data_layer.cpp:119] Opening file /home/workspace/Datasets/MSRA/cvpr15_MSRAHandGestureDB/test_label_7.txt
I0413 04:58:03.172926  8882 pose_data_layer.cpp:269] Loading 1 image...
I0413 04:58:04.384788  8882 pose_data_layer.cpp:269] Loading 2001 image...
I0413 04:58:05.460753  8882 pose_data_layer.cpp:269] Loading 4001 image...
I0413 04:58:06.294726  8882 pose_data_layer.cpp:269] Loading 6001 image...
I0413 04:58:07.067989  8882 pose_data_layer.cpp:269] Loading 8001 image...
I0413 04:58:07.338536  8882 pose_data_layer.cpp:287] A total of 8498 images.
I0413 04:58:07.662694  8882 pose_data_layer.cpp:329] output data size: 128,1,96,96
I0413 04:58:07.672760  8882 net.cpp:122] Setting up data
I0413 04:58:07.672791  8882 net.cpp:129] Top shape: 128 1 96 96 (1179648)
I0413 04:58:07.672796  8882 net.cpp:129] Top shape: 128 66 (8448)
I0413 04:58:07.672801  8882 net.cpp:137] Memory required for data: 4752384
I0413 04:58:07.672807  8882 layer_factory.hpp:77] Creating layer pose
I0413 04:58:07.672824  8882 net.cpp:84] Creating Layer pose
I0413 04:58:07.672833  8882 net.cpp:406] pose <- label
I0413 04:58:07.672876  8882 net.cpp:380] pose -> pose
I0413 04:58:07.672907  8882 net.cpp:380] pose -> center
I0413 04:58:07.672984  8882 net.cpp:122] Setting up pose
I0413 04:58:07.673007  8882 net.cpp:129] Top shape: 128 63 (8064)
I0413 04:58:07.673023  8882 net.cpp:129] Top shape: 128 3 (384)
I0413 04:58:07.673053  8882 net.cpp:137] Memory required for data: 4786176
I0413 04:58:07.673069  8882 layer_factory.hpp:77] Creating layer conv0
I0413 04:58:07.678995  8882 net.cpp:84] Creating Layer conv0
I0413 04:58:07.679018  8882 net.cpp:406] conv0 <- data
I0413 04:58:07.679031  8882 net.cpp:380] conv0 -> conv0
I0413 04:58:08.995687  8882 net.cpp:122] Setting up conv0
I0413 04:58:08.995718  8882 net.cpp:129] Top shape: 128 16 96 96 (18874368)
I0413 04:58:08.995725  8882 net.cpp:137] Memory required for data: 80283648
I0413 04:58:08.995748  8882 layer_factory.hpp:77] Creating layer relu0
I0413 04:58:08.995762  8882 net.cpp:84] Creating Layer relu0
I0413 04:58:08.995770  8882 net.cpp:406] relu0 <- conv0
I0413 04:58:08.995780  8882 net.cpp:367] relu0 -> conv0 (in-place)
I0413 04:58:08.997880  8882 net.cpp:122] Setting up relu0
I0413 04:58:08.997896  8882 net.cpp:129] Top shape: 128 16 96 96 (18874368)
I0413 04:58:08.997905  8882 net.cpp:137] Memory required for data: 155781120
I0413 04:58:08.997912  8882 layer_factory.hpp:77] Creating layer conv1
I0413 04:58:08.997933  8882 net.cpp:84] Creating Layer conv1
I0413 04:58:08.997939  8882 net.cpp:406] conv1 <- conv0
I0413 04:58:08.997951  8882 net.cpp:380] conv1 -> conv1
I0413 04:58:09.003432  8882 net.cpp:122] Setting up conv1
I0413 04:58:09.003449  8882 net.cpp:129] Top shape: 128 16 96 96 (18874368)
I0413 04:58:09.003456  8882 net.cpp:137] Memory required for data: 231278592
I0413 04:58:09.003473  8882 layer_factory.hpp:77] Creating layer pool1
I0413 04:58:09.003491  8882 net.cpp:84] Creating Layer pool1
I0413 04:58:09.003497  8882 net.cpp:406] pool1 <- conv1
I0413 04:58:09.003509  8882 net.cpp:380] pool1 -> pool1
I0413 04:58:09.003557  8882 net.cpp:122] Setting up pool1
I0413 04:58:09.003567  8882 net.cpp:129] Top shape: 128 16 48 48 (4718592)
I0413 04:58:09.003574  8882 net.cpp:137] Memory required for data: 250152960
I0413 04:58:09.003582  8882 layer_factory.hpp:77] Creating layer relu1
I0413 04:58:09.003592  8882 net.cpp:84] Creating Layer relu1
I0413 04:58:09.003598  8882 net.cpp:406] relu1 <- pool1
I0413 04:58:09.003607  8882 net.cpp:367] relu1 -> pool1 (in-place)
I0413 04:58:09.007622  8882 net.cpp:122] Setting up relu1
I0413 04:58:09.007634  8882 net.cpp:129] Top shape: 128 16 48 48 (4718592)
I0413 04:58:09.007640  8882 net.cpp:137] Memory required for data: 269027328
I0413 04:58:09.007647  8882 layer_factory.hpp:77] Creating layer conv2_0
I0413 04:58:09.007665  8882 net.cpp:84] Creating Layer conv2_0
I0413 04:58:09.007674  8882 net.cpp:406] conv2_0 <- pool1
I0413 04:58:09.007683  8882 net.cpp:380] conv2_0 -> conv2_0
I0413 04:58:09.018046  8882 net.cpp:122] Setting up conv2_0
I0413 04:58:09.018075  8882 net.cpp:129] Top shape: 128 32 48 48 (9437184)
I0413 04:58:09.018082  8882 net.cpp:137] Memory required for data: 306776064
I0413 04:58:09.018101  8882 layer_factory.hpp:77] Creating layer relu2_0
I0413 04:58:09.018119  8882 net.cpp:84] Creating Layer relu2_0
I0413 04:58:09.018127  8882 net.cpp:406] relu2_0 <- conv2_0
I0413 04:58:09.018137  8882 net.cpp:367] relu2_0 -> conv2_0 (in-place)
I0413 04:58:09.019414  8882 net.cpp:122] Setting up relu2_0
I0413 04:58:09.019430  8882 net.cpp:129] Top shape: 128 32 48 48 (9437184)
I0413 04:58:09.019439  8882 net.cpp:137] Memory required for data: 344524800
I0413 04:58:09.019448  8882 layer_factory.hpp:77] Creating layer conv2_0_relu2_0_0_split
I0413 04:58:09.019459  8882 net.cpp:84] Creating Layer conv2_0_relu2_0_0_split
I0413 04:58:09.019466  8882 net.cpp:406] conv2_0_relu2_0_0_split <- conv2_0
I0413 04:58:09.019475  8882 net.cpp:380] conv2_0_relu2_0_0_split -> conv2_0_relu2_0_0_split_0
I0413 04:58:09.019490  8882 net.cpp:380] conv2_0_relu2_0_0_split -> conv2_0_relu2_0_0_split_1
I0413 04:58:09.019537  8882 net.cpp:122] Setting up conv2_0_relu2_0_0_split
I0413 04:58:09.019547  8882 net.cpp:129] Top shape: 128 32 48 48 (9437184)
I0413 04:58:09.019556  8882 net.cpp:129] Top shape: 128 32 48 48 (9437184)
I0413 04:58:09.019562  8882 net.cpp:137] Memory required for data: 420022272
I0413 04:58:09.019584  8882 layer_factory.hpp:77] Creating layer conv2
I0413 04:58:09.019604  8882 net.cpp:84] Creating Layer conv2
I0413 04:58:09.019611  8882 net.cpp:406] conv2 <- conv2_0_relu2_0_0_split_0
I0413 04:58:09.019623  8882 net.cpp:380] conv2 -> conv2
I0413 04:58:09.026646  8882 net.cpp:122] Setting up conv2
I0413 04:58:09.026692  8882 net.cpp:129] Top shape: 128 32 48 48 (9437184)
I0413 04:58:09.026711  8882 net.cpp:137] Memory required for data: 457771008
I0413 04:58:09.026736  8882 layer_factory.hpp:77] Creating layer relu2
I0413 04:58:09.026762  8882 net.cpp:84] Creating Layer relu2
I0413 04:58:09.026779  8882 net.cpp:406] relu2 <- conv2
I0413 04:58:09.026804  8882 net.cpp:367] relu2 -> conv2 (in-place)
I0413 04:58:09.029532  8882 net.cpp:122] Setting up relu2
I0413 04:58:09.029572  8882 net.cpp:129] Top shape: 128 32 48 48 (9437184)
I0413 04:58:09.029594  8882 net.cpp:137] Memory required for data: 495519744
I0413 04:58:09.029614  8882 layer_factory.hpp:77] Creating layer conv3
I0413 04:58:09.029647  8882 net.cpp:84] Creating Layer conv3
I0413 04:58:09.029666  8882 net.cpp:406] conv3 <- conv2
I0413 04:58:09.029688  8882 net.cpp:380] conv3 -> conv3
I0413 04:58:09.042120  8882 net.cpp:122] Setting up conv3
I0413 04:58:09.042146  8882 net.cpp:129] Top shape: 128 32 48 48 (9437184)
I0413 04:58:09.042151  8882 net.cpp:137] Memory required for data: 533268480
I0413 04:58:09.042165  8882 layer_factory.hpp:77] Creating layer res1
I0413 04:58:09.042173  8882 net.cpp:84] Creating Layer res1
I0413 04:58:09.042179  8882 net.cpp:406] res1 <- conv2_0_relu2_0_0_split_1
I0413 04:58:09.042184  8882 net.cpp:406] res1 <- conv3
I0413 04:58:09.042189  8882 net.cpp:380] res1 -> res1
I0413 04:58:09.042217  8882 net.cpp:122] Setting up res1
I0413 04:58:09.042224  8882 net.cpp:129] Top shape: 128 32 48 48 (9437184)
I0413 04:58:09.042227  8882 net.cpp:137] Memory required for data: 571017216
I0413 04:58:09.042230  8882 layer_factory.hpp:77] Creating layer pool2
I0413 04:58:09.042237  8882 net.cpp:84] Creating Layer pool2
I0413 04:58:09.042240  8882 net.cpp:406] pool2 <- res1
I0413 04:58:09.042244  8882 net.cpp:380] pool2 -> pool2
I0413 04:58:09.042280  8882 net.cpp:122] Setting up pool2
I0413 04:58:09.042286  8882 net.cpp:129] Top shape: 128 32 24 24 (2359296)
I0413 04:58:09.042289  8882 net.cpp:137] Memory required for data: 580454400
I0413 04:58:09.042292  8882 layer_factory.hpp:77] Creating layer relu3
I0413 04:58:09.042297  8882 net.cpp:84] Creating Layer relu3
I0413 04:58:09.042300  8882 net.cpp:406] relu3 <- pool2
I0413 04:58:09.042305  8882 net.cpp:367] relu3 -> pool2 (in-place)
I0413 04:58:09.046495  8882 net.cpp:122] Setting up relu3
I0413 04:58:09.046514  8882 net.cpp:129] Top shape: 128 32 24 24 (2359296)
I0413 04:58:09.046519  8882 net.cpp:137] Memory required for data: 589891584
I0413 04:58:09.046522  8882 layer_factory.hpp:77] Creating layer conv3_0
I0413 04:58:09.046537  8882 net.cpp:84] Creating Layer conv3_0
I0413 04:58:09.046543  8882 net.cpp:406] conv3_0 <- pool2
I0413 04:58:09.046551  8882 net.cpp:380] conv3_0 -> conv3_0
I0413 04:58:09.058712  8882 net.cpp:122] Setting up conv3_0
I0413 04:58:09.058727  8882 net.cpp:129] Top shape: 128 64 24 24 (4718592)
I0413 04:58:09.058730  8882 net.cpp:137] Memory required for data: 608765952
I0413 04:58:09.058737  8882 layer_factory.hpp:77] Creating layer relu3_0
I0413 04:58:09.058744  8882 net.cpp:84] Creating Layer relu3_0
I0413 04:58:09.058763  8882 net.cpp:406] relu3_0 <- conv3_0
I0413 04:58:09.058768  8882 net.cpp:367] relu3_0 -> conv3_0 (in-place)
I0413 04:58:09.062674  8882 net.cpp:122] Setting up relu3_0
I0413 04:58:09.062697  8882 net.cpp:129] Top shape: 128 64 24 24 (4718592)
I0413 04:58:09.062702  8882 net.cpp:137] Memory required for data: 627640320
I0413 04:58:09.062707  8882 layer_factory.hpp:77] Creating layer conv3_0_relu3_0_0_split
I0413 04:58:09.062717  8882 net.cpp:84] Creating Layer conv3_0_relu3_0_0_split
I0413 04:58:09.062724  8882 net.cpp:406] conv3_0_relu3_0_0_split <- conv3_0
I0413 04:58:09.062736  8882 net.cpp:380] conv3_0_relu3_0_0_split -> conv3_0_relu3_0_0_split_0
I0413 04:58:09.062775  8882 net.cpp:380] conv3_0_relu3_0_0_split -> conv3_0_relu3_0_0_split_1
I0413 04:58:09.062855  8882 net.cpp:122] Setting up conv3_0_relu3_0_0_split
I0413 04:58:09.062867  8882 net.cpp:129] Top shape: 128 64 24 24 (4718592)
I0413 04:58:09.062877  8882 net.cpp:129] Top shape: 128 64 24 24 (4718592)
I0413 04:58:09.062885  8882 net.cpp:137] Memory required for data: 665389056
I0413 04:58:09.062891  8882 layer_factory.hpp:77] Creating layer conv4
I0413 04:58:09.062907  8882 net.cpp:84] Creating Layer conv4
I0413 04:58:09.062913  8882 net.cpp:406] conv4 <- conv3_0_relu3_0_0_split_0
I0413 04:58:09.062924  8882 net.cpp:380] conv4 -> conv4
I0413 04:58:09.073418  8882 net.cpp:122] Setting up conv4
I0413 04:58:09.073434  8882 net.cpp:129] Top shape: 128 64 24 24 (4718592)
I0413 04:58:09.073438  8882 net.cpp:137] Memory required for data: 684263424
I0413 04:58:09.073446  8882 layer_factory.hpp:77] Creating layer relu4
I0413 04:58:09.073467  8882 net.cpp:84] Creating Layer relu4
I0413 04:58:09.073470  8882 net.cpp:406] relu4 <- conv4
I0413 04:58:09.073478  8882 net.cpp:367] relu4 -> conv4 (in-place)
I0413 04:58:09.077698  8882 net.cpp:122] Setting up relu4
I0413 04:58:09.077720  8882 net.cpp:129] Top shape: 128 64 24 24 (4718592)
I0413 04:58:09.077729  8882 net.cpp:137] Memory required for data: 703137792
I0413 04:58:09.077735  8882 layer_factory.hpp:77] Creating layer conv5
I0413 04:58:09.077754  8882 net.cpp:84] Creating Layer conv5
I0413 04:58:09.077781  8882 net.cpp:406] conv5 <- conv4
I0413 04:58:09.077811  8882 net.cpp:380] conv5 -> conv5
I0413 04:58:09.087518  8882 net.cpp:122] Setting up conv5
I0413 04:58:09.087539  8882 net.cpp:129] Top shape: 128 64 24 24 (4718592)
I0413 04:58:09.087546  8882 net.cpp:137] Memory required for data: 722012160
I0413 04:58:09.087558  8882 layer_factory.hpp:77] Creating layer res2
I0413 04:58:09.087576  8882 net.cpp:84] Creating Layer res2
I0413 04:58:09.087595  8882 net.cpp:406] res2 <- conv3_0_relu3_0_0_split_1
I0413 04:58:09.087620  8882 net.cpp:406] res2 <- conv5
I0413 04:58:09.087632  8882 net.cpp:380] res2 -> res2
I0413 04:58:09.087678  8882 net.cpp:122] Setting up res2
I0413 04:58:09.087689  8882 net.cpp:129] Top shape: 128 64 24 24 (4718592)
I0413 04:58:09.087703  8882 net.cpp:137] Memory required for data: 740886528
I0413 04:58:09.087710  8882 layer_factory.hpp:77] Creating layer pool3
I0413 04:58:09.087729  8882 net.cpp:84] Creating Layer pool3
I0413 04:58:09.087736  8882 net.cpp:406] pool3 <- res2
I0413 04:58:09.087754  8882 net.cpp:380] pool3 -> pool3
I0413 04:58:09.087805  8882 net.cpp:122] Setting up pool3
I0413 04:58:09.087815  8882 net.cpp:129] Top shape: 128 64 12 12 (1179648)
I0413 04:58:09.087829  8882 net.cpp:137] Memory required for data: 745605120
I0413 04:58:09.087836  8882 layer_factory.hpp:77] Creating layer relu5
I0413 04:58:09.087852  8882 net.cpp:84] Creating Layer relu5
I0413 04:58:09.087858  8882 net.cpp:406] relu5 <- pool3
I0413 04:58:09.087877  8882 net.cpp:367] relu5 -> pool3 (in-place)
I0413 04:58:09.090123  8882 net.cpp:122] Setting up relu5
I0413 04:58:09.090139  8882 net.cpp:129] Top shape: 128 64 12 12 (1179648)
I0413 04:58:09.090147  8882 net.cpp:137] Memory required for data: 750323712
I0413 04:58:09.090163  8882 layer_factory.hpp:77] Creating layer fc1
I0413 04:58:09.090178  8882 net.cpp:84] Creating Layer fc1
I0413 04:58:09.090195  8882 net.cpp:406] fc1 <- pool3
I0413 04:58:09.090209  8882 net.cpp:380] fc1 -> fc1
I0413 04:58:09.599941  8882 net.cpp:122] Setting up fc1
I0413 04:58:09.599972  8882 net.cpp:129] Top shape: 128 2048 (262144)
I0413 04:58:09.599978  8882 net.cpp:137] Memory required for data: 751372288
I0413 04:58:09.600001  8882 layer_factory.hpp:77] Creating layer relu6
I0413 04:58:09.600018  8882 net.cpp:84] Creating Layer relu6
I0413 04:58:09.600028  8882 net.cpp:406] relu6 <- fc1
I0413 04:58:09.600044  8882 net.cpp:367] relu6 -> fc1 (in-place)
I0413 04:58:09.600302  8882 net.cpp:122] Setting up relu6
I0413 04:58:09.600314  8882 net.cpp:129] Top shape: 128 2048 (262144)
I0413 04:58:09.600320  8882 net.cpp:137] Memory required for data: 752420864
I0413 04:58:09.600342  8882 layer_factory.hpp:77] Creating layer drop1
I0413 04:58:09.600354  8882 net.cpp:84] Creating Layer drop1
I0413 04:58:09.600361  8882 net.cpp:406] drop1 <- fc1
I0413 04:58:09.600373  8882 net.cpp:367] drop1 -> fc1 (in-place)
I0413 04:58:09.600410  8882 net.cpp:122] Setting up drop1
I0413 04:58:09.600419  8882 net.cpp:129] Top shape: 128 2048 (262144)
I0413 04:58:09.600425  8882 net.cpp:137] Memory required for data: 753469440
I0413 04:58:09.600445  8882 layer_factory.hpp:77] Creating layer fc2
I0413 04:58:09.600458  8882 net.cpp:84] Creating Layer fc2
I0413 04:58:09.600466  8882 net.cpp:406] fc2 <- fc1
I0413 04:58:09.600476  8882 net.cpp:380] fc2 -> fc2
I0413 04:58:09.709209  8882 net.cpp:122] Setting up fc2
I0413 04:58:09.709239  8882 net.cpp:129] Top shape: 128 2048 (262144)
I0413 04:58:09.709244  8882 net.cpp:137] Memory required for data: 754518016
I0413 04:58:09.709254  8882 layer_factory.hpp:77] Creating layer relu7
I0413 04:58:09.709267  8882 net.cpp:84] Creating Layer relu7
I0413 04:58:09.709276  8882 net.cpp:406] relu7 <- fc2
I0413 04:58:09.709286  8882 net.cpp:367] relu7 -> fc2 (in-place)
I0413 04:58:09.709991  8882 net.cpp:122] Setting up relu7
I0413 04:58:09.710008  8882 net.cpp:129] Top shape: 128 2048 (262144)
I0413 04:58:09.710014  8882 net.cpp:137] Memory required for data: 755566592
I0413 04:58:09.710022  8882 layer_factory.hpp:77] Creating layer drop2
I0413 04:58:09.710041  8882 net.cpp:84] Creating Layer drop2
I0413 04:58:09.710075  8882 net.cpp:406] drop2 <- fc2
I0413 04:58:09.710088  8882 net.cpp:367] drop2 -> fc2 (in-place)
I0413 04:58:09.710140  8882 net.cpp:122] Setting up drop2
I0413 04:58:09.710150  8882 net.cpp:129] Top shape: 128 2048 (262144)
I0413 04:58:09.710155  8882 net.cpp:137] Memory required for data: 756615168
I0413 04:58:09.710162  8882 layer_factory.hpp:77] Creating layer fc3
I0413 04:58:09.710175  8882 net.cpp:84] Creating Layer fc3
I0413 04:58:09.710180  8882 net.cpp:406] fc3 <- fc2
I0413 04:58:09.710191  8882 net.cpp:380] fc3 -> fc3
I0413 04:58:09.713965  8882 net.cpp:122] Setting up fc3
I0413 04:58:09.713982  8882 net.cpp:129] Top shape: 128 63 (8064)
I0413 04:58:09.713989  8882 net.cpp:137] Memory required for data: 756647424
I0413 04:58:09.714001  8882 layer_factory.hpp:77] Creating layer error
I0413 04:58:09.714021  8882 pose_distance_layer.cpp:48] Size of ids: 0
I0413 04:58:09.714031  8882 net.cpp:84] Creating Layer error
I0413 04:58:09.714037  8882 net.cpp:406] error <- fc3
I0413 04:58:09.714047  8882 net.cpp:406] error <- pose
I0413 04:58:09.714054  8882 net.cpp:406] error <- center
I0413 04:58:09.714066  8882 net.cpp:380] error -> error
I0413 04:58:09.714078  8882 net.cpp:380] error -> output
I0413 04:58:09.714107  8882 net.cpp:122] Setting up error
I0413 04:58:09.714117  8882 net.cpp:129] Top shape: (1)
I0413 04:58:09.714124  8882 net.cpp:129] Top shape: 128 63 (8064)
I0413 04:58:09.714130  8882 net.cpp:137] Memory required for data: 756679684
I0413 04:58:09.714138  8882 net.cpp:200] error does not need backward computation.
I0413 04:58:09.714145  8882 net.cpp:200] fc3 does not need backward computation.
I0413 04:58:09.714152  8882 net.cpp:200] drop2 does not need backward computation.
I0413 04:58:09.714159  8882 net.cpp:200] relu7 does not need backward computation.
…
