…
    trans_dy: 10
    is_rotate: true
    rotate_deg: 180
    is_zoom: true
    zoom_scale: 0.1
  }
  pose_data_param {
    image_source: "/home/workspace/Datasets/MSRA/cvpr15_MSRAHandGestureDB/train_image_8.txt"
    label_source: "/home/workspace/Datasets/MSRA/cvpr15_MSRAHandGestureDB/train_label_8.txt"
    batch_size: 128
    shuffle: true
    new_height: 96
    new_width: 96
    root_folder: "/home/workspace/Datasets/MSRA/cvpr15_MSRAHandGestureDB/"
    point_num: 21
    point_dim: 3
    fx: 241.42
    fy: 241.42
    cube_length: 150
    dataset: MSRA
  }
}
layer {
  name: "conv0"
  type: "Convolution"
  bottom: "data"
  top: "conv0"
  param {
    lr_mult: 1
  }
  param {
    lr_mult: 2
  }
  convolution_param {
    num_output: 16
    pad: 1
    kernel_size: 3
    stride: 1
    weight_filler {
      type: "msra"
    }
    bias_filler {
      type: "constant"
    }
  }
}
layer {
  name: "relu0"
  type: "ReLU"
  bottom: "conv0"
  top: "conv0"
}
layer {
  name: "conv1"
  type: "Convolution"
  bottom: "conv0"
  top: "conv1"
  param {
    lr_mult: 1
  }
  param {
    lr_mult: 2
  }
  convolution_param {
    num_output: 16
    pad: 1
    kernel_size: 3
    stride: 1
    weight_filler {
      type: "msra"
    }
    bias_filler {
      type: "constant"
    }
  }
}
layer {
  name: "pool1"
  type: "Pooling"
  bottom: "conv1"
  top: "pool1"
  pooling_param {
    pool: MAX
    kernel_size: 2
    stride: 2
  }
}
layer {
  name: "relu1"
  type: "ReLU"
  bottom: "pool1"
  top: "pool1"
}
layer {
  name: "conv2_0"
  type: "Convolution"
  bottom: "pool1"
  top: "conv2_0"
  param {
    lr_mult: 1
  }
  param {
    lr_mult: 2
  }
  convolution_param {
    num_output: 32
    pad: 0
    kernel_size: 1
    stride: 1
    weight_filler {
      type: "msra"
    }
    bias_filler {
      type: "constant"
    }
  }
}
layer {
  name: "relu2_0"
  type: "ReLU"
  bottom: "conv2_0"
  top: "conv2_0"
}
layer {
  name: "conv2"
  type: "Convolution"
  bottom: "conv2_0"
  top: "conv2"
  param {
    lr_mult: 1
  }
  param {
    lr_mult: 2
  }
  convolution_param {
    num_output: 32
    pad: 1
    kernel_size: 3
    stride: 1
    weight_filler {
      type: "msra"
    }
    bias_filler {
      type: "constant"
    }
  }
}
layer {
  name: "relu2"
  type: "ReLU"
  bottom: "conv2"
  top: "conv2"
}
layer {
  name: "conv3"
  type: "Convolution"
  bottom: "conv2"
  top: "conv3"
  param {
    lr_mult: 1
  }
  param {
    lr_mult: 2
  }
  convolution_param {
    num_output: 32
    pad: 1
    kernel_size: 3
    stride: 1
    weight_filler {
      type: "msra"
    }
    bias_filler {
      type: "constant"
    }
  }
}
layer {
  name: "res1"
  type: "Eltwise"
  bottom: "conv2_0"
  bottom: "conv3"
  top: "res1"
}
layer {
  name: "pool2"
  type: "Pooling"
  bottom: "res1"
  top: "pool2"
  pooling_param {
    pool: MAX
    kernel_size: 2
    stride: 2
  }
}
layer {
  name: "relu3"
  type: "ReLU"
  bottom: "pool2"
  top: "pool2"
}
layer {
  name: "conv3_0"
  type: "Convolution"
  bottom: "pool2"
  top: "conv3_0"
  param {
    lr_mult: 1
  }
  param {
    lr_mult: 2
  }
  convolution_param {
    num_output: 64
    pad: 0
    kernel_size: 1
    stride: 1
    weight_filler {
      type: "msra"
    }
    bias_filler {
      type: "constant"
    }
  }
}
layer {
  name: "relu3_0"
  type: "ReLU"
  bottom: "conv3_0"
  top: "conv3_0"
}
layer {
  name: "conv4"
  type: "Convolution"
  bottom: "conv3_0"
  top: "conv4"
  param {
    lr_mult: 1
  }
  param {
    lr_mult: 2
  }
  convolution_param {
    num_output: 64
    pad: 1
    kernel_size: 3
    stride: 1
    weight_filler {
      type: "msra"
    }
    bias_filler {
      type: "constant"
    }
  }
}
layer {
  name: "relu4"
  type: "ReLU"
  bottom: "conv4"
  top: "conv4"
}
layer {
  name: "conv5"
  type: "Convolution"
  bottom: "conv4"
  top: "conv5"
  param {
    lr_mult: 1
  }
  param {
    lr_mult: 2
  }
  convolution_param {
    num_output: 64
    pad: 1
    kernel_size: 3
    stride: 1
    weight_filler {
      type: "msra"
    }
    bias_filler {
      type: "constant"
    }
  }
}
layer {
  name: "res2"
  type: "Eltwise"
  bottom: "conv3_0"
  bottom: "conv5"
  top: "res2"
}
layer {
  name: "pool3"
  type: "Pooling"
  bottom: "res2"
  top: "pool3"
  pooling_param {
    pool: MAX
    kernel_size: 2
    stride: 2
  }
}
layer {
  name: "relu5"
  type: "ReLU"
  bottom: "pool3"
  top: "pool3"
}
layer {
  name: "fc1"
  type: "InnerProduct"
  bottom: "pool3"
  top: "fc1"
  param {
    lr_mult: 1
  }
  param {
    lr_mult: 2
  }
  inner_product_param {
    num_output: 2048
    weight_filler {
      type: "gaussian"
      std: 0.001
    }
    bias_filler {
      type: "constant"
    }
  }
}
layer {
  name: "relu6"
  type: "ReLU"
  bottom: "fc1"
  top: "fc1"
}
layer {
  name: "drop1"
  type: "Dropout"
  bottom: "fc1"
  top: "fc1"
  dropout_param {
    dropout_ratio: 0.5
  }
}
layer {
  name: "fc2"
  type: "InnerProduct"
  bottom: "fc1"
  top: "fc2"
  param {
    lr_mult: 1
  }
  param {
    lr_mult: 2
  }
  inner_product_param {
    num_output: 2048
    weight_filler {
      type: "gaussian"
      std: 0.001
    }
    bias_filler {
      type: "constant"
    }
  }
}
layer {
  name: "relu7"
  type: "ReLU"
  bottom: "fc2"
  top: "fc2"
}
layer {
  name: "drop2"
  type: "Dropout"
  bottom: "fc2"
  top: "fc2"
  dropout_param {
    dropout_ratio: 0.5
  }
}
layer {
  name: "fc3"
  type: "InnerProduct"
  bottom: "fc2"
  top: "fc3"
  param {
    lr_mult: 1
  }
  param {
    lr_mult: 2
  }
  inner_product_param {
    num_output: 63
    weight_filler {
      type: "gaussian"
      std: 0.001
    }
    bias_filler {
      type: "constant"
    }
  }
}
layer {
  name: "loss"
  type: "SmoothL1Loss"
  bottom: "fc3"
  bottom: "pose"
  top: "loss"
  loss_weight: 1
  smooth_l1_loss_param {
    sigma: 10
  }
}
I0412 11:24:54.824245 29862 layer_factory.hpp:77] Creating layer data
I0412 11:24:54.824259 29862 net.cpp:84] Creating Layer data
I0412 11:24:54.824262 29862 net.cpp:380] data -> data
I0412 11:24:54.824271 29862 net.cpp:380] data -> pose
I0412 11:24:54.824329 29862 pose_data_layer.cpp:117] Opening file /home/workspace/Datasets/MSRA/cvpr15_MSRAHandGestureDB/train_image_8.txt
…
I0412 11:25:32.217010 29862 pose_data_layer.cpp:269] Loading 60001 image...
I0412 11:25:32.696153 29862 pose_data_layer.cpp:269] Loading 62001 image...
I0412 11:25:33.196279 29862 pose_data_layer.cpp:269] Loading 64001 image...
I0412 11:25:33.858628 29862 pose_data_layer.cpp:269] Loading 66001 image...
I0412 11:25:34.291438 29862 pose_data_layer.cpp:282] Shuffling data
I0412 11:25:34.292507 29862 pose_data_layer.cpp:287] A total of 67883 images.
I0412 11:25:34.293187 29862 pose_data_layer.cpp:329] output data size: 128,1,96,96
I0412 11:25:34.304193 29862 net.cpp:122] Setting up data
I0412 11:25:34.304237 29862 net.cpp:129] Top shape: 128 1 96 96 (1179648)
I0412 11:25:34.304244 29862 net.cpp:129] Top shape: 128 63 (8064)
I0412 11:25:34.304250 29862 net.cpp:137] Memory required for data: 4750848
I0412 11:25:34.304261 29862 layer_factory.hpp:77] Creating layer conv0
I0412 11:25:34.304296 29862 net.cpp:84] Creating Layer conv0
I0412 11:25:34.304363 29862 net.cpp:406] conv0 <- data
I0412 11:25:34.304386 29862 net.cpp:380] conv0 -> conv0
I0412 11:25:34.841493 29862 net.cpp:122] Setting up conv0
I0412 11:25:34.841526 29862 net.cpp:129] Top shape: 128 16 96 96 (18874368)
I0412 11:25:34.841531 29862 net.cpp:137] Memory required for data: 80248320
I0412 11:25:34.841552 29862 layer_factory.hpp:77] Creating layer relu0
I0412 11:25:34.841568 29862 net.cpp:84] Creating Layer relu0
I0412 11:25:34.841574 29862 net.cpp:406] relu0 <- conv0
I0412 11:25:34.841583 29862 net.cpp:367] relu0 -> conv0 (in-place)
I0412 11:25:34.843653 29862 net.cpp:122] Setting up relu0
I0412 11:25:34.843667 29862 net.cpp:129] Top shape: 128 16 96 96 (18874368)
I0412 11:25:34.843672 29862 net.cpp:137] Memory required for data: 155745792
I0412 11:25:34.843677 29862 layer_factory.hpp:77] Creating layer conv1
I0412 11:25:34.843694 29862 net.cpp:84] Creating Layer conv1
I0412 11:25:34.843699 29862 net.cpp:406] conv1 <- conv0
I0412 11:25:34.843709 29862 net.cpp:380] conv1 -> conv1
I0412 11:25:34.849221 29862 net.cpp:122] Setting up conv1
I0412 11:25:34.849238 29862 net.cpp:129] Top shape: 128 16 96 96 (18874368)
I0412 11:25:34.849244 29862 net.cpp:137] Memory required for data: 231243264
I0412 11:25:34.849258 29862 layer_factory.hpp:77] Creating layer pool1
I0412 11:25:34.849272 29862 net.cpp:84] Creating Layer pool1
I0412 11:25:34.849277 29862 net.cpp:406] pool1 <- conv1
I0412 11:25:34.849285 29862 net.cpp:380] pool1 -> pool1
I0412 11:25:34.849330 29862 net.cpp:122] Setting up pool1
I0412 11:25:34.849340 29862 net.cpp:129] Top shape: 128 16 48 48 (4718592)
I0412 11:25:34.849344 29862 net.cpp:137] Memory required for data: 250117632
I0412 11:25:34.849350 29862 layer_factory.hpp:77] Creating layer relu1
I0412 11:25:34.849360 29862 net.cpp:84] Creating Layer relu1
I0412 11:25:34.849366 29862 net.cpp:406] relu1 <- pool1
I0412 11:25:34.849372 29862 net.cpp:367] relu1 -> pool1 (in-place)
I0412 11:25:34.850684 29862 net.cpp:122] Setting up relu1
I0412 11:25:34.850695 29862 net.cpp:129] Top shape: 128 16 48 48 (4718592)
I0412 11:25:34.850700 29862 net.cpp:137] Memory required for data: 268992000
I0412 11:25:34.850705 29862 layer_factory.hpp:77] Creating layer conv2_0
I0412 11:25:34.850720 29862 net.cpp:84] Creating Layer conv2_0
I0412 11:25:34.850725 29862 net.cpp:406] conv2_0 <- pool1
I0412 11:25:34.850733 29862 net.cpp:380] conv2_0 -> conv2_0
I0412 11:25:34.852514 29862 net.cpp:122] Setting up conv2_0
I0412 11:25:34.852527 29862 net.cpp:129] Top shape: 128 32 48 48 (9437184)
I0412 11:25:34.852533 29862 net.cpp:137] Memory required for data: 306740736
I0412 11:25:34.852545 29862 layer_factory.hpp:77] Creating layer relu2_0
I0412 11:25:34.852555 29862 net.cpp:84] Creating Layer relu2_0
I0412 11:25:34.852562 29862 net.cpp:406] relu2_0 <- conv2_0
I0412 11:25:34.852572 29862 net.cpp:367] relu2_0 -> conv2_0 (in-place)
I0412 11:25:34.856542 29862 net.cpp:122] Setting up relu2_0
I0412 11:25:34.856573 29862 net.cpp:129] Top shape: 128 32 48 48 (9437184)
I0412 11:25:34.856580 29862 net.cpp:137] Memory required for data: 344489472
I0412 11:25:34.856586 29862 layer_factory.hpp:77] Creating layer conv2_0_relu2_0_0_split
I0412 11:25:34.856600 29862 net.cpp:84] Creating Layer conv2_0_relu2_0_0_split
I0412 11:25:34.856628 29862 net.cpp:406] conv2_0_relu2_0_0_split <- conv2_0
I0412 11:25:34.856639 29862 net.cpp:380] conv2_0_relu2_0_0_split -> conv2_0_relu2_0_0_split_0
I0412 11:25:34.856650 29862 net.cpp:380] conv2_0_relu2_0_0_split -> conv2_0_relu2_0_0_split_1
I0412 11:25:34.856729 29862 net.cpp:122] Setting up conv2_0_relu2_0_0_split
I0412 11:25:34.856739 29862 net.cpp:129] Top shape: 128 32 48 48 (9437184)
I0412 11:25:34.856745 29862 net.cpp:129] Top shape: 128 32 48 48 (9437184)
I0412 11:25:34.856750 29862 net.cpp:137] Memory required for data: 419986944
I0412 11:25:34.856755 29862 layer_factory.hpp:77] Creating layer conv2
I0412 11:25:34.856772 29862 net.cpp:84] Creating Layer conv2
I0412 11:25:34.856778 29862 net.cpp:406] conv2 <- conv2_0_relu2_0_0_split_0
I0412 11:25:34.856786 29862 net.cpp:380] conv2 -> conv2
I0412 11:25:34.862010 29862 net.cpp:122] Setting up conv2
I0412 11:25:34.862025 29862 net.cpp:129] Top shape: 128 32 48 48 (9437184)
I0412 11:25:34.862027 29862 net.cpp:137] Memory required for data: 457735680
I0412 11:25:34.862033 29862 layer_factory.hpp:77] Creating layer relu2
I0412 11:25:34.862040 29862 net.cpp:84] Creating Layer relu2
I0412 11:25:34.862043 29862 net.cpp:406] relu2 <- conv2
I0412 11:25:34.862049 29862 net.cpp:367] relu2 -> conv2 (in-place)
I0412 11:25:34.864164 29862 net.cpp:122] Setting up relu2
I0412 11:25:34.864176 29862 net.cpp:129] Top shape: 128 32 48 48 (9437184)
I0412 11:25:34.864181 29862 net.cpp:137] Memory required for data: 495484416
I0412 11:25:34.864186 29862 layer_factory.hpp:77] Creating layer conv3
I0412 11:25:34.864199 29862 net.cpp:84] Creating Layer conv3
I0412 11:25:34.864205 29862 net.cpp:406] conv3 <- conv2
I0412 11:25:34.864214 29862 net.cpp:380] conv3 -> conv3
I0412 11:25:34.871018 29862 net.cpp:122] Setting up conv3
I0412 11:25:34.871040 29862 net.cpp:129] Top shape: 128 32 48 48 (9437184)
I0412 11:25:34.871047 29862 net.cpp:137] Memory required for data: 533233152
I0412 11:25:34.871062 29862 layer_factory.hpp:77] Creating layer res1
I0412 11:25:34.871073 29862 net.cpp:84] Creating Layer res1
I0412 11:25:34.871080 29862 net.cpp:406] res1 <- conv2_0_relu2_0_0_split_1
I0412 11:25:34.871088 29862 net.cpp:406] res1 <- conv3
I0412 11:25:34.871093 29862 net.cpp:380] res1 -> res1
I0412 11:25:34.871129 29862 net.cpp:122] Setting up res1
I0412 11:25:34.871140 29862 net.cpp:129] Top shape: 128 32 48 48 (9437184)
I0412 11:25:34.871145 29862 net.cpp:137] Memory required for data: 570981888
I0412 11:25:34.871150 29862 layer_factory.hpp:77] Creating layer pool2
I0412 11:25:34.871160 29862 net.cpp:84] Creating Layer pool2
I0412 11:25:34.871165 29862 net.cpp:406] pool2 <- res1
I0412 11:25:34.871171 29862 net.cpp:380] pool2 -> pool2
I0412 11:25:34.871213 29862 net.cpp:122] Setting up pool2
I0412 11:25:34.871222 29862 net.cpp:129] Top shape: 128 32 24 24 (2359296)
I0412 11:25:34.871227 29862 net.cpp:137] Memory required for data: 580419072
I0412 11:25:34.871232 29862 layer_factory.hpp:77] Creating layer relu3
I0412 11:25:34.871238 29862 net.cpp:84] Creating Layer relu3
I0412 11:25:34.871243 29862 net.cpp:406] relu3 <- pool2
I0412 11:25:34.871250 29862 net.cpp:367] relu3 -> pool2 (in-place)
I0412 11:25:34.872170 29862 net.cpp:122] Setting up relu3
I0412 11:25:34.872184 29862 net.cpp:129] Top shape: 128 32 24 24 (2359296)
I0412 11:25:34.872189 29862 net.cpp:137] Memory required for data: 589856256
I0412 11:25:34.872195 29862 layer_factory.hpp:77] Creating layer conv3_0
I0412 11:25:34.872222 29862 net.cpp:84] Creating Layer conv3_0
I0412 11:25:34.872229 29862 net.cpp:406] conv3_0 <- pool2
I0412 11:25:34.872241 29862 net.cpp:380] conv3_0 -> conv3_0
I0412 11:25:34.878739 29862 net.cpp:122] Setting up conv3_0
I0412 11:25:34.878762 29862 net.cpp:129] Top shape: 128 64 24 24 (4718592)
I0412 11:25:34.878768 29862 net.cpp:137] Memory required for data: 608730624
I0412 11:25:34.878779 29862 layer_factory.hpp:77] Creating layer relu3_0
I0412 11:25:34.878795 29862 net.cpp:84] Creating Layer relu3_0
I0412 11:25:34.878801 29862 net.cpp:406] relu3_0 <- conv3_0
I0412 11:25:34.878808 29862 net.cpp:367] relu3_0 -> conv3_0 (in-place)
I0412 11:25:34.880275 29862 net.cpp:122] Setting up relu3_0
I0412 11:25:34.880287 29862 net.cpp:129] Top shape: 128 64 24 24 (4718592)
I0412 11:25:34.880292 29862 net.cpp:137] Memory required for data: 627604992
I0412 11:25:34.880297 29862 layer_factory.hpp:77] Creating layer conv3_0_relu3_0_0_split
I0412 11:25:34.880308 29862 net.cpp:84] Creating Layer conv3_0_relu3_0_0_split
I0412 11:25:34.880313 29862 net.cpp:406] conv3_0_relu3_0_0_split <- conv3_0
I0412 11:25:34.880321 29862 net.cpp:380] conv3_0_relu3_0_0_split -> conv3_0_relu3_0_0_split_0
I0412 11:25:34.880333 29862 net.cpp:380] conv3_0_relu3_0_0_split -> conv3_0_relu3_0_0_split_1
I0412 11:25:34.880385 29862 net.cpp:122] Setting up conv3_0_relu3_0_0_split
I0412 11:25:34.880394 29862 net.cpp:129] Top shape: 128 64 24 24 (4718592)
I0412 11:25:34.880400 29862 net.cpp:129] Top shape: 128 64 24 24 (4718592)
I0412 11:25:34.880405 29862 net.cpp:137] Memory required for data: 665353728
I0412 11:25:34.880409 29862 layer_factory.hpp:77] Creating layer conv4
I0412 11:25:34.880424 29862 net.cpp:84] Creating Layer conv4
I0412 11:25:34.880429 29862 net.cpp:406] conv4 <- conv3_0_relu3_0_0_split_0
I0412 11:25:34.880439 29862 net.cpp:380] conv4 -> conv4
I0412 11:25:34.887301 29862 net.cpp:122] Setting up conv4
I0412 11:25:34.887320 29862 net.cpp:129] Top shape: 128 64 24 24 (4718592)
I0412 11:25:34.887325 29862 net.cpp:137] Memory required for data: 684228096
I0412 11:25:34.887336 29862 layer_factory.hpp:77] Creating layer relu4
I0412 11:25:34.887344 29862 net.cpp:84] Creating Layer relu4
I0412 11:25:34.887348 29862 net.cpp:406] relu4 <- conv4
I0412 11:25:34.887356 29862 net.cpp:367] relu4 -> conv4 (in-place)
I0412 11:25:34.888351 29862 net.cpp:122] Setting up relu4
I0412 11:25:34.888363 29862 net.cpp:129] Top shape: 128 64 24 24 (4718592)
I0412 11:25:34.888365 29862 net.cpp:137] Memory required for data: 703102464
I0412 11:25:34.888368 29862 layer_factory.hpp:77] Creating layer conv5
I0412 11:25:34.888378 29862 net.cpp:84] Creating Layer conv5
I0412 11:25:34.888382 29862 net.cpp:406] conv5 <- conv4
I0412 11:25:34.888393 29862 net.cpp:380] conv5 -> conv5
I0412 11:25:34.894392 29862 net.cpp:122] Setting up conv5
I0412 11:25:34.894407 29862 net.cpp:129] Top shape: 128 64 24 24 (4718592)
I0412 11:25:34.894410 29862 net.cpp:137] Memory required for data: 721976832
I0412 11:25:34.894417 29862 layer_factory.hpp:77] Creating layer res2
I0412 11:25:34.894421 29862 net.cpp:84] Creating Layer res2
I0412 11:25:34.894426 29862 net.cpp:406] res2 <- conv3_0_relu3_0_0_split_1
I0412 11:25:34.894433 29862 net.cpp:406] res2 <- conv5
I0412 11:25:34.894441 29862 net.cpp:380] res2 -> res2
I0412 11:25:34.894472 29862 net.cpp:122] Setting up res2
I0412 11:25:34.894479 29862 net.cpp:129] Top shape: 128 64 24 24 (4718592)
I0412 11:25:34.894481 29862 net.cpp:137] Memory required for data: 740851200
I0412 11:25:34.894485 29862 layer_factory.hpp:77] Creating layer pool3
I0412 11:25:34.894495 29862 net.cpp:84] Creating Layer pool3
I0412 11:25:34.894498 29862 net.cpp:406] pool3 <- res2
I0412 11:25:34.894503 29862 net.cpp:380] pool3 -> pool3
I0412 11:25:34.894539 29862 net.cpp:122] Setting up pool3
I0412 11:25:34.894546 29862 net.cpp:129] Top shape: 128 64 12 12 (1179648)
I0412 11:25:34.894548 29862 net.cpp:137] Memory required for data: 745569792
I0412 11:25:34.894552 29862 layer_factory.hpp:77] Creating layer relu5
I0412 11:25:34.894559 29862 net.cpp:84] Creating Layer relu5
I0412 11:25:34.894563 29862 net.cpp:406] relu5 <- pool3
I0412 11:25:34.894569 29862 net.cpp:367] relu5 -> pool3 (in-place)
I0412 11:25:34.895596 29862 net.cpp:122] Setting up relu5
I0412 11:25:34.895607 29862 net.cpp:129] Top shape: 128 64 12 12 (1179648)
I0412 11:25:34.895611 29862 net.cpp:137] Memory required for data: 750288384
I0412 11:25:34.895612 29862 layer_factory.hpp:77] Creating layer fc1
I0412 11:25:34.895622 29862 net.cpp:84] Creating Layer fc1
I0412 11:25:34.895627 29862 net.cpp:406] fc1 <- pool3
I0412 11:25:34.895634 29862 net.cpp:380] fc1 -> fc1
I0412 11:25:35.344548 29862 net.cpp:122] Setting up fc1
I0412 11:25:35.344574 29862 net.cpp:129] Top shape: 128 2048 (262144)
I0412 11:25:35.344578 29862 net.cpp:137] Memory required for data: 751336960
I0412 11:25:35.344594 29862 layer_factory.hpp:77] Creating layer relu6
I0412 11:25:35.344604 29862 net.cpp:84] Creating Layer relu6
I0412 11:25:35.344607 29862 net.cpp:406] relu6 <- fc1
I0412 11:25:35.344614 29862 net.cpp:367] relu6 -> fc1 (in-place)
I0412 11:25:35.344861 29862 net.cpp:122] Setting up relu6
I0412 11:25:35.344872 29862 net.cpp:129] Top shape: 128 2048 (262144)
I0412 11:25:35.344874 29862 net.cpp:137] Memory required for data: 752385536
I0412 11:25:35.344877 29862 layer_factory.hpp:77] Creating layer drop1
I0412 11:25:35.344883 29862 net.cpp:84] Creating Layer drop1
I0412 11:25:35.344887 29862 net.cpp:406] drop1 <- fc1
I0412 11:25:35.344892 29862 net.cpp:367] drop1 -> fc1 (in-place)
I0412 11:25:35.344918 29862 net.cpp:122] Setting up drop1
I0412 11:25:35.344923 29862 net.cpp:129] Top shape: 128 2048 (262144)
I0412 11:25:35.344926 29862 net.cpp:137] Memory required for data: 753434112
I0412 11:25:35.344928 29862 layer_factory.hpp:77] Creating layer fc2
I0412 11:25:35.344935 29862 net.cpp:84] Creating Layer fc2
I0412 11:25:35.344938 29862 net.cpp:406] fc2 <- fc1
I0412 11:25:35.344943 29862 net.cpp:380] fc2 -> fc2
I0412 11:25:35.445327 29862 net.cpp:122] Setting up fc2
I0412 11:25:35.445349 29862 net.cpp:129] Top shape: 128 2048 (262144)
I0412 11:25:35.445353 29862 net.cpp:137] Memory required for data: 754482688
I0412 11:25:35.445363 29862 layer_factory.hpp:77] Creating layer relu7
I0412 11:25:35.445372 29862 net.cpp:84] Creating Layer relu7
I0412 11:25:35.445376 29862 net.cpp:406] relu7 <- fc2
I0412 11:25:35.445384 29862 net.cpp:367] relu7 -> fc2 (in-place)
I0412 11:25:35.445890 29862 net.cpp:122] Setting up relu7
I0412 11:25:35.445904 29862 net.cpp:129] Top shape: 128 2048 (262144)
I0412 11:25:35.445906 29862 net.cpp:137] Memory required for data: 755531264
I0412 11:25:35.445910 29862 layer_factory.hpp:77] Creating layer drop2
I0412 11:25:35.445917 29862 net.cpp:84] Creating Layer drop2
I0412 11:25:35.445921 29862 net.cpp:406] drop2 <- fc2
I0412 11:25:35.445925 29862 net.cpp:367] drop2 -> fc2 (in-place)
I0412 11:25:35.445955 29862 net.cpp:122] Setting up drop2
I0412 11:25:35.445960 29862 net.cpp:129] Top shape: 128 2048 (262144)
I0412 11:25:35.445962 29862 net.cpp:137] Memory required for data: 756579840
I0412 11:25:35.445966 29862 layer_factory.hpp:77] Creating layer fc3
I0412 11:25:35.445971 29862 net.cpp:84] Creating Layer fc3
I0412 11:25:35.445974 29862 net.cpp:406] fc3 <- fc2
I0412 11:25:35.445979 29862 net.cpp:380] fc3 -> fc3
I0412 11:25:35.449308 29862 net.cpp:122] Setting up fc3
I0412 11:25:35.449321 29862 net.cpp:129] Top shape: 128 63 (8064)
I0412 11:25:35.449324 29862 net.cpp:137] Memory required for data: 756612096
I0412 11:25:35.449331 29862 layer_factory.hpp:77] Creating layer loss
I0412 11:25:35.449337 29862 net.cpp:84] Creating Layer loss
I0412 11:25:35.449339 29862 net.cpp:406] loss <- fc3
I0412 11:25:35.449343 29862 net.cpp:406] loss <- pose
I0412 11:25:35.449347 29862 net.cpp:380] loss -> loss
I0412 11:25:35.449481 29862 net.cpp:122] Setting up loss
…
  transform_param {
    is_trans: false
    is_rotate: false
    is_zoom: false
  }
  pose_data_param {
    image_source: "/home/workspace/Datasets/MSRA/cvpr15_MSRAHandGestureDB/test_image_8.txt"
    label_source: "/home/workspace/Datasets/MSRA/cvpr15_MSRAHandGestureDB/test_label_8.txt"
    batch_size: 128
    shuffle: false
    new_height: 96
    new_width: 96
    root_folder: "/home/workspace/Datasets/MSRA/cvpr15_MSRAHandGestureDB/"
    point_num: 21
    point_dim: 3
    fx: 241.42
    fy: 241.42
    output_center: true
    cube_length: 150
    dataset: MSRA
  }
}
layer {
  name: "pose"
  type: "Slice"
  bottom: "label"
  top: "pose"
  top: "center"
  include {
    phase: TEST
  }
  slice_param {
    slice_dim: 1
    slice_point: 63
  }
}
layer {
  name: "conv0"
  type: "Convolution"
  bottom: "data"
  top: "conv0"
  param {
    lr_mult: 1
  }
  param {
    lr_mult: 2
  }
  convolution_param {
    num_output: 16
    pad: 1
    kernel_size: 3
    stride: 1
    weight_filler {
      type: "msra"
    }
    bias_filler {
      type: "constant"
    }
  }
}
layer {
  name: "relu0"
  type: "ReLU"
  bottom: "conv0"
  top: "conv0"
}
layer {
  name: "conv1"
  type: "Convolution"
  bottom: "conv0"
  top: "conv1"
  param {
    lr_mult: 1
  }
  param {
    lr_mult: 2
  }
  convolution_param {
    num_output: 16
    pad: 1
    kernel_size: 3
    stride: 1
    weight_filler {
      type: "msra"
    }
    bias_filler {
      type: "constant"
    }
  }
}
layer {
  name: "pool1"
  type: "Pooling"
  bottom: "conv1"
  top: "pool1"
  pooling_param {
    pool: MAX
    kernel_size: 2
    stride: 2
  }
}
layer {
  name: "relu1"
  type: "ReLU"
  bottom: "pool1"
  top: "pool1"
}
layer {
  name: "conv2_0"
  type: "Convolution"
  bottom: "pool1"
  top: "conv2_0"
  param {
    lr_mult: 1
  }
  param {
    lr_mult: 2
  }
  convolution_param {
    num_output: 32
    pad: 0
    kernel_size: 1
    stride: 1
    weight_filler {
      type: "msra"
    }
    bias_filler {
      type: "constant"
    }
  }
}
layer {
  name: "relu2_0"
  type: "ReLU"
  bottom: "conv2_0"
  top: "conv2_0"
}
layer {
  name: "conv2"
  type: "Convolution"
  bottom: "conv2_0"
  top: "conv2"
  param {
    lr_mult: 1
  }
  param {
    lr_mult: 2
  }
  convolution_param {
    num_output: 32
    pad: 1
    kernel_size: 3
    stride: 1
    weight_filler {
      type: "msra"
    }
    bias_filler {
      type: "constant"
    }
  }
}
layer {
  name: "relu2"
  type: "ReLU"
  bottom: "conv2"
  top: "conv2"
}
layer {
  name: "conv3"
  type: "Convolution"
  bottom: "conv2"
  top: "conv3"
  param {
    lr_mult: 1
  }
  param {
    lr_mult: 2
  }
  convolution_param {
    num_output: 32
    pad: 1
    kernel_size: 3
    stride: 1
    weight_filler {
      type: "msra"
    }
    bias_filler {
      type: "constant"
    }
  }
}
layer {
  name: "res1"
  type: "Eltwise"
  bottom: "conv2_0"
  bottom: "conv3"
  top: "res1"
}
layer {
  name: "pool2"
  type: "Pooling"
  bottom: "res1"
  top: "pool2"
  pooling_param {
    pool: MAX
    kernel_size: 2
    stride: 2
  }
}
layer {
  name: "relu3"
  type: "ReLU"
  bottom: "pool2"
  top: "pool2"
}
layer {
  name: "conv3_0"
  type: "Convolution"
  bottom: "pool2"
  top: "conv3_0"
  param {
    lr_mult: 1
  }
  param {
    lr_mult: 2
  }
  convolution_param {
    num_output: 64
    pad: 0
    kernel_size: 1
    stride: 1
    weight_filler {
      type: "msra"
    }
    bias_filler {
      type: "constant"
    }
  }
}
layer {
  name: "relu3_0"
  type: "ReLU"
  bottom: "conv3_0"
  top: "conv3_0"
}
layer {
  name: "conv4"
  type: "Convolution"
  bottom: "conv3_0"
  top: "conv4"
  param {
    lr_mult: 1
  }
  param {
    lr_mult: 2
  }
  convolution_param {
    num_output: 64
    pad: 1
    kernel_size: 3
    stride: 1
    weight_filler {
      type: "msra"
    }
    bias_filler {
      type: "constant"
    }
  }
}
layer {
  name: "relu4"
  type: "ReLU"
  bottom: "conv4"
  top: "conv4"
}
layer {
  name: "conv5"
  type: "Convolution"
  bottom: "conv4"
  top: "conv5"
  param {
    lr_mult: 1
  }
  param {
    lr_mult: 2
  }
  convolution_param {
    num_output: 64
    pad: 1
    kernel_size: 3
    stride: 1
    weight_filler {
      type: "msra"
    }
    bias_filler {
      type: "constant"
    }
  }
}
layer {
  name: "res2"
  type: "Eltwise"
  bottom: "conv3_0"
  bottom: "conv5"
  top: "res2"
}
layer {
  name: "pool3"
  type: "Pooling"
  bottom: "res2"
  top: "pool3"
  pooling_param {
    pool: MAX
    kernel_size: 2
    stride: 2
  }
}
layer {
  name: "relu5"
  type: "ReLU"
  bottom: "pool3"
  top: "pool3"
}
layer {
  name: "fc1"
  type: "InnerProduct"
  bottom: "pool3"
  top: "fc1"
  param {
    lr_mult: 1
  }
  param {
    lr_mult: 2
  }
  inner_product_param {
    num_output: 2048
    weight_filler {
      type: "gaussian"
      std: 0.001
    }
    bias_filler {
      type: "constant"
    }
  }
}
layer {
  name: "relu6"
  type: "ReLU"
  bottom: "fc1"
  top: "fc1"
}
layer {
  name: "drop1"
  type: "Dropout"
  bottom: "fc1"
  top: "fc1"
  dropout_param {
    dropout_ratio: 0.5
  }
}
layer {
  name: "fc2"
  type: "InnerProduct"
  bottom: "fc1"
  top: "fc2"
  param {
    lr_mult: 1
  }
  param {
    lr_mult: 2
  }
  inner_product_param {
    num_output: 2048
    weight_filler {
      type: "gaussian"
      std: 0.001
    }
    bias_filler {
      type: "constant"
    }
  }
}
layer {
  name: "relu7"
  type: "ReLU"
  bottom: "fc2"
  top: "fc2"
}
layer {
  name: "drop2"
  type: "Dropout"
  bottom: "fc2"
  top: "fc2"
  dropout_param {
    dropout_ratio: 0.5
  }
}
layer {
  name: "fc3"
  type: "InnerProduct"
  bottom: "fc2"
  top: "fc3"
  param {
    lr_mult: 1
  }
  param {
    lr_mult: 2
  }
  inner_product_param {
    num_output: 63
    weight_filler {
      type: "gaussian"
      std: 0.001
    }
    bias_filler {
      type: "constant"
    }
  }
}
layer {
  name: "loss"
  type: "SmoothL1Loss"
  bottom: "fc3"
  bottom: "pose"
  top: "loss"
  loss_weight: 1
  smooth_l1_loss_param {
    sigma: 10
  }
}
layer {
  name: "distance"
  type: "PoseDistance"
  bottom: "fc3"
  bottom: "pose"
  bottom: "center"
  top: "distance"
  loss_weight: 0
  include {
    phase: TEST
  }
  pose_distance_param {
    fx: 241.42
    fy: 241.42
    ux: 160
    uy: 120
    cube_length: 150
  }
}
I0412 11:25:35.450613 29862 layer_factory.hpp:77] Creating layer data
I0412 11:25:35.450629 29862 net.cpp:84] Creating Layer data
I0412 11:25:35.450636 29862 net.cpp:380] data -> data
I0412 11:25:35.450647 29862 net.cpp:380] data -> label
I0412 11:25:35.450660 29862 pose_data_layer.cpp:117] Opening file /home/workspace/Datasets/MSRA/cvpr15_MSRAHandGestureDB/test_image_8.txt
I0412 11:25:35.450691 29862 pose_data_layer.cpp:119] Opening file /home/workspace/Datasets/MSRA/cvpr15_MSRAHandGestureDB/test_label_8.txt
I0412 11:25:35.490800 29862 pose_data_layer.cpp:269] Loading 118 image...
I0412 11:25:36.006006 29862 pose_data_layer.cpp:269] Loading 2118 image...
I0412 11:25:36.496040 29862 pose_data_layer.cpp:269] Loading 4118 image...
I0412 11:25:36.961627 29862 pose_data_layer.cpp:269] Loading 6118 image...
I0412 11:25:37.418673 29862 pose_data_layer.cpp:269] Loading 8118 image...
I0412 11:25:37.532174 29862 pose_data_layer.cpp:287] A total of 8492 images.
I0412 11:25:37.532341 29862 pose_data_layer.cpp:329] output data size: 128,1,96,96
I0412 11:25:37.541949 29862 net.cpp:122] Setting up data
I0412 11:25:37.541970 29862 net.cpp:129] Top shape: 128 1 96 96 (1179648)
I0412 11:25:37.541977 29862 net.cpp:129] Top shape: 128 66 (8448)
I0412 11:25:37.541982 29862 net.cpp:137] Memory required for data: 4752384
I0412 11:25:37.541990 29862 layer_factory.hpp:77] Creating layer pose
I0412 11:25:37.542006 29862 net.cpp:84] Creating Layer pose
I0412 11:25:37.542012 29862 net.cpp:406] pose <- label
I0412 11:25:37.542021 29862 net.cpp:380] pose -> pose
I0412 11:25:37.542035 29862 net.cpp:380] pose -> center
I0412 11:25:37.542125 29862 net.cpp:122] Setting up pose
I0412 11:25:37.542135 29862 net.cpp:129] Top shape: 128 63 (8064)
I0412 11:25:37.542141 29862 net.cpp:129] Top shape: 128 3 (384)
I0412 11:25:37.542145 29862 net.cpp:137] Memory required for data: 4786176
I0412 11:25:37.542150 29862 layer_factory.hpp:77] Creating layer pose_pose_0_split
I0412 11:25:37.542158 29862 net.cpp:84] Creating Layer pose_pose_0_split
I0412 11:25:37.542165 29862 net.cpp:406] pose_pose_0_split <- pose
I0412 11:25:37.542171 29862 net.cpp:380] pose_pose_0_split -> pose_pose_0_split_0
I0412 11:25:37.542182 29862 net.cpp:380] pose_pose_0_split -> pose_pose_0_split_1
I0412 11:25:37.542218 29862 net.cpp:122] Setting up pose_pose_0_split
I0412 11:25:37.542227 29862 net.cpp:129] Top shape: 128 63 (8064)
I0412 11:25:37.542234 29862 net.cpp:129] Top shape: 128 63 (8064)
I0412 11:25:37.542239 29862 net.cpp:137] Memory required for data: 4850688
I0412 11:25:37.542244 29862 layer_factory.hpp:77] Creating layer conv0
I0412 11:25:37.542258 29862 net.cpp:84] Creating Layer conv0
I0412 11:25:37.542263 29862 net.cpp:406] conv0 <- data
I0412 11:25:37.542270 29862 net.cpp:380] conv0 -> conv0
I0412 11:25:37.547165 29862 net.cpp:122] Setting up conv0
I0412 11:25:37.547183 29862 net.cpp:129] Top shape: 128 16 96 96 (18874368)
I0412 11:25:37.547189 29862 net.cpp:137] Memory required for data: 80348160
I0412 11:25:37.547202 29862 layer_factory.hpp:77] Creating layer relu0
I0412 11:25:37.547212 29862 net.cpp:84] Creating Layer relu0
I0412 11:25:37.547217 29862 net.cpp:406] relu0 <- conv0
I0412 11:25:37.547224 29862 net.cpp:367] relu0 -> conv0 (in-place)
I0412 11:25:37.549450 29862 net.cpp:122] Setting up relu0
I0412 11:25:37.549466 29862 net.cpp:129] Top shape: 128 16 96 96 (18874368)
I0412 11:25:37.549473 29862 net.cpp:137] Memory required for data: 155845632
I0412 11:25:37.549477 29862 layer_factory.hpp:77] Creating layer conv1
I0412 11:25:37.549518 29862 net.cpp:84] Creating Layer conv1
I0412 11:25:37.549535 29862 net.cpp:406] conv1 <- conv0
I0412 11:25:37.549546 29862 net.cpp:380] conv1 -> conv1
I0412 11:25:37.557387 29862 net.cpp:122] Setting up conv1
I0412 11:25:37.557404 29862 net.cpp:129] Top shape: 128 16 96 96 (18874368)
I0412 11:25:37.557411 29862 net.cpp:137] Memory required for data: 231343104
I0412 11:25:37.557426 29862 layer_factory.hpp:77] Creating layer pool1
I0412 11:25:37.557437 29862 net.cpp:84] Creating Layer pool1
I0412 11:25:37.557443 29862 net.cpp:406] pool1 <- conv1
I0412 11:25:37.557454 29862 net.cpp:380] pool1 -> pool1
I0412 11:25:37.557500 29862 net.cpp:122] Setting up pool1
I0412 11:25:37.557509 29862 net.cpp:129] Top shape: 128 16 48 48 (4718592)
I0412 11:25:37.557515 29862 net.cpp:137] Memory required for data: 250217472
I0412 11:25:37.557520 29862 layer_factory.hpp:77] Creating layer relu1
I0412 11:25:37.557528 29862 net.cpp:84] Creating Layer relu1
I0412 11:25:37.557534 29862 net.cpp:406] relu1 <- pool1
I0412 11:25:37.557543 29862 net.cpp:367] relu1 -> pool1 (in-place)
I0412 11:25:37.559155 29862 net.cpp:122] Setting up relu1
I0412 11:25:37.559166 29862 net.cpp:129] Top shape: 128 16 48 48 (4718592)
I0412 11:25:37.559171 29862 net.cpp:137] Memory required for data: 269091840
I0412 11:25:37.559176 29862 layer_factory.hpp:77] Creating layer conv2_0
I0412 11:25:37.559195 29862 net.cpp:84] Creating Layer conv2_0
I0412 11:25:37.559201 29862 net.cpp:406] conv2_0 <- pool1
I0412 11:25:37.559209 29862 net.cpp:380] conv2_0 -> conv2_0
I0412 11:25:37.565824 29862 net.cpp:122] Setting up conv2_0
I0412 11:25:37.565842 29862 net.cpp:129] Top shape: 128 32 48 48 (9437184)
I0412 11:25:37.565847 29862 net.cpp:137] Memory required for data: 306840576
I0412 11:25:37.565862 29862 layer_factory.hpp:77] Creating layer relu2_0
I0412 11:25:37.565874 29862 net.cpp:84] Creating Layer relu2_0
I0412 11:25:37.565881 29862 net.cpp:406] relu2_0 <- conv2_0
I0412 11:25:37.565891 29862 net.cpp:367] relu2_0 -> conv2_0 (in-place)
I0412 11:25:37.568907 29862 net.cpp:122] Setting up relu2_0
I0412 11:25:37.568922 29862 net.cpp:129] Top shape: 128 32 48 48 (9437184)
I0412 11:25:37.568927 29862 net.cpp:137] Memory required for data: 344589312
I0412 11:25:37.568931 29862 layer_factory.hpp:77] Creating layer conv2_0_relu2_0_0_split
I0412 11:25:37.568939 29862 net.cpp:84] Creating Layer conv2_0_relu2_0_0_split
I0412 11:25:37.568944 29862 net.cpp:406] conv2_0_relu2_0_0_split <- conv2_0
I0412 11:25:37.568951 29862 net.cpp:380] conv2_0_relu2_0_0_split -> conv2_0_relu2_0_0_split_0
I0412 11:25:37.568964 29862 net.cpp:380] conv2_0_relu2_0_0_split -> conv2_0_relu2_0_0_split_1
I0412 11:25:37.569011 29862 net.cpp:122] Setting up conv2_0_relu2_0_0_split
I0412 11:25:37.569021 29862 net.cpp:129] Top shape: 128 32 48 48 (9437184)
I0412 11:25:37.569028 29862 net.cpp:129] Top shape: 128 32 48 48 (9437184)
I0412 11:25:37.569034 29862 net.cpp:137] Memory required for data: 420086784
I0412 11:25:37.569039 29862 layer_factory.hpp:77] Creating layer conv2
I0412 11:25:37.569052 29862 net.cpp:84] Creating Layer conv2
I0412 11:25:37.569061 29862 net.cpp:406] conv2 <- conv2_0_relu2_0_0_split_0
I0412 11:25:37.569068 29862 net.cpp:380] conv2 -> conv2
I0412 11:25:37.575582 29862 net.cpp:122] Setting up conv2
I0412 11:25:37.575641 29862 net.cpp:129] Top shape: 128 32 48 48 (9437184)
I0412 11:25:37.575647 29862 net.cpp:137] Memory required for data: 457835520
I0412 11:25:37.575671 29862 layer_factory.hpp:77] Creating layer relu2
I0412 11:25:37.575696 29862 net.cpp:84] Creating Layer relu2
I0412 11:25:37.575706 29862 net.cpp:406] relu2 <- conv2
I0412 11:25:37.575721 29862 net.cpp:367] relu2 -> conv2 (in-place)
I0412 11:25:37.581331 29862 net.cpp:122] Setting up relu2
I0412 11:25:37.581383 29862 net.cpp:129] Top shape: 128 32 48 48 (9437184)
I0412 11:25:37.581389 29862 net.cpp:137] Memory required for data: 495584256
I0412 11:25:37.581398 29862 layer_factory.hpp:77] Creating layer conv3
I0412 11:25:37.581436 29862 net.cpp:84] Creating Layer conv3
I0412 11:25:37.581445 29862 net.cpp:406] conv3 <- conv2
I0412 11:25:37.581460 29862 net.cpp:380] conv3 -> conv3
I0412 11:25:37.586979 29862 net.cpp:122] Setting up conv3
I0412 11:25:37.587005 29862 net.cpp:129] Top shape: 128 32 48 48 (9437184)
I0412 11:25:37.587010 29862 net.cpp:137] Memory required for data: 533332992
I0412 11:25:37.587034 29862 layer_factory.hpp:77] Creating layer res1
I0412 11:25:37.587049 29862 net.cpp:84] Creating Layer res1
I0412 11:25:37.587057 29862 net.cpp:406] res1 <- conv2_0_relu2_0_0_split_1
I0412 11:25:37.587067 29862 net.cpp:406] res1 <- conv3
I0412 11:25:37.587075 29862 net.cpp:380] res1 -> res1
I0412 11:25:37.587121 29862 net.cpp:122] Setting up res1
I0412 11:25:37.587131 29862 net.cpp:129] Top shape: 128 32 48 48 (9437184)
I0412 11:25:37.587137 29862 net.cpp:137] Memory required for data: 571081728
I0412 11:25:37.587141 29862 layer_factory.hpp:77] Creating layer pool2
I0412 11:25:37.587153 29862 net.cpp:84] Creating Layer pool2
I0412 11:25:37.587157 29862 net.cpp:406] pool2 <- res1
I0412 11:25:37.587164 29862 net.cpp:380] pool2 -> pool2
I0412 11:25:37.587208 29862 net.cpp:122] Setting up pool2
I0412 11:25:37.587214 29862 net.cpp:129] Top shape: 128 32 24 24 (2359296)
I0412 11:25:37.587218 29862 net.cpp:137] Memory required for data: 580518912
I0412 11:25:37.587219 29862 layer_factory.hpp:77] Creating layer relu3
I0412 11:25:37.587229 29862 net.cpp:84] Creating Layer relu3
I0412 11:25:37.587231 29862 net.cpp:406] relu3 <- pool2
I0412 11:25:37.587235 29862 net.cpp:367] relu3 -> pool2 (in-place)
I0412 11:25:37.588791 29862 net.cpp:122] Setting up relu3
I0412 11:25:37.588804 29862 net.cpp:129] Top shape: 128 32 24 24 (2359296)
I0412 11:25:37.588809 29862 net.cpp:137] Memory required for data: 589956096
I0412 11:25:37.588811 29862 layer_factory.hpp:77] Creating layer conv3_0
I0412 11:25:37.588824 29862 net.cpp:84] Creating Layer conv3_0
I0412 11:25:37.588829 29862 net.cpp:406] conv3_0 <- pool2
I0412 11:25:37.588834 29862 net.cpp:380] conv3_0 -> conv3_0
I0412 11:25:37.601907 29862 net.cpp:122] Setting up conv3_0
I0412 11:25:37.601920 29862 net.cpp:129] Top shape: 128 64 24 24 (4718592)
I0412 11:25:37.601923 29862 net.cpp:137] Memory required for data: 608830464
I0412 11:25:37.601929 29862 layer_factory.hpp:77] Creating layer relu3_0
I0412 11:25:37.601934 29862 net.cpp:84] Creating Layer relu3_0
I0412 11:25:37.601939 29862 net.cpp:406] relu3_0 <- conv3_0
I0412 11:25:37.601943 29862 net.cpp:367] relu3_0 -> conv3_0 (in-place)
I0412 11:25:37.605386 29862 net.cpp:122] Setting up relu3_0
I0412 11:25:37.605396 29862 net.cpp:129] Top shape: 128 64 24 24 (4718592)
I0412 11:25:37.605401 29862 net.cpp:137] Memory required for data: 627704832
I0412 11:25:37.605403 29862 layer_factory.hpp:77] Creating layer conv3_0_relu3_0_0_split
I0412 11:25:37.605408 29862 net.cpp:84] Creating Layer conv3_0_relu3_0_0_split
I0412 11:25:37.605412 29862 net.cpp:406] conv3_0_relu3_0_0_split <- conv3_0
I0412 11:25:37.605417 29862 net.cpp:380] conv3_0_relu3_0_0_split -> conv3_0_relu3_0_0_split_0
I0412 11:25:37.605423 29862 net.cpp:380] conv3_0_relu3_0_0_split -> conv3_0_relu3_0_0_split_1
I0412 11:25:37.605463 29862 net.cpp:122] Setting up conv3_0_relu3_0_0_split
I0412 11:25:37.605470 29862 net.cpp:129] Top shape: 128 64 24 24 (4718592)
I0412 11:25:37.605473 29862 net.cpp:129] Top shape: 128 64 24 24 (4718592)
I0412 11:25:37.605475 29862 net.cpp:137] Memory required for data: 665453568
I0412 11:25:37.605479 29862 layer_factory.hpp:77] Creating layer conv4
I0412 11:25:37.605486 29862 net.cpp:84] Creating Layer conv4
I0412 11:25:37.605490 29862 net.cpp:406] conv4 <- conv3_0_relu3_0_0_split_0
I0412 11:25:37.605495 29862 net.cpp:380] conv4 -> conv4
I0412 11:25:37.616256 29862 net.cpp:122] Setting up conv4
I0412 11:25:37.616279 29862 net.cpp:129] Top shape: 128 64 24 24 (4718592)
I0412 11:25:37.616284 29862 net.cpp:137] Memory required for data: 684327936
I0412 11:25:37.616295 29862 layer_factory.hpp:77] Creating layer relu4
I0412 11:25:37.616305 29862 net.cpp:84] Creating Layer relu4
I0412 11:25:37.616312 29862 net.cpp:406] relu4 <- conv4
I0412 11:25:37.616319 29862 net.cpp:367] relu4 -> conv4 (in-place)
I0412 11:25:37.619259 29862 net.cpp:122] Setting up relu4
I0412 11:25:37.619272 29862 net.cpp:129] Top shape: 128 64 24 24 (4718592)
I0412 11:25:37.619277 29862 net.cpp:137] Memory required for data: 703202304
I0412 11:25:37.619282 29862 layer_factory.hpp:77] Creating layer conv5
I0412 11:25:37.619297 29862 net.cpp:84] Creating Layer conv5
I0412 11:25:37.619313 29862 net.cpp:406] conv5 <- conv4
I0412 11:25:37.619329 29862 net.cpp:380] conv5 -> conv5
I0412 11:25:37.626197 29862 net.cpp:122] Setting up conv5
I0412 11:25:37.626211 29862 net.cpp:129] Top shape: 128 64 24 24 (4718592)
I0412 11:25:37.626214 29862 net.cpp:137] Memory required for data: 722076672
I0412 11:25:37.626220 29862 layer_factory.hpp:77] Creating layer res2
I0412 11:25:37.626225 29862 net.cpp:84] Creating Layer res2
I0412 11:25:37.626230 29862 net.cpp:406] res2 <- conv3_0_relu3_0_0_split_1
I0412 11:25:37.626233 29862 net.cpp:406] res2 <- conv5
I0412 11:25:37.626237 29862 net.cpp:380] res2 -> res2
I0412 11:25:37.626265 29862 net.cpp:122] Setting up res2
I0412 11:25:37.626271 29862 net.cpp:129] Top shape: 128 64 24 24 (4718592)
I0412 11:25:37.626274 29862 net.cpp:137] Memory required for data: 740951040
I0412 11:25:37.626277 29862 layer_factory.hpp:77] Creating layer pool3
I0412 11:25:37.626283 29862 net.cpp:84] Creating Layer pool3
I0412 11:25:37.626296 29862 net.cpp:406] pool3 <- res2
I0412 11:25:37.626299 29862 net.cpp:380] pool3 -> pool3
I0412 11:25:37.626340 29862 net.cpp:122] Setting up pool3
I0412 11:25:37.626348 29862 net.cpp:129] Top shape: 128 64 12 12 (1179648)
I0412 11:25:37.626349 29862 net.cpp:137] Memory required for data: 745669632
I0412 11:25:37.626353 29862 layer_factory.hpp:77] Creating layer relu5
I0412 11:25:37.626356 29862 net.cpp:84] Creating Layer relu5
I0412 11:25:37.626368 29862 net.cpp:406] relu5 <- pool3
I0412 11:25:37.626372 29862 net.cpp:367] relu5 -> pool3 (in-place)
I0412 11:25:37.628374 29862 net.cpp:122] Setting up relu5
I0412 11:25:37.628386 29862 net.cpp:129] Top shape: 128 64 12 12 (1179648)
I0412 11:25:37.628388 29862 net.cpp:137] Memory required for data: 750388224
I0412 11:25:37.628391 29862 layer_factory.hpp:77] Creating layer fc1
I0412 11:25:37.628397 29862 net.cpp:84] Creating Layer fc1
I0412 11:25:37.628401 29862 net.cpp:406] fc1 <- pool3
I0412 11:25:37.628407 29862 net.cpp:380] fc1 -> fc1
I0412 11:25:38.053972 29862 net.cpp:122] Setting up fc1
I0412 11:25:38.053997 29862 net.cpp:129] Top shape: 128 2048 (262144)
I0412 11:25:38.054000 29862 net.cpp:137] Memory required for data: 751436800
I0412 11:25:38.054018 29862 layer_factory.hpp:77] Creating layer relu6
I0412 11:25:38.054026 29862 net.cpp:84] Creating Layer relu6
I0412 11:25:38.054031 29862 net.cpp:406] relu6 <- fc1
I0412 11:25:38.054038 29862 net.cpp:367] relu6 -> fc1 (in-place)
I0412 11:25:38.054306 29862 net.cpp:122] Setting up relu6
I0412 11:25:38.054316 29862 net.cpp:129] Top shape: 128 2048 (262144)
I0412 11:25:38.054319 29862 net.cpp:137] Memory required for data: 752485376
I0412 11:25:38.054322 29862 layer_factory.hpp:77] Creating layer drop1
I0412 11:25:38.054330 29862 net.cpp:84] Creating Layer drop1
I0412 11:25:38.054335 29862 net.cpp:406] drop1 <- fc1
I0412 11:25:38.054339 29862 net.cpp:367] drop1 -> fc1 (in-place)
I0412 11:25:38.054371 29862 net.cpp:122] Setting up drop1
I0412 11:25:38.054383 29862 net.cpp:129] Top shape: 128 2048 (262144)
I0412 11:25:38.054385 29862 net.cpp:137] Memory required for data: 753533952
I0412 11:25:38.054388 29862 layer_factory.hpp:77] Creating layer fc2
I0412 11:25:38.054394 29862 net.cpp:84] Creating Layer fc2
I0412 11:25:38.054402 29862 net.cpp:406] fc2 <- fc1
I0412 11:25:38.054407 29862 net.cpp:380] fc2 -> fc2
I0412 11:25:38.149582 29862 net.cpp:122] Setting up fc2
I0412 11:25:38.149610 29862 net.cpp:129] Top shape: 128 2048 (262144)
I0412 11:25:38.149613 29862 net.cpp:137] Memory required for data: 754582528
I0412 11:25:38.149623 29862 layer_factory.hpp:77] Creating layer relu7
I0412 11:25:38.149632 29862 net.cpp:84] Creating Layer relu7
I0412 11:25:38.149638 29862 net.cpp:406] relu7 <- fc2
I0412 11:25:38.149643 29862 net.cpp:367] relu7 -> fc2 (in-place)
I0412 11:25:38.150166 29862 net.cpp:122] Setting up relu7
I0412 11:25:38.150182 29862 net.cpp:129] Top shape: 128 2048 (262144)
I0412 11:25:38.150184 29862 net.cpp:137] Memory required for data: 755631104
I0412 11:25:38.150188 29862 layer_factory.hpp:77] Creating layer drop2
I0412 11:25:38.150197 29862 net.cpp:84] Creating Layer drop2
I0412 11:25:38.150202 29862 net.cpp:406] drop2 <- fc2
I0412 11:25:38.150207 29862 net.cpp:367] drop2 -> fc2 (in-place)
I0412 11:25:38.150238 29862 net.cpp:122] Setting up drop2
I0412 11:25:38.150245 29862 net.cpp:129] Top shape: 128 2048 (262144)
I0412 11:25:38.150247 29862 net.cpp:137] Memory required for data: 756679680
I0412 11:25:38.150250 29862 layer_factory.hpp:77] Creating layer fc3
I0412 11:25:38.150262 29862 net.cpp:84] Creating Layer fc3
I0412 11:25:38.150266 29862 net.cpp:406] fc3 <- fc2
I0412 11:25:38.150271 29862 net.cpp:380] fc3 -> fc3
I0412 11:25:38.153208 29862 net.cpp:122] Setting up fc3
I0412 11:25:38.153220 29862 net.cpp:129] Top shape: 128 63 (8064)
I0412 11:25:38.153223 29862 net.cpp:137] Memory required for data: 756711936
I0412 11:25:38.153229 29862 layer_factory.hpp:77] Creating layer fc3_fc3_0_split
I0412 11:25:38.153235 29862 net.cpp:84] Creating Layer fc3_fc3_0_split
I0412 11:25:38.153239 29862 net.cpp:406] fc3_fc3_0_split <- fc3
I0412 11:25:38.153244 29862 net.cpp:380] fc3_fc3_0_split -> fc3_fc3_0_split_0
I0412 11:25:38.153252 29862 net.cpp:380] fc3_fc3_0_split -> fc3_fc3_0_split_1
I0412 11:25:38.153285 29862 net.cpp:122] Setting up fc3_fc3_0_split
I0412 11:25:38.153291 29862 net.cpp:129] Top shape: 128 63 (8064)
I0412 11:25:38.153295 29862 net.cpp:129] Top shape: 128 63 (8064)
I0412 11:25:38.153297 29862 net.cpp:137] Memory required for data: 756776448
I0412 11:25:38.153300 29862 layer_factory.hpp:77] Creating layer loss
I0412 11:25:38.153306 29862 net.cpp:84] Creating Layer loss
I0412 11:25:38.153322 29862 net.cpp:406] loss <- fc3_fc3_0_split_0
I0412 11:25:38.153326 29862 net.cpp:406] loss <- pose_pose_0_split_0
I0412 11:25:38.153331 29862 net.cpp:380] loss -> loss
…
  transform_param {
    is_trans: false
    is_rotate: false
    is_zoom: false
  }
  pose_data_param {
    image_source: "/home/workspace/Datasets/MSRA/cvpr15_MSRAHandGestureDB/test_image_8.txt"
    label_source: "/home/workspace/Datasets/MSRA/cvpr15_MSRAHandGestureDB/test_label_8.txt"
    batch_size: 128
    shuffle: false
    new_height: 96
    new_width: 96
    root_folder: "/home/workspace/Datasets/MSRA/cvpr15_MSRAHandGestureDB/"
    point_num: 21
    point_dim: 3
    fx: 241.42
    fy: 241.42
    output_center: true
    cube_length: 150
    dataset: MSRA
  }
}
layer {
  name: "pose"
  type: "Slice"
  bottom: "label"
  top: "pose"
  top: "center"
  include {
    phase: TEST
  }
  slice_param {
    slice_dim: 1
    slice_point: 63
  }
}
layer {
  name: "conv0"
  type: "Convolution"
  bottom: "data"
  top: "conv0"
  param {
    lr_mult: 1
  }
  param {
    lr_mult: 2
  }
  convolution_param {
    num_output: 16
    pad: 1
    kernel_size: 3
    stride: 1
    weight_filler {
      type: "msra"
    }
    bias_filler {
      type: "constant"
    }
  }
}
layer {
  name: "relu0"
  type: "ReLU"
  bottom: "conv0"
  top: "conv0"
}
layer {
  name: "conv1"
  type: "Convolution"
  bottom: "conv0"
  top: "conv1"
  param {
    lr_mult: 1
  }
  param {
    lr_mult: 2
  }
  convolution_param {
    num_output: 16
    pad: 1
    kernel_size: 3
    stride: 1
    weight_filler {
      type: "msra"
    }
    bias_filler {
      type: "constant"
    }
  }
}
layer {
  name: "pool1"
  type: "Pooling"
  bottom: "conv1"
  top: "pool1"
  pooling_param {
    pool: MAX
    kernel_size: 2
    stride: 2
  }
}
layer {
  name: "relu1"
  type: "ReLU"
  bottom: "pool1"
  top: "pool1"
}
layer {
  name: "conv2_0"
  type: "Convolution"
  bottom: "pool1"
  top: "conv2_0"
  param {
    lr_mult: 1
  }
  param {
    lr_mult: 2
  }
  convolution_param {
    num_output: 32
    pad: 0
    kernel_size: 1
    stride: 1
    weight_filler {
      type: "msra"
    }
    bias_filler {
      type: "constant"
    }
  }
}
layer {
  name: "relu2_0"
  type: "ReLU"
  bottom: "conv2_0"
  top: "conv2_0"
}
layer {
  name: "conv2"
  type: "Convolution"
  bottom: "conv2_0"
  top: "conv2"
  param {
    lr_mult: 1
  }
  param {
    lr_mult: 2
  }
  convolution_param {
    num_output: 32
    pad: 1
    kernel_size: 3
    stride: 1
    weight_filler {
      type: "msra"
    }
    bias_filler {
      type: "constant"
    }
  }
}
layer {
  name: "relu2"
  type: "ReLU"
  bottom: "conv2"
  top: "conv2"
}
layer {
  name: "conv3"
  type: "Convolution"
  bottom: "conv2"
  top: "conv3"
  param {
    lr_mult: 1
  }
  param {
    lr_mult: 2
  }
  convolution_param {
    num_output: 32
    pad: 1
    kernel_size: 3
    stride: 1
    weight_filler {
      type: "msra"
    }
    bias_filler {
      type: "constant"
    }
  }
}
layer {
  name: "res1"
  type: "Eltwise"
  bottom: "conv2_0"
  bottom: "conv3"
  top: "res1"
}
layer {
  name: "pool2"
  type: "Pooling"
  bottom: "res1"
  top: "pool2"
  pooling_param {
    pool: MAX
    kernel_size: 2
    stride: 2
  }
}
layer {
  name: "relu3"
  type: "ReLU"
  bottom: "pool2"
  top: "pool2"
}
layer {
  name: "conv3_0"
  type: "Convolution"
  bottom: "pool2"
  top: "conv3_0"
  param {
    lr_mult: 1
  }
  param {
    lr_mult: 2
  }
  convolution_param {
    num_output: 64
    pad: 0
    kernel_size: 1
    stride: 1
    weight_filler {
      type: "msra"
    }
    bias_filler {
      type: "constant"
    }
  }
}
layer {
  name: "relu3_0"
  type: "ReLU"
  bottom: "conv3_0"
  top: "conv3_0"
}
layer {
  name: "conv4"
  type: "Convolution"
  bottom: "conv3_0"
  top: "conv4"
  param {
    lr_mult: 1
  }
  param {
    lr_mult: 2
  }
  convolution_param {
    num_output: 64
    pad: 1
    kernel_size: 3
    stride: 1
    weight_filler {
      type: "msra"
    }
    bias_filler {
      type: "constant"
    }
  }
}
layer {
  name: "relu4"
  type: "ReLU"
  bottom: "conv4"
  top: "conv4"
}
layer {
  name: "conv5"
  type: "Convolution"
  bottom: "conv4"
  top: "conv5"
  param {
    lr_mult: 1
  }
  param {
    lr_mult: 2
  }
  convolution_param {
    num_output: 64
    pad: 1
    kernel_size: 3
    stride: 1
    weight_filler {
      type: "msra"
    }
    bias_filler {
      type: "constant"
    }
  }
}
layer {
  name: "res2"
  type: "Eltwise"
  bottom: "conv3_0"
  bottom: "conv5"
  top: "res2"
}
layer {
  name: "pool3"
  type: "Pooling"
  bottom: "res2"
  top: "pool3"
  pooling_param {
    pool: MAX
    kernel_size: 2
    stride: 2
  }
}
layer {
  name: "relu5"
  type: "ReLU"
  bottom: "pool3"
  top: "pool3"
}
layer {
  name: "fc1"
  type: "InnerProduct"
  bottom: "pool3"
  top: "fc1"
  param {
    lr_mult: 1
  }
  param {
    lr_mult: 2
  }
  inner_product_param {
    num_output: 2048
    weight_filler {
      type: "gaussian"
      std: 0.001
    }
    bias_filler {
      type: "constant"
    }
  }
}
layer {
  name: "relu6"
  type: "ReLU"
  bottom: "fc1"
  top: "fc1"
}
layer {
  name: "drop1"
  type: "Dropout"
  bottom: "fc1"
  top: "fc1"
  dropout_param {
    dropout_ratio: 0.5
  }
}
layer {
  name: "fc2"
  type: "InnerProduct"
  bottom: "fc1"
  top: "fc2"
  param {
    lr_mult: 1
  }
  param {
    lr_mult: 2
  }
  inner_product_param {
    num_output: 2048
    weight_filler {
      type: "gaussian"
      std: 0.001
    }
    bias_filler {
      type: "constant"
    }
  }
}
layer {
  name: "relu7"
  type: "ReLU"
  bottom: "fc2"
  top: "fc2"
}
layer {
  name: "drop2"
  type: "Dropout"
  bottom: "fc2"
  top: "fc2"
  dropout_param {
    dropout_ratio: 0.5
  }
}
layer {
  name: "fc3"
  type: "InnerProduct"
  bottom: "fc2"
  top: "fc3"
  param {
    lr_mult: 1
  }
  param {
    lr_mult: 2
  }
  inner_product_param {
    num_output: 63
    weight_filler {
      type: "gaussian"
      std: 0.001
    }
    bias_filler {
      type: "constant"
    }
  }
}
layer {
  name: "error"
  type: "PoseDistance"
  bottom: "fc3"
  bottom: "pose"
  bottom: "center"
  top: "error"
  top: "output"
  include {
    phase: TEST
  }
  pose_distance_param {
    fx: 241.42
    fy: 241.42
    ux: 160
    uy: 120
    output_pose: true
    cube_length: 150
  }
}
I0413 04:55:39.331872  8367 layer_factory.hpp:77] Creating layer data
I0413 04:55:39.331914  8367 net.cpp:84] Creating Layer data
I0413 04:55:39.331930  8367 net.cpp:380] data -> data
I0413 04:55:39.331960  8367 net.cpp:380] data -> label
I0413 04:55:39.333616  8367 pose_data_layer.cpp:117] Opening file /home/workspace/Datasets/MSRA/cvpr15_MSRAHandGestureDB/test_image_8.txt
I0413 04:55:39.333654  8367 pose_data_layer.cpp:119] Opening file /home/workspace/Datasets/MSRA/cvpr15_MSRAHandGestureDB/test_label_8.txt
I0413 04:55:39.860064  8367 pose_data_layer.cpp:269] Loading 1 image...
I0413 04:55:40.980062  8367 pose_data_layer.cpp:269] Loading 2001 image...
I0413 04:55:42.045301  8367 pose_data_layer.cpp:269] Loading 4001 image...
I0413 04:55:43.066993  8367 pose_data_layer.cpp:269] Loading 6001 image...
I0413 04:55:44.001847  8367 pose_data_layer.cpp:269] Loading 8001 image...
I0413 04:55:44.286741  8367 pose_data_layer.cpp:287] A total of 8492 images.
I0413 04:55:44.587368  8367 pose_data_layer.cpp:329] output data size: 128,1,96,96
I0413 04:55:44.598737  8367 net.cpp:122] Setting up data
I0413 04:55:44.598774  8367 net.cpp:129] Top shape: 128 1 96 96 (1179648)
I0413 04:55:44.598783  8367 net.cpp:129] Top shape: 128 66 (8448)
I0413 04:55:44.598804  8367 net.cpp:137] Memory required for data: 4752384
I0413 04:55:44.598829  8367 layer_factory.hpp:77] Creating layer pose
I0413 04:55:44.598860  8367 net.cpp:84] Creating Layer pose
I0413 04:55:44.598881  8367 net.cpp:406] pose <- label
I0413 04:55:44.598906  8367 net.cpp:380] pose -> pose
I0413 04:55:44.598934  8367 net.cpp:380] pose -> center
I0413 04:55:44.599014  8367 net.cpp:122] Setting up pose
I0413 04:55:44.599035  8367 net.cpp:129] Top shape: 128 63 (8064)
I0413 04:55:44.599050  8367 net.cpp:129] Top shape: 128 3 (384)
I0413 04:55:44.599153  8367 net.cpp:137] Memory required for data: 4786176
I0413 04:55:44.599169  8367 layer_factory.hpp:77] Creating layer conv0
I0413 04:55:44.614907  8367 net.cpp:84] Creating Layer conv0
I0413 04:55:44.614961  8367 net.cpp:406] conv0 <- data
I0413 04:55:44.614982  8367 net.cpp:380] conv0 -> conv0
I0413 04:55:46.598793  8367 net.cpp:122] Setting up conv0
I0413 04:55:46.598829  8367 net.cpp:129] Top shape: 128 16 96 96 (18874368)
I0413 04:55:46.598834  8367 net.cpp:137] Memory required for data: 80283648
I0413 04:55:46.599315  8367 layer_factory.hpp:77] Creating layer relu0
I0413 04:55:46.599335  8367 net.cpp:84] Creating Layer relu0
I0413 04:55:46.599344  8367 net.cpp:406] relu0 <- conv0
I0413 04:55:46.599352  8367 net.cpp:367] relu0 -> conv0 (in-place)
I0413 04:55:46.600898  8367 net.cpp:122] Setting up relu0
I0413 04:55:46.600913  8367 net.cpp:129] Top shape: 128 16 96 96 (18874368)
I0413 04:55:46.600916  8367 net.cpp:137] Memory required for data: 155781120
I0413 04:55:46.600921  8367 layer_factory.hpp:77] Creating layer conv1
I0413 04:55:46.600944  8367 net.cpp:84] Creating Layer conv1
I0413 04:55:46.600967  8367 net.cpp:406] conv1 <- conv0
I0413 04:55:46.600987  8367 net.cpp:380] conv1 -> conv1
I0413 04:55:46.618417  8367 net.cpp:122] Setting up conv1
I0413 04:55:46.618443  8367 net.cpp:129] Top shape: 128 16 96 96 (18874368)
I0413 04:55:46.618449  8367 net.cpp:137] Memory required for data: 231278592
I0413 04:55:46.618468  8367 layer_factory.hpp:77] Creating layer pool1
I0413 04:55:46.618485  8367 net.cpp:84] Creating Layer pool1
I0413 04:55:46.618494  8367 net.cpp:406] pool1 <- conv1
I0413 04:55:46.618505  8367 net.cpp:380] pool1 -> pool1
I0413 04:55:46.625015  8367 net.cpp:122] Setting up pool1
I0413 04:55:46.625051  8367 net.cpp:129] Top shape: 128 16 48 48 (4718592)
I0413 04:55:46.625066  8367 net.cpp:137] Memory required for data: 250152960
I0413 04:55:46.625077  8367 layer_factory.hpp:77] Creating layer relu1
I0413 04:55:46.625093  8367 net.cpp:84] Creating Layer relu1
I0413 04:55:46.625105  8367 net.cpp:406] relu1 <- pool1
I0413 04:55:46.625120  8367 net.cpp:367] relu1 -> pool1 (in-place)
I0413 04:55:46.626590  8367 net.cpp:122] Setting up relu1
I0413 04:55:46.626617  8367 net.cpp:129] Top shape: 128 16 48 48 (4718592)
I0413 04:55:46.626631  8367 net.cpp:137] Memory required for data: 269027328
I0413 04:55:46.626642  8367 layer_factory.hpp:77] Creating layer conv2_0
I0413 04:55:46.626667  8367 net.cpp:84] Creating Layer conv2_0
I0413 04:55:46.626680  8367 net.cpp:406] conv2_0 <- pool1
I0413 04:55:46.626698  8367 net.cpp:380] conv2_0 -> conv2_0
I0413 04:55:46.641208  8367 net.cpp:122] Setting up conv2_0
I0413 04:55:46.641237  8367 net.cpp:129] Top shape: 128 32 48 48 (9437184)
I0413 04:55:46.641243  8367 net.cpp:137] Memory required for data: 306776064
I0413 04:55:46.641263  8367 layer_factory.hpp:77] Creating layer relu2_0
I0413 04:55:46.641279  8367 net.cpp:84] Creating Layer relu2_0
I0413 04:55:46.641352  8367 net.cpp:406] relu2_0 <- conv2_0
I0413 04:55:46.641412  8367 net.cpp:367] relu2_0 -> conv2_0 (in-place)
I0413 04:55:46.647948  8367 net.cpp:122] Setting up relu2_0
I0413 04:55:46.647989  8367 net.cpp:129] Top shape: 128 32 48 48 (9437184)
I0413 04:55:46.648010  8367 net.cpp:137] Memory required for data: 344524800
I0413 04:55:46.648027  8367 layer_factory.hpp:77] Creating layer conv2_0_relu2_0_0_split
I0413 04:55:46.648051  8367 net.cpp:84] Creating Layer conv2_0_relu2_0_0_split
I0413 04:55:46.648070  8367 net.cpp:406] conv2_0_relu2_0_0_split <- conv2_0
I0413 04:55:46.648093  8367 net.cpp:380] conv2_0_relu2_0_0_split -> conv2_0_relu2_0_0_split_0
I0413 04:55:46.648120  8367 net.cpp:380] conv2_0_relu2_0_0_split -> conv2_0_relu2_0_0_split_1
I0413 04:55:46.648202  8367 net.cpp:122] Setting up conv2_0_relu2_0_0_split
I0413 04:55:46.648231  8367 net.cpp:129] Top shape: 128 32 48 48 (9437184)
I0413 04:55:46.648250  8367 net.cpp:129] Top shape: 128 32 48 48 (9437184)
I0413 04:55:46.648279  8367 net.cpp:137] Memory required for data: 420022272
I0413 04:55:46.648315  8367 layer_factory.hpp:77] Creating layer conv2
I0413 04:55:46.648345  8367 net.cpp:84] Creating Layer conv2
I0413 04:55:46.648365  8367 net.cpp:406] conv2 <- conv2_0_relu2_0_0_split_0
I0413 04:55:46.648388  8367 net.cpp:380] conv2 -> conv2
I0413 04:55:46.670409  8367 net.cpp:122] Setting up conv2
I0413 04:55:46.670436  8367 net.cpp:129] Top shape: 128 32 48 48 (9437184)
I0413 04:55:46.670444  8367 net.cpp:137] Memory required for data: 457771008
I0413 04:55:46.670456  8367 layer_factory.hpp:77] Creating layer relu2
I0413 04:55:46.670490  8367 net.cpp:84] Creating Layer relu2
I0413 04:55:46.670511  8367 net.cpp:406] relu2 <- conv2
I0413 04:55:46.670539  8367 net.cpp:367] relu2 -> conv2 (in-place)
I0413 04:55:46.679533  8367 net.cpp:122] Setting up relu2
I0413 04:55:46.679550  8367 net.cpp:129] Top shape: 128 32 48 48 (9437184)
I0413 04:55:46.679556  8367 net.cpp:137] Memory required for data: 495519744
I0413 04:55:46.679563  8367 layer_factory.hpp:77] Creating layer conv3
I0413 04:55:46.679581  8367 net.cpp:84] Creating Layer conv3
I0413 04:55:46.679589  8367 net.cpp:406] conv3 <- conv2
I0413 04:55:46.679601  8367 net.cpp:380] conv3 -> conv3
I0413 04:55:46.694932  8367 net.cpp:122] Setting up conv3
I0413 04:55:46.694952  8367 net.cpp:129] Top shape: 128 32 48 48 (9437184)
I0413 04:55:46.694959  8367 net.cpp:137] Memory required for data: 533268480
I0413 04:55:46.694978  8367 layer_factory.hpp:77] Creating layer res1
I0413 04:55:46.695003  8367 net.cpp:84] Creating Layer res1
I0413 04:55:46.695019  8367 net.cpp:406] res1 <- conv2_0_relu2_0_0_split_1
I0413 04:55:46.695034  8367 net.cpp:406] res1 <- conv3
I0413 04:55:46.695052  8367 net.cpp:380] res1 -> res1
I0413 04:55:46.695576  8367 net.cpp:122] Setting up res1
I0413 04:55:46.695591  8367 net.cpp:129] Top shape: 128 32 48 48 (9437184)
I0413 04:55:46.695597  8367 net.cpp:137] Memory required for data: 571017216
I0413 04:55:46.695614  8367 layer_factory.hpp:77] Creating layer pool2
I0413 04:55:46.695639  8367 net.cpp:84] Creating Layer pool2
I0413 04:55:46.695654  8367 net.cpp:406] pool2 <- res1
I0413 04:55:46.695673  8367 net.cpp:380] pool2 -> pool2
I0413 04:55:46.695744  8367 net.cpp:122] Setting up pool2
I0413 04:55:46.695766  8367 net.cpp:129] Top shape: 128 32 24 24 (2359296)
I0413 04:55:46.695780  8367 net.cpp:137] Memory required for data: 580454400
I0413 04:55:46.695791  8367 layer_factory.hpp:77] Creating layer relu3
I0413 04:55:46.695808  8367 net.cpp:84] Creating Layer relu3
I0413 04:55:46.695822  8367 net.cpp:406] relu3 <- pool2
I0413 04:55:46.695837  8367 net.cpp:367] relu3 -> pool2 (in-place)
I0413 04:55:46.699797  8367 net.cpp:122] Setting up relu3
I0413 04:55:46.699815  8367 net.cpp:129] Top shape: 128 32 24 24 (2359296)
I0413 04:55:46.699820  8367 net.cpp:137] Memory required for data: 589891584
I0413 04:55:46.699838  8367 layer_factory.hpp:77] Creating layer conv3_0
I0413 04:55:46.699870  8367 net.cpp:84] Creating Layer conv3_0
I0413 04:55:46.699887  8367 net.cpp:406] conv3_0 <- pool2
I0413 04:55:46.699906  8367 net.cpp:380] conv3_0 -> conv3_0
I0413 04:55:46.713002  8367 net.cpp:122] Setting up conv3_0
I0413 04:55:46.713022  8367 net.cpp:129] Top shape: 128 64 24 24 (4718592)
I0413 04:55:46.713028  8367 net.cpp:137] Memory required for data: 608765952
I0413 04:55:46.713040  8367 layer_factory.hpp:77] Creating layer relu3_0
I0413 04:55:46.713062  8367 net.cpp:84] Creating Layer relu3_0
I0413 04:55:46.713084  8367 net.cpp:406] relu3_0 <- conv3_0
I0413 04:55:46.713109  8367 net.cpp:367] relu3_0 -> conv3_0 (in-place)
I0413 04:55:46.717017  8367 net.cpp:122] Setting up relu3_0
I0413 04:55:46.717033  8367 net.cpp:129] Top shape: 128 64 24 24 (4718592)
I0413 04:55:46.717039  8367 net.cpp:137] Memory required for data: 627640320
I0413 04:55:46.717046  8367 layer_factory.hpp:77] Creating layer conv3_0_relu3_0_0_split
I0413 04:55:46.717056  8367 net.cpp:84] Creating Layer conv3_0_relu3_0_0_split
I0413 04:55:46.717063  8367 net.cpp:406] conv3_0_relu3_0_0_split <- conv3_0
I0413 04:55:46.717072  8367 net.cpp:380] conv3_0_relu3_0_0_split -> conv3_0_relu3_0_0_split_0
I0413 04:55:46.717103  8367 net.cpp:380] conv3_0_relu3_0_0_split -> conv3_0_relu3_0_0_split_1
I0413 04:55:46.717161  8367 net.cpp:122] Setting up conv3_0_relu3_0_0_split
I0413 04:55:46.717172  8367 net.cpp:129] Top shape: 128 64 24 24 (4718592)
I0413 04:55:46.717181  8367 net.cpp:129] Top shape: 128 64 24 24 (4718592)
I0413 04:55:46.717187  8367 net.cpp:137] Memory required for data: 665389056
I0413 04:55:46.717193  8367 layer_factory.hpp:77] Creating layer conv4
I0413 04:55:46.717211  8367 net.cpp:84] Creating Layer conv4
I0413 04:55:46.717221  8367 net.cpp:406] conv4 <- conv3_0_relu3_0_0_split_0
I0413 04:55:46.717231  8367 net.cpp:380] conv4 -> conv4
I0413 04:55:46.729285  8367 net.cpp:122] Setting up conv4
I0413 04:55:46.729362  8367 net.cpp:129] Top shape: 128 64 24 24 (4718592)
I0413 04:55:46.729387  8367 net.cpp:137] Memory required for data: 684263424
I0413 04:55:46.729418  8367 layer_factory.hpp:77] Creating layer relu4
I0413 04:55:46.729447  8367 net.cpp:84] Creating Layer relu4
I0413 04:55:46.729468  8367 net.cpp:406] relu4 <- conv4
I0413 04:55:46.729506  8367 net.cpp:367] relu4 -> conv4 (in-place)
I0413 04:55:46.734251  8367 net.cpp:122] Setting up relu4
I0413 04:55:46.734269  8367 net.cpp:129] Top shape: 128 64 24 24 (4718592)
I0413 04:55:46.734275  8367 net.cpp:137] Memory required for data: 703137792
I0413 04:55:46.734282  8367 layer_factory.hpp:77] Creating layer conv5
I0413 04:55:46.734302  8367 net.cpp:84] Creating Layer conv5
I0413 04:55:46.734311  8367 net.cpp:406] conv5 <- conv4
I0413 04:55:46.734324  8367 net.cpp:380] conv5 -> conv5
I0413 04:55:46.752097  8367 net.cpp:122] Setting up conv5
I0413 04:55:46.752123  8367 net.cpp:129] Top shape: 128 64 24 24 (4718592)
I0413 04:55:46.752130  8367 net.cpp:137] Memory required for data: 722012160
I0413 04:55:46.752141  8367 layer_factory.hpp:77] Creating layer res2
I0413 04:55:46.752171  8367 net.cpp:84] Creating Layer res2
I0413 04:55:46.752189  8367 net.cpp:406] res2 <- conv3_0_relu3_0_0_split_1
I0413 04:55:46.752218  8367 net.cpp:406] res2 <- conv5
I0413 04:55:46.752233  8367 net.cpp:380] res2 -> res2
I0413 04:55:46.752284  8367 net.cpp:122] Setting up res2
I0413 04:55:46.752295  8367 net.cpp:129] Top shape: 128 64 24 24 (4718592)
I0413 04:55:46.752300  8367 net.cpp:137] Memory required for data: 740886528
I0413 04:55:46.752316  8367 layer_factory.hpp:77] Creating layer pool3
I0413 04:55:46.752352  8367 net.cpp:84] Creating Layer pool3
I0413 04:55:46.752360  8367 net.cpp:406] pool3 <- res2
I0413 04:55:46.752368  8367 net.cpp:380] pool3 -> pool3
I0413 04:55:46.752430  8367 net.cpp:122] Setting up pool3
I0413 04:55:46.752441  8367 net.cpp:129] Top shape: 128 64 12 12 (1179648)
I0413 04:55:46.752447  8367 net.cpp:137] Memory required for data: 745605120
I0413 04:55:46.752462  8367 layer_factory.hpp:77] Creating layer relu5
I0413 04:55:46.752480  8367 net.cpp:84] Creating Layer relu5
I0413 04:55:46.752486  8367 net.cpp:406] relu5 <- pool3
I0413 04:55:46.752496  8367 net.cpp:367] relu5 -> pool3 (in-place)
I0413 04:55:46.756331  8367 net.cpp:122] Setting up relu5
I0413 04:55:46.756363  8367 net.cpp:129] Top shape: 128 64 12 12 (1179648)
I0413 04:55:46.756399  8367 net.cpp:137] Memory required for data: 750323712
I0413 04:55:46.756417  8367 layer_factory.hpp:77] Creating layer fc1
I0413 04:55:46.778746  8367 net.cpp:84] Creating Layer fc1
I0413 04:55:46.778774  8367 net.cpp:406] fc1 <- pool3
I0413 04:55:46.778794  8367 net.cpp:380] fc1 -> fc1
I0413 04:55:47.357924  8367 net.cpp:122] Setting up fc1
I0413 04:55:47.357966  8367 net.cpp:129] Top shape: 128 2048 (262144)
I0413 04:55:47.357973  8367 net.cpp:137] Memory required for data: 751372288
I0413 04:55:47.357995  8367 layer_factory.hpp:77] Creating layer relu6
I0413 04:55:47.358009  8367 net.cpp:84] Creating Layer relu6
I0413 04:55:47.358017  8367 net.cpp:406] relu6 <- fc1
I0413 04:55:47.358028  8367 net.cpp:367] relu6 -> fc1 (in-place)
I0413 04:55:47.358384  8367 net.cpp:122] Setting up relu6
I0413 04:55:47.358438  8367 net.cpp:129] Top shape: 128 2048 (262144)
I0413 04:55:47.358455  8367 net.cpp:137] Memory required for data: 752420864
I0413 04:55:47.358489  8367 layer_factory.hpp:77] Creating layer drop1
I0413 04:55:47.359959  8367 net.cpp:84] Creating Layer drop1
I0413 04:55:47.359983  8367 net.cpp:406] drop1 <- fc1
I0413 04:55:47.360005  8367 net.cpp:367] drop1 -> fc1 (in-place)
I0413 04:55:47.360075  8367 net.cpp:122] Setting up drop1
I0413 04:55:47.360095  8367 net.cpp:129] Top shape: 128 2048 (262144)
I0413 04:55:47.360108  8367 net.cpp:137] Memory required for data: 753469440
I0413 04:55:47.360122  8367 layer_factory.hpp:77] Creating layer fc2
I0413 04:55:47.360146  8367 net.cpp:84] Creating Layer fc2
I0413 04:55:47.360160  8367 net.cpp:406] fc2 <- fc1
I0413 04:55:47.360172  8367 net.cpp:380] fc2 -> fc2
I0413 04:55:47.472753  8367 net.cpp:122] Setting up fc2
I0413 04:55:47.472779  8367 net.cpp:129] Top shape: 128 2048 (262144)
I0413 04:55:47.472782  8367 net.cpp:137] Memory required for data: 754518016
I0413 04:55:47.472792  8367 layer_factory.hpp:77] Creating layer relu7
I0413 04:55:47.472802  8367 net.cpp:84] Creating Layer relu7
I0413 04:55:47.472807  8367 net.cpp:406] relu7 <- fc2
I0413 04:55:47.472815  8367 net.cpp:367] relu7 -> fc2 (in-place)
I0413 04:55:47.473567  8367 net.cpp:122] Setting up relu7
I0413 04:55:47.473582  8367 net.cpp:129] Top shape: 128 2048 (262144)
I0413 04:55:47.473585  8367 net.cpp:137] Memory required for data: 755566592
I0413 04:55:47.473589  8367 layer_factory.hpp:77] Creating layer drop2
I0413 04:55:47.473597  8367 net.cpp:84] Creating Layer drop2
I0413 04:55:47.473601  8367 net.cpp:406] drop2 <- fc2
I0413 04:55:47.473606  8367 net.cpp:367] drop2 -> fc2 (in-place)
I0413 04:55:47.473649  8367 net.cpp:122] Setting up drop2
I0413 04:55:47.473656  8367 net.cpp:129] Top shape: 128 2048 (262144)
I0413 04:55:47.473659  8367 net.cpp:137] Memory required for data: 756615168
I0413 04:55:47.473662  8367 layer_factory.hpp:77] Creating layer fc3
I0413 04:55:47.473672  8367 net.cpp:84] Creating Layer fc3
I0413 04:55:47.473675  8367 net.cpp:406] fc3 <- fc2
I0413 04:55:47.473680  8367 net.cpp:380] fc3 -> fc3
I0413 04:55:47.478287  8367 net.cpp:122] Setting up fc3
I0413 04:55:47.478304  8367 net.cpp:129] Top shape: 128 63 (8064)
I0413 04:55:47.478308  8367 net.cpp:137] Memory required for data: 756647424
I0413 04:55:47.478315  8367 layer_factory.hpp:77] Creating layer error
I0413 04:55:47.479317  8367 pose_distance_layer.cpp:48] Size of ids: 0
I0413 04:55:47.479331  8367 net.cpp:84] Creating Layer error
I0413 04:55:47.479336  8367 net.cpp:406] error <- fc3
I0413 04:55:47.479341  8367 net.cpp:406] error <- pose
I0413 04:55:47.479346  8367 net.cpp:406] error <- center
I0413 04:55:47.479353  8367 net.cpp:380] error -> error
I0413 04:55:47.479364  8367 net.cpp:380] error -> output
I0413 04:55:47.479393  8367 net.cpp:122] Setting up error
I0413 04:55:47.479400  8367 net.cpp:129] Top shape: (1)
I0413 04:55:47.479403  8367 net.cpp:129] Top shape: 128 63 (8064)
I0413 04:55:47.479406  8367 net.cpp:137] Memory required for data: 756679684
I0413 04:55:47.480366  8367 net.cpp:200] error does not need backward computation.
I0413 04:55:47.480376  8367 net.cpp:200] fc3 does not need backward computation.
I0413 04:55:47.480378  8367 net.cpp:200] drop2 does not need backward computation.
I0413 04:55:47.480381  8367 net.cpp:200] relu7 does not need backward computation.
…
