…
    trans_dy: 10
    is_rotate: true
    rotate_deg: 180
    is_zoom: true
    zoom_scale: 0.1
  }
  pose_data_param {
    image_source: "/home/workspace/Datasets/MSRA/cvpr15_MSRAHandGestureDB/train_image_0.txt"
    label_source: "/home/workspace/Datasets/MSRA/cvpr15_MSRAHandGestureDB/train_label_0.txt"
    batch_size: 128
    shuffle: true
    new_height: 96
    new_width: 96
    root_folder: "/home/workspace/Datasets/MSRA/cvpr15_MSRAHandGestureDB/"
    point_num: 21
    point_dim: 3
    fx: 241.42
    fy: 241.42
    cube_length: 150
    dataset: MSRA
  }
}
layer {
  name: "conv0"
  type: "Convolution"
  bottom: "data"
  top: "conv0"
  param {
    lr_mult: 1
  }
  param {
    lr_mult: 2
  }
  convolution_param {
    num_output: 16
    pad: 1
    kernel_size: 3
    stride: 1
    weight_filler {
      type: "msra"
    }
    bias_filler {
      type: "constant"
    }
  }
}
layer {
  name: "relu0"
  type: "ReLU"
  bottom: "conv0"
  top: "conv0"
}
layer {
  name: "conv1"
  type: "Convolution"
  bottom: "conv0"
  top: "conv1"
  param {
    lr_mult: 1
  }
  param {
    lr_mult: 2
  }
  convolution_param {
    num_output: 16
    pad: 1
    kernel_size: 3
    stride: 1
    weight_filler {
      type: "msra"
    }
    bias_filler {
      type: "constant"
    }
  }
}
layer {
  name: "pool1"
  type: "Pooling"
  bottom: "conv1"
  top: "pool1"
  pooling_param {
    pool: MAX
    kernel_size: 2
    stride: 2
  }
}
layer {
  name: "relu1"
  type: "ReLU"
  bottom: "pool1"
  top: "pool1"
}
layer {
  name: "conv2_0"
  type: "Convolution"
  bottom: "pool1"
  top: "conv2_0"
  param {
    lr_mult: 1
  }
  param {
    lr_mult: 2
  }
  convolution_param {
    num_output: 32
    pad: 0
    kernel_size: 1
    stride: 1
    weight_filler {
      type: "msra"
    }
    bias_filler {
      type: "constant"
    }
  }
}
layer {
  name: "relu2_0"
  type: "ReLU"
  bottom: "conv2_0"
  top: "conv2_0"
}
layer {
  name: "conv2"
  type: "Convolution"
  bottom: "conv2_0"
  top: "conv2"
  param {
    lr_mult: 1
  }
  param {
    lr_mult: 2
  }
  convolution_param {
    num_output: 32
    pad: 1
    kernel_size: 3
    stride: 1
    weight_filler {
      type: "msra"
    }
    bias_filler {
      type: "constant"
    }
  }
}
layer {
  name: "relu2"
  type: "ReLU"
  bottom: "conv2"
  top: "conv2"
}
layer {
  name: "conv3"
  type: "Convolution"
  bottom: "conv2"
  top: "conv3"
  param {
    lr_mult: 1
  }
  param {
    lr_mult: 2
  }
  convolution_param {
    num_output: 32
    pad: 1
    kernel_size: 3
    stride: 1
    weight_filler {
      type: "msra"
    }
    bias_filler {
      type: "constant"
    }
  }
}
layer {
  name: "res1"
  type: "Eltwise"
  bottom: "conv2_0"
  bottom: "conv3"
  top: "res1"
}
layer {
  name: "pool2"
  type: "Pooling"
  bottom: "res1"
  top: "pool2"
  pooling_param {
    pool: MAX
    kernel_size: 2
    stride: 2
  }
}
layer {
  name: "relu3"
  type: "ReLU"
  bottom: "pool2"
  top: "pool2"
}
layer {
  name: "conv3_0"
  type: "Convolution"
  bottom: "pool2"
  top: "conv3_0"
  param {
    lr_mult: 1
  }
  param {
    lr_mult: 2
  }
  convolution_param {
    num_output: 64
    pad: 0
    kernel_size: 1
    stride: 1
    weight_filler {
      type: "msra"
    }
    bias_filler {
      type: "constant"
    }
  }
}
layer {
  name: "relu3_0"
  type: "ReLU"
  bottom: "conv3_0"
  top: "conv3_0"
}
layer {
  name: "conv4"
  type: "Convolution"
  bottom: "conv3_0"
  top: "conv4"
  param {
    lr_mult: 1
  }
  param {
    lr_mult: 2
  }
  convolution_param {
    num_output: 64
    pad: 1
    kernel_size: 3
    stride: 1
    weight_filler {
      type: "msra"
    }
    bias_filler {
      type: "constant"
    }
  }
}
layer {
  name: "relu4"
  type: "ReLU"
  bottom: "conv4"
  top: "conv4"
}
layer {
  name: "conv5"
  type: "Convolution"
  bottom: "conv4"
  top: "conv5"
  param {
    lr_mult: 1
  }
  param {
    lr_mult: 2
  }
  convolution_param {
    num_output: 64
    pad: 1
    kernel_size: 3
    stride: 1
    weight_filler {
      type: "msra"
    }
    bias_filler {
      type: "constant"
    }
  }
}
layer {
  name: "res2"
  type: "Eltwise"
  bottom: "conv3_0"
  bottom: "conv5"
  top: "res2"
}
layer {
  name: "pool3"
  type: "Pooling"
  bottom: "res2"
  top: "pool3"
  pooling_param {
    pool: MAX
    kernel_size: 2
    stride: 2
  }
}
layer {
  name: "relu5"
  type: "ReLU"
  bottom: "pool3"
  top: "pool3"
}
layer {
  name: "fc1"
  type: "InnerProduct"
  bottom: "pool3"
  top: "fc1"
  param {
    lr_mult: 1
  }
  param {
    lr_mult: 2
  }
  inner_product_param {
    num_output: 2048
    weight_filler {
      type: "gaussian"
      std: 0.001
    }
    bias_filler {
      type: "constant"
    }
  }
}
layer {
  name: "relu6"
  type: "ReLU"
  bottom: "fc1"
  top: "fc1"
}
layer {
  name: "drop1"
  type: "Dropout"
  bottom: "fc1"
  top: "fc1"
  dropout_param {
    dropout_ratio: 0.5
  }
}
layer {
  name: "fc2"
  type: "InnerProduct"
  bottom: "fc1"
  top: "fc2"
  param {
    lr_mult: 1
  }
  param {
    lr_mult: 2
  }
  inner_product_param {
    num_output: 2048
    weight_filler {
      type: "gaussian"
      std: 0.001
    }
    bias_filler {
      type: "constant"
    }
  }
}
layer {
  name: "relu7"
  type: "ReLU"
  bottom: "fc2"
  top: "fc2"
}
layer {
  name: "drop2"
  type: "Dropout"
  bottom: "fc2"
  top: "fc2"
  dropout_param {
    dropout_ratio: 0.5
  }
}
layer {
  name: "fc3"
  type: "InnerProduct"
  bottom: "fc2"
  top: "fc3"
  param {
    lr_mult: 1
  }
  param {
    lr_mult: 2
  }
  inner_product_param {
    num_output: 63
    weight_filler {
      type: "gaussian"
      std: 0.001
    }
    bias_filler {
      type: "constant"
    }
  }
}
layer {
  name: "loss"
  type: "SmoothL1Loss"
  bottom: "fc3"
  bottom: "pose"
  top: "loss"
  loss_weight: 1
  smooth_l1_loss_param {
    sigma: 10
  }
}
I0410 02:35:37.196897  3850 layer_factory.hpp:77] Creating layer data
I0410 02:35:37.196923  3850 net.cpp:84] Creating Layer data
I0410 02:35:37.196935  3850 net.cpp:380] data -> data
I0410 02:35:37.196954  3850 net.cpp:380] data -> pose
I0410 02:35:37.197046  3850 pose_data_layer.cpp:117] Opening file /home/workspace/Datasets/MSRA/cvpr15_MSRAHandGestureDB/train_image_0.txt
…
I0410 02:36:48.863507  3850 pose_data_layer.cpp:269] Loading 60001 image...
I0410 02:36:50.738639  3850 pose_data_layer.cpp:269] Loading 62001 image...
I0410 02:36:52.679847  3850 pose_data_layer.cpp:269] Loading 64001 image...
I0410 02:36:54.152348  3850 pose_data_layer.cpp:269] Loading 66001 image...
I0410 02:36:56.031731  3850 pose_data_layer.cpp:282] Shuffling data
I0410 02:36:56.032707  3850 pose_data_layer.cpp:287] A total of 67876 images.
I0410 02:36:56.033383  3850 pose_data_layer.cpp:329] output data size: 128,1,96,96
I0410 02:36:56.042866  3850 net.cpp:122] Setting up data
I0410 02:36:56.042904  3850 net.cpp:129] Top shape: 128 1 96 96 (1179648)
I0410 02:36:56.042913  3850 net.cpp:129] Top shape: 128 63 (8064)
I0410 02:36:56.042964  3850 net.cpp:137] Memory required for data: 4750848
I0410 02:36:56.042989  3850 layer_factory.hpp:77] Creating layer conv0
I0410 02:36:56.043025  3850 net.cpp:84] Creating Layer conv0
I0410 02:36:56.043046  3850 net.cpp:406] conv0 <- data
I0410 02:36:56.043066  3850 net.cpp:380] conv0 -> conv0
I0410 02:36:57.617246  3850 net.cpp:122] Setting up conv0
I0410 02:36:57.617269  3850 net.cpp:129] Top shape: 128 16 96 96 (18874368)
I0410 02:36:57.617274  3850 net.cpp:137] Memory required for data: 80248320
I0410 02:36:57.617287  3850 layer_factory.hpp:77] Creating layer relu0
I0410 02:36:57.617297  3850 net.cpp:84] Creating Layer relu0
I0410 02:36:57.617302  3850 net.cpp:406] relu0 <- conv0
I0410 02:36:57.617307  3850 net.cpp:367] relu0 -> conv0 (in-place)
I0410 02:36:57.625490  3850 net.cpp:122] Setting up relu0
I0410 02:36:57.625501  3850 net.cpp:129] Top shape: 128 16 96 96 (18874368)
I0410 02:36:57.625504  3850 net.cpp:137] Memory required for data: 155745792
I0410 02:36:57.625506  3850 layer_factory.hpp:77] Creating layer conv1
I0410 02:36:57.625517  3850 net.cpp:84] Creating Layer conv1
I0410 02:36:57.625521  3850 net.cpp:406] conv1 <- conv0
I0410 02:36:57.625526  3850 net.cpp:380] conv1 -> conv1
I0410 02:36:57.647884  3850 net.cpp:122] Setting up conv1
I0410 02:36:57.647902  3850 net.cpp:129] Top shape: 128 16 96 96 (18874368)
I0410 02:36:57.647907  3850 net.cpp:137] Memory required for data: 231243264
I0410 02:36:57.647917  3850 layer_factory.hpp:77] Creating layer pool1
I0410 02:36:57.647927  3850 net.cpp:84] Creating Layer pool1
I0410 02:36:57.647930  3850 net.cpp:406] pool1 <- conv1
I0410 02:36:57.647935  3850 net.cpp:380] pool1 -> pool1
I0410 02:36:57.647971  3850 net.cpp:122] Setting up pool1
I0410 02:36:57.647976  3850 net.cpp:129] Top shape: 128 16 48 48 (4718592)
I0410 02:36:57.647979  3850 net.cpp:137] Memory required for data: 250117632
I0410 02:36:57.647981  3850 layer_factory.hpp:77] Creating layer relu1
I0410 02:36:57.647985  3850 net.cpp:84] Creating Layer relu1
I0410 02:36:57.647989  3850 net.cpp:406] relu1 <- pool1
I0410 02:36:57.647992  3850 net.cpp:367] relu1 -> pool1 (in-place)
I0410 02:36:57.654913  3850 net.cpp:122] Setting up relu1
I0410 02:36:57.654934  3850 net.cpp:129] Top shape: 128 16 48 48 (4718592)
I0410 02:36:57.654940  3850 net.cpp:137] Memory required for data: 268992000
I0410 02:36:57.654947  3850 layer_factory.hpp:77] Creating layer conv2_0
I0410 02:36:57.654986  3850 net.cpp:84] Creating Layer conv2_0
I0410 02:36:57.655002  3850 net.cpp:406] conv2_0 <- pool1
I0410 02:36:57.655019  3850 net.cpp:380] conv2_0 -> conv2_0
I0410 02:36:57.675925  3850 net.cpp:122] Setting up conv2_0
I0410 02:36:57.675982  3850 net.cpp:129] Top shape: 128 32 48 48 (9437184)
I0410 02:36:57.675998  3850 net.cpp:137] Memory required for data: 306740736
I0410 02:36:57.676025  3850 layer_factory.hpp:77] Creating layer relu2_0
I0410 02:36:57.676048  3850 net.cpp:84] Creating Layer relu2_0
I0410 02:36:57.676064  3850 net.cpp:406] relu2_0 <- conv2_0
I0410 02:36:57.676080  3850 net.cpp:367] relu2_0 -> conv2_0 (in-place)
I0410 02:36:57.681582  3850 net.cpp:122] Setting up relu2_0
I0410 02:36:57.681635  3850 net.cpp:129] Top shape: 128 32 48 48 (9437184)
I0410 02:36:57.681654  3850 net.cpp:137] Memory required for data: 344489472
I0410 02:36:57.681668  3850 layer_factory.hpp:77] Creating layer conv2_0_relu2_0_0_split
I0410 02:36:57.681691  3850 net.cpp:84] Creating Layer conv2_0_relu2_0_0_split
I0410 02:36:57.681708  3850 net.cpp:406] conv2_0_relu2_0_0_split <- conv2_0
I0410 02:36:57.681727  3850 net.cpp:380] conv2_0_relu2_0_0_split -> conv2_0_relu2_0_0_split_0
I0410 02:36:57.681748  3850 net.cpp:380] conv2_0_relu2_0_0_split -> conv2_0_relu2_0_0_split_1
I0410 02:36:57.681830  3850 net.cpp:122] Setting up conv2_0_relu2_0_0_split
I0410 02:36:57.681848  3850 net.cpp:129] Top shape: 128 32 48 48 (9437184)
I0410 02:36:57.681859  3850 net.cpp:129] Top shape: 128 32 48 48 (9437184)
I0410 02:36:57.681871  3850 net.cpp:137] Memory required for data: 419986944
I0410 02:36:57.681883  3850 layer_factory.hpp:77] Creating layer conv2
I0410 02:36:57.681905  3850 net.cpp:84] Creating Layer conv2
I0410 02:36:57.681921  3850 net.cpp:406] conv2 <- conv2_0_relu2_0_0_split_0
I0410 02:36:57.681937  3850 net.cpp:380] conv2 -> conv2
I0410 02:36:57.696223  3850 net.cpp:122] Setting up conv2
I0410 02:36:57.696250  3850 net.cpp:129] Top shape: 128 32 48 48 (9437184)
I0410 02:36:57.696256  3850 net.cpp:137] Memory required for data: 457735680
I0410 02:36:57.696267  3850 layer_factory.hpp:77] Creating layer relu2
I0410 02:36:57.696282  3850 net.cpp:84] Creating Layer relu2
I0410 02:36:57.696307  3850 net.cpp:406] relu2 <- conv2
I0410 02:36:57.696331  3850 net.cpp:367] relu2 -> conv2 (in-place)
I0410 02:36:57.700595  3850 net.cpp:122] Setting up relu2
I0410 02:36:57.700616  3850 net.cpp:129] Top shape: 128 32 48 48 (9437184)
I0410 02:36:57.700623  3850 net.cpp:137] Memory required for data: 495484416
I0410 02:36:57.700628  3850 layer_factory.hpp:77] Creating layer conv3
I0410 02:36:57.700647  3850 net.cpp:84] Creating Layer conv3
I0410 02:36:57.700655  3850 net.cpp:406] conv3 <- conv2
I0410 02:36:57.700665  3850 net.cpp:380] conv3 -> conv3
I0410 02:36:57.713888  3850 net.cpp:122] Setting up conv3
I0410 02:36:57.713918  3850 net.cpp:129] Top shape: 128 32 48 48 (9437184)
I0410 02:36:57.713923  3850 net.cpp:137] Memory required for data: 533233152
I0410 02:36:57.713943  3850 layer_factory.hpp:77] Creating layer res1
I0410 02:36:57.713958  3850 net.cpp:84] Creating Layer res1
I0410 02:36:57.713982  3850 net.cpp:406] res1 <- conv2_0_relu2_0_0_split_1
I0410 02:36:57.713991  3850 net.cpp:406] res1 <- conv3
I0410 02:36:57.713999  3850 net.cpp:380] res1 -> res1
I0410 02:36:57.765018  3850 net.cpp:122] Setting up res1
I0410 02:36:57.765084  3850 net.cpp:129] Top shape: 128 32 48 48 (9437184)
I0410 02:36:57.765102  3850 net.cpp:137] Memory required for data: 570981888
I0410 02:36:57.765120  3850 layer_factory.hpp:77] Creating layer pool2
I0410 02:36:57.765144  3850 net.cpp:84] Creating Layer pool2
I0410 02:36:57.765161  3850 net.cpp:406] pool2 <- res1
I0410 02:36:57.765182  3850 net.cpp:380] pool2 -> pool2
I0410 02:36:57.765254  3850 net.cpp:122] Setting up pool2
I0410 02:36:57.765277  3850 net.cpp:129] Top shape: 128 32 24 24 (2359296)
I0410 02:36:57.765291  3850 net.cpp:137] Memory required for data: 580419072
I0410 02:36:57.765306  3850 layer_factory.hpp:77] Creating layer relu3
I0410 02:36:57.765324  3850 net.cpp:84] Creating Layer relu3
I0410 02:36:57.765338  3850 net.cpp:406] relu3 <- pool2
I0410 02:36:57.765359  3850 net.cpp:367] relu3 -> pool2 (in-place)
I0410 02:36:57.766083  3850 net.cpp:122] Setting up relu3
I0410 02:36:57.766110  3850 net.cpp:129] Top shape: 128 32 24 24 (2359296)
I0410 02:36:57.766124  3850 net.cpp:137] Memory required for data: 589856256
I0410 02:36:57.766137  3850 layer_factory.hpp:77] Creating layer conv3_0
I0410 02:36:57.766158  3850 net.cpp:84] Creating Layer conv3_0
I0410 02:36:57.766165  3850 net.cpp:406] conv3_0 <- pool2
I0410 02:36:57.766172  3850 net.cpp:380] conv3_0 -> conv3_0
I0410 02:36:57.777384  3850 net.cpp:122] Setting up conv3_0
I0410 02:36:57.777407  3850 net.cpp:129] Top shape: 128 64 24 24 (4718592)
I0410 02:36:57.777413  3850 net.cpp:137] Memory required for data: 608730624
I0410 02:36:57.777424  3850 layer_factory.hpp:77] Creating layer relu3_0
I0410 02:36:57.777441  3850 net.cpp:84] Creating Layer relu3_0
I0410 02:36:57.777447  3850 net.cpp:406] relu3_0 <- conv3_0
I0410 02:36:57.777456  3850 net.cpp:367] relu3_0 -> conv3_0 (in-place)
I0410 02:36:57.781195  3850 net.cpp:122] Setting up relu3_0
I0410 02:36:57.781229  3850 net.cpp:129] Top shape: 128 64 24 24 (4718592)
I0410 02:36:57.781244  3850 net.cpp:137] Memory required for data: 627604992
I0410 02:36:57.781257  3850 layer_factory.hpp:77] Creating layer conv3_0_relu3_0_0_split
I0410 02:36:57.781271  3850 net.cpp:84] Creating Layer conv3_0_relu3_0_0_split
I0410 02:36:57.781282  3850 net.cpp:406] conv3_0_relu3_0_0_split <- conv3_0
I0410 02:36:57.781296  3850 net.cpp:380] conv3_0_relu3_0_0_split -> conv3_0_relu3_0_0_split_0
I0410 02:36:57.781314  3850 net.cpp:380] conv3_0_relu3_0_0_split -> conv3_0_relu3_0_0_split_1
I0410 02:36:57.781368  3850 net.cpp:122] Setting up conv3_0_relu3_0_0_split
I0410 02:36:57.781384  3850 net.cpp:129] Top shape: 128 64 24 24 (4718592)
I0410 02:36:57.781396  3850 net.cpp:129] Top shape: 128 64 24 24 (4718592)
I0410 02:36:57.781407  3850 net.cpp:137] Memory required for data: 665353728
I0410 02:36:57.781419  3850 layer_factory.hpp:77] Creating layer conv4
I0410 02:36:57.781440  3850 net.cpp:84] Creating Layer conv4
I0410 02:36:57.781453  3850 net.cpp:406] conv4 <- conv3_0_relu3_0_0_split_0
I0410 02:36:57.781462  3850 net.cpp:380] conv4 -> conv4
I0410 02:36:57.790792  3850 net.cpp:122] Setting up conv4
I0410 02:36:57.790814  3850 net.cpp:129] Top shape: 128 64 24 24 (4718592)
I0410 02:36:57.790819  3850 net.cpp:137] Memory required for data: 684228096
I0410 02:36:57.790830  3850 layer_factory.hpp:77] Creating layer relu4
I0410 02:36:57.790843  3850 net.cpp:84] Creating Layer relu4
I0410 02:36:57.790849  3850 net.cpp:406] relu4 <- conv4
I0410 02:36:57.790858  3850 net.cpp:367] relu4 -> conv4 (in-place)
I0410 02:36:57.794744  3850 net.cpp:122] Setting up relu4
I0410 02:36:57.794759  3850 net.cpp:129] Top shape: 128 64 24 24 (4718592)
I0410 02:36:57.794761  3850 net.cpp:137] Memory required for data: 703102464
I0410 02:36:57.794765  3850 layer_factory.hpp:77] Creating layer conv5
I0410 02:36:57.794781  3850 net.cpp:84] Creating Layer conv5
I0410 02:36:57.794790  3850 net.cpp:406] conv5 <- conv4
I0410 02:36:57.794802  3850 net.cpp:380] conv5 -> conv5
I0410 02:36:57.806694  3850 net.cpp:122] Setting up conv5
I0410 02:36:57.806720  3850 net.cpp:129] Top shape: 128 64 24 24 (4718592)
I0410 02:36:57.806723  3850 net.cpp:137] Memory required for data: 721976832
I0410 02:36:57.806735  3850 layer_factory.hpp:77] Creating layer res2
I0410 02:36:57.806744  3850 net.cpp:84] Creating Layer res2
I0410 02:36:57.806751  3850 net.cpp:406] res2 <- conv3_0_relu3_0_0_split_1
I0410 02:36:57.806757  3850 net.cpp:406] res2 <- conv5
I0410 02:36:57.806764  3850 net.cpp:380] res2 -> res2
I0410 02:36:57.806803  3850 net.cpp:122] Setting up res2
I0410 02:36:57.806813  3850 net.cpp:129] Top shape: 128 64 24 24 (4718592)
I0410 02:36:57.806818  3850 net.cpp:137] Memory required for data: 740851200
I0410 02:36:57.806823  3850 layer_factory.hpp:77] Creating layer pool3
I0410 02:36:57.806834  3850 net.cpp:84] Creating Layer pool3
I0410 02:36:57.806840  3850 net.cpp:406] pool3 <- res2
I0410 02:36:57.806849  3850 net.cpp:380] pool3 -> pool3
I0410 02:36:57.806895  3850 net.cpp:122] Setting up pool3
I0410 02:36:57.806905  3850 net.cpp:129] Top shape: 128 64 12 12 (1179648)
I0410 02:36:57.806910  3850 net.cpp:137] Memory required for data: 745569792
I0410 02:36:57.806915  3850 layer_factory.hpp:77] Creating layer relu5
I0410 02:36:57.806921  3850 net.cpp:84] Creating Layer relu5
I0410 02:36:57.806927  3850 net.cpp:406] relu5 <- pool3
I0410 02:36:57.806933  3850 net.cpp:367] relu5 -> pool3 (in-place)
I0410 02:36:57.810390  3850 net.cpp:122] Setting up relu5
I0410 02:36:57.810402  3850 net.cpp:129] Top shape: 128 64 12 12 (1179648)
I0410 02:36:57.810406  3850 net.cpp:137] Memory required for data: 750288384
I0410 02:36:57.810412  3850 layer_factory.hpp:77] Creating layer fc1
I0410 02:36:57.810425  3850 net.cpp:84] Creating Layer fc1
I0410 02:36:57.810432  3850 net.cpp:406] fc1 <- pool3
I0410 02:36:57.810442  3850 net.cpp:380] fc1 -> fc1
I0410 02:36:58.314216  3850 net.cpp:122] Setting up fc1
I0410 02:36:58.314242  3850 net.cpp:129] Top shape: 128 2048 (262144)
I0410 02:36:58.314247  3850 net.cpp:137] Memory required for data: 751336960
I0410 02:36:58.314267  3850 layer_factory.hpp:77] Creating layer relu6
I0410 02:36:58.314311  3850 net.cpp:84] Creating Layer relu6
I0410 02:36:58.314319  3850 net.cpp:406] relu6 <- fc1
I0410 02:36:58.314329  3850 net.cpp:367] relu6 -> fc1 (in-place)
I0410 02:36:58.314555  3850 net.cpp:122] Setting up relu6
I0410 02:36:58.314568  3850 net.cpp:129] Top shape: 128 2048 (262144)
I0410 02:36:58.314573  3850 net.cpp:137] Memory required for data: 752385536
I0410 02:36:58.314577  3850 layer_factory.hpp:77] Creating layer drop1
I0410 02:36:58.314587  3850 net.cpp:84] Creating Layer drop1
I0410 02:36:58.314599  3850 net.cpp:406] drop1 <- fc1
I0410 02:36:58.314610  3850 net.cpp:367] drop1 -> fc1 (in-place)
I0410 02:36:58.314638  3850 net.cpp:122] Setting up drop1
I0410 02:36:58.314646  3850 net.cpp:129] Top shape: 128 2048 (262144)
I0410 02:36:58.314651  3850 net.cpp:137] Memory required for data: 753434112
I0410 02:36:58.314654  3850 layer_factory.hpp:77] Creating layer fc2
I0410 02:36:58.314667  3850 net.cpp:84] Creating Layer fc2
I0410 02:36:58.314672  3850 net.cpp:406] fc2 <- fc1
I0410 02:36:58.314680  3850 net.cpp:380] fc2 -> fc2
I0410 02:36:58.410225  3850 net.cpp:122] Setting up fc2
I0410 02:36:58.410254  3850 net.cpp:129] Top shape: 128 2048 (262144)
I0410 02:36:58.410259  3850 net.cpp:137] Memory required for data: 754482688
I0410 02:36:58.410270  3850 layer_factory.hpp:77] Creating layer relu7
I0410 02:36:58.410281  3850 net.cpp:84] Creating Layer relu7
I0410 02:36:58.410312  3850 net.cpp:406] relu7 <- fc2
I0410 02:36:58.410323  3850 net.cpp:367] relu7 -> fc2 (in-place)
I0410 02:36:58.410912  3850 net.cpp:122] Setting up relu7
I0410 02:36:58.410928  3850 net.cpp:129] Top shape: 128 2048 (262144)
I0410 02:36:58.410933  3850 net.cpp:137] Memory required for data: 755531264
I0410 02:36:58.410938  3850 layer_factory.hpp:77] Creating layer drop2
I0410 02:36:58.410948  3850 net.cpp:84] Creating Layer drop2
I0410 02:36:58.410967  3850 net.cpp:406] drop2 <- fc2
I0410 02:36:58.410992  3850 net.cpp:367] drop2 -> fc2 (in-place)
I0410 02:36:58.411036  3850 net.cpp:122] Setting up drop2
I0410 02:36:58.411054  3850 net.cpp:129] Top shape: 128 2048 (262144)
I0410 02:36:58.411068  3850 net.cpp:137] Memory required for data: 756579840
I0410 02:36:58.411082  3850 layer_factory.hpp:77] Creating layer fc3
I0410 02:36:58.411099  3850 net.cpp:84] Creating Layer fc3
I0410 02:36:58.411104  3850 net.cpp:406] fc3 <- fc2
I0410 02:36:58.411114  3850 net.cpp:380] fc3 -> fc3
I0410 02:36:58.414515  3850 net.cpp:122] Setting up fc3
I0410 02:36:58.414537  3850 net.cpp:129] Top shape: 128 63 (8064)
I0410 02:36:58.414543  3850 net.cpp:137] Memory required for data: 756612096
I0410 02:36:58.414554  3850 layer_factory.hpp:77] Creating layer loss
I0410 02:36:58.414583  3850 net.cpp:84] Creating Layer loss
I0410 02:36:58.414600  3850 net.cpp:406] loss <- fc3
I0410 02:36:58.414615  3850 net.cpp:406] loss <- pose
I0410 02:36:58.414631  3850 net.cpp:380] loss -> loss
I0410 02:36:58.414829  3850 net.cpp:122] Setting up loss
…
  transform_param {
    is_trans: false
    is_rotate: false
    is_zoom: false
  }
  pose_data_param {
    image_source: "/home/workspace/Datasets/MSRA/cvpr15_MSRAHandGestureDB/test_image_0.txt"
    label_source: "/home/workspace/Datasets/MSRA/cvpr15_MSRAHandGestureDB/test_label_0.txt"
    batch_size: 128
    shuffle: false
    new_height: 96
    new_width: 96
    root_folder: "/home/workspace/Datasets/MSRA/cvpr15_MSRAHandGestureDB/"
    point_num: 21
    point_dim: 3
    fx: 241.42
    fy: 241.42
    output_center: true
    cube_length: 150
    dataset: MSRA
  }
}
layer {
  name: "pose"
  type: "Slice"
  bottom: "label"
  top: "pose"
  top: "center"
  include {
    phase: TEST
  }
  slice_param {
    slice_dim: 1
    slice_point: 63
  }
}
layer {
  name: "conv0"
  type: "Convolution"
  bottom: "data"
  top: "conv0"
  param {
    lr_mult: 1
  }
  param {
    lr_mult: 2
  }
  convolution_param {
    num_output: 16
    pad: 1
    kernel_size: 3
    stride: 1
    weight_filler {
      type: "msra"
    }
    bias_filler {
      type: "constant"
    }
  }
}
layer {
  name: "relu0"
  type: "ReLU"
  bottom: "conv0"
  top: "conv0"
}
layer {
  name: "conv1"
  type: "Convolution"
  bottom: "conv0"
  top: "conv1"
  param {
    lr_mult: 1
  }
  param {
    lr_mult: 2
  }
  convolution_param {
    num_output: 16
    pad: 1
    kernel_size: 3
    stride: 1
    weight_filler {
      type: "msra"
    }
    bias_filler {
      type: "constant"
    }
  }
}
layer {
  name: "pool1"
  type: "Pooling"
  bottom: "conv1"
  top: "pool1"
  pooling_param {
    pool: MAX
    kernel_size: 2
    stride: 2
  }
}
layer {
  name: "relu1"
  type: "ReLU"
  bottom: "pool1"
  top: "pool1"
}
layer {
  name: "conv2_0"
  type: "Convolution"
  bottom: "pool1"
  top: "conv2_0"
  param {
    lr_mult: 1
  }
  param {
    lr_mult: 2
  }
  convolution_param {
    num_output: 32
    pad: 0
    kernel_size: 1
    stride: 1
    weight_filler {
      type: "msra"
    }
    bias_filler {
      type: "constant"
    }
  }
}
layer {
  name: "relu2_0"
  type: "ReLU"
  bottom: "conv2_0"
  top: "conv2_0"
}
layer {
  name: "conv2"
  type: "Convolution"
  bottom: "conv2_0"
  top: "conv2"
  param {
    lr_mult: 1
  }
  param {
    lr_mult: 2
  }
  convolution_param {
    num_output: 32
    pad: 1
    kernel_size: 3
    stride: 1
    weight_filler {
      type: "msra"
    }
    bias_filler {
      type: "constant"
    }
  }
}
layer {
  name: "relu2"
  type: "ReLU"
  bottom: "conv2"
  top: "conv2"
}
layer {
  name: "conv3"
  type: "Convolution"
  bottom: "conv2"
  top: "conv3"
  param {
    lr_mult: 1
  }
  param {
    lr_mult: 2
  }
  convolution_param {
    num_output: 32
    pad: 1
    kernel_size: 3
    stride: 1
    weight_filler {
      type: "msra"
    }
    bias_filler {
      type: "constant"
    }
  }
}
layer {
  name: "res1"
  type: "Eltwise"
  bottom: "conv2_0"
  bottom: "conv3"
  top: "res1"
}
layer {
  name: "pool2"
  type: "Pooling"
  bottom: "res1"
  top: "pool2"
  pooling_param {
    pool: MAX
    kernel_size: 2
    stride: 2
  }
}
layer {
  name: "relu3"
  type: "ReLU"
  bottom: "pool2"
  top: "pool2"
}
layer {
  name: "conv3_0"
  type: "Convolution"
  bottom: "pool2"
  top: "conv3_0"
  param {
    lr_mult: 1
  }
  param {
    lr_mult: 2
  }
  convolution_param {
    num_output: 64
    pad: 0
    kernel_size: 1
    stride: 1
    weight_filler {
      type: "msra"
    }
    bias_filler {
      type: "constant"
    }
  }
}
layer {
  name: "relu3_0"
  type: "ReLU"
  bottom: "conv3_0"
  top: "conv3_0"
}
layer {
  name: "conv4"
  type: "Convolution"
  bottom: "conv3_0"
  top: "conv4"
  param {
    lr_mult: 1
  }
  param {
    lr_mult: 2
  }
  convolution_param {
    num_output: 64
    pad: 1
    kernel_size: 3
    stride: 1
    weight_filler {
      type: "msra"
    }
    bias_filler {
      type: "constant"
    }
  }
}
layer {
  name: "relu4"
  type: "ReLU"
  bottom: "conv4"
  top: "conv4"
}
layer {
  name: "conv5"
  type: "Convolution"
  bottom: "conv4"
  top: "conv5"
  param {
    lr_mult: 1
  }
  param {
    lr_mult: 2
  }
  convolution_param {
    num_output: 64
    pad: 1
    kernel_size: 3
    stride: 1
    weight_filler {
      type: "msra"
    }
    bias_filler {
      type: "constant"
    }
  }
}
layer {
  name: "res2"
  type: "Eltwise"
  bottom: "conv3_0"
  bottom: "conv5"
  top: "res2"
}
layer {
  name: "pool3"
  type: "Pooling"
  bottom: "res2"
  top: "pool3"
  pooling_param {
    pool: MAX
    kernel_size: 2
    stride: 2
  }
}
layer {
  name: "relu5"
  type: "ReLU"
  bottom: "pool3"
  top: "pool3"
}
layer {
  name: "fc1"
  type: "InnerProduct"
  bottom: "pool3"
  top: "fc1"
  param {
    lr_mult: 1
  }
  param {
    lr_mult: 2
  }
  inner_product_param {
    num_output: 2048
    weight_filler {
      type: "gaussian"
      std: 0.001
    }
    bias_filler {
      type: "constant"
    }
  }
}
layer {
  name: "relu6"
  type: "ReLU"
  bottom: "fc1"
  top: "fc1"
}
layer {
  name: "drop1"
  type: "Dropout"
  bottom: "fc1"
  top: "fc1"
  dropout_param {
    dropout_ratio: 0.5
  }
}
layer {
  name: "fc2"
  type: "InnerProduct"
  bottom: "fc1"
  top: "fc2"
  param {
    lr_mult: 1
  }
  param {
    lr_mult: 2
  }
  inner_product_param {
    num_output: 2048
    weight_filler {
      type: "gaussian"
      std: 0.001
    }
    bias_filler {
      type: "constant"
    }
  }
}
layer {
  name: "relu7"
  type: "ReLU"
  bottom: "fc2"
  top: "fc2"
}
layer {
  name: "drop2"
  type: "Dropout"
  bottom: "fc2"
  top: "fc2"
  dropout_param {
    dropout_ratio: 0.5
  }
}
layer {
  name: "fc3"
  type: "InnerProduct"
  bottom: "fc2"
  top: "fc3"
  param {
    lr_mult: 1
  }
  param {
    lr_mult: 2
  }
  inner_product_param {
    num_output: 63
    weight_filler {
      type: "gaussian"
      std: 0.001
    }
    bias_filler {
      type: "constant"
    }
  }
}
layer {
  name: "loss"
  type: "SmoothL1Loss"
  bottom: "fc3"
  bottom: "pose"
  top: "loss"
  loss_weight: 1
  smooth_l1_loss_param {
    sigma: 10
  }
}
layer {
  name: "distance"
  type: "PoseDistance"
  bottom: "fc3"
  bottom: "pose"
  bottom: "center"
  top: "distance"
  loss_weight: 0
  include {
    phase: TEST
  }
  pose_distance_param {
    fx: 241.42
    fy: 241.42
    ux: 160
    uy: 120
    cube_length: 150
  }
}
I0410 02:36:58.561694  3850 layer_factory.hpp:77] Creating layer data
I0410 02:36:58.561712  3850 net.cpp:84] Creating Layer data
I0410 02:36:58.561719  3850 net.cpp:380] data -> data
I0410 02:36:58.561734  3850 net.cpp:380] data -> label
I0410 02:36:58.561748  3850 pose_data_layer.cpp:117] Opening file /home/workspace/Datasets/MSRA/cvpr15_MSRAHandGestureDB/test_image_0.txt
I0410 02:36:58.583618  3850 pose_data_layer.cpp:119] Opening file /home/workspace/Datasets/MSRA/cvpr15_MSRAHandGestureDB/test_label_0.txt
I0410 02:36:59.032539  3850 pose_data_layer.cpp:269] Loading 125 image...
I0410 02:37:02.245893  3850 pose_data_layer.cpp:269] Loading 2125 image...
I0410 02:37:12.771988  3850 pose_data_layer.cpp:269] Loading 4125 image...
I0410 02:37:17.444754  3850 pose_data_layer.cpp:269] Loading 6125 image...
I0410 02:37:23.584199  3850 pose_data_layer.cpp:269] Loading 8125 image...
I0410 02:37:24.791029  3850 pose_data_layer.cpp:287] A total of 8499 images.
I0410 02:37:24.791235  3850 pose_data_layer.cpp:329] output data size: 128,1,96,96
I0410 02:37:25.013108  3850 net.cpp:122] Setting up data
I0410 02:37:25.013140  3850 net.cpp:129] Top shape: 128 1 96 96 (1179648)
I0410 02:37:25.013149  3850 net.cpp:129] Top shape: 128 66 (8448)
I0410 02:37:25.013154  3850 net.cpp:137] Memory required for data: 4752384
I0410 02:37:25.013162  3850 layer_factory.hpp:77] Creating layer pose
I0410 02:37:25.021651  3850 net.cpp:84] Creating Layer pose
I0410 02:37:25.021666  3850 net.cpp:406] pose <- label
I0410 02:37:25.021677  3850 net.cpp:380] pose -> pose
I0410 02:37:25.021692  3850 net.cpp:380] pose -> center
I0410 02:37:25.021777  3850 net.cpp:122] Setting up pose
I0410 02:37:25.021788  3850 net.cpp:129] Top shape: 128 63 (8064)
I0410 02:37:25.021795  3850 net.cpp:129] Top shape: 128 3 (384)
I0410 02:37:25.021798  3850 net.cpp:137] Memory required for data: 4786176
I0410 02:37:25.021803  3850 layer_factory.hpp:77] Creating layer pose_pose_0_split
I0410 02:37:25.021811  3850 net.cpp:84] Creating Layer pose_pose_0_split
I0410 02:37:25.021817  3850 net.cpp:406] pose_pose_0_split <- pose
I0410 02:37:25.021824  3850 net.cpp:380] pose_pose_0_split -> pose_pose_0_split_0
I0410 02:37:25.021834  3850 net.cpp:380] pose_pose_0_split -> pose_pose_0_split_1
I0410 02:37:25.035460  3850 net.cpp:122] Setting up pose_pose_0_split
I0410 02:37:25.035477  3850 net.cpp:129] Top shape: 128 63 (8064)
I0410 02:37:25.035483  3850 net.cpp:129] Top shape: 128 63 (8064)
I0410 02:37:25.035488  3850 net.cpp:137] Memory required for data: 4850688
I0410 02:37:25.035493  3850 layer_factory.hpp:77] Creating layer conv0
I0410 02:37:25.065779  3850 net.cpp:84] Creating Layer conv0
I0410 02:37:25.065796  3850 net.cpp:406] conv0 <- data
I0410 02:37:25.065807  3850 net.cpp:380] conv0 -> conv0
I0410 02:37:25.198654  3850 net.cpp:122] Setting up conv0
I0410 02:37:25.198675  3850 net.cpp:129] Top shape: 128 16 96 96 (18874368)
I0410 02:37:25.198678  3850 net.cpp:137] Memory required for data: 80348160
I0410 02:37:25.198691  3850 layer_factory.hpp:77] Creating layer relu0
I0410 02:37:25.198701  3850 net.cpp:84] Creating Layer relu0
I0410 02:37:25.198705  3850 net.cpp:406] relu0 <- conv0
I0410 02:37:25.198710  3850 net.cpp:367] relu0 -> conv0 (in-place)
I0410 02:37:25.203080  3850 net.cpp:122] Setting up relu0
I0410 02:37:25.203092  3850 net.cpp:129] Top shape: 128 16 96 96 (18874368)
I0410 02:37:25.203096  3850 net.cpp:137] Memory required for data: 155845632
I0410 02:37:25.203099  3850 layer_factory.hpp:77] Creating layer conv1
I0410 02:37:25.203109  3850 net.cpp:84] Creating Layer conv1
I0410 02:37:25.203115  3850 net.cpp:406] conv1 <- conv0
I0410 02:37:25.203121  3850 net.cpp:380] conv1 -> conv1
I0410 02:37:25.215510  3850 net.cpp:122] Setting up conv1
I0410 02:37:25.215529  3850 net.cpp:129] Top shape: 128 16 96 96 (18874368)
I0410 02:37:25.215533  3850 net.cpp:137] Memory required for data: 231343104
I0410 02:37:25.215543  3850 layer_factory.hpp:77] Creating layer pool1
I0410 02:37:25.215553  3850 net.cpp:84] Creating Layer pool1
I0410 02:37:25.215569  3850 net.cpp:406] pool1 <- conv1
I0410 02:37:25.215574  3850 net.cpp:380] pool1 -> pool1
I0410 02:37:25.309271  3850 net.cpp:122] Setting up pool1
I0410 02:37:25.309301  3850 net.cpp:129] Top shape: 128 16 48 48 (4718592)
I0410 02:37:25.309306  3850 net.cpp:137] Memory required for data: 250217472
I0410 02:37:25.309312  3850 layer_factory.hpp:77] Creating layer relu1
I0410 02:37:25.309326  3850 net.cpp:84] Creating Layer relu1
I0410 02:37:25.309335  3850 net.cpp:406] relu1 <- pool1
I0410 02:37:25.309350  3850 net.cpp:367] relu1 -> pool1 (in-place)
I0410 02:37:25.309659  3850 net.cpp:122] Setting up relu1
I0410 02:37:25.309670  3850 net.cpp:129] Top shape: 128 16 48 48 (4718592)
I0410 02:37:25.309676  3850 net.cpp:137] Memory required for data: 269091840
I0410 02:37:25.309681  3850 layer_factory.hpp:77] Creating layer conv2_0
I0410 02:37:25.309756  3850 net.cpp:84] Creating Layer conv2_0
I0410 02:37:25.309762  3850 net.cpp:406] conv2_0 <- pool1
I0410 02:37:25.309772  3850 net.cpp:380] conv2_0 -> conv2_0
I0410 02:37:25.321916  3850 net.cpp:122] Setting up conv2_0
I0410 02:37:25.321939  3850 net.cpp:129] Top shape: 128 32 48 48 (9437184)
I0410 02:37:25.321944  3850 net.cpp:137] Memory required for data: 306840576
I0410 02:37:25.321959  3850 layer_factory.hpp:77] Creating layer relu2_0
I0410 02:37:25.321971  3850 net.cpp:84] Creating Layer relu2_0
I0410 02:37:25.321977  3850 net.cpp:406] relu2_0 <- conv2_0
I0410 02:37:25.321986  3850 net.cpp:367] relu2_0 -> conv2_0 (in-place)
I0410 02:37:25.325350  3850 net.cpp:122] Setting up relu2_0
I0410 02:37:25.325364  3850 net.cpp:129] Top shape: 128 32 48 48 (9437184)
I0410 02:37:25.325369  3850 net.cpp:137] Memory required for data: 344589312
I0410 02:37:25.325376  3850 layer_factory.hpp:77] Creating layer conv2_0_relu2_0_0_split
I0410 02:37:25.325384  3850 net.cpp:84] Creating Layer conv2_0_relu2_0_0_split
I0410 02:37:25.325390  3850 net.cpp:406] conv2_0_relu2_0_0_split <- conv2_0
I0410 02:37:25.325398  3850 net.cpp:380] conv2_0_relu2_0_0_split -> conv2_0_relu2_0_0_split_0
I0410 02:37:25.325409  3850 net.cpp:380] conv2_0_relu2_0_0_split -> conv2_0_relu2_0_0_split_1
I0410 02:37:25.325465  3850 net.cpp:122] Setting up conv2_0_relu2_0_0_split
I0410 02:37:25.325474  3850 net.cpp:129] Top shape: 128 32 48 48 (9437184)
I0410 02:37:25.325481  3850 net.cpp:129] Top shape: 128 32 48 48 (9437184)
I0410 02:37:25.325486  3850 net.cpp:137] Memory required for data: 420086784
I0410 02:37:25.325490  3850 layer_factory.hpp:77] Creating layer conv2
I0410 02:37:25.325505  3850 net.cpp:84] Creating Layer conv2
I0410 02:37:25.325510  3850 net.cpp:406] conv2 <- conv2_0_relu2_0_0_split_0
I0410 02:37:25.325520  3850 net.cpp:380] conv2 -> conv2
I0410 02:37:25.339231  3850 net.cpp:122] Setting up conv2
I0410 02:37:25.339285  3850 net.cpp:129] Top shape: 128 32 48 48 (9437184)
I0410 02:37:25.339300  3850 net.cpp:137] Memory required for data: 457835520
I0410 02:37:25.339320  3850 layer_factory.hpp:77] Creating layer relu2
I0410 02:37:25.339339  3850 net.cpp:84] Creating Layer relu2
I0410 02:37:25.339352  3850 net.cpp:406] relu2 <- conv2
I0410 02:37:25.339368  3850 net.cpp:367] relu2 -> conv2 (in-place)
I0410 02:37:25.342651  3850 net.cpp:122] Setting up relu2
I0410 02:37:25.342670  3850 net.cpp:129] Top shape: 128 32 48 48 (9437184)
I0410 02:37:25.342675  3850 net.cpp:137] Memory required for data: 495584256
I0410 02:37:25.342680  3850 layer_factory.hpp:77] Creating layer conv3
I0410 02:37:25.342697  3850 net.cpp:84] Creating Layer conv3
I0410 02:37:25.342711  3850 net.cpp:406] conv3 <- conv2
I0410 02:37:25.342721  3850 net.cpp:380] conv3 -> conv3
I0410 02:37:25.354773  3850 net.cpp:122] Setting up conv3
I0410 02:37:25.354797  3850 net.cpp:129] Top shape: 128 32 48 48 (9437184)
I0410 02:37:25.354802  3850 net.cpp:137] Memory required for data: 533332992
I0410 02:37:25.354817  3850 layer_factory.hpp:77] Creating layer res1
I0410 02:37:25.595475  3850 net.cpp:84] Creating Layer res1
I0410 02:37:25.595505  3850 net.cpp:406] res1 <- conv2_0_relu2_0_0_split_1
I0410 02:37:25.595516  3850 net.cpp:406] res1 <- conv3
I0410 02:37:25.595525  3850 net.cpp:380] res1 -> res1
I0410 02:37:25.748111  3850 net.cpp:122] Setting up res1
I0410 02:37:25.748138  3850 net.cpp:129] Top shape: 128 32 48 48 (9437184)
I0410 02:37:25.748142  3850 net.cpp:137] Memory required for data: 571081728
I0410 02:37:25.748147  3850 layer_factory.hpp:77] Creating layer pool2
I0410 02:37:25.748157  3850 net.cpp:84] Creating Layer pool2
I0410 02:37:25.748162  3850 net.cpp:406] pool2 <- res1
I0410 02:37:25.748168  3850 net.cpp:380] pool2 -> pool2
I0410 02:37:25.748215  3850 net.cpp:122] Setting up pool2
I0410 02:37:25.748221  3850 net.cpp:129] Top shape: 128 32 24 24 (2359296)
I0410 02:37:25.748224  3850 net.cpp:137] Memory required for data: 580518912
I0410 02:37:25.748226  3850 layer_factory.hpp:77] Creating layer relu3
I0410 02:37:25.748234  3850 net.cpp:84] Creating Layer relu3
I0410 02:37:25.748239  3850 net.cpp:406] relu3 <- pool2
I0410 02:37:25.748246  3850 net.cpp:367] relu3 -> pool2 (in-place)
I0410 02:37:25.748824  3850 net.cpp:122] Setting up relu3
I0410 02:37:25.748837  3850 net.cpp:129] Top shape: 128 32 24 24 (2359296)
I0410 02:37:25.748842  3850 net.cpp:137] Memory required for data: 589956096
I0410 02:37:25.748847  3850 layer_factory.hpp:77] Creating layer conv3_0
I0410 02:37:25.748888  3850 net.cpp:84] Creating Layer conv3_0
I0410 02:37:25.748896  3850 net.cpp:406] conv3_0 <- pool2
I0410 02:37:25.748906  3850 net.cpp:380] conv3_0 -> conv3_0
I0410 02:37:25.758421  3850 net.cpp:122] Setting up conv3_0
I0410 02:37:25.758436  3850 net.cpp:129] Top shape: 128 64 24 24 (4718592)
I0410 02:37:25.758442  3850 net.cpp:137] Memory required for data: 608830464
I0410 02:37:25.758453  3850 layer_factory.hpp:77] Creating layer relu3_0
I0410 02:37:25.758461  3850 net.cpp:84] Creating Layer relu3_0
I0410 02:37:25.758468  3850 net.cpp:406] relu3_0 <- conv3_0
I0410 02:37:25.758476  3850 net.cpp:367] relu3_0 -> conv3_0 (in-place)
I0410 02:37:25.763265  3850 net.cpp:122] Setting up relu3_0
I0410 02:37:25.763284  3850 net.cpp:129] Top shape: 128 64 24 24 (4718592)
I0410 02:37:25.763289  3850 net.cpp:137] Memory required for data: 627704832
I0410 02:37:25.763295  3850 layer_factory.hpp:77] Creating layer conv3_0_relu3_0_0_split
I0410 02:37:25.763304  3850 net.cpp:84] Creating Layer conv3_0_relu3_0_0_split
I0410 02:37:25.763339  3850 net.cpp:406] conv3_0_relu3_0_0_split <- conv3_0
I0410 02:37:25.763348  3850 net.cpp:380] conv3_0_relu3_0_0_split -> conv3_0_relu3_0_0_split_0
I0410 02:37:25.763376  3850 net.cpp:380] conv3_0_relu3_0_0_split -> conv3_0_relu3_0_0_split_1
I0410 02:37:25.763442  3850 net.cpp:122] Setting up conv3_0_relu3_0_0_split
I0410 02:37:25.763451  3850 net.cpp:129] Top shape: 128 64 24 24 (4718592)
I0410 02:37:25.763458  3850 net.cpp:129] Top shape: 128 64 24 24 (4718592)
I0410 02:37:25.763479  3850 net.cpp:137] Memory required for data: 665453568
I0410 02:37:25.763484  3850 layer_factory.hpp:77] Creating layer conv4
I0410 02:37:25.763496  3850 net.cpp:84] Creating Layer conv4
I0410 02:37:25.763502  3850 net.cpp:406] conv4 <- conv3_0_relu3_0_0_split_0
I0410 02:37:25.763510  3850 net.cpp:380] conv4 -> conv4
I0410 02:37:25.777909  3850 net.cpp:122] Setting up conv4
I0410 02:37:25.777936  3850 net.cpp:129] Top shape: 128 64 24 24 (4718592)
I0410 02:37:25.777942  3850 net.cpp:137] Memory required for data: 684327936
I0410 02:37:25.777954  3850 layer_factory.hpp:77] Creating layer relu4
I0410 02:37:25.777967  3850 net.cpp:84] Creating Layer relu4
I0410 02:37:25.777974  3850 net.cpp:406] relu4 <- conv4
I0410 02:37:25.777982  3850 net.cpp:367] relu4 -> conv4 (in-place)
I0410 02:37:25.782302  3850 net.cpp:122] Setting up relu4
I0410 02:37:25.782315  3850 net.cpp:129] Top shape: 128 64 24 24 (4718592)
I0410 02:37:25.782318  3850 net.cpp:137] Memory required for data: 703202304
I0410 02:37:25.782321  3850 layer_factory.hpp:77] Creating layer conv5
I0410 02:37:25.782332  3850 net.cpp:84] Creating Layer conv5
I0410 02:37:25.782337  3850 net.cpp:406] conv5 <- conv4
I0410 02:37:25.782342  3850 net.cpp:380] conv5 -> conv5
I0410 02:37:25.794729  3850 net.cpp:122] Setting up conv5
I0410 02:37:25.794747  3850 net.cpp:129] Top shape: 128 64 24 24 (4718592)
I0410 02:37:25.794752  3850 net.cpp:137] Memory required for data: 722076672
I0410 02:37:25.794764  3850 layer_factory.hpp:77] Creating layer res2
I0410 02:37:25.794773  3850 net.cpp:84] Creating Layer res2
I0410 02:37:25.794780  3850 net.cpp:406] res2 <- conv3_0_relu3_0_0_split_1
I0410 02:37:25.794787  3850 net.cpp:406] res2 <- conv5
I0410 02:37:25.794796  3850 net.cpp:380] res2 -> res2
I0410 02:37:25.794832  3850 net.cpp:122] Setting up res2
I0410 02:37:25.794840  3850 net.cpp:129] Top shape: 128 64 24 24 (4718592)
I0410 02:37:25.794844  3850 net.cpp:137] Memory required for data: 740951040
I0410 02:37:25.794849  3850 layer_factory.hpp:77] Creating layer pool3
I0410 02:37:25.794859  3850 net.cpp:84] Creating Layer pool3
I0410 02:37:25.794865  3850 net.cpp:406] pool3 <- res2
I0410 02:37:25.794873  3850 net.cpp:380] pool3 -> pool3
I0410 02:37:25.794916  3850 net.cpp:122] Setting up pool3
I0410 02:37:25.794924  3850 net.cpp:129] Top shape: 128 64 12 12 (1179648)
I0410 02:37:25.794929  3850 net.cpp:137] Memory required for data: 745669632
I0410 02:37:25.794935  3850 layer_factory.hpp:77] Creating layer relu5
I0410 02:37:25.794944  3850 net.cpp:84] Creating Layer relu5
I0410 02:37:25.794950  3850 net.cpp:406] relu5 <- pool3
I0410 02:37:25.794957  3850 net.cpp:367] relu5 -> pool3 (in-place)
I0410 02:37:25.798473  3850 net.cpp:122] Setting up relu5
I0410 02:37:25.798486  3850 net.cpp:129] Top shape: 128 64 12 12 (1179648)
I0410 02:37:25.798492  3850 net.cpp:137] Memory required for data: 750388224
I0410 02:37:25.798497  3850 layer_factory.hpp:77] Creating layer fc1
I0410 02:37:25.798534  3850 net.cpp:84] Creating Layer fc1
I0410 02:37:25.798542  3850 net.cpp:406] fc1 <- pool3
I0410 02:37:25.798552  3850 net.cpp:380] fc1 -> fc1
I0410 02:37:26.251206  3850 net.cpp:122] Setting up fc1
I0410 02:37:26.251247  3850 net.cpp:129] Top shape: 128 2048 (262144)
I0410 02:37:26.251252  3850 net.cpp:137] Memory required for data: 751436800
I0410 02:37:26.251277  3850 layer_factory.hpp:77] Creating layer relu6
I0410 02:37:26.251294  3850 net.cpp:84] Creating Layer relu6
I0410 02:37:26.251308  3850 net.cpp:406] relu6 <- fc1
I0410 02:37:26.251320  3850 net.cpp:367] relu6 -> fc1 (in-place)
I0410 02:37:26.251579  3850 net.cpp:122] Setting up relu6
I0410 02:37:26.251590  3850 net.cpp:129] Top shape: 128 2048 (262144)
I0410 02:37:26.251595  3850 net.cpp:137] Memory required for data: 752485376
I0410 02:37:26.251600  3850 layer_factory.hpp:77] Creating layer drop1
I0410 02:37:26.405287  3850 net.cpp:84] Creating Layer drop1
I0410 02:37:26.405309  3850 net.cpp:406] drop1 <- fc1
I0410 02:37:26.405324  3850 net.cpp:367] drop1 -> fc1 (in-place)
I0410 02:37:26.405411  3850 net.cpp:122] Setting up drop1
I0410 02:37:26.405422  3850 net.cpp:129] Top shape: 128 2048 (262144)
I0410 02:37:26.405428  3850 net.cpp:137] Memory required for data: 753533952
I0410 02:37:26.405436  3850 layer_factory.hpp:77] Creating layer fc2
I0410 02:37:26.405447  3850 net.cpp:84] Creating Layer fc2
I0410 02:37:26.405452  3850 net.cpp:406] fc2 <- fc1
I0410 02:37:26.405462  3850 net.cpp:380] fc2 -> fc2
I0410 02:37:26.498764  3850 net.cpp:122] Setting up fc2
I0410 02:37:26.498790  3850 net.cpp:129] Top shape: 128 2048 (262144)
I0410 02:37:26.498795  3850 net.cpp:137] Memory required for data: 754582528
I0410 02:37:26.498807  3850 layer_factory.hpp:77] Creating layer relu7
I0410 02:37:26.498821  3850 net.cpp:84] Creating Layer relu7
I0410 02:37:26.498829  3850 net.cpp:406] relu7 <- fc2
I0410 02:37:26.498838  3850 net.cpp:367] relu7 -> fc2 (in-place)
I0410 02:37:26.499402  3850 net.cpp:122] Setting up relu7
I0410 02:37:26.499414  3850 net.cpp:129] Top shape: 128 2048 (262144)
I0410 02:37:26.499419  3850 net.cpp:137] Memory required for data: 755631104
I0410 02:37:26.499424  3850 layer_factory.hpp:77] Creating layer drop2
I0410 02:37:26.499433  3850 net.cpp:84] Creating Layer drop2
I0410 02:37:26.499455  3850 net.cpp:406] drop2 <- fc2
I0410 02:37:26.499471  3850 net.cpp:367] drop2 -> fc2 (in-place)
I0410 02:37:26.499505  3850 net.cpp:122] Setting up drop2
I0410 02:37:26.499512  3850 net.cpp:129] Top shape: 128 2048 (262144)
I0410 02:37:26.499517  3850 net.cpp:137] Memory required for data: 756679680
I0410 02:37:26.499522  3850 layer_factory.hpp:77] Creating layer fc3
I0410 02:37:26.499538  3850 net.cpp:84] Creating Layer fc3
I0410 02:37:26.499543  3850 net.cpp:406] fc3 <- fc2
I0410 02:37:26.499552  3850 net.cpp:380] fc3 -> fc3
I0410 02:37:26.502423  3850 net.cpp:122] Setting up fc3
I0410 02:37:26.502434  3850 net.cpp:129] Top shape: 128 63 (8064)
I0410 02:37:26.502439  3850 net.cpp:137] Memory required for data: 756711936
I0410 02:37:26.502447  3850 layer_factory.hpp:77] Creating layer fc3_fc3_0_split
I0410 02:37:26.502468  3850 net.cpp:84] Creating Layer fc3_fc3_0_split
I0410 02:37:26.502476  3850 net.cpp:406] fc3_fc3_0_split <- fc3
I0410 02:37:26.502483  3850 net.cpp:380] fc3_fc3_0_split -> fc3_fc3_0_split_0
I0410 02:37:26.502493  3850 net.cpp:380] fc3_fc3_0_split -> fc3_fc3_0_split_1
I0410 02:37:26.502534  3850 net.cpp:122] Setting up fc3_fc3_0_split
I0410 02:37:26.502542  3850 net.cpp:129] Top shape: 128 63 (8064)
I0410 02:37:26.502548  3850 net.cpp:129] Top shape: 128 63 (8064)
I0410 02:37:26.502553  3850 net.cpp:137] Memory required for data: 756776448
I0410 02:37:26.502558  3850 layer_factory.hpp:77] Creating layer loss
I0410 02:37:26.504495  3850 net.cpp:84] Creating Layer loss
I0410 02:37:26.504508  3850 net.cpp:406] loss <- fc3_fc3_0_split_0
I0410 02:37:26.504516  3850 net.cpp:406] loss <- pose_pose_0_split_0
I0410 02:37:26.504525  3850 net.cpp:380] loss -> loss
…
