…
    trans_dy: 10
    is_rotate: true
    rotate_deg: 180
    is_zoom: true
    zoom_scale: 0.1
  }
  pose_data_param {
    image_source: "/home/workspace/Datasets/MSRA/cvpr15_MSRAHandGestureDB/train_image_4.txt"
    label_source: "/home/workspace/Datasets/MSRA/cvpr15_MSRAHandGestureDB/train_label_4.txt"
    batch_size: 128
    shuffle: true
    new_height: 96
    new_width: 96
    root_folder: "/home/workspace/Datasets/MSRA/cvpr15_MSRAHandGestureDB/"
    point_num: 21
    point_dim: 3
    fx: 241.42
    fy: 241.42
    cube_length: 150
    dataset: MSRA
  }
}
layer {
  name: "conv0"
  type: "Convolution"
  bottom: "data"
  top: "conv0"
  param {
    lr_mult: 1
  }
  param {
    lr_mult: 2
  }
  convolution_param {
    num_output: 16
    pad: 1
    kernel_size: 3
    stride: 1
    weight_filler {
      type: "msra"
    }
    bias_filler {
      type: "constant"
    }
  }
}
layer {
  name: "relu0"
  type: "ReLU"
  bottom: "conv0"
  top: "conv0"
}
layer {
  name: "conv1"
  type: "Convolution"
  bottom: "conv0"
  top: "conv1"
  param {
    lr_mult: 1
  }
  param {
    lr_mult: 2
  }
  convolution_param {
    num_output: 16
    pad: 1
    kernel_size: 3
    stride: 1
    weight_filler {
      type: "msra"
    }
    bias_filler {
      type: "constant"
    }
  }
}
layer {
  name: "pool1"
  type: "Pooling"
  bottom: "conv1"
  top: "pool1"
  pooling_param {
    pool: MAX
    kernel_size: 2
    stride: 2
  }
}
layer {
  name: "relu1"
  type: "ReLU"
  bottom: "pool1"
  top: "pool1"
}
layer {
  name: "conv2_0"
  type: "Convolution"
  bottom: "pool1"
  top: "conv2_0"
  param {
    lr_mult: 1
  }
  param {
    lr_mult: 2
  }
  convolution_param {
    num_output: 32
    pad: 0
    kernel_size: 1
    stride: 1
    weight_filler {
      type: "msra"
    }
    bias_filler {
      type: "constant"
    }
  }
}
layer {
  name: "relu2_0"
  type: "ReLU"
  bottom: "conv2_0"
  top: "conv2_0"
}
layer {
  name: "conv2"
  type: "Convolution"
  bottom: "conv2_0"
  top: "conv2"
  param {
    lr_mult: 1
  }
  param {
    lr_mult: 2
  }
  convolution_param {
    num_output: 32
    pad: 1
    kernel_size: 3
    stride: 1
    weight_filler {
      type: "msra"
    }
    bias_filler {
      type: "constant"
    }
  }
}
layer {
  name: "relu2"
  type: "ReLU"
  bottom: "conv2"
  top: "conv2"
}
layer {
  name: "conv3"
  type: "Convolution"
  bottom: "conv2"
  top: "conv3"
  param {
    lr_mult: 1
  }
  param {
    lr_mult: 2
  }
  convolution_param {
    num_output: 32
    pad: 1
    kernel_size: 3
    stride: 1
    weight_filler {
      type: "msra"
    }
    bias_filler {
      type: "constant"
    }
  }
}
layer {
  name: "res1"
  type: "Eltwise"
  bottom: "conv2_0"
  bottom: "conv3"
  top: "res1"
}
layer {
  name: "pool2"
  type: "Pooling"
  bottom: "res1"
  top: "pool2"
  pooling_param {
    pool: MAX
    kernel_size: 2
    stride: 2
  }
}
layer {
  name: "relu3"
  type: "ReLU"
  bottom: "pool2"
  top: "pool2"
}
layer {
  name: "conv3_0"
  type: "Convolution"
  bottom: "pool2"
  top: "conv3_0"
  param {
    lr_mult: 1
  }
  param {
    lr_mult: 2
  }
  convolution_param {
    num_output: 64
    pad: 0
    kernel_size: 1
    stride: 1
    weight_filler {
      type: "msra"
    }
    bias_filler {
      type: "constant"
    }
  }
}
layer {
  name: "relu3_0"
  type: "ReLU"
  bottom: "conv3_0"
  top: "conv3_0"
}
layer {
  name: "conv4"
  type: "Convolution"
  bottom: "conv3_0"
  top: "conv4"
  param {
    lr_mult: 1
  }
  param {
    lr_mult: 2
  }
  convolution_param {
    num_output: 64
    pad: 1
    kernel_size: 3
    stride: 1
    weight_filler {
      type: "msra"
    }
    bias_filler {
      type: "constant"
    }
  }
}
layer {
  name: "relu4"
  type: "ReLU"
  bottom: "conv4"
  top: "conv4"
}
layer {
  name: "conv5"
  type: "Convolution"
  bottom: "conv4"
  top: "conv5"
  param {
    lr_mult: 1
  }
  param {
    lr_mult: 2
  }
  convolution_param {
    num_output: 64
    pad: 1
    kernel_size: 3
    stride: 1
    weight_filler {
      type: "msra"
    }
    bias_filler {
      type: "constant"
    }
  }
}
layer {
  name: "res2"
  type: "Eltwise"
  bottom: "conv3_0"
  bottom: "conv5"
  top: "res2"
}
layer {
  name: "pool3"
  type: "Pooling"
  bottom: "res2"
  top: "pool3"
  pooling_param {
    pool: MAX
    kernel_size: 2
    stride: 2
  }
}
layer {
  name: "relu5"
  type: "ReLU"
  bottom: "pool3"
  top: "pool3"
}
layer {
  name: "fc1"
  type: "InnerProduct"
  bottom: "pool3"
  top: "fc1"
  param {
    lr_mult: 1
  }
  param {
    lr_mult: 2
  }
  inner_product_param {
    num_output: 2048
    weight_filler {
      type: "gaussian"
      std: 0.001
    }
    bias_filler {
      type: "constant"
    }
  }
}
layer {
  name: "relu6"
  type: "ReLU"
  bottom: "fc1"
  top: "fc1"
}
layer {
  name: "drop1"
  type: "Dropout"
  bottom: "fc1"
  top: "fc1"
  dropout_param {
    dropout_ratio: 0.5
  }
}
layer {
  name: "fc2"
  type: "InnerProduct"
  bottom: "fc1"
  top: "fc2"
  param {
    lr_mult: 1
  }
  param {
    lr_mult: 2
  }
  inner_product_param {
    num_output: 2048
    weight_filler {
      type: "gaussian"
      std: 0.001
    }
    bias_filler {
      type: "constant"
    }
  }
}
layer {
  name: "relu7"
  type: "ReLU"
  bottom: "fc2"
  top: "fc2"
}
layer {
  name: "drop2"
  type: "Dropout"
  bottom: "fc2"
  top: "fc2"
  dropout_param {
    dropout_ratio: 0.5
  }
}
layer {
  name: "fc3"
  type: "InnerProduct"
  bottom: "fc2"
  top: "fc3"
  param {
    lr_mult: 1
  }
  param {
    lr_mult: 2
  }
  inner_product_param {
    num_output: 63
    weight_filler {
      type: "gaussian"
      std: 0.001
    }
    bias_filler {
      type: "constant"
    }
  }
}
layer {
  name: "loss"
  type: "SmoothL1Loss"
  bottom: "fc3"
  bottom: "pose"
  top: "loss"
  loss_weight: 1
  smooth_l1_loss_param {
    sigma: 10
  }
}
I0410 23:17:40.091714  4423 layer_factory.hpp:77] Creating layer data
I0410 23:17:40.091727  4423 net.cpp:84] Creating Layer data
I0410 23:17:40.091732  4423 net.cpp:380] data -> data
I0410 23:17:40.091743  4423 net.cpp:380] data -> pose
I0410 23:17:40.091799  4423 pose_data_layer.cpp:117] Opening file /home/workspace/Datasets/MSRA/cvpr15_MSRAHandGestureDB/train_image_4.txt
…
I0410 23:18:21.459753  4423 pose_data_layer.cpp:269] Loading 60001 image...
I0410 23:18:23.035657  4423 pose_data_layer.cpp:269] Loading 62001 image...
I0410 23:18:24.092228  4423 pose_data_layer.cpp:269] Loading 64001 image...
I0410 23:18:25.192639  4423 pose_data_layer.cpp:269] Loading 66001 image...
I0410 23:18:26.351672  4423 pose_data_layer.cpp:282] Shuffling data
I0410 23:18:26.352624  4423 pose_data_layer.cpp:287] A total of 67875 images.
I0410 23:18:26.353344  4423 pose_data_layer.cpp:329] output data size: 128,1,96,96
I0410 23:18:26.369825  4423 net.cpp:122] Setting up data
I0410 23:18:26.369863  4423 net.cpp:129] Top shape: 128 1 96 96 (1179648)
I0410 23:18:26.369873  4423 net.cpp:129] Top shape: 128 63 (8064)
I0410 23:18:26.369877  4423 net.cpp:137] Memory required for data: 4750848
I0410 23:18:26.369889  4423 layer_factory.hpp:77] Creating layer conv0
I0410 23:18:26.369916  4423 net.cpp:84] Creating Layer conv0
I0410 23:18:26.369925  4423 net.cpp:406] conv0 <- data
I0410 23:18:26.369936  4423 net.cpp:380] conv0 -> conv0
I0410 23:18:26.692577  4423 net.cpp:122] Setting up conv0
I0410 23:18:26.692608  4423 net.cpp:129] Top shape: 128 16 96 96 (18874368)
I0410 23:18:26.692612  4423 net.cpp:137] Memory required for data: 80248320
I0410 23:18:26.692628  4423 layer_factory.hpp:77] Creating layer relu0
I0410 23:18:26.692643  4423 net.cpp:84] Creating Layer relu0
I0410 23:18:26.692647  4423 net.cpp:406] relu0 <- conv0
I0410 23:18:26.692653  4423 net.cpp:367] relu0 -> conv0 (in-place)
I0410 23:18:26.693011  4423 net.cpp:122] Setting up relu0
I0410 23:18:26.693022  4423 net.cpp:129] Top shape: 128 16 96 96 (18874368)
I0410 23:18:26.693024  4423 net.cpp:137] Memory required for data: 155745792
I0410 23:18:26.693027  4423 layer_factory.hpp:77] Creating layer conv1
I0410 23:18:26.693039  4423 net.cpp:84] Creating Layer conv1
I0410 23:18:26.693042  4423 net.cpp:406] conv1 <- conv0
I0410 23:18:26.693048  4423 net.cpp:380] conv1 -> conv1
I0410 23:18:26.694497  4423 net.cpp:122] Setting up conv1
I0410 23:18:26.694510  4423 net.cpp:129] Top shape: 128 16 96 96 (18874368)
I0410 23:18:26.694514  4423 net.cpp:137] Memory required for data: 231243264
I0410 23:18:26.694524  4423 layer_factory.hpp:77] Creating layer pool1
I0410 23:18:26.694531  4423 net.cpp:84] Creating Layer pool1
I0410 23:18:26.694535  4423 net.cpp:406] pool1 <- conv1
I0410 23:18:26.694540  4423 net.cpp:380] pool1 -> pool1
I0410 23:18:26.694574  4423 net.cpp:122] Setting up pool1
I0410 23:18:26.694581  4423 net.cpp:129] Top shape: 128 16 48 48 (4718592)
I0410 23:18:26.694584  4423 net.cpp:137] Memory required for data: 250117632
I0410 23:18:26.694586  4423 layer_factory.hpp:77] Creating layer relu1
I0410 23:18:26.694591  4423 net.cpp:84] Creating Layer relu1
I0410 23:18:26.694593  4423 net.cpp:406] relu1 <- pool1
I0410 23:18:26.694597  4423 net.cpp:367] relu1 -> pool1 (in-place)
I0410 23:18:26.694746  4423 net.cpp:122] Setting up relu1
I0410 23:18:26.694754  4423 net.cpp:129] Top shape: 128 16 48 48 (4718592)
I0410 23:18:26.694756  4423 net.cpp:137] Memory required for data: 268992000
I0410 23:18:26.694759  4423 layer_factory.hpp:77] Creating layer conv2_0
I0410 23:18:26.694767  4423 net.cpp:84] Creating Layer conv2_0
I0410 23:18:26.694770  4423 net.cpp:406] conv2_0 <- pool1
I0410 23:18:26.694775  4423 net.cpp:380] conv2_0 -> conv2_0
I0410 23:18:26.696105  4423 net.cpp:122] Setting up conv2_0
I0410 23:18:26.696117  4423 net.cpp:129] Top shape: 128 32 48 48 (9437184)
I0410 23:18:26.696121  4423 net.cpp:137] Memory required for data: 306740736
I0410 23:18:26.696130  4423 layer_factory.hpp:77] Creating layer relu2_0
I0410 23:18:26.696135  4423 net.cpp:84] Creating Layer relu2_0
I0410 23:18:26.696137  4423 net.cpp:406] relu2_0 <- conv2_0
I0410 23:18:26.696141  4423 net.cpp:367] relu2_0 -> conv2_0 (in-place)
I0410 23:18:26.696439  4423 net.cpp:122] Setting up relu2_0
I0410 23:18:26.696449  4423 net.cpp:129] Top shape: 128 32 48 48 (9437184)
I0410 23:18:26.696452  4423 net.cpp:137] Memory required for data: 344489472
I0410 23:18:26.696455  4423 layer_factory.hpp:77] Creating layer conv2_0_relu2_0_0_split
I0410 23:18:26.696462  4423 net.cpp:84] Creating Layer conv2_0_relu2_0_0_split
I0410 23:18:26.696465  4423 net.cpp:406] conv2_0_relu2_0_0_split <- conv2_0
I0410 23:18:26.696470  4423 net.cpp:380] conv2_0_relu2_0_0_split -> conv2_0_relu2_0_0_split_0
I0410 23:18:26.696475  4423 net.cpp:380] conv2_0_relu2_0_0_split -> conv2_0_relu2_0_0_split_1
I0410 23:18:26.696507  4423 net.cpp:122] Setting up conv2_0_relu2_0_0_split
I0410 23:18:26.696513  4423 net.cpp:129] Top shape: 128 32 48 48 (9437184)
I0410 23:18:26.696516  4423 net.cpp:129] Top shape: 128 32 48 48 (9437184)
I0410 23:18:26.696518  4423 net.cpp:137] Memory required for data: 419986944
I0410 23:18:26.696521  4423 layer_factory.hpp:77] Creating layer conv2
I0410 23:18:26.696529  4423 net.cpp:84] Creating Layer conv2
I0410 23:18:26.696532  4423 net.cpp:406] conv2 <- conv2_0_relu2_0_0_split_0
I0410 23:18:26.696538  4423 net.cpp:380] conv2 -> conv2
I0410 23:18:26.697721  4423 net.cpp:122] Setting up conv2
I0410 23:18:26.697733  4423 net.cpp:129] Top shape: 128 32 48 48 (9437184)
I0410 23:18:26.697737  4423 net.cpp:137] Memory required for data: 457735680
I0410 23:18:26.697746  4423 layer_factory.hpp:77] Creating layer relu2
I0410 23:18:26.697753  4423 net.cpp:84] Creating Layer relu2
I0410 23:18:26.697758  4423 net.cpp:406] relu2 <- conv2
I0410 23:18:26.697767  4423 net.cpp:367] relu2 -> conv2 (in-place)
I0410 23:18:26.697923  4423 net.cpp:122] Setting up relu2
I0410 23:18:26.697932  4423 net.cpp:129] Top shape: 128 32 48 48 (9437184)
I0410 23:18:26.697934  4423 net.cpp:137] Memory required for data: 495484416
I0410 23:18:26.697938  4423 layer_factory.hpp:77] Creating layer conv3
I0410 23:18:26.697950  4423 net.cpp:84] Creating Layer conv3
I0410 23:18:26.697954  4423 net.cpp:406] conv3 <- conv2
I0410 23:18:26.697962  4423 net.cpp:380] conv3 -> conv3
I0410 23:18:26.699132  4423 net.cpp:122] Setting up conv3
I0410 23:18:26.699146  4423 net.cpp:129] Top shape: 128 32 48 48 (9437184)
I0410 23:18:26.699149  4423 net.cpp:137] Memory required for data: 533233152
I0410 23:18:26.699164  4423 layer_factory.hpp:77] Creating layer res1
I0410 23:18:26.699172  4423 net.cpp:84] Creating Layer res1
I0410 23:18:26.699174  4423 net.cpp:406] res1 <- conv2_0_relu2_0_0_split_1
I0410 23:18:26.699178  4423 net.cpp:406] res1 <- conv3
I0410 23:18:26.699182  4423 net.cpp:380] res1 -> res1
I0410 23:18:26.699205  4423 net.cpp:122] Setting up res1
I0410 23:18:26.699210  4423 net.cpp:129] Top shape: 128 32 48 48 (9437184)
I0410 23:18:26.699213  4423 net.cpp:137] Memory required for data: 570981888
I0410 23:18:26.699215  4423 layer_factory.hpp:77] Creating layer pool2
I0410 23:18:26.699221  4423 net.cpp:84] Creating Layer pool2
I0410 23:18:26.699224  4423 net.cpp:406] pool2 <- res1
I0410 23:18:26.699229  4423 net.cpp:380] pool2 -> pool2
I0410 23:18:26.699259  4423 net.cpp:122] Setting up pool2
I0410 23:18:26.699265  4423 net.cpp:129] Top shape: 128 32 24 24 (2359296)
I0410 23:18:26.699266  4423 net.cpp:137] Memory required for data: 580419072
I0410 23:18:26.699268  4423 layer_factory.hpp:77] Creating layer relu3
I0410 23:18:26.699272  4423 net.cpp:84] Creating Layer relu3
I0410 23:18:26.699275  4423 net.cpp:406] relu3 <- pool2
I0410 23:18:26.699280  4423 net.cpp:367] relu3 -> pool2 (in-place)
I0410 23:18:26.699589  4423 net.cpp:122] Setting up relu3
I0410 23:18:26.699599  4423 net.cpp:129] Top shape: 128 32 24 24 (2359296)
I0410 23:18:26.699602  4423 net.cpp:137] Memory required for data: 589856256
I0410 23:18:26.699604  4423 layer_factory.hpp:77] Creating layer conv3_0
I0410 23:18:26.699614  4423 net.cpp:84] Creating Layer conv3_0
I0410 23:18:26.699616  4423 net.cpp:406] conv3_0 <- pool2
I0410 23:18:26.699622  4423 net.cpp:380] conv3_0 -> conv3_0
I0410 23:18:26.700769  4423 net.cpp:122] Setting up conv3_0
I0410 23:18:26.700781  4423 net.cpp:129] Top shape: 128 64 24 24 (4718592)
I0410 23:18:26.700784  4423 net.cpp:137] Memory required for data: 608730624
I0410 23:18:26.700790  4423 layer_factory.hpp:77] Creating layer relu3_0
I0410 23:18:26.700798  4423 net.cpp:84] Creating Layer relu3_0
I0410 23:18:26.700801  4423 net.cpp:406] relu3_0 <- conv3_0
I0410 23:18:26.700805  4423 net.cpp:367] relu3_0 -> conv3_0 (in-place)
I0410 23:18:26.701647  4423 net.cpp:122] Setting up relu3_0
I0410 23:18:26.701660  4423 net.cpp:129] Top shape: 128 64 24 24 (4718592)
I0410 23:18:26.701663  4423 net.cpp:137] Memory required for data: 627604992
I0410 23:18:26.701666  4423 layer_factory.hpp:77] Creating layer conv3_0_relu3_0_0_split
I0410 23:18:26.701671  4423 net.cpp:84] Creating Layer conv3_0_relu3_0_0_split
I0410 23:18:26.701674  4423 net.cpp:406] conv3_0_relu3_0_0_split <- conv3_0
I0410 23:18:26.701678  4423 net.cpp:380] conv3_0_relu3_0_0_split -> conv3_0_relu3_0_0_split_0
I0410 23:18:26.701684  4423 net.cpp:380] conv3_0_relu3_0_0_split -> conv3_0_relu3_0_0_split_1
I0410 23:18:26.701725  4423 net.cpp:122] Setting up conv3_0_relu3_0_0_split
I0410 23:18:26.701730  4423 net.cpp:129] Top shape: 128 64 24 24 (4718592)
I0410 23:18:26.701733  4423 net.cpp:129] Top shape: 128 64 24 24 (4718592)
I0410 23:18:26.701735  4423 net.cpp:137] Memory required for data: 665353728
I0410 23:18:26.701737  4423 layer_factory.hpp:77] Creating layer conv4
I0410 23:18:26.701748  4423 net.cpp:84] Creating Layer conv4
I0410 23:18:26.701751  4423 net.cpp:406] conv4 <- conv3_0_relu3_0_0_split_0
I0410 23:18:26.701756  4423 net.cpp:380] conv4 -> conv4
I0410 23:18:26.704964  4423 net.cpp:122] Setting up conv4
I0410 23:18:26.704998  4423 net.cpp:129] Top shape: 128 64 24 24 (4718592)
I0410 23:18:26.705004  4423 net.cpp:137] Memory required for data: 684228096
I0410 23:18:26.705018  4423 layer_factory.hpp:77] Creating layer relu4
I0410 23:18:26.705031  4423 net.cpp:84] Creating Layer relu4
I0410 23:18:26.705039  4423 net.cpp:406] relu4 <- conv4
I0410 23:18:26.705047  4423 net.cpp:367] relu4 -> conv4 (in-place)
I0410 23:18:26.705265  4423 net.cpp:122] Setting up relu4
I0410 23:18:26.705277  4423 net.cpp:129] Top shape: 128 64 24 24 (4718592)
I0410 23:18:26.705281  4423 net.cpp:137] Memory required for data: 703102464
I0410 23:18:26.705286  4423 layer_factory.hpp:77] Creating layer conv5
I0410 23:18:26.705301  4423 net.cpp:84] Creating Layer conv5
I0410 23:18:26.705305  4423 net.cpp:406] conv5 <- conv4
I0410 23:18:26.705312  4423 net.cpp:380] conv5 -> conv5
I0410 23:18:26.707396  4423 net.cpp:122] Setting up conv5
I0410 23:18:26.707415  4423 net.cpp:129] Top shape: 128 64 24 24 (4718592)
I0410 23:18:26.707418  4423 net.cpp:137] Memory required for data: 721976832
I0410 23:18:26.707427  4423 layer_factory.hpp:77] Creating layer res2
I0410 23:18:26.707439  4423 net.cpp:84] Creating Layer res2
I0410 23:18:26.707445  4423 net.cpp:406] res2 <- conv3_0_relu3_0_0_split_1
I0410 23:18:26.707450  4423 net.cpp:406] res2 <- conv5
I0410 23:18:26.707458  4423 net.cpp:380] res2 -> res2
I0410 23:18:26.707489  4423 net.cpp:122] Setting up res2
I0410 23:18:26.707494  4423 net.cpp:129] Top shape: 128 64 24 24 (4718592)
I0410 23:18:26.707496  4423 net.cpp:137] Memory required for data: 740851200
I0410 23:18:26.707501  4423 layer_factory.hpp:77] Creating layer pool3
I0410 23:18:26.707511  4423 net.cpp:84] Creating Layer pool3
I0410 23:18:26.707518  4423 net.cpp:406] pool3 <- res2
I0410 23:18:26.707523  4423 net.cpp:380] pool3 -> pool3
I0410 23:18:26.707558  4423 net.cpp:122] Setting up pool3
I0410 23:18:26.707563  4423 net.cpp:129] Top shape: 128 64 12 12 (1179648)
I0410 23:18:26.707566  4423 net.cpp:137] Memory required for data: 745569792
I0410 23:18:26.707568  4423 layer_factory.hpp:77] Creating layer relu5
I0410 23:18:26.707573  4423 net.cpp:84] Creating Layer relu5
I0410 23:18:26.707576  4423 net.cpp:406] relu5 <- pool3
I0410 23:18:26.707579  4423 net.cpp:367] relu5 -> pool3 (in-place)
I0410 23:18:26.707916  4423 net.cpp:122] Setting up relu5
I0410 23:18:26.707926  4423 net.cpp:129] Top shape: 128 64 12 12 (1179648)
I0410 23:18:26.707929  4423 net.cpp:137] Memory required for data: 750288384
I0410 23:18:26.707932  4423 layer_factory.hpp:77] Creating layer fc1
I0410 23:18:26.707940  4423 net.cpp:84] Creating Layer fc1
I0410 23:18:26.707943  4423 net.cpp:406] fc1 <- pool3
I0410 23:18:26.707949  4423 net.cpp:380] fc1 -> fc1
I0410 23:18:27.140889  4423 net.cpp:122] Setting up fc1
I0410 23:18:27.140918  4423 net.cpp:129] Top shape: 128 2048 (262144)
I0410 23:18:27.140921  4423 net.cpp:137] Memory required for data: 751336960
I0410 23:18:27.140936  4423 layer_factory.hpp:77] Creating layer relu6
I0410 23:18:27.140945  4423 net.cpp:84] Creating Layer relu6
I0410 23:18:27.140949  4423 net.cpp:406] relu6 <- fc1
I0410 23:18:27.140955  4423 net.cpp:367] relu6 -> fc1 (in-place)
I0410 23:18:27.141173  4423 net.cpp:122] Setting up relu6
I0410 23:18:27.141181  4423 net.cpp:129] Top shape: 128 2048 (262144)
I0410 23:18:27.141185  4423 net.cpp:137] Memory required for data: 752385536
I0410 23:18:27.141186  4423 layer_factory.hpp:77] Creating layer drop1
I0410 23:18:27.141192  4423 net.cpp:84] Creating Layer drop1
I0410 23:18:27.141196  4423 net.cpp:406] drop1 <- fc1
I0410 23:18:27.141199  4423 net.cpp:367] drop1 -> fc1 (in-place)
I0410 23:18:27.141219  4423 net.cpp:122] Setting up drop1
I0410 23:18:27.141224  4423 net.cpp:129] Top shape: 128 2048 (262144)
I0410 23:18:27.141227  4423 net.cpp:137] Memory required for data: 753434112
I0410 23:18:27.141228  4423 layer_factory.hpp:77] Creating layer fc2
I0410 23:18:27.141237  4423 net.cpp:84] Creating Layer fc2
I0410 23:18:27.141245  4423 net.cpp:406] fc2 <- fc1
I0410 23:18:27.141250  4423 net.cpp:380] fc2 -> fc2
I0410 23:18:27.237849  4423 net.cpp:122] Setting up fc2
I0410 23:18:27.237875  4423 net.cpp:129] Top shape: 128 2048 (262144)
I0410 23:18:27.237879  4423 net.cpp:137] Memory required for data: 754482688
I0410 23:18:27.237887  4423 layer_factory.hpp:77] Creating layer relu7
I0410 23:18:27.237900  4423 net.cpp:84] Creating Layer relu7
I0410 23:18:27.237903  4423 net.cpp:406] relu7 <- fc2
I0410 23:18:27.237908  4423 net.cpp:367] relu7 -> fc2 (in-place)
I0410 23:18:27.238371  4423 net.cpp:122] Setting up relu7
I0410 23:18:27.238384  4423 net.cpp:129] Top shape: 128 2048 (262144)
I0410 23:18:27.238386  4423 net.cpp:137] Memory required for data: 755531264
I0410 23:18:27.238389  4423 layer_factory.hpp:77] Creating layer drop2
I0410 23:18:27.238395  4423 net.cpp:84] Creating Layer drop2
I0410 23:18:27.238397  4423 net.cpp:406] drop2 <- fc2
I0410 23:18:27.238401  4423 net.cpp:367] drop2 -> fc2 (in-place)
I0410 23:18:27.238422  4423 net.cpp:122] Setting up drop2
I0410 23:18:27.238436  4423 net.cpp:129] Top shape: 128 2048 (262144)
I0410 23:18:27.238438  4423 net.cpp:137] Memory required for data: 756579840
I0410 23:18:27.238441  4423 layer_factory.hpp:77] Creating layer fc3
I0410 23:18:27.238447  4423 net.cpp:84] Creating Layer fc3
I0410 23:18:27.238452  4423 net.cpp:406] fc3 <- fc2
I0410 23:18:27.238457  4423 net.cpp:380] fc3 -> fc3
I0410 23:18:27.241691  4423 net.cpp:122] Setting up fc3
I0410 23:18:27.241708  4423 net.cpp:129] Top shape: 128 63 (8064)
I0410 23:18:27.241711  4423 net.cpp:137] Memory required for data: 756612096
I0410 23:18:27.241717  4423 layer_factory.hpp:77] Creating layer loss
I0410 23:18:27.241725  4423 net.cpp:84] Creating Layer loss
I0410 23:18:27.241729  4423 net.cpp:406] loss <- fc3
I0410 23:18:27.241734  4423 net.cpp:406] loss <- pose
I0410 23:18:27.241739  4423 net.cpp:380] loss -> loss
I0410 23:18:27.241868  4423 net.cpp:122] Setting up loss
…
  transform_param {
    is_trans: false
    is_rotate: false
    is_zoom: false
  }
  pose_data_param {
    image_source: "/home/workspace/Datasets/MSRA/cvpr15_MSRAHandGestureDB/test_image_4.txt"
    label_source: "/home/workspace/Datasets/MSRA/cvpr15_MSRAHandGestureDB/test_label_4.txt"
    batch_size: 128
    shuffle: false
    new_height: 96
    new_width: 96
    root_folder: "/home/workspace/Datasets/MSRA/cvpr15_MSRAHandGestureDB/"
    point_num: 21
    point_dim: 3
    fx: 241.42
    fy: 241.42
    output_center: true
    cube_length: 150
    dataset: MSRA
  }
}
layer {
  name: "pose"
  type: "Slice"
  bottom: "label"
  top: "pose"
  top: "center"
  include {
    phase: TEST
  }
  slice_param {
    slice_dim: 1
    slice_point: 63
  }
}
layer {
  name: "conv0"
  type: "Convolution"
  bottom: "data"
  top: "conv0"
  param {
    lr_mult: 1
  }
  param {
    lr_mult: 2
  }
  convolution_param {
    num_output: 16
    pad: 1
    kernel_size: 3
    stride: 1
    weight_filler {
      type: "msra"
    }
    bias_filler {
      type: "constant"
    }
  }
}
layer {
  name: "relu0"
  type: "ReLU"
  bottom: "conv0"
  top: "conv0"
}
layer {
  name: "conv1"
  type: "Convolution"
  bottom: "conv0"
  top: "conv1"
  param {
    lr_mult: 1
  }
  param {
    lr_mult: 2
  }
  convolution_param {
    num_output: 16
    pad: 1
    kernel_size: 3
    stride: 1
    weight_filler {
      type: "msra"
    }
    bias_filler {
      type: "constant"
    }
  }
}
layer {
  name: "pool1"
  type: "Pooling"
  bottom: "conv1"
  top: "pool1"
  pooling_param {
    pool: MAX
    kernel_size: 2
    stride: 2
  }
}
layer {
  name: "relu1"
  type: "ReLU"
  bottom: "pool1"
  top: "pool1"
}
layer {
  name: "conv2_0"
  type: "Convolution"
  bottom: "pool1"
  top: "conv2_0"
  param {
    lr_mult: 1
  }
  param {
    lr_mult: 2
  }
  convolution_param {
    num_output: 32
    pad: 0
    kernel_size: 1
    stride: 1
    weight_filler {
      type: "msra"
    }
    bias_filler {
      type: "constant"
    }
  }
}
layer {
  name: "relu2_0"
  type: "ReLU"
  bottom: "conv2_0"
  top: "conv2_0"
}
layer {
  name: "conv2"
  type: "Convolution"
  bottom: "conv2_0"
  top: "conv2"
  param {
    lr_mult: 1
  }
  param {
    lr_mult: 2
  }
  convolution_param {
    num_output: 32
    pad: 1
    kernel_size: 3
    stride: 1
    weight_filler {
      type: "msra"
    }
    bias_filler {
      type: "constant"
    }
  }
}
layer {
  name: "relu2"
  type: "ReLU"
  bottom: "conv2"
  top: "conv2"
}
layer {
  name: "conv3"
  type: "Convolution"
  bottom: "conv2"
  top: "conv3"
  param {
    lr_mult: 1
  }
  param {
    lr_mult: 2
  }
  convolution_param {
    num_output: 32
    pad: 1
    kernel_size: 3
    stride: 1
    weight_filler {
      type: "msra"
    }
    bias_filler {
      type: "constant"
    }
  }
}
layer {
  name: "res1"
  type: "Eltwise"
  bottom: "conv2_0"
  bottom: "conv3"
  top: "res1"
}
layer {
  name: "pool2"
  type: "Pooling"
  bottom: "res1"
  top: "pool2"
  pooling_param {
    pool: MAX
    kernel_size: 2
    stride: 2
  }
}
layer {
  name: "relu3"
  type: "ReLU"
  bottom: "pool2"
  top: "pool2"
}
layer {
  name: "conv3_0"
  type: "Convolution"
  bottom: "pool2"
  top: "conv3_0"
  param {
    lr_mult: 1
  }
  param {
    lr_mult: 2
  }
  convolution_param {
    num_output: 64
    pad: 0
    kernel_size: 1
    stride: 1
    weight_filler {
      type: "msra"
    }
    bias_filler {
      type: "constant"
    }
  }
}
layer {
  name: "relu3_0"
  type: "ReLU"
  bottom: "conv3_0"
  top: "conv3_0"
}
layer {
  name: "conv4"
  type: "Convolution"
  bottom: "conv3_0"
  top: "conv4"
  param {
    lr_mult: 1
  }
  param {
    lr_mult: 2
  }
  convolution_param {
    num_output: 64
    pad: 1
    kernel_size: 3
    stride: 1
    weight_filler {
      type: "msra"
    }
    bias_filler {
      type: "constant"
    }
  }
}
layer {
  name: "relu4"
  type: "ReLU"
  bottom: "conv4"
  top: "conv4"
}
layer {
  name: "conv5"
  type: "Convolution"
  bottom: "conv4"
  top: "conv5"
  param {
    lr_mult: 1
  }
  param {
    lr_mult: 2
  }
  convolution_param {
    num_output: 64
    pad: 1
    kernel_size: 3
    stride: 1
    weight_filler {
      type: "msra"
    }
    bias_filler {
      type: "constant"
    }
  }
}
layer {
  name: "res2"
  type: "Eltwise"
  bottom: "conv3_0"
  bottom: "conv5"
  top: "res2"
}
layer {
  name: "pool3"
  type: "Pooling"
  bottom: "res2"
  top: "pool3"
  pooling_param {
    pool: MAX
    kernel_size: 2
    stride: 2
  }
}
layer {
  name: "relu5"
  type: "ReLU"
  bottom: "pool3"
  top: "pool3"
}
layer {
  name: "fc1"
  type: "InnerProduct"
  bottom: "pool3"
  top: "fc1"
  param {
    lr_mult: 1
  }
  param {
    lr_mult: 2
  }
  inner_product_param {
    num_output: 2048
    weight_filler {
      type: "gaussian"
      std: 0.001
    }
    bias_filler {
      type: "constant"
    }
  }
}
layer {
  name: "relu6"
  type: "ReLU"
  bottom: "fc1"
  top: "fc1"
}
layer {
  name: "drop1"
  type: "Dropout"
  bottom: "fc1"
  top: "fc1"
  dropout_param {
    dropout_ratio: 0.5
  }
}
layer {
  name: "fc2"
  type: "InnerProduct"
  bottom: "fc1"
  top: "fc2"
  param {
    lr_mult: 1
  }
  param {
    lr_mult: 2
  }
  inner_product_param {
    num_output: 2048
    weight_filler {
      type: "gaussian"
      std: 0.001
    }
    bias_filler {
      type: "constant"
    }
  }
}
layer {
  name: "relu7"
  type: "ReLU"
  bottom: "fc2"
  top: "fc2"
}
layer {
  name: "drop2"
  type: "Dropout"
  bottom: "fc2"
  top: "fc2"
  dropout_param {
    dropout_ratio: 0.5
  }
}
layer {
  name: "fc3"
  type: "InnerProduct"
  bottom: "fc2"
  top: "fc3"
  param {
    lr_mult: 1
  }
  param {
    lr_mult: 2
  }
  inner_product_param {
    num_output: 63
    weight_filler {
      type: "gaussian"
      std: 0.001
    }
    bias_filler {
      type: "constant"
    }
  }
}
layer {
  name: "loss"
  type: "SmoothL1Loss"
  bottom: "fc3"
  bottom: "pose"
  top: "loss"
  loss_weight: 1
  smooth_l1_loss_param {
    sigma: 10
  }
}
layer {
  name: "distance"
  type: "PoseDistance"
  bottom: "fc3"
  bottom: "pose"
  bottom: "center"
  top: "distance"
  loss_weight: 0
  include {
    phase: TEST
  }
  pose_distance_param {
    fx: 241.42
    fy: 241.42
    ux: 160
    uy: 120
    cube_length: 150
  }
}
I0410 23:18:27.242863  4423 layer_factory.hpp:77] Creating layer data
I0410 23:18:27.242874  4423 net.cpp:84] Creating Layer data
I0410 23:18:27.242878  4423 net.cpp:380] data -> data
I0410 23:18:27.242884  4423 net.cpp:380] data -> label
I0410 23:18:27.242894  4423 pose_data_layer.cpp:117] Opening file /home/workspace/Datasets/MSRA/cvpr15_MSRAHandGestureDB/test_image_4.txt
I0410 23:18:27.242913  4423 pose_data_layer.cpp:119] Opening file /home/workspace/Datasets/MSRA/cvpr15_MSRAHandGestureDB/test_label_4.txt
I0410 23:18:27.285982  4423 pose_data_layer.cpp:269] Loading 126 image...
I0410 23:18:27.759035  4423 pose_data_layer.cpp:269] Loading 2126 image...
I0410 23:18:28.234601  4423 pose_data_layer.cpp:269] Loading 4126 image...
I0410 23:18:28.696928  4423 pose_data_layer.cpp:269] Loading 6126 image...
I0410 23:18:29.155755  4423 pose_data_layer.cpp:269] Loading 8126 image...
I0410 23:18:29.262744  4423 pose_data_layer.cpp:287] A total of 8500 images.
I0410 23:18:29.262991  4423 pose_data_layer.cpp:329] output data size: 128,1,96,96
I0410 23:18:29.279250  4423 net.cpp:122] Setting up data
I0410 23:18:29.279301  4423 net.cpp:129] Top shape: 128 1 96 96 (1179648)
I0410 23:18:29.279310  4423 net.cpp:129] Top shape: 128 66 (8448)
I0410 23:18:29.279315  4423 net.cpp:137] Memory required for data: 4752384
I0410 23:18:29.279328  4423 layer_factory.hpp:77] Creating layer pose
I0410 23:18:29.279357  4423 net.cpp:84] Creating Layer pose
I0410 23:18:29.279392  4423 net.cpp:406] pose <- label
I0410 23:18:29.279418  4423 net.cpp:380] pose -> pose
I0410 23:18:29.279451  4423 net.cpp:380] pose -> center
I0410 23:18:29.279577  4423 net.cpp:122] Setting up pose
I0410 23:18:29.279599  4423 net.cpp:129] Top shape: 128 63 (8064)
I0410 23:18:29.279630  4423 net.cpp:129] Top shape: 128 3 (384)
I0410 23:18:29.279644  4423 net.cpp:137] Memory required for data: 4786176
I0410 23:18:29.279656  4423 layer_factory.hpp:77] Creating layer pose_pose_0_split
I0410 23:18:29.279673  4423 net.cpp:84] Creating Layer pose_pose_0_split
I0410 23:18:29.279686  4423 net.cpp:406] pose_pose_0_split <- pose
I0410 23:18:29.279701  4423 net.cpp:380] pose_pose_0_split -> pose_pose_0_split_0
I0410 23:18:29.279718  4423 net.cpp:380] pose_pose_0_split -> pose_pose_0_split_1
I0410 23:18:29.279779  4423 net.cpp:122] Setting up pose_pose_0_split
I0410 23:18:29.279799  4423 net.cpp:129] Top shape: 128 63 (8064)
I0410 23:18:29.279816  4423 net.cpp:129] Top shape: 128 63 (8064)
I0410 23:18:29.279829  4423 net.cpp:137] Memory required for data: 4850688
I0410 23:18:29.279844  4423 layer_factory.hpp:77] Creating layer conv0
I0410 23:18:29.279886  4423 net.cpp:84] Creating Layer conv0
I0410 23:18:29.279906  4423 net.cpp:406] conv0 <- data
I0410 23:18:29.279928  4423 net.cpp:380] conv0 -> conv0
I0410 23:18:29.282649  4423 net.cpp:122] Setting up conv0
I0410 23:18:29.282680  4423 net.cpp:129] Top shape: 128 16 96 96 (18874368)
I0410 23:18:29.282683  4423 net.cpp:137] Memory required for data: 80348160
I0410 23:18:29.282702  4423 layer_factory.hpp:77] Creating layer relu0
I0410 23:18:29.282714  4423 net.cpp:84] Creating Layer relu0
I0410 23:18:29.282721  4423 net.cpp:406] relu0 <- conv0
I0410 23:18:29.282726  4423 net.cpp:367] relu0 -> conv0 (in-place)
I0410 23:18:29.283185  4423 net.cpp:122] Setting up relu0
I0410 23:18:29.283206  4423 net.cpp:129] Top shape: 128 16 96 96 (18874368)
I0410 23:18:29.283215  4423 net.cpp:137] Memory required for data: 155845632
I0410 23:18:29.283221  4423 layer_factory.hpp:77] Creating layer conv1
I0410 23:18:29.283236  4423 net.cpp:84] Creating Layer conv1
I0410 23:18:29.283241  4423 net.cpp:406] conv1 <- conv0
I0410 23:18:29.283247  4423 net.cpp:380] conv1 -> conv1
I0410 23:18:29.284601  4423 net.cpp:122] Setting up conv1
I0410 23:18:29.284621  4423 net.cpp:129] Top shape: 128 16 96 96 (18874368)
I0410 23:18:29.284628  4423 net.cpp:137] Memory required for data: 231343104
I0410 23:18:29.284644  4423 layer_factory.hpp:77] Creating layer pool1
I0410 23:18:29.284657  4423 net.cpp:84] Creating Layer pool1
I0410 23:18:29.284664  4423 net.cpp:406] pool1 <- conv1
I0410 23:18:29.284673  4423 net.cpp:380] pool1 -> pool1
I0410 23:18:29.284747  4423 net.cpp:122] Setting up pool1
I0410 23:18:29.284760  4423 net.cpp:129] Top shape: 128 16 48 48 (4718592)
I0410 23:18:29.284766  4423 net.cpp:137] Memory required for data: 250217472
I0410 23:18:29.284790  4423 layer_factory.hpp:77] Creating layer relu1
I0410 23:18:29.284811  4423 net.cpp:84] Creating Layer relu1
I0410 23:18:29.284828  4423 net.cpp:406] relu1 <- pool1
I0410 23:18:29.284847  4423 net.cpp:367] relu1 -> pool1 (in-place)
I0410 23:18:29.285138  4423 net.cpp:122] Setting up relu1
I0410 23:18:29.285168  4423 net.cpp:129] Top shape: 128 16 48 48 (4718592)
I0410 23:18:29.285182  4423 net.cpp:137] Memory required for data: 269091840
I0410 23:18:29.285195  4423 layer_factory.hpp:77] Creating layer conv2_0
I0410 23:18:29.285218  4423 net.cpp:84] Creating Layer conv2_0
I0410 23:18:29.285239  4423 net.cpp:406] conv2_0 <- pool1
I0410 23:18:29.285259  4423 net.cpp:380] conv2_0 -> conv2_0
I0410 23:18:29.286744  4423 net.cpp:122] Setting up conv2_0
I0410 23:18:29.286775  4423 net.cpp:129] Top shape: 128 32 48 48 (9437184)
I0410 23:18:29.286789  4423 net.cpp:137] Memory required for data: 306840576
I0410 23:18:29.286809  4423 layer_factory.hpp:77] Creating layer relu2_0
I0410 23:18:29.286825  4423 net.cpp:84] Creating Layer relu2_0
I0410 23:18:29.286839  4423 net.cpp:406] relu2_0 <- conv2_0
I0410 23:18:29.286859  4423 net.cpp:367] relu2_0 -> conv2_0 (in-place)
I0410 23:18:29.287302  4423 net.cpp:122] Setting up relu2_0
I0410 23:18:29.287326  4423 net.cpp:129] Top shape: 128 32 48 48 (9437184)
I0410 23:18:29.287339  4423 net.cpp:137] Memory required for data: 344589312
I0410 23:18:29.287351  4423 layer_factory.hpp:77] Creating layer conv2_0_relu2_0_0_split
I0410 23:18:29.287372  4423 net.cpp:84] Creating Layer conv2_0_relu2_0_0_split
I0410 23:18:29.287386  4423 net.cpp:406] conv2_0_relu2_0_0_split <- conv2_0
I0410 23:18:29.287402  4423 net.cpp:380] conv2_0_relu2_0_0_split -> conv2_0_relu2_0_0_split_0
I0410 23:18:29.287420  4423 net.cpp:380] conv2_0_relu2_0_0_split -> conv2_0_relu2_0_0_split_1
I0410 23:18:29.287483  4423 net.cpp:122] Setting up conv2_0_relu2_0_0_split
I0410 23:18:29.287500  4423 net.cpp:129] Top shape: 128 32 48 48 (9437184)
I0410 23:18:29.287520  4423 net.cpp:129] Top shape: 128 32 48 48 (9437184)
I0410 23:18:29.287539  4423 net.cpp:137] Memory required for data: 420086784
I0410 23:18:29.287554  4423 layer_factory.hpp:77] Creating layer conv2
I0410 23:18:29.287576  4423 net.cpp:84] Creating Layer conv2
I0410 23:18:29.287598  4423 net.cpp:406] conv2 <- conv2_0_relu2_0_0_split_0
I0410 23:18:29.287616  4423 net.cpp:380] conv2 -> conv2
I0410 23:18:29.289445  4423 net.cpp:122] Setting up conv2
I0410 23:18:29.289486  4423 net.cpp:129] Top shape: 128 32 48 48 (9437184)
I0410 23:18:29.289512  4423 net.cpp:137] Memory required for data: 457835520
I0410 23:18:29.289530  4423 layer_factory.hpp:77] Creating layer relu2
I0410 23:18:29.289547  4423 net.cpp:84] Creating Layer relu2
I0410 23:18:29.289561  4423 net.cpp:406] relu2 <- conv2
I0410 23:18:29.289575  4423 net.cpp:367] relu2 -> conv2 (in-place)
I0410 23:18:29.289815  4423 net.cpp:122] Setting up relu2
I0410 23:18:29.289840  4423 net.cpp:129] Top shape: 128 32 48 48 (9437184)
I0410 23:18:29.289855  4423 net.cpp:137] Memory required for data: 495584256
I0410 23:18:29.289867  4423 layer_factory.hpp:77] Creating layer conv3
I0410 23:18:29.289888  4423 net.cpp:84] Creating Layer conv3
I0410 23:18:29.289901  4423 net.cpp:406] conv3 <- conv2
I0410 23:18:29.289916  4423 net.cpp:380] conv3 -> conv3
I0410 23:18:29.293054  4423 net.cpp:122] Setting up conv3
I0410 23:18:29.293102  4423 net.cpp:129] Top shape: 128 32 48 48 (9437184)
I0410 23:18:29.293119  4423 net.cpp:137] Memory required for data: 533332992
I0410 23:18:29.293146  4423 layer_factory.hpp:77] Creating layer res1
I0410 23:18:29.293167  4423 net.cpp:84] Creating Layer res1
I0410 23:18:29.293184  4423 net.cpp:406] res1 <- conv2_0_relu2_0_0_split_1
I0410 23:18:29.293201  4423 net.cpp:406] res1 <- conv3
I0410 23:18:29.293220  4423 net.cpp:380] res1 -> res1
I0410 23:18:29.293263  4423 net.cpp:122] Setting up res1
I0410 23:18:29.293273  4423 net.cpp:129] Top shape: 128 32 48 48 (9437184)
I0410 23:18:29.293278  4423 net.cpp:137] Memory required for data: 571081728
I0410 23:18:29.293295  4423 layer_factory.hpp:77] Creating layer pool2
I0410 23:18:29.293305  4423 net.cpp:84] Creating Layer pool2
I0410 23:18:29.293320  4423 net.cpp:406] pool2 <- res1
I0410 23:18:29.293329  4423 net.cpp:380] pool2 -> pool2
I0410 23:18:29.293382  4423 net.cpp:122] Setting up pool2
I0410 23:18:29.293391  4423 net.cpp:129] Top shape: 128 32 24 24 (2359296)
I0410 23:18:29.293395  4423 net.cpp:137] Memory required for data: 580518912
I0410 23:18:29.293401  4423 layer_factory.hpp:77] Creating layer relu3
I0410 23:18:29.293411  4423 net.cpp:84] Creating Layer relu3
I0410 23:18:29.293417  4423 net.cpp:406] relu3 <- pool2
I0410 23:18:29.293424  4423 net.cpp:367] relu3 -> pool2 (in-place)
I0410 23:18:29.293823  4423 net.cpp:122] Setting up relu3
I0410 23:18:29.293834  4423 net.cpp:129] Top shape: 128 32 24 24 (2359296)
I0410 23:18:29.293839  4423 net.cpp:137] Memory required for data: 589956096
I0410 23:18:29.293844  4423 layer_factory.hpp:77] Creating layer conv3_0
I0410 23:18:29.293869  4423 net.cpp:84] Creating Layer conv3_0
I0410 23:18:29.293874  4423 net.cpp:406] conv3_0 <- pool2
I0410 23:18:29.293884  4423 net.cpp:380] conv3_0 -> conv3_0
I0410 23:18:29.295132  4423 net.cpp:122] Setting up conv3_0
I0410 23:18:29.295150  4423 net.cpp:129] Top shape: 128 64 24 24 (4718592)
I0410 23:18:29.295156  4423 net.cpp:137] Memory required for data: 608830464
I0410 23:18:29.295166  4423 layer_factory.hpp:77] Creating layer relu3_0
I0410 23:18:29.295176  4423 net.cpp:84] Creating Layer relu3_0
I0410 23:18:29.295182  4423 net.cpp:406] relu3_0 <- conv3_0
I0410 23:18:29.295189  4423 net.cpp:367] relu3_0 -> conv3_0 (in-place)
I0410 23:18:29.295524  4423 net.cpp:122] Setting up relu3_0
I0410 23:18:29.295538  4423 net.cpp:129] Top shape: 128 64 24 24 (4718592)
I0410 23:18:29.295543  4423 net.cpp:137] Memory required for data: 627704832
I0410 23:18:29.295552  4423 layer_factory.hpp:77] Creating layer conv3_0_relu3_0_0_split
I0410 23:18:29.295560  4423 net.cpp:84] Creating Layer conv3_0_relu3_0_0_split
I0410 23:18:29.295567  4423 net.cpp:406] conv3_0_relu3_0_0_split <- conv3_0
I0410 23:18:29.295574  4423 net.cpp:380] conv3_0_relu3_0_0_split -> conv3_0_relu3_0_0_split_0
I0410 23:18:29.295584  4423 net.cpp:380] conv3_0_relu3_0_0_split -> conv3_0_relu3_0_0_split_1
I0410 23:18:29.295629  4423 net.cpp:122] Setting up conv3_0_relu3_0_0_split
I0410 23:18:29.295637  4423 net.cpp:129] Top shape: 128 64 24 24 (4718592)
I0410 23:18:29.295656  4423 net.cpp:129] Top shape: 128 64 24 24 (4718592)
I0410 23:18:29.295661  4423 net.cpp:137] Memory required for data: 665453568
I0410 23:18:29.295666  4423 layer_factory.hpp:77] Creating layer conv4
I0410 23:18:29.295678  4423 net.cpp:84] Creating Layer conv4
I0410 23:18:29.295684  4423 net.cpp:406] conv4 <- conv3_0_relu3_0_0_split_0
I0410 23:18:29.295693  4423 net.cpp:380] conv4 -> conv4
I0410 23:18:29.297612  4423 net.cpp:122] Setting up conv4
I0410 23:18:29.297629  4423 net.cpp:129] Top shape: 128 64 24 24 (4718592)
I0410 23:18:29.297634  4423 net.cpp:137] Memory required for data: 684327936
I0410 23:18:29.297648  4423 layer_factory.hpp:77] Creating layer relu4
I0410 23:18:29.297658  4423 net.cpp:84] Creating Layer relu4
I0410 23:18:29.297667  4423 net.cpp:406] relu4 <- conv4
I0410 23:18:29.297675  4423 net.cpp:367] relu4 -> conv4 (in-place)
I0410 23:18:29.297847  4423 net.cpp:122] Setting up relu4
I0410 23:18:29.297857  4423 net.cpp:129] Top shape: 128 64 24 24 (4718592)
I0410 23:18:29.297863  4423 net.cpp:137] Memory required for data: 703202304
I0410 23:18:29.297880  4423 layer_factory.hpp:77] Creating layer conv5
I0410 23:18:29.297895  4423 net.cpp:84] Creating Layer conv5
I0410 23:18:29.297901  4423 net.cpp:406] conv5 <- conv4
I0410 23:18:29.297912  4423 net.cpp:380] conv5 -> conv5
I0410 23:18:29.299798  4423 net.cpp:122] Setting up conv5
I0410 23:18:29.299813  4423 net.cpp:129] Top shape: 128 64 24 24 (4718592)
I0410 23:18:29.299818  4423 net.cpp:137] Memory required for data: 722076672
I0410 23:18:29.299826  4423 layer_factory.hpp:77] Creating layer res2
I0410 23:18:29.299837  4423 net.cpp:84] Creating Layer res2
I0410 23:18:29.299844  4423 net.cpp:406] res2 <- conv3_0_relu3_0_0_split_1
I0410 23:18:29.299852  4423 net.cpp:406] res2 <- conv5
I0410 23:18:29.299863  4423 net.cpp:380] res2 -> res2
I0410 23:18:29.299896  4423 net.cpp:122] Setting up res2
I0410 23:18:29.299904  4423 net.cpp:129] Top shape: 128 64 24 24 (4718592)
I0410 23:18:29.299911  4423 net.cpp:137] Memory required for data: 740951040
I0410 23:18:29.299916  4423 layer_factory.hpp:77] Creating layer pool3
I0410 23:18:29.299927  4423 net.cpp:84] Creating Layer pool3
I0410 23:18:29.299933  4423 net.cpp:406] pool3 <- res2
I0410 23:18:29.299940  4423 net.cpp:380] pool3 -> pool3
I0410 23:18:29.299983  4423 net.cpp:122] Setting up pool3
I0410 23:18:29.299991  4423 net.cpp:129] Top shape: 128 64 12 12 (1179648)
I0410 23:18:29.299999  4423 net.cpp:137] Memory required for data: 745669632
I0410 23:18:29.300005  4423 layer_factory.hpp:77] Creating layer relu5
I0410 23:18:29.300014  4423 net.cpp:84] Creating Layer relu5
I0410 23:18:29.300019  4423 net.cpp:406] relu5 <- pool3
I0410 23:18:29.300026  4423 net.cpp:367] relu5 -> pool3 (in-place)
I0410 23:18:29.300359  4423 net.cpp:122] Setting up relu5
I0410 23:18:29.300371  4423 net.cpp:129] Top shape: 128 64 12 12 (1179648)
I0410 23:18:29.300376  4423 net.cpp:137] Memory required for data: 750388224
I0410 23:18:29.300381  4423 layer_factory.hpp:77] Creating layer fc1
I0410 23:18:29.300395  4423 net.cpp:84] Creating Layer fc1
I0410 23:18:29.300400  4423 net.cpp:406] fc1 <- pool3
I0410 23:18:29.300408  4423 net.cpp:380] fc1 -> fc1
I0410 23:18:29.742744  4423 net.cpp:122] Setting up fc1
I0410 23:18:29.742774  4423 net.cpp:129] Top shape: 128 2048 (262144)
I0410 23:18:29.742779  4423 net.cpp:137] Memory required for data: 751436800
I0410 23:18:29.742801  4423 layer_factory.hpp:77] Creating layer relu6
I0410 23:18:29.742813  4423 net.cpp:84] Creating Layer relu6
I0410 23:18:29.742820  4423 net.cpp:406] relu6 <- fc1
I0410 23:18:29.742828  4423 net.cpp:367] relu6 -> fc1 (in-place)
I0410 23:18:29.743077  4423 net.cpp:122] Setting up relu6
I0410 23:18:29.743088  4423 net.cpp:129] Top shape: 128 2048 (262144)
I0410 23:18:29.743093  4423 net.cpp:137] Memory required for data: 752485376
I0410 23:18:29.743098  4423 layer_factory.hpp:77] Creating layer drop1
I0410 23:18:29.743106  4423 net.cpp:84] Creating Layer drop1
I0410 23:18:29.743130  4423 net.cpp:406] drop1 <- fc1
I0410 23:18:29.743150  4423 net.cpp:367] drop1 -> fc1 (in-place)
I0410 23:18:29.743191  4423 net.cpp:122] Setting up drop1
I0410 23:18:29.743209  4423 net.cpp:129] Top shape: 128 2048 (262144)
I0410 23:18:29.743221  4423 net.cpp:137] Memory required for data: 753533952
I0410 23:18:29.743232  4423 layer_factory.hpp:77] Creating layer fc2
I0410 23:18:29.743249  4423 net.cpp:84] Creating Layer fc2
I0410 23:18:29.743261  4423 net.cpp:406] fc2 <- fc1
I0410 23:18:29.743278  4423 net.cpp:380] fc2 -> fc2
I0410 23:18:29.840766  4423 net.cpp:122] Setting up fc2
I0410 23:18:29.840791  4423 net.cpp:129] Top shape: 128 2048 (262144)
I0410 23:18:29.840795  4423 net.cpp:137] Memory required for data: 754582528
I0410 23:18:29.840803  4423 layer_factory.hpp:77] Creating layer relu7
I0410 23:18:29.840811  4423 net.cpp:84] Creating Layer relu7
I0410 23:18:29.840816  4423 net.cpp:406] relu7 <- fc2
I0410 23:18:29.840824  4423 net.cpp:367] relu7 -> fc2 (in-place)
I0410 23:18:29.841346  4423 net.cpp:122] Setting up relu7
I0410 23:18:29.841358  4423 net.cpp:129] Top shape: 128 2048 (262144)
I0410 23:18:29.841361  4423 net.cpp:137] Memory required for data: 755631104
I0410 23:18:29.841364  4423 layer_factory.hpp:77] Creating layer drop2
I0410 23:18:29.841372  4423 net.cpp:84] Creating Layer drop2
I0410 23:18:29.841374  4423 net.cpp:406] drop2 <- fc2
I0410 23:18:29.841379  4423 net.cpp:367] drop2 -> fc2 (in-place)
I0410 23:18:29.841414  4423 net.cpp:122] Setting up drop2
I0410 23:18:29.841424  4423 net.cpp:129] Top shape: 128 2048 (262144)
I0410 23:18:29.841429  4423 net.cpp:137] Memory required for data: 756679680
I0410 23:18:29.841434  4423 layer_factory.hpp:77] Creating layer fc3
I0410 23:18:29.841450  4423 net.cpp:84] Creating Layer fc3
I0410 23:18:29.841456  4423 net.cpp:406] fc3 <- fc2
I0410 23:18:29.841464  4423 net.cpp:380] fc3 -> fc3
I0410 23:18:29.844542  4423 net.cpp:122] Setting up fc3
I0410 23:18:29.844552  4423 net.cpp:129] Top shape: 128 63 (8064)
I0410 23:18:29.844555  4423 net.cpp:137] Memory required for data: 756711936
I0410 23:18:29.844561  4423 layer_factory.hpp:77] Creating layer fc3_fc3_0_split
I0410 23:18:29.844566  4423 net.cpp:84] Creating Layer fc3_fc3_0_split
I0410 23:18:29.844570  4423 net.cpp:406] fc3_fc3_0_split <- fc3
I0410 23:18:29.844576  4423 net.cpp:380] fc3_fc3_0_split -> fc3_fc3_0_split_0
I0410 23:18:29.844585  4423 net.cpp:380] fc3_fc3_0_split -> fc3_fc3_0_split_1
I0410 23:18:29.844632  4423 net.cpp:122] Setting up fc3_fc3_0_split
I0410 23:18:29.844642  4423 net.cpp:129] Top shape: 128 63 (8064)
I0410 23:18:29.844647  4423 net.cpp:129] Top shape: 128 63 (8064)
I0410 23:18:29.844652  4423 net.cpp:137] Memory required for data: 756776448
I0410 23:18:29.844656  4423 layer_factory.hpp:77] Creating layer loss
I0410 23:18:29.844666  4423 net.cpp:84] Creating Layer loss
I0410 23:18:29.844671  4423 net.cpp:406] loss <- fc3_fc3_0_split_0
I0410 23:18:29.844677  4423 net.cpp:406] loss <- pose_pose_0_split_0
I0410 23:18:29.844683  4423 net.cpp:380] loss -> loss
…
  transform_param {
    is_trans: false
    is_rotate: false
    is_zoom: false
  }
  pose_data_param {
    image_source: "/home/workspace/Datasets/MSRA/cvpr15_MSRAHandGestureDB/test_image_4.txt"
    label_source: "/home/workspace/Datasets/MSRA/cvpr15_MSRAHandGestureDB/test_label_4.txt"
    batch_size: 128
    shuffle: false
    new_height: 96
    new_width: 96
    root_folder: "/home/workspace/Datasets/MSRA/cvpr15_MSRAHandGestureDB/"
    point_num: 21
    point_dim: 3
    fx: 241.42
    fy: 241.42
    output_center: true
    cube_length: 150
    dataset: MSRA
  }
}
layer {
  name: "pose"
  type: "Slice"
  bottom: "label"
  top: "pose"
  top: "center"
  include {
    phase: TEST
  }
  slice_param {
    slice_dim: 1
    slice_point: 63
  }
}
layer {
  name: "conv0"
  type: "Convolution"
  bottom: "data"
  top: "conv0"
  param {
    lr_mult: 1
  }
  param {
    lr_mult: 2
  }
  convolution_param {
    num_output: 16
    pad: 1
    kernel_size: 3
    stride: 1
    weight_filler {
      type: "msra"
    }
    bias_filler {
      type: "constant"
    }
  }
}
layer {
  name: "relu0"
  type: "ReLU"
  bottom: "conv0"
  top: "conv0"
}
layer {
  name: "conv1"
  type: "Convolution"
  bottom: "conv0"
  top: "conv1"
  param {
    lr_mult: 1
  }
  param {
    lr_mult: 2
  }
  convolution_param {
    num_output: 16
    pad: 1
    kernel_size: 3
    stride: 1
    weight_filler {
      type: "msra"
    }
    bias_filler {
      type: "constant"
    }
  }
}
layer {
  name: "pool1"
  type: "Pooling"
  bottom: "conv1"
  top: "pool1"
  pooling_param {
    pool: MAX
    kernel_size: 2
    stride: 2
  }
}
layer {
  name: "relu1"
  type: "ReLU"
  bottom: "pool1"
  top: "pool1"
}
layer {
  name: "conv2_0"
  type: "Convolution"
  bottom: "pool1"
  top: "conv2_0"
  param {
    lr_mult: 1
  }
  param {
    lr_mult: 2
  }
  convolution_param {
    num_output: 32
    pad: 0
    kernel_size: 1
    stride: 1
    weight_filler {
      type: "msra"
    }
    bias_filler {
      type: "constant"
    }
  }
}
layer {
  name: "relu2_0"
  type: "ReLU"
  bottom: "conv2_0"
  top: "conv2_0"
}
layer {
  name: "conv2"
  type: "Convolution"
  bottom: "conv2_0"
  top: "conv2"
  param {
    lr_mult: 1
  }
  param {
    lr_mult: 2
  }
  convolution_param {
    num_output: 32
    pad: 1
    kernel_size: 3
    stride: 1
    weight_filler {
      type: "msra"
    }
    bias_filler {
      type: "constant"
    }
  }
}
layer {
  name: "relu2"
  type: "ReLU"
  bottom: "conv2"
  top: "conv2"
}
layer {
  name: "conv3"
  type: "Convolution"
  bottom: "conv2"
  top: "conv3"
  param {
    lr_mult: 1
  }
  param {
    lr_mult: 2
  }
  convolution_param {
    num_output: 32
    pad: 1
    kernel_size: 3
    stride: 1
    weight_filler {
      type: "msra"
    }
    bias_filler {
      type: "constant"
    }
  }
}
layer {
  name: "res1"
  type: "Eltwise"
  bottom: "conv2_0"
  bottom: "conv3"
  top: "res1"
}
layer {
  name: "pool2"
  type: "Pooling"
  bottom: "res1"
  top: "pool2"
  pooling_param {
    pool: MAX
    kernel_size: 2
    stride: 2
  }
}
layer {
  name: "relu3"
  type: "ReLU"
  bottom: "pool2"
  top: "pool2"
}
layer {
  name: "conv3_0"
  type: "Convolution"
  bottom: "pool2"
  top: "conv3_0"
  param {
    lr_mult: 1
  }
  param {
    lr_mult: 2
  }
  convolution_param {
    num_output: 64
    pad: 0
    kernel_size: 1
    stride: 1
    weight_filler {
      type: "msra"
    }
    bias_filler {
      type: "constant"
    }
  }
}
layer {
  name: "relu3_0"
  type: "ReLU"
  bottom: "conv3_0"
  top: "conv3_0"
}
layer {
  name: "conv4"
  type: "Convolution"
  bottom: "conv3_0"
  top: "conv4"
  param {
    lr_mult: 1
  }
  param {
    lr_mult: 2
  }
  convolution_param {
    num_output: 64
    pad: 1
    kernel_size: 3
    stride: 1
    weight_filler {
      type: "msra"
    }
    bias_filler {
      type: "constant"
    }
  }
}
layer {
  name: "relu4"
  type: "ReLU"
  bottom: "conv4"
  top: "conv4"
}
layer {
  name: "conv5"
  type: "Convolution"
  bottom: "conv4"
  top: "conv5"
  param {
    lr_mult: 1
  }
  param {
    lr_mult: 2
  }
  convolution_param {
    num_output: 64
    pad: 1
    kernel_size: 3
    stride: 1
    weight_filler {
      type: "msra"
    }
    bias_filler {
      type: "constant"
    }
  }
}
layer {
  name: "res2"
  type: "Eltwise"
  bottom: "conv3_0"
  bottom: "conv5"
  top: "res2"
}
layer {
  name: "pool3"
  type: "Pooling"
  bottom: "res2"
  top: "pool3"
  pooling_param {
    pool: MAX
    kernel_size: 2
    stride: 2
  }
}
layer {
  name: "relu5"
  type: "ReLU"
  bottom: "pool3"
  top: "pool3"
}
layer {
  name: "fc1"
  type: "InnerProduct"
  bottom: "pool3"
  top: "fc1"
  param {
    lr_mult: 1
  }
  param {
    lr_mult: 2
  }
  inner_product_param {
    num_output: 2048
    weight_filler {
      type: "gaussian"
      std: 0.001
    }
    bias_filler {
      type: "constant"
    }
  }
}
layer {
  name: "relu6"
  type: "ReLU"
  bottom: "fc1"
  top: "fc1"
}
layer {
  name: "drop1"
  type: "Dropout"
  bottom: "fc1"
  top: "fc1"
  dropout_param {
    dropout_ratio: 0.5
  }
}
layer {
  name: "fc2"
  type: "InnerProduct"
  bottom: "fc1"
  top: "fc2"
  param {
    lr_mult: 1
  }
  param {
    lr_mult: 2
  }
  inner_product_param {
    num_output: 2048
    weight_filler {
      type: "gaussian"
      std: 0.001
    }
    bias_filler {
      type: "constant"
    }
  }
}
layer {
  name: "relu7"
  type: "ReLU"
  bottom: "fc2"
  top: "fc2"
}
layer {
  name: "drop2"
  type: "Dropout"
  bottom: "fc2"
  top: "fc2"
  dropout_param {
    dropout_ratio: 0.5
  }
}
layer {
  name: "fc3"
  type: "InnerProduct"
  bottom: "fc2"
  top: "fc3"
  param {
    lr_mult: 1
  }
  param {
    lr_mult: 2
  }
  inner_product_param {
    num_output: 63
    weight_filler {
      type: "gaussian"
      std: 0.001
    }
    bias_filler {
      type: "constant"
    }
  }
}
layer {
  name: "error"
  type: "PoseDistance"
  bottom: "fc3"
  bottom: "pose"
  bottom: "center"
  top: "error"
  top: "output"
  include {
    phase: TEST
  }
  pose_distance_param {
    fx: 241.42
    fy: 241.42
    ux: 160
    uy: 120
    output_pose: true
    cube_length: 150
  }
}
I0411 21:21:36.943486  6171 layer_factory.hpp:77] Creating layer data
I0411 21:21:36.944638  6171 net.cpp:84] Creating Layer data
I0411 21:21:36.944651  6171 net.cpp:380] data -> data
I0411 21:21:36.946182  6171 net.cpp:380] data -> label
I0411 21:21:36.947547  6171 pose_data_layer.cpp:117] Opening file /home/workspace/Datasets/MSRA/cvpr15_MSRAHandGestureDB/test_image_4.txt
I0411 21:21:36.950145  6171 pose_data_layer.cpp:119] Opening file /home/workspace/Datasets/MSRA/cvpr15_MSRAHandGestureDB/test_label_4.txt
I0411 21:21:42.048367  6171 pose_data_layer.cpp:269] Loading 1 image...
I0411 21:21:43.904368  6171 pose_data_layer.cpp:269] Loading 2001 image...
I0411 21:21:46.581090  6171 pose_data_layer.cpp:269] Loading 4001 image...
I0411 21:21:48.703989  6171 pose_data_layer.cpp:269] Loading 6001 image...
I0411 21:21:51.376340  6171 pose_data_layer.cpp:269] Loading 8001 image...
I0411 21:21:51.683588  6171 pose_data_layer.cpp:287] A total of 8500 images.
I0411 21:21:52.488821  6171 pose_data_layer.cpp:329] output data size: 128,1,96,96
I0411 21:21:52.643823  6171 net.cpp:122] Setting up data
I0411 21:21:52.654934  6171 net.cpp:129] Top shape: 128 1 96 96 (1179648)
I0411 21:21:52.654959  6171 net.cpp:129] Top shape: 128 66 (8448)
I0411 21:21:52.654963  6171 net.cpp:137] Memory required for data: 4752384
I0411 21:21:52.656325  6171 layer_factory.hpp:77] Creating layer pose
I0411 21:21:52.657655  6171 net.cpp:84] Creating Layer pose
I0411 21:21:52.657675  6171 net.cpp:406] pose <- label
I0411 21:21:52.658670  6171 net.cpp:380] pose -> pose
I0411 21:21:52.658709  6171 net.cpp:380] pose -> center
I0411 21:21:52.659116  6171 net.cpp:122] Setting up pose
I0411 21:21:52.659129  6171 net.cpp:129] Top shape: 128 63 (8064)
I0411 21:21:52.659138  6171 net.cpp:129] Top shape: 128 3 (384)
I0411 21:21:52.659754  6171 net.cpp:137] Memory required for data: 4786176
I0411 21:21:52.659765  6171 layer_factory.hpp:77] Creating layer conv0
I0411 21:21:52.659792  6171 net.cpp:84] Creating Layer conv0
I0411 21:21:52.659801  6171 net.cpp:406] conv0 <- data
I0411 21:21:52.659811  6171 net.cpp:380] conv0 -> conv0
I0411 21:22:00.653244  6171 net.cpp:122] Setting up conv0
I0411 21:22:00.655717  6171 net.cpp:129] Top shape: 128 16 96 96 (18874368)
I0411 21:22:00.655728  6171 net.cpp:137] Memory required for data: 80283648
I0411 21:22:00.704967  6171 layer_factory.hpp:77] Creating layer relu0
I0411 21:22:00.704999  6171 net.cpp:84] Creating Layer relu0
I0411 21:22:00.705005  6171 net.cpp:406] relu0 <- conv0
I0411 21:22:00.705013  6171 net.cpp:367] relu0 -> conv0 (in-place)
I0411 21:22:00.706145  6171 net.cpp:122] Setting up relu0
I0411 21:22:00.706156  6171 net.cpp:129] Top shape: 128 16 96 96 (18874368)
I0411 21:22:00.706159  6171 net.cpp:137] Memory required for data: 155781120
I0411 21:22:00.706163  6171 layer_factory.hpp:77] Creating layer conv1
I0411 21:22:00.706178  6171 net.cpp:84] Creating Layer conv1
I0411 21:22:00.706199  6171 net.cpp:406] conv1 <- conv0
I0411 21:22:00.706208  6171 net.cpp:380] conv1 -> conv1
I0411 21:22:00.709941  6171 net.cpp:122] Setting up conv1
I0411 21:22:00.709955  6171 net.cpp:129] Top shape: 128 16 96 96 (18874368)
I0411 21:22:00.709959  6171 net.cpp:137] Memory required for data: 231278592
I0411 21:22:00.709966  6171 layer_factory.hpp:77] Creating layer pool1
I0411 21:22:00.709975  6171 net.cpp:84] Creating Layer pool1
I0411 21:22:00.709980  6171 net.cpp:406] pool1 <- conv1
I0411 21:22:00.709990  6171 net.cpp:380] pool1 -> pool1
I0411 21:22:00.711588  6171 net.cpp:122] Setting up pool1
I0411 21:22:00.711599  6171 net.cpp:129] Top shape: 128 16 48 48 (4718592)
I0411 21:22:00.711602  6171 net.cpp:137] Memory required for data: 250152960
I0411 21:22:00.711606  6171 layer_factory.hpp:77] Creating layer relu1
I0411 21:22:00.711611  6171 net.cpp:84] Creating Layer relu1
I0411 21:22:00.711613  6171 net.cpp:406] relu1 <- pool1
I0411 21:22:00.711619  6171 net.cpp:367] relu1 -> pool1 (in-place)
I0411 21:22:00.711800  6171 net.cpp:122] Setting up relu1
I0411 21:22:00.711809  6171 net.cpp:129] Top shape: 128 16 48 48 (4718592)
I0411 21:22:00.711812  6171 net.cpp:137] Memory required for data: 269027328
I0411 21:22:00.711815  6171 layer_factory.hpp:77] Creating layer conv2_0
I0411 21:22:00.711824  6171 net.cpp:84] Creating Layer conv2_0
I0411 21:22:00.711828  6171 net.cpp:406] conv2_0 <- pool1
I0411 21:22:00.711840  6171 net.cpp:380] conv2_0 -> conv2_0
I0411 21:22:00.713537  6171 net.cpp:122] Setting up conv2_0
I0411 21:22:00.713551  6171 net.cpp:129] Top shape: 128 32 48 48 (9437184)
I0411 21:22:00.713554  6171 net.cpp:137] Memory required for data: 306776064
I0411 21:22:00.713562  6171 layer_factory.hpp:77] Creating layer relu2_0
I0411 21:22:00.713570  6171 net.cpp:84] Creating Layer relu2_0
I0411 21:22:00.713577  6171 net.cpp:406] relu2_0 <- conv2_0
I0411 21:22:00.713585  6171 net.cpp:367] relu2_0 -> conv2_0 (in-place)
I0411 21:22:00.714066  6171 net.cpp:122] Setting up relu2_0
I0411 21:22:00.714076  6171 net.cpp:129] Top shape: 128 32 48 48 (9437184)
I0411 21:22:00.714079  6171 net.cpp:137] Memory required for data: 344524800
I0411 21:22:00.714082  6171 layer_factory.hpp:77] Creating layer conv2_0_relu2_0_0_split
I0411 21:22:00.714088  6171 net.cpp:84] Creating Layer conv2_0_relu2_0_0_split
I0411 21:22:00.714092  6171 net.cpp:406] conv2_0_relu2_0_0_split <- conv2_0
I0411 21:22:00.714099  6171 net.cpp:380] conv2_0_relu2_0_0_split -> conv2_0_relu2_0_0_split_0
I0411 21:22:00.714112  6171 net.cpp:380] conv2_0_relu2_0_0_split -> conv2_0_relu2_0_0_split_1
I0411 21:22:00.714151  6171 net.cpp:122] Setting up conv2_0_relu2_0_0_split
I0411 21:22:00.714159  6171 net.cpp:129] Top shape: 128 32 48 48 (9437184)
I0411 21:22:00.714164  6171 net.cpp:129] Top shape: 128 32 48 48 (9437184)
I0411 21:22:00.714165  6171 net.cpp:137] Memory required for data: 420022272
I0411 21:22:00.714311  6171 layer_factory.hpp:77] Creating layer conv2
I0411 21:22:00.714323  6171 net.cpp:84] Creating Layer conv2
I0411 21:22:00.714325  6171 net.cpp:406] conv2 <- conv2_0_relu2_0_0_split_0
I0411 21:22:00.714334  6171 net.cpp:380] conv2 -> conv2
I0411 21:22:00.715834  6171 net.cpp:122] Setting up conv2
I0411 21:22:00.715847  6171 net.cpp:129] Top shape: 128 32 48 48 (9437184)
I0411 21:22:00.715850  6171 net.cpp:137] Memory required for data: 457771008
I0411 21:22:00.715855  6171 layer_factory.hpp:77] Creating layer relu2
I0411 21:22:00.715862  6171 net.cpp:84] Creating Layer relu2
I0411 21:22:00.715867  6171 net.cpp:406] relu2 <- conv2
I0411 21:22:00.715876  6171 net.cpp:367] relu2 -> conv2 (in-place)
I0411 21:22:00.716037  6171 net.cpp:122] Setting up relu2
I0411 21:22:00.716047  6171 net.cpp:129] Top shape: 128 32 48 48 (9437184)
I0411 21:22:00.716049  6171 net.cpp:137] Memory required for data: 495519744
I0411 21:22:00.716053  6171 layer_factory.hpp:77] Creating layer conv3
I0411 21:22:00.716060  6171 net.cpp:84] Creating Layer conv3
I0411 21:22:00.716064  6171 net.cpp:406] conv3 <- conv2
I0411 21:22:00.716075  6171 net.cpp:380] conv3 -> conv3
I0411 21:22:00.717579  6171 net.cpp:122] Setting up conv3
I0411 21:22:00.717592  6171 net.cpp:129] Top shape: 128 32 48 48 (9437184)
I0411 21:22:00.717594  6171 net.cpp:137] Memory required for data: 533268480
I0411 21:22:00.717603  6171 layer_factory.hpp:77] Creating layer res1
I0411 21:22:00.718219  6171 net.cpp:84] Creating Layer res1
I0411 21:22:00.718227  6171 net.cpp:406] res1 <- conv2_0_relu2_0_0_split_1
I0411 21:22:00.718231  6171 net.cpp:406] res1 <- conv3
I0411 21:22:00.718237  6171 net.cpp:380] res1 -> res1
I0411 21:22:00.718264  6171 net.cpp:122] Setting up res1
I0411 21:22:00.718272  6171 net.cpp:129] Top shape: 128 32 48 48 (9437184)
I0411 21:22:00.718276  6171 net.cpp:137] Memory required for data: 571017216
I0411 21:22:00.718277  6171 layer_factory.hpp:77] Creating layer pool2
I0411 21:22:00.718284  6171 net.cpp:84] Creating Layer pool2
I0411 21:22:00.718287  6171 net.cpp:406] pool2 <- res1
I0411 21:22:00.718294  6171 net.cpp:380] pool2 -> pool2
I0411 21:22:00.718338  6171 net.cpp:122] Setting up pool2
I0411 21:22:00.718346  6171 net.cpp:129] Top shape: 128 32 24 24 (2359296)
I0411 21:22:00.718348  6171 net.cpp:137] Memory required for data: 580454400
I0411 21:22:00.718351  6171 layer_factory.hpp:77] Creating layer relu3
I0411 21:22:00.718356  6171 net.cpp:84] Creating Layer relu3
I0411 21:22:00.718359  6171 net.cpp:406] relu3 <- pool2
I0411 21:22:00.718364  6171 net.cpp:367] relu3 -> pool2 (in-place)
I0411 21:22:00.718837  6171 net.cpp:122] Setting up relu3
I0411 21:22:00.718847  6171 net.cpp:129] Top shape: 128 32 24 24 (2359296)
I0411 21:22:00.718850  6171 net.cpp:137] Memory required for data: 589891584
I0411 21:22:00.718853  6171 layer_factory.hpp:77] Creating layer conv3_0
I0411 21:22:00.718864  6171 net.cpp:84] Creating Layer conv3_0
I0411 21:22:00.718871  6171 net.cpp:406] conv3_0 <- pool2
I0411 21:22:00.718881  6171 net.cpp:380] conv3_0 -> conv3_0
I0411 21:22:00.720194  6171 net.cpp:122] Setting up conv3_0
I0411 21:22:00.720206  6171 net.cpp:129] Top shape: 128 64 24 24 (4718592)
I0411 21:22:00.720208  6171 net.cpp:137] Memory required for data: 608765952
I0411 21:22:00.720214  6171 layer_factory.hpp:77] Creating layer relu3_0
I0411 21:22:00.720222  6171 net.cpp:84] Creating Layer relu3_0
I0411 21:22:00.720229  6171 net.cpp:406] relu3_0 <- conv3_0
I0411 21:22:00.720238  6171 net.cpp:367] relu3_0 -> conv3_0 (in-place)
I0411 21:22:00.720731  6171 net.cpp:122] Setting up relu3_0
I0411 21:22:00.720743  6171 net.cpp:129] Top shape: 128 64 24 24 (4718592)
I0411 21:22:00.720749  6171 net.cpp:137] Memory required for data: 627640320
I0411 21:22:00.720754  6171 layer_factory.hpp:77] Creating layer conv3_0_relu3_0_0_split
I0411 21:22:00.720762  6171 net.cpp:84] Creating Layer conv3_0_relu3_0_0_split
I0411 21:22:00.720768  6171 net.cpp:406] conv3_0_relu3_0_0_split <- conv3_0
I0411 21:22:00.720773  6171 net.cpp:380] conv3_0_relu3_0_0_split -> conv3_0_relu3_0_0_split_0
I0411 21:22:00.720793  6171 net.cpp:380] conv3_0_relu3_0_0_split -> conv3_0_relu3_0_0_split_1
I0411 21:22:00.720834  6171 net.cpp:122] Setting up conv3_0_relu3_0_0_split
I0411 21:22:00.720842  6171 net.cpp:129] Top shape: 128 64 24 24 (4718592)
I0411 21:22:00.720850  6171 net.cpp:129] Top shape: 128 64 24 24 (4718592)
I0411 21:22:00.720873  6171 net.cpp:137] Memory required for data: 665389056
I0411 21:22:00.720880  6171 layer_factory.hpp:77] Creating layer conv4
I0411 21:22:00.720896  6171 net.cpp:84] Creating Layer conv4
I0411 21:22:00.720901  6171 net.cpp:406] conv4 <- conv3_0_relu3_0_0_split_0
I0411 21:22:00.720911  6171 net.cpp:380] conv4 -> conv4
I0411 21:22:00.724025  6171 net.cpp:122] Setting up conv4
I0411 21:22:00.724038  6171 net.cpp:129] Top shape: 128 64 24 24 (4718592)
I0411 21:22:00.724045  6171 net.cpp:137] Memory required for data: 684263424
I0411 21:22:00.724056  6171 layer_factory.hpp:77] Creating layer relu4
I0411 21:22:00.724067  6171 net.cpp:84] Creating Layer relu4
I0411 21:22:00.724073  6171 net.cpp:406] relu4 <- conv4
I0411 21:22:00.724082  6171 net.cpp:367] relu4 -> conv4 (in-place)
I0411 21:22:00.724248  6171 net.cpp:122] Setting up relu4
I0411 21:22:00.724258  6171 net.cpp:129] Top shape: 128 64 24 24 (4718592)
I0411 21:22:00.724264  6171 net.cpp:137] Memory required for data: 703137792
I0411 21:22:00.724270  6171 layer_factory.hpp:77] Creating layer conv5
I0411 21:22:00.724284  6171 net.cpp:84] Creating Layer conv5
I0411 21:22:00.724289  6171 net.cpp:406] conv5 <- conv4
I0411 21:22:00.724299  6171 net.cpp:380] conv5 -> conv5
I0411 21:22:00.726382  6171 net.cpp:122] Setting up conv5
I0411 21:22:00.726394  6171 net.cpp:129] Top shape: 128 64 24 24 (4718592)
I0411 21:22:00.726402  6171 net.cpp:137] Memory required for data: 722012160
I0411 21:22:00.726411  6171 layer_factory.hpp:77] Creating layer res2
I0411 21:22:00.726423  6171 net.cpp:84] Creating Layer res2
I0411 21:22:00.726429  6171 net.cpp:406] res2 <- conv3_0_relu3_0_0_split_1
I0411 21:22:00.726436  6171 net.cpp:406] res2 <- conv5
I0411 21:22:00.726446  6171 net.cpp:380] res2 -> res2
I0411 21:22:00.726475  6171 net.cpp:122] Setting up res2
I0411 21:22:00.726481  6171 net.cpp:129] Top shape: 128 64 24 24 (4718592)
I0411 21:22:00.726487  6171 net.cpp:137] Memory required for data: 740886528
I0411 21:22:00.726493  6171 layer_factory.hpp:77] Creating layer pool3
I0411 21:22:00.726503  6171 net.cpp:84] Creating Layer pool3
I0411 21:22:00.726510  6171 net.cpp:406] pool3 <- res2
I0411 21:22:00.726517  6171 net.cpp:380] pool3 -> pool3
I0411 21:22:00.726557  6171 net.cpp:122] Setting up pool3
I0411 21:22:00.726564  6171 net.cpp:129] Top shape: 128 64 12 12 (1179648)
I0411 21:22:00.726569  6171 net.cpp:137] Memory required for data: 745605120
I0411 21:22:00.726575  6171 layer_factory.hpp:77] Creating layer relu5
I0411 21:22:00.726583  6171 net.cpp:84] Creating Layer relu5
I0411 21:22:00.726589  6171 net.cpp:406] relu5 <- pool3
I0411 21:22:00.726598  6171 net.cpp:367] relu5 -> pool3 (in-place)
I0411 21:22:00.727072  6171 net.cpp:122] Setting up relu5
I0411 21:22:00.727083  6171 net.cpp:129] Top shape: 128 64 12 12 (1179648)
I0411 21:22:00.727089  6171 net.cpp:137] Memory required for data: 750323712
I0411 21:22:00.727095  6171 layer_factory.hpp:77] Creating layer fc1
I0411 21:22:00.727108  6171 net.cpp:84] Creating Layer fc1
I0411 21:22:00.727113  6171 net.cpp:406] fc1 <- pool3
I0411 21:22:00.727123  6171 net.cpp:380] fc1 -> fc1
I0411 21:22:01.155270  6171 net.cpp:122] Setting up fc1
I0411 21:22:01.155308  6171 net.cpp:129] Top shape: 128 2048 (262144)
I0411 21:22:01.155311  6171 net.cpp:137] Memory required for data: 751372288
I0411 21:22:01.155326  6171 layer_factory.hpp:77] Creating layer relu6
I0411 21:22:01.155341  6171 net.cpp:84] Creating Layer relu6
I0411 21:22:01.155349  6171 net.cpp:406] relu6 <- fc1
I0411 21:22:01.155360  6171 net.cpp:367] relu6 -> fc1 (in-place)
I0411 21:22:01.155608  6171 net.cpp:122] Setting up relu6
I0411 21:22:01.155618  6171 net.cpp:129] Top shape: 128 2048 (262144)
I0411 21:22:01.155622  6171 net.cpp:137] Memory required for data: 752420864
I0411 21:22:01.155639  6171 layer_factory.hpp:77] Creating layer drop1
I0411 21:22:01.156591  6171 net.cpp:84] Creating Layer drop1
I0411 21:22:01.156600  6171 net.cpp:406] drop1 <- fc1
I0411 21:22:01.156606  6171 net.cpp:367] drop1 -> fc1 (in-place)
I0411 21:22:01.156638  6171 net.cpp:122] Setting up drop1
I0411 21:22:01.156646  6171 net.cpp:129] Top shape: 128 2048 (262144)
I0411 21:22:01.156649  6171 net.cpp:137] Memory required for data: 753469440
I0411 21:22:01.156651  6171 layer_factory.hpp:77] Creating layer fc2
I0411 21:22:01.156662  6171 net.cpp:84] Creating Layer fc2
I0411 21:22:01.156668  6171 net.cpp:406] fc2 <- fc1
I0411 21:22:01.156677  6171 net.cpp:380] fc2 -> fc2
I0411 21:22:01.250735  6171 net.cpp:122] Setting up fc2
I0411 21:22:01.250764  6171 net.cpp:129] Top shape: 128 2048 (262144)
I0411 21:22:01.250768  6171 net.cpp:137] Memory required for data: 754518016
I0411 21:22:01.250777  6171 layer_factory.hpp:77] Creating layer relu7
I0411 21:22:01.250788  6171 net.cpp:84] Creating Layer relu7
I0411 21:22:01.250794  6171 net.cpp:406] relu7 <- fc2
I0411 21:22:01.250805  6171 net.cpp:367] relu7 -> fc2 (in-place)
I0411 21:22:01.251452  6171 net.cpp:122] Setting up relu7
I0411 21:22:01.251466  6171 net.cpp:129] Top shape: 128 2048 (262144)
I0411 21:22:01.251468  6171 net.cpp:137] Memory required for data: 755566592
I0411 21:22:01.251472  6171 layer_factory.hpp:77] Creating layer drop2
I0411 21:22:01.251477  6171 net.cpp:84] Creating Layer drop2
I0411 21:22:01.251482  6171 net.cpp:406] drop2 <- fc2
I0411 21:22:01.251487  6171 net.cpp:367] drop2 -> fc2 (in-place)
I0411 21:22:01.251518  6171 net.cpp:122] Setting up drop2
I0411 21:22:01.251524  6171 net.cpp:129] Top shape: 128 2048 (262144)
I0411 21:22:01.251528  6171 net.cpp:137] Memory required for data: 756615168
I0411 21:22:01.251529  6171 layer_factory.hpp:77] Creating layer fc3
I0411 21:22:01.251538  6171 net.cpp:84] Creating Layer fc3
I0411 21:22:01.251540  6171 net.cpp:406] fc3 <- fc2
I0411 21:22:01.251547  6171 net.cpp:380] fc3 -> fc3
I0411 21:22:01.254783  6171 net.cpp:122] Setting up fc3
I0411 21:22:01.254796  6171 net.cpp:129] Top shape: 128 63 (8064)
I0411 21:22:01.254798  6171 net.cpp:137] Memory required for data: 756647424
I0411 21:22:01.254804  6171 layer_factory.hpp:77] Creating layer error
I0411 21:22:01.255233  6171 pose_distance_layer.cpp:48] Size of ids: 0
I0411 21:22:01.255244  6171 net.cpp:84] Creating Layer error
I0411 21:22:01.255247  6171 net.cpp:406] error <- fc3
I0411 21:22:01.255251  6171 net.cpp:406] error <- pose
I0411 21:22:01.255255  6171 net.cpp:406] error <- center
I0411 21:22:01.255264  6171 net.cpp:380] error -> error
I0411 21:22:01.255276  6171 net.cpp:380] error -> output
I0411 21:22:01.255306  6171 net.cpp:122] Setting up error
I0411 21:22:01.255313  6171 net.cpp:129] Top shape: (1)
I0411 21:22:01.255316  6171 net.cpp:129] Top shape: 128 63 (8064)
I0411 21:22:01.255319  6171 net.cpp:137] Memory required for data: 756679684
I0411 21:22:01.255322  6171 net.cpp:200] error does not need backward computation.
I0411 21:22:01.255326  6171 net.cpp:200] fc3 does not need backward computation.
I0411 21:22:01.255329  6171 net.cpp:200] drop2 does not need backward computation.
I0411 21:22:01.255333  6171 net.cpp:200] relu7 does not need backward computation.
…
