…
    trans_dy: 10
    is_rotate: true
    rotate_deg: 180
    is_zoom: true
    zoom_scale: 0.1
  }
  pose_data_param {
    image_source: "/home/workspace/Datasets/MSRA/cvpr15_MSRAHandGestureDB/train_image_1.txt"
    label_source: "/home/workspace/Datasets/MSRA/cvpr15_MSRAHandGestureDB/train_label_1.txt"
    batch_size: 128
    shuffle: true
    new_height: 96
    new_width: 96
    root_folder: "/home/workspace/Datasets/MSRA/cvpr15_MSRAHandGestureDB/"
    point_num: 21
    point_dim: 3
    fx: 241.42
    fy: 241.42
    cube_length: 150
    dataset: MSRA
  }
}
layer {
  name: "conv0"
  type: "Convolution"
  bottom: "data"
  top: "conv0"
  param {
    lr_mult: 1
  }
  param {
    lr_mult: 2
  }
  convolution_param {
    num_output: 16
    pad: 1
    kernel_size: 3
    stride: 1
    weight_filler {
      type: "msra"
    }
    bias_filler {
      type: "constant"
    }
  }
}
layer {
  name: "relu0"
  type: "ReLU"
  bottom: "conv0"
  top: "conv0"
}
layer {
  name: "conv1"
  type: "Convolution"
  bottom: "conv0"
  top: "conv1"
  param {
    lr_mult: 1
  }
  param {
    lr_mult: 2
  }
  convolution_param {
    num_output: 16
    pad: 1
    kernel_size: 3
    stride: 1
    weight_filler {
      type: "msra"
    }
    bias_filler {
      type: "constant"
    }
  }
}
layer {
  name: "pool1"
  type: "Pooling"
  bottom: "conv1"
  top: "pool1"
  pooling_param {
    pool: MAX
    kernel_size: 2
    stride: 2
  }
}
layer {
  name: "relu1"
  type: "ReLU"
  bottom: "pool1"
  top: "pool1"
}
layer {
  name: "conv2_0"
  type: "Convolution"
  bottom: "pool1"
  top: "conv2_0"
  param {
    lr_mult: 1
  }
  param {
    lr_mult: 2
  }
  convolution_param {
    num_output: 32
    pad: 0
    kernel_size: 1
    stride: 1
    weight_filler {
      type: "msra"
    }
    bias_filler {
      type: "constant"
    }
  }
}
layer {
  name: "relu2_0"
  type: "ReLU"
  bottom: "conv2_0"
  top: "conv2_0"
}
layer {
  name: "conv2"
  type: "Convolution"
  bottom: "conv2_0"
  top: "conv2"
  param {
    lr_mult: 1
  }
  param {
    lr_mult: 2
  }
  convolution_param {
    num_output: 32
    pad: 1
    kernel_size: 3
    stride: 1
    weight_filler {
      type: "msra"
    }
    bias_filler {
      type: "constant"
    }
  }
}
layer {
  name: "relu2"
  type: "ReLU"
  bottom: "conv2"
  top: "conv2"
}
layer {
  name: "conv3"
  type: "Convolution"
  bottom: "conv2"
  top: "conv3"
  param {
    lr_mult: 1
  }
  param {
    lr_mult: 2
  }
  convolution_param {
    num_output: 32
    pad: 1
    kernel_size: 3
    stride: 1
    weight_filler {
      type: "msra"
    }
    bias_filler {
      type: "constant"
    }
  }
}
layer {
  name: "res1"
  type: "Eltwise"
  bottom: "conv2_0"
  bottom: "conv3"
  top: "res1"
}
layer {
  name: "pool2"
  type: "Pooling"
  bottom: "res1"
  top: "pool2"
  pooling_param {
    pool: MAX
    kernel_size: 2
    stride: 2
  }
}
layer {
  name: "relu3"
  type: "ReLU"
  bottom: "pool2"
  top: "pool2"
}
layer {
  name: "conv3_0"
  type: "Convolution"
  bottom: "pool2"
  top: "conv3_0"
  param {
    lr_mult: 1
  }
  param {
    lr_mult: 2
  }
  convolution_param {
    num_output: 64
    pad: 0
    kernel_size: 1
    stride: 1
    weight_filler {
      type: "msra"
    }
    bias_filler {
      type: "constant"
    }
  }
}
layer {
  name: "relu3_0"
  type: "ReLU"
  bottom: "conv3_0"
  top: "conv3_0"
}
layer {
  name: "conv4"
  type: "Convolution"
  bottom: "conv3_0"
  top: "conv4"
  param {
    lr_mult: 1
  }
  param {
    lr_mult: 2
  }
  convolution_param {
    num_output: 64
    pad: 1
    kernel_size: 3
    stride: 1
    weight_filler {
      type: "msra"
    }
    bias_filler {
      type: "constant"
    }
  }
}
layer {
  name: "relu4"
  type: "ReLU"
  bottom: "conv4"
  top: "conv4"
}
layer {
  name: "conv5"
  type: "Convolution"
  bottom: "conv4"
  top: "conv5"
  param {
    lr_mult: 1
  }
  param {
    lr_mult: 2
  }
  convolution_param {
    num_output: 64
    pad: 1
    kernel_size: 3
    stride: 1
    weight_filler {
      type: "msra"
    }
    bias_filler {
      type: "constant"
    }
  }
}
layer {
  name: "res2"
  type: "Eltwise"
  bottom: "conv3_0"
  bottom: "conv5"
  top: "res2"
}
layer {
  name: "pool3"
  type: "Pooling"
  bottom: "res2"
  top: "pool3"
  pooling_param {
    pool: MAX
    kernel_size: 2
    stride: 2
  }
}
layer {
  name: "relu5"
  type: "ReLU"
  bottom: "pool3"
  top: "pool3"
}
layer {
  name: "fc1"
  type: "InnerProduct"
  bottom: "pool3"
  top: "fc1"
  param {
    lr_mult: 1
  }
  param {
    lr_mult: 2
  }
  inner_product_param {
    num_output: 2048
    weight_filler {
      type: "gaussian"
      std: 0.001
    }
    bias_filler {
      type: "constant"
    }
  }
}
layer {
  name: "relu6"
  type: "ReLU"
  bottom: "fc1"
  top: "fc1"
}
layer {
  name: "drop1"
  type: "Dropout"
  bottom: "fc1"
  top: "fc1"
  dropout_param {
    dropout_ratio: 0.5
  }
}
layer {
  name: "fc2"
  type: "InnerProduct"
  bottom: "fc1"
  top: "fc2"
  param {
    lr_mult: 1
  }
  param {
    lr_mult: 2
  }
  inner_product_param {
    num_output: 2048
    weight_filler {
      type: "gaussian"
      std: 0.001
    }
    bias_filler {
      type: "constant"
    }
  }
}
layer {
  name: "relu7"
  type: "ReLU"
  bottom: "fc2"
  top: "fc2"
}
layer {
  name: "drop2"
  type: "Dropout"
  bottom: "fc2"
  top: "fc2"
  dropout_param {
    dropout_ratio: 0.5
  }
}
layer {
  name: "fc3"
  type: "InnerProduct"
  bottom: "fc2"
  top: "fc3"
  param {
    lr_mult: 1
  }
  param {
    lr_mult: 2
  }
  inner_product_param {
    num_output: 63
    weight_filler {
      type: "gaussian"
      std: 0.001
    }
    bias_filler {
      type: "constant"
    }
  }
}
layer {
  name: "loss"
  type: "SmoothL1Loss"
  bottom: "fc3"
  bottom: "pose"
  top: "loss"
  loss_weight: 1
  smooth_l1_loss_param {
    sigma: 10
  }
}
I0410 02:35:52.437592  3970 layer_factory.hpp:77] Creating layer data
I0410 02:35:52.437605  3970 net.cpp:84] Creating Layer data
I0410 02:35:52.437610  3970 net.cpp:380] data -> data
I0410 02:35:52.437619  3970 net.cpp:380] data -> pose
I0410 02:35:52.437685  3970 pose_data_layer.cpp:117] Opening file /home/workspace/Datasets/MSRA/cvpr15_MSRAHandGestureDB/train_image_1.txt
…
I0410 02:36:52.389281  3970 pose_data_layer.cpp:269] Loading 60001 image...
I0410 02:36:55.531906  3970 pose_data_layer.cpp:269] Loading 62001 image...
I0410 02:36:57.072237  3970 pose_data_layer.cpp:269] Loading 64001 image...
I0410 02:36:58.259524  3970 pose_data_layer.cpp:269] Loading 66001 image...
I0410 02:37:00.634696  3970 pose_data_layer.cpp:282] Shuffling data
I0410 02:37:00.635630  3970 pose_data_layer.cpp:287] A total of 67883 images.
I0410 02:37:00.636270  3970 pose_data_layer.cpp:329] output data size: 128,1,96,96
I0410 02:37:00.650185  3970 net.cpp:122] Setting up data
I0410 02:37:00.650215  3970 net.cpp:129] Top shape: 128 1 96 96 (1179648)
I0410 02:37:00.650223  3970 net.cpp:129] Top shape: 128 63 (8064)
I0410 02:37:00.650226  3970 net.cpp:137] Memory required for data: 4750848
I0410 02:37:00.650235  3970 layer_factory.hpp:77] Creating layer conv0
I0410 02:37:00.650264  3970 net.cpp:84] Creating Layer conv0
I0410 02:37:00.650271  3970 net.cpp:406] conv0 <- data
I0410 02:37:00.650283  3970 net.cpp:380] conv0 -> conv0
I0410 02:37:01.716555  3970 net.cpp:122] Setting up conv0
I0410 02:37:01.716575  3970 net.cpp:129] Top shape: 128 16 96 96 (18874368)
I0410 02:37:01.716579  3970 net.cpp:137] Memory required for data: 80248320
I0410 02:37:01.716590  3970 layer_factory.hpp:77] Creating layer relu0
I0410 02:37:01.716600  3970 net.cpp:84] Creating Layer relu0
I0410 02:37:01.716605  3970 net.cpp:406] relu0 <- conv0
I0410 02:37:01.716612  3970 net.cpp:367] relu0 -> conv0 (in-place)
I0410 02:37:01.719807  3970 net.cpp:122] Setting up relu0
I0410 02:37:01.719821  3970 net.cpp:129] Top shape: 128 16 96 96 (18874368)
I0410 02:37:01.719827  3970 net.cpp:137] Memory required for data: 155745792
I0410 02:37:01.719832  3970 layer_factory.hpp:77] Creating layer conv1
I0410 02:37:01.719846  3970 net.cpp:84] Creating Layer conv1
I0410 02:37:01.719857  3970 net.cpp:406] conv1 <- conv0
I0410 02:37:01.719867  3970 net.cpp:380] conv1 -> conv1
I0410 02:37:01.729243  3970 net.cpp:122] Setting up conv1
I0410 02:37:01.729259  3970 net.cpp:129] Top shape: 128 16 96 96 (18874368)
I0410 02:37:01.729265  3970 net.cpp:137] Memory required for data: 231243264
I0410 02:37:01.729279  3970 layer_factory.hpp:77] Creating layer pool1
I0410 02:37:01.729300  3970 net.cpp:84] Creating Layer pool1
I0410 02:37:01.729315  3970 net.cpp:406] pool1 <- conv1
I0410 02:37:01.729327  3970 net.cpp:380] pool1 -> pool1
I0410 02:37:01.729374  3970 net.cpp:122] Setting up pool1
I0410 02:37:01.729385  3970 net.cpp:129] Top shape: 128 16 48 48 (4718592)
I0410 02:37:01.729389  3970 net.cpp:137] Memory required for data: 250117632
I0410 02:37:01.729396  3970 layer_factory.hpp:77] Creating layer relu1
I0410 02:37:01.729413  3970 net.cpp:84] Creating Layer relu1
I0410 02:37:01.729421  3970 net.cpp:406] relu1 <- pool1
I0410 02:37:01.729427  3970 net.cpp:367] relu1 -> pool1 (in-place)
I0410 02:37:01.732623  3970 net.cpp:122] Setting up relu1
I0410 02:37:01.732637  3970 net.cpp:129] Top shape: 128 16 48 48 (4718592)
I0410 02:37:01.732642  3970 net.cpp:137] Memory required for data: 268992000
I0410 02:37:01.732647  3970 layer_factory.hpp:77] Creating layer conv2_0
I0410 02:37:01.732664  3970 net.cpp:84] Creating Layer conv2_0
I0410 02:37:01.732671  3970 net.cpp:406] conv2_0 <- pool1
I0410 02:37:01.732678  3970 net.cpp:380] conv2_0 -> conv2_0
I0410 02:37:01.744762  3970 net.cpp:122] Setting up conv2_0
I0410 02:37:01.744788  3970 net.cpp:129] Top shape: 128 32 48 48 (9437184)
I0410 02:37:01.744794  3970 net.cpp:137] Memory required for data: 306740736
I0410 02:37:01.744809  3970 layer_factory.hpp:77] Creating layer relu2_0
I0410 02:37:01.744832  3970 net.cpp:84] Creating Layer relu2_0
I0410 02:37:01.744840  3970 net.cpp:406] relu2_0 <- conv2_0
I0410 02:37:01.744861  3970 net.cpp:367] relu2_0 -> conv2_0 (in-place)
I0410 02:37:01.748613  3970 net.cpp:122] Setting up relu2_0
I0410 02:37:01.748627  3970 net.cpp:129] Top shape: 128 32 48 48 (9437184)
I0410 02:37:01.748633  3970 net.cpp:137] Memory required for data: 344489472
I0410 02:37:01.748641  3970 layer_factory.hpp:77] Creating layer conv2_0_relu2_0_0_split
I0410 02:37:01.748653  3970 net.cpp:84] Creating Layer conv2_0_relu2_0_0_split
I0410 02:37:01.748659  3970 net.cpp:406] conv2_0_relu2_0_0_split <- conv2_0
I0410 02:37:01.748667  3970 net.cpp:380] conv2_0_relu2_0_0_split -> conv2_0_relu2_0_0_split_0
I0410 02:37:01.748677  3970 net.cpp:380] conv2_0_relu2_0_0_split -> conv2_0_relu2_0_0_split_1
I0410 02:37:01.748718  3970 net.cpp:122] Setting up conv2_0_relu2_0_0_split
I0410 02:37:01.748726  3970 net.cpp:129] Top shape: 128 32 48 48 (9437184)
I0410 02:37:01.748734  3970 net.cpp:129] Top shape: 128 32 48 48 (9437184)
I0410 02:37:01.748739  3970 net.cpp:137] Memory required for data: 419986944
I0410 02:37:01.748744  3970 layer_factory.hpp:77] Creating layer conv2
I0410 02:37:01.748757  3970 net.cpp:84] Creating Layer conv2
I0410 02:37:01.748762  3970 net.cpp:406] conv2 <- conv2_0_relu2_0_0_split_0
I0410 02:37:01.748771  3970 net.cpp:380] conv2 -> conv2
I0410 02:37:01.760334  3970 net.cpp:122] Setting up conv2
I0410 02:37:01.760351  3970 net.cpp:129] Top shape: 128 32 48 48 (9437184)
I0410 02:37:01.760359  3970 net.cpp:137] Memory required for data: 457735680
I0410 02:37:01.760370  3970 layer_factory.hpp:77] Creating layer relu2
I0410 02:37:01.760377  3970 net.cpp:84] Creating Layer relu2
I0410 02:37:01.760387  3970 net.cpp:406] relu2 <- conv2
I0410 02:37:01.760396  3970 net.cpp:367] relu2 -> conv2 (in-place)
I0410 02:37:01.763943  3970 net.cpp:122] Setting up relu2
I0410 02:37:01.763959  3970 net.cpp:129] Top shape: 128 32 48 48 (9437184)
I0410 02:37:01.763965  3970 net.cpp:137] Memory required for data: 495484416
I0410 02:37:01.763972  3970 layer_factory.hpp:77] Creating layer conv3
I0410 02:37:01.763988  3970 net.cpp:84] Creating Layer conv3
I0410 02:37:01.763995  3970 net.cpp:406] conv3 <- conv2
I0410 02:37:01.764005  3970 net.cpp:380] conv3 -> conv3
I0410 02:37:01.777585  3970 net.cpp:122] Setting up conv3
I0410 02:37:01.777614  3970 net.cpp:129] Top shape: 128 32 48 48 (9437184)
I0410 02:37:01.777619  3970 net.cpp:137] Memory required for data: 533233152
I0410 02:37:01.777637  3970 layer_factory.hpp:77] Creating layer res1
I0410 02:37:01.777650  3970 net.cpp:84] Creating Layer res1
I0410 02:37:01.777667  3970 net.cpp:406] res1 <- conv2_0_relu2_0_0_split_1
I0410 02:37:01.777679  3970 net.cpp:406] res1 <- conv3
I0410 02:37:01.777689  3970 net.cpp:380] res1 -> res1
I0410 02:37:01.777740  3970 net.cpp:122] Setting up res1
I0410 02:37:01.777750  3970 net.cpp:129] Top shape: 128 32 48 48 (9437184)
I0410 02:37:01.777755  3970 net.cpp:137] Memory required for data: 570981888
I0410 02:37:01.777760  3970 layer_factory.hpp:77] Creating layer pool2
I0410 02:37:01.777770  3970 net.cpp:84] Creating Layer pool2
I0410 02:37:01.777781  3970 net.cpp:406] pool2 <- res1
I0410 02:37:01.777789  3970 net.cpp:380] pool2 -> pool2
I0410 02:37:01.777833  3970 net.cpp:122] Setting up pool2
I0410 02:37:01.777842  3970 net.cpp:129] Top shape: 128 32 24 24 (2359296)
I0410 02:37:01.777846  3970 net.cpp:137] Memory required for data: 580419072
I0410 02:37:01.777850  3970 layer_factory.hpp:77] Creating layer relu3
I0410 02:37:01.777861  3970 net.cpp:84] Creating Layer relu3
I0410 02:37:01.777866  3970 net.cpp:406] relu3 <- pool2
I0410 02:37:01.777873  3970 net.cpp:367] relu3 -> pool2 (in-place)
I0410 02:37:01.780686  3970 net.cpp:122] Setting up relu3
I0410 02:37:01.780711  3970 net.cpp:129] Top shape: 128 32 24 24 (2359296)
I0410 02:37:01.780716  3970 net.cpp:137] Memory required for data: 589856256
I0410 02:37:01.780722  3970 layer_factory.hpp:77] Creating layer conv3_0
I0410 02:37:01.780896  3970 net.cpp:84] Creating Layer conv3_0
I0410 02:37:01.780907  3970 net.cpp:406] conv3_0 <- pool2
I0410 02:37:01.780921  3970 net.cpp:380] conv3_0 -> conv3_0
I0410 02:37:01.791981  3970 net.cpp:122] Setting up conv3_0
I0410 02:37:01.792111  3970 net.cpp:129] Top shape: 128 64 24 24 (4718592)
I0410 02:37:01.792129  3970 net.cpp:137] Memory required for data: 608730624
I0410 02:37:01.792155  3970 layer_factory.hpp:77] Creating layer relu3_0
I0410 02:37:01.792188  3970 net.cpp:84] Creating Layer relu3_0
I0410 02:37:01.792203  3970 net.cpp:406] relu3_0 <- conv3_0
I0410 02:37:01.792225  3970 net.cpp:367] relu3_0 -> conv3_0 (in-place)
I0410 02:37:01.794994  3970 net.cpp:122] Setting up relu3_0
I0410 02:37:01.795055  3970 net.cpp:129] Top shape: 128 64 24 24 (4718592)
I0410 02:37:01.795071  3970 net.cpp:137] Memory required for data: 627604992
I0410 02:37:01.795087  3970 layer_factory.hpp:77] Creating layer conv3_0_relu3_0_0_split
I0410 02:37:01.795107  3970 net.cpp:84] Creating Layer conv3_0_relu3_0_0_split
I0410 02:37:01.795122  3970 net.cpp:406] conv3_0_relu3_0_0_split <- conv3_0
I0410 02:37:01.795142  3970 net.cpp:380] conv3_0_relu3_0_0_split -> conv3_0_relu3_0_0_split_0
I0410 02:37:01.795162  3970 net.cpp:380] conv3_0_relu3_0_0_split -> conv3_0_relu3_0_0_split_1
I0410 02:37:01.795246  3970 net.cpp:122] Setting up conv3_0_relu3_0_0_split
I0410 02:37:01.795271  3970 net.cpp:129] Top shape: 128 64 24 24 (4718592)
I0410 02:37:01.795286  3970 net.cpp:129] Top shape: 128 64 24 24 (4718592)
I0410 02:37:01.795298  3970 net.cpp:137] Memory required for data: 665353728
I0410 02:37:01.795310  3970 layer_factory.hpp:77] Creating layer conv4
I0410 02:37:01.795334  3970 net.cpp:84] Creating Layer conv4
I0410 02:37:01.795349  3970 net.cpp:406] conv4 <- conv3_0_relu3_0_0_split_0
I0410 02:37:01.795367  3970 net.cpp:380] conv4 -> conv4
I0410 02:37:01.812676  3970 net.cpp:122] Setting up conv4
I0410 02:37:01.812734  3970 net.cpp:129] Top shape: 128 64 24 24 (4718592)
I0410 02:37:01.812750  3970 net.cpp:137] Memory required for data: 684228096
I0410 02:37:01.812772  3970 layer_factory.hpp:77] Creating layer relu4
I0410 02:37:01.812793  3970 net.cpp:84] Creating Layer relu4
I0410 02:37:01.812808  3970 net.cpp:406] relu4 <- conv4
I0410 02:37:01.812830  3970 net.cpp:367] relu4 -> conv4 (in-place)
I0410 02:37:01.816740  3970 net.cpp:122] Setting up relu4
I0410 02:37:01.816768  3970 net.cpp:129] Top shape: 128 64 24 24 (4718592)
I0410 02:37:01.816781  3970 net.cpp:137] Memory required for data: 703102464
I0410 02:37:01.816793  3970 layer_factory.hpp:77] Creating layer conv5
I0410 02:37:01.816817  3970 net.cpp:84] Creating Layer conv5
I0410 02:37:01.816828  3970 net.cpp:406] conv5 <- conv4
I0410 02:37:01.816845  3970 net.cpp:380] conv5 -> conv5
I0410 02:37:01.832343  3970 net.cpp:122] Setting up conv5
I0410 02:37:01.832404  3970 net.cpp:129] Top shape: 128 64 24 24 (4718592)
I0410 02:37:01.832422  3970 net.cpp:137] Memory required for data: 721976832
I0410 02:37:01.832444  3970 layer_factory.hpp:77] Creating layer res2
I0410 02:37:01.832465  3970 net.cpp:84] Creating Layer res2
I0410 02:37:01.832481  3970 net.cpp:406] res2 <- conv3_0_relu3_0_0_split_1
I0410 02:37:01.832499  3970 net.cpp:406] res2 <- conv5
I0410 02:37:01.832517  3970 net.cpp:380] res2 -> res2
I0410 02:37:01.832568  3970 net.cpp:122] Setting up res2
I0410 02:37:01.832592  3970 net.cpp:129] Top shape: 128 64 24 24 (4718592)
I0410 02:37:01.832608  3970 net.cpp:137] Memory required for data: 740851200
I0410 02:37:01.832623  3970 layer_factory.hpp:77] Creating layer pool3
I0410 02:37:01.832641  3970 net.cpp:84] Creating Layer pool3
I0410 02:37:01.832656  3970 net.cpp:406] pool3 <- res2
I0410 02:37:01.832672  3970 net.cpp:380] pool3 -> pool3
I0410 02:37:01.832744  3970 net.cpp:122] Setting up pool3
I0410 02:37:01.832767  3970 net.cpp:129] Top shape: 128 64 12 12 (1179648)
I0410 02:37:01.832780  3970 net.cpp:137] Memory required for data: 745569792
I0410 02:37:01.832794  3970 layer_factory.hpp:77] Creating layer relu5
I0410 02:37:01.832810  3970 net.cpp:84] Creating Layer relu5
I0410 02:37:01.832825  3970 net.cpp:406] relu5 <- pool3
I0410 02:37:01.832844  3970 net.cpp:367] relu5 -> pool3 (in-place)
I0410 02:37:01.837962  3970 net.cpp:122] Setting up relu5
I0410 02:37:01.837985  3970 net.cpp:129] Top shape: 128 64 12 12 (1179648)
I0410 02:37:01.837990  3970 net.cpp:137] Memory required for data: 750288384
I0410 02:37:01.837996  3970 layer_factory.hpp:77] Creating layer fc1
I0410 02:37:01.838011  3970 net.cpp:84] Creating Layer fc1
I0410 02:37:01.838024  3970 net.cpp:406] fc1 <- pool3
I0410 02:37:01.838040  3970 net.cpp:380] fc1 -> fc1
I0410 02:37:02.318212  3970 net.cpp:122] Setting up fc1
I0410 02:37:02.318243  3970 net.cpp:129] Top shape: 128 2048 (262144)
I0410 02:37:02.318248  3970 net.cpp:137] Memory required for data: 751336960
I0410 02:37:02.318271  3970 layer_factory.hpp:77] Creating layer relu6
I0410 02:37:02.318290  3970 net.cpp:84] Creating Layer relu6
I0410 02:37:02.318297  3970 net.cpp:406] relu6 <- fc1
I0410 02:37:02.318305  3970 net.cpp:367] relu6 -> fc1 (in-place)
I0410 02:37:02.318589  3970 net.cpp:122] Setting up relu6
I0410 02:37:02.318601  3970 net.cpp:129] Top shape: 128 2048 (262144)
I0410 02:37:02.318605  3970 net.cpp:137] Memory required for data: 752385536
I0410 02:37:02.318610  3970 layer_factory.hpp:77] Creating layer drop1
I0410 02:37:02.318621  3970 net.cpp:84] Creating Layer drop1
I0410 02:37:02.318625  3970 net.cpp:406] drop1 <- fc1
I0410 02:37:02.318631  3970 net.cpp:367] drop1 -> fc1 (in-place)
I0410 02:37:02.318657  3970 net.cpp:122] Setting up drop1
I0410 02:37:02.318665  3970 net.cpp:129] Top shape: 128 2048 (262144)
I0410 02:37:02.318668  3970 net.cpp:137] Memory required for data: 753434112
I0410 02:37:02.318672  3970 layer_factory.hpp:77] Creating layer fc2
I0410 02:37:02.318683  3970 net.cpp:84] Creating Layer fc2
I0410 02:37:02.318687  3970 net.cpp:406] fc2 <- fc1
I0410 02:37:02.318696  3970 net.cpp:380] fc2 -> fc2
I0410 02:37:02.415634  3970 net.cpp:122] Setting up fc2
I0410 02:37:02.415657  3970 net.cpp:129] Top shape: 128 2048 (262144)
I0410 02:37:02.415662  3970 net.cpp:137] Memory required for data: 754482688
I0410 02:37:02.415673  3970 layer_factory.hpp:77] Creating layer relu7
I0410 02:37:02.415681  3970 net.cpp:84] Creating Layer relu7
I0410 02:37:02.415688  3970 net.cpp:406] relu7 <- fc2
I0410 02:37:02.415696  3970 net.cpp:367] relu7 -> fc2 (in-place)
I0410 02:37:02.416239  3970 net.cpp:122] Setting up relu7
I0410 02:37:02.416252  3970 net.cpp:129] Top shape: 128 2048 (262144)
I0410 02:37:02.416257  3970 net.cpp:137] Memory required for data: 755531264
I0410 02:37:02.416262  3970 layer_factory.hpp:77] Creating layer drop2
I0410 02:37:02.416270  3970 net.cpp:84] Creating Layer drop2
I0410 02:37:02.416276  3970 net.cpp:406] drop2 <- fc2
I0410 02:37:02.416287  3970 net.cpp:367] drop2 -> fc2 (in-place)
I0410 02:37:02.416313  3970 net.cpp:122] Setting up drop2
I0410 02:37:02.416321  3970 net.cpp:129] Top shape: 128 2048 (262144)
I0410 02:37:02.416326  3970 net.cpp:137] Memory required for data: 756579840
I0410 02:37:02.416330  3970 layer_factory.hpp:77] Creating layer fc3
I0410 02:37:02.416342  3970 net.cpp:84] Creating Layer fc3
I0410 02:37:02.416347  3970 net.cpp:406] fc3 <- fc2
I0410 02:37:02.416354  3970 net.cpp:380] fc3 -> fc3
I0410 02:37:02.419620  3970 net.cpp:122] Setting up fc3
I0410 02:37:02.419633  3970 net.cpp:129] Top shape: 128 63 (8064)
I0410 02:37:02.419638  3970 net.cpp:137] Memory required for data: 756612096
I0410 02:37:02.419647  3970 layer_factory.hpp:77] Creating layer loss
I0410 02:37:02.419668  3970 net.cpp:84] Creating Layer loss
I0410 02:37:02.419677  3970 net.cpp:406] loss <- fc3
I0410 02:37:02.419688  3970 net.cpp:406] loss <- pose
I0410 02:37:02.419699  3970 net.cpp:380] loss -> loss
I0410 02:37:02.419839  3970 net.cpp:122] Setting up loss
…
  transform_param {
    is_trans: false
    is_rotate: false
    is_zoom: false
  }
  pose_data_param {
    image_source: "/home/workspace/Datasets/MSRA/cvpr15_MSRAHandGestureDB/test_image_1.txt"
    label_source: "/home/workspace/Datasets/MSRA/cvpr15_MSRAHandGestureDB/test_label_1.txt"
    batch_size: 128
    shuffle: false
    new_height: 96
    new_width: 96
    root_folder: "/home/workspace/Datasets/MSRA/cvpr15_MSRAHandGestureDB/"
    point_num: 21
    point_dim: 3
    fx: 241.42
    fy: 241.42
    output_center: true
    cube_length: 150
    dataset: MSRA
  }
}
layer {
  name: "pose"
  type: "Slice"
  bottom: "label"
  top: "pose"
  top: "center"
  include {
    phase: TEST
  }
  slice_param {
    slice_dim: 1
    slice_point: 63
  }
}
layer {
  name: "conv0"
  type: "Convolution"
  bottom: "data"
  top: "conv0"
  param {
    lr_mult: 1
  }
  param {
    lr_mult: 2
  }
  convolution_param {
    num_output: 16
    pad: 1
    kernel_size: 3
    stride: 1
    weight_filler {
      type: "msra"
    }
    bias_filler {
      type: "constant"
    }
  }
}
layer {
  name: "relu0"
  type: "ReLU"
  bottom: "conv0"
  top: "conv0"
}
layer {
  name: "conv1"
  type: "Convolution"
  bottom: "conv0"
  top: "conv1"
  param {
    lr_mult: 1
  }
  param {
    lr_mult: 2
  }
  convolution_param {
    num_output: 16
    pad: 1
    kernel_size: 3
    stride: 1
    weight_filler {
      type: "msra"
    }
    bias_filler {
      type: "constant"
    }
  }
}
layer {
  name: "pool1"
  type: "Pooling"
  bottom: "conv1"
  top: "pool1"
  pooling_param {
    pool: MAX
    kernel_size: 2
    stride: 2
  }
}
layer {
  name: "relu1"
  type: "ReLU"
  bottom: "pool1"
  top: "pool1"
}
layer {
  name: "conv2_0"
  type: "Convolution"
  bottom: "pool1"
  top: "conv2_0"
  param {
    lr_mult: 1
  }
  param {
    lr_mult: 2
  }
  convolution_param {
    num_output: 32
    pad: 0
    kernel_size: 1
    stride: 1
    weight_filler {
      type: "msra"
    }
    bias_filler {
      type: "constant"
    }
  }
}
layer {
  name: "relu2_0"
  type: "ReLU"
  bottom: "conv2_0"
  top: "conv2_0"
}
layer {
  name: "conv2"
  type: "Convolution"
  bottom: "conv2_0"
  top: "conv2"
  param {
    lr_mult: 1
  }
  param {
    lr_mult: 2
  }
  convolution_param {
    num_output: 32
    pad: 1
    kernel_size: 3
    stride: 1
    weight_filler {
      type: "msra"
    }
    bias_filler {
      type: "constant"
    }
  }
}
layer {
  name: "relu2"
  type: "ReLU"
  bottom: "conv2"
  top: "conv2"
}
layer {
  name: "conv3"
  type: "Convolution"
  bottom: "conv2"
  top: "conv3"
  param {
    lr_mult: 1
  }
  param {
    lr_mult: 2
  }
  convolution_param {
    num_output: 32
    pad: 1
    kernel_size: 3
    stride: 1
    weight_filler {
      type: "msra"
    }
    bias_filler {
      type: "constant"
    }
  }
}
layer {
  name: "res1"
  type: "Eltwise"
  bottom: "conv2_0"
  bottom: "conv3"
  top: "res1"
}
layer {
  name: "pool2"
  type: "Pooling"
  bottom: "res1"
  top: "pool2"
  pooling_param {
    pool: MAX
    kernel_size: 2
    stride: 2
  }
}
layer {
  name: "relu3"
  type: "ReLU"
  bottom: "pool2"
  top: "pool2"
}
layer {
  name: "conv3_0"
  type: "Convolution"
  bottom: "pool2"
  top: "conv3_0"
  param {
    lr_mult: 1
  }
  param {
    lr_mult: 2
  }
  convolution_param {
    num_output: 64
    pad: 0
    kernel_size: 1
    stride: 1
    weight_filler {
      type: "msra"
    }
    bias_filler {
      type: "constant"
    }
  }
}
layer {
  name: "relu3_0"
  type: "ReLU"
  bottom: "conv3_0"
  top: "conv3_0"
}
layer {
  name: "conv4"
  type: "Convolution"
  bottom: "conv3_0"
  top: "conv4"
  param {
    lr_mult: 1
  }
  param {
    lr_mult: 2
  }
  convolution_param {
    num_output: 64
    pad: 1
    kernel_size: 3
    stride: 1
    weight_filler {
      type: "msra"
    }
    bias_filler {
      type: "constant"
    }
  }
}
layer {
  name: "relu4"
  type: "ReLU"
  bottom: "conv4"
  top: "conv4"
}
layer {
  name: "conv5"
  type: "Convolution"
  bottom: "conv4"
  top: "conv5"
  param {
    lr_mult: 1
  }
  param {
    lr_mult: 2
  }
  convolution_param {
    num_output: 64
    pad: 1
    kernel_size: 3
    stride: 1
    weight_filler {
      type: "msra"
    }
    bias_filler {
      type: "constant"
    }
  }
}
layer {
  name: "res2"
  type: "Eltwise"
  bottom: "conv3_0"
  bottom: "conv5"
  top: "res2"
}
layer {
  name: "pool3"
  type: "Pooling"
  bottom: "res2"
  top: "pool3"
  pooling_param {
    pool: MAX
    kernel_size: 2
    stride: 2
  }
}
layer {
  name: "relu5"
  type: "ReLU"
  bottom: "pool3"
  top: "pool3"
}
layer {
  name: "fc1"
  type: "InnerProduct"
  bottom: "pool3"
  top: "fc1"
  param {
    lr_mult: 1
  }
  param {
    lr_mult: 2
  }
  inner_product_param {
    num_output: 2048
    weight_filler {
      type: "gaussian"
      std: 0.001
    }
    bias_filler {
      type: "constant"
    }
  }
}
layer {
  name: "relu6"
  type: "ReLU"
  bottom: "fc1"
  top: "fc1"
}
layer {
  name: "drop1"
  type: "Dropout"
  bottom: "fc1"
  top: "fc1"
  dropout_param {
    dropout_ratio: 0.5
  }
}
layer {
  name: "fc2"
  type: "InnerProduct"
  bottom: "fc1"
  top: "fc2"
  param {
    lr_mult: 1
  }
  param {
    lr_mult: 2
  }
  inner_product_param {
    num_output: 2048
    weight_filler {
      type: "gaussian"
      std: 0.001
    }
    bias_filler {
      type: "constant"
    }
  }
}
layer {
  name: "relu7"
  type: "ReLU"
  bottom: "fc2"
  top: "fc2"
}
layer {
  name: "drop2"
  type: "Dropout"
  bottom: "fc2"
  top: "fc2"
  dropout_param {
    dropout_ratio: 0.5
  }
}
layer {
  name: "fc3"
  type: "InnerProduct"
  bottom: "fc2"
  top: "fc3"
  param {
    lr_mult: 1
  }
  param {
    lr_mult: 2
  }
  inner_product_param {
    num_output: 63
    weight_filler {
      type: "gaussian"
      std: 0.001
    }
    bias_filler {
      type: "constant"
    }
  }
}
layer {
  name: "loss"
  type: "SmoothL1Loss"
  bottom: "fc3"
  bottom: "pose"
  top: "loss"
  loss_weight: 1
  smooth_l1_loss_param {
    sigma: 10
  }
}
layer {
  name: "distance"
  type: "PoseDistance"
  bottom: "fc3"
  bottom: "pose"
  bottom: "center"
  top: "distance"
  loss_weight: 0
  include {
    phase: TEST
  }
  pose_distance_param {
    fx: 241.42
    fy: 241.42
    ux: 160
    uy: 120
    cube_length: 150
  }
}
I0410 02:37:02.425388  3970 layer_factory.hpp:77] Creating layer data
I0410 02:37:02.425408  3970 net.cpp:84] Creating Layer data
I0410 02:37:02.425418  3970 net.cpp:380] data -> data
I0410 02:37:02.425432  3970 net.cpp:380] data -> label
I0410 02:37:02.425449  3970 pose_data_layer.cpp:117] Opening file /home/workspace/Datasets/MSRA/cvpr15_MSRAHandGestureDB/test_image_1.txt
I0410 02:37:02.425472  3970 pose_data_layer.cpp:119] Opening file /home/workspace/Datasets/MSRA/cvpr15_MSRAHandGestureDB/test_label_1.txt
I0410 02:37:03.270524  3970 pose_data_layer.cpp:269] Loading 118 image...
I0410 02:37:09.521574  3970 pose_data_layer.cpp:269] Loading 2118 image...
I0410 02:37:17.345696  3970 pose_data_layer.cpp:269] Loading 4118 image...
I0410 02:37:22.058699  3970 pose_data_layer.cpp:269] Loading 6118 image...
I0410 02:37:28.051864  3970 pose_data_layer.cpp:269] Loading 8118 image...
I0410 02:37:28.321970  3970 pose_data_layer.cpp:287] A total of 8492 images.
I0410 02:37:28.322183  3970 pose_data_layer.cpp:329] output data size: 128,1,96,96
I0410 02:37:28.334565  3970 net.cpp:122] Setting up data
I0410 02:37:28.334602  3970 net.cpp:129] Top shape: 128 1 96 96 (1179648)
I0410 02:37:28.334609  3970 net.cpp:129] Top shape: 128 66 (8448)
I0410 02:37:28.334614  3970 net.cpp:137] Memory required for data: 4752384
I0410 02:37:28.334638  3970 layer_factory.hpp:77] Creating layer pose
I0410 02:37:28.334666  3970 net.cpp:84] Creating Layer pose
I0410 02:37:28.334674  3970 net.cpp:406] pose <- label
I0410 02:37:28.334692  3970 net.cpp:380] pose -> pose
I0410 02:37:28.334708  3970 net.cpp:380] pose -> center
I0410 02:37:28.334785  3970 net.cpp:122] Setting up pose
I0410 02:37:28.334795  3970 net.cpp:129] Top shape: 128 63 (8064)
I0410 02:37:28.334802  3970 net.cpp:129] Top shape: 128 3 (384)
I0410 02:37:28.334806  3970 net.cpp:137] Memory required for data: 4786176
I0410 02:37:28.334811  3970 layer_factory.hpp:77] Creating layer pose_pose_0_split
I0410 02:37:28.334820  3970 net.cpp:84] Creating Layer pose_pose_0_split
I0410 02:37:28.334826  3970 net.cpp:406] pose_pose_0_split <- pose
I0410 02:37:28.334833  3970 net.cpp:380] pose_pose_0_split -> pose_pose_0_split_0
I0410 02:37:28.334843  3970 net.cpp:380] pose_pose_0_split -> pose_pose_0_split_1
I0410 02:37:28.334895  3970 net.cpp:122] Setting up pose_pose_0_split
I0410 02:37:28.334904  3970 net.cpp:129] Top shape: 128 63 (8064)
I0410 02:37:28.334911  3970 net.cpp:129] Top shape: 128 63 (8064)
I0410 02:37:28.334916  3970 net.cpp:137] Memory required for data: 4850688
I0410 02:37:28.334921  3970 layer_factory.hpp:77] Creating layer conv0
I0410 02:37:28.334946  3970 net.cpp:84] Creating Layer conv0
I0410 02:37:28.334952  3970 net.cpp:406] conv0 <- data
I0410 02:37:28.334961  3970 net.cpp:380] conv0 -> conv0
I0410 02:37:28.344629  3970 net.cpp:122] Setting up conv0
I0410 02:37:28.344655  3970 net.cpp:129] Top shape: 128 16 96 96 (18874368)
I0410 02:37:28.344661  3970 net.cpp:137] Memory required for data: 80348160
I0410 02:37:28.344679  3970 layer_factory.hpp:77] Creating layer relu0
I0410 02:37:28.344693  3970 net.cpp:84] Creating Layer relu0
I0410 02:37:28.344699  3970 net.cpp:406] relu0 <- conv0
I0410 02:37:28.344707  3970 net.cpp:367] relu0 -> conv0 (in-place)
I0410 02:37:28.348772  3970 net.cpp:122] Setting up relu0
I0410 02:37:28.348788  3970 net.cpp:129] Top shape: 128 16 96 96 (18874368)
I0410 02:37:28.348793  3970 net.cpp:137] Memory required for data: 155845632
I0410 02:37:28.348798  3970 layer_factory.hpp:77] Creating layer conv1
I0410 02:37:28.348815  3970 net.cpp:84] Creating Layer conv1
I0410 02:37:28.348821  3970 net.cpp:406] conv1 <- conv0
I0410 02:37:28.348829  3970 net.cpp:380] conv1 -> conv1
I0410 02:37:28.370338  3970 net.cpp:122] Setting up conv1
I0410 02:37:28.371114  3970 net.cpp:129] Top shape: 128 16 96 96 (18874368)
I0410 02:37:28.371963  3970 net.cpp:137] Memory required for data: 231343104
I0410 02:37:28.372781  3970 layer_factory.hpp:77] Creating layer pool1
I0410 02:37:28.375978  3970 net.cpp:84] Creating Layer pool1
I0410 02:37:28.376634  3970 net.cpp:406] pool1 <- conv1
I0410 02:37:28.377194  3970 net.cpp:380] pool1 -> pool1
I0410 02:37:28.377845  3970 net.cpp:122] Setting up pool1
I0410 02:37:28.378392  3970 net.cpp:129] Top shape: 128 16 48 48 (4718592)
I0410 02:37:28.379236  3970 net.cpp:137] Memory required for data: 250217472
I0410 02:37:28.380127  3970 layer_factory.hpp:77] Creating layer relu1
I0410 02:37:28.380689  3970 net.cpp:84] Creating Layer relu1
I0410 02:37:28.381242  3970 net.cpp:406] relu1 <- pool1
I0410 02:37:28.381727  3970 net.cpp:367] relu1 -> pool1 (in-place)
I0410 02:37:28.382612  3970 net.cpp:122] Setting up relu1
I0410 02:37:28.383198  3970 net.cpp:129] Top shape: 128 16 48 48 (4718592)
I0410 02:37:28.384065  3970 net.cpp:137] Memory required for data: 269091840
I0410 02:37:28.388499  3970 layer_factory.hpp:77] Creating layer conv2_0
I0410 02:37:28.389314  3970 net.cpp:84] Creating Layer conv2_0
I0410 02:37:28.389816  3970 net.cpp:406] conv2_0 <- pool1
I0410 02:37:28.390272  3970 net.cpp:380] conv2_0 -> conv2_0
I0410 02:37:28.402884  3970 net.cpp:122] Setting up conv2_0
I0410 02:37:28.403553  3970 net.cpp:129] Top shape: 128 32 48 48 (9437184)
I0410 02:37:28.404407  3970 net.cpp:137] Memory required for data: 306840576
I0410 02:37:28.405295  3970 layer_factory.hpp:77] Creating layer relu2_0
I0410 02:37:28.406121  3970 net.cpp:84] Creating Layer relu2_0
I0410 02:37:28.406635  3970 net.cpp:406] relu2_0 <- conv2_0
I0410 02:37:28.407140  3970 net.cpp:367] relu2_0 -> conv2_0 (in-place)
I0410 02:37:28.408464  3970 net.cpp:122] Setting up relu2_0
I0410 02:37:28.409021  3970 net.cpp:129] Top shape: 128 32 48 48 (9437184)
I0410 02:37:28.409854  3970 net.cpp:137] Memory required for data: 344589312
I0410 02:37:28.410632  3970 layer_factory.hpp:77] Creating layer conv2_0_relu2_0_0_split
I0410 02:37:28.411399  3970 net.cpp:84] Creating Layer conv2_0_relu2_0_0_split
I0410 02:37:28.412084  3970 net.cpp:406] conv2_0_relu2_0_0_split <- conv2_0
I0410 02:37:28.412099  3970 net.cpp:380] conv2_0_relu2_0_0_split -> conv2_0_relu2_0_0_split_0
I0410 02:37:28.412508  3970 net.cpp:380] conv2_0_relu2_0_0_split -> conv2_0_relu2_0_0_split_1
I0410 02:37:28.412792  3970 net.cpp:122] Setting up conv2_0_relu2_0_0_split
I0410 02:37:28.412806  3970 net.cpp:129] Top shape: 128 32 48 48 (9437184)
I0410 02:37:28.413209  3970 net.cpp:129] Top shape: 128 32 48 48 (9437184)
I0410 02:37:28.413218  3970 net.cpp:137] Memory required for data: 420086784
I0410 02:37:28.413404  3970 layer_factory.hpp:77] Creating layer conv2
I0410 02:37:28.413779  3970 net.cpp:84] Creating Layer conv2
I0410 02:37:28.413789  3970 net.cpp:406] conv2 <- conv2_0_relu2_0_0_split_0
I0410 02:37:28.414144  3970 net.cpp:380] conv2 -> conv2
I0410 02:37:28.423786  3970 net.cpp:122] Setting up conv2
I0410 02:37:28.423851  3970 net.cpp:129] Top shape: 128 32 48 48 (9437184)
I0410 02:37:28.423867  3970 net.cpp:137] Memory required for data: 457835520
I0410 02:37:28.423889  3970 layer_factory.hpp:77] Creating layer relu2
I0410 02:37:28.423909  3970 net.cpp:84] Creating Layer relu2
I0410 02:37:28.423924  3970 net.cpp:406] relu2 <- conv2
I0410 02:37:28.423941  3970 net.cpp:367] relu2 -> conv2 (in-place)
I0410 02:37:28.428278  3970 net.cpp:122] Setting up relu2
I0410 02:37:28.428311  3970 net.cpp:129] Top shape: 128 32 48 48 (9437184)
I0410 02:37:28.428328  3970 net.cpp:137] Memory required for data: 495584256
I0410 02:37:28.428340  3970 layer_factory.hpp:77] Creating layer conv3
I0410 02:37:28.428364  3970 net.cpp:84] Creating Layer conv3
I0410 02:37:28.428377  3970 net.cpp:406] conv3 <- conv2
I0410 02:37:28.428395  3970 net.cpp:380] conv3 -> conv3
I0410 02:37:28.445787  3970 net.cpp:122] Setting up conv3
I0410 02:37:28.445818  3970 net.cpp:129] Top shape: 128 32 48 48 (9437184)
I0410 02:37:28.445824  3970 net.cpp:137] Memory required for data: 533332992
I0410 02:37:28.445847  3970 layer_factory.hpp:77] Creating layer res1
I0410 02:37:28.445879  3970 net.cpp:84] Creating Layer res1
I0410 02:37:28.445897  3970 net.cpp:406] res1 <- conv2_0_relu2_0_0_split_1
I0410 02:37:28.445914  3970 net.cpp:406] res1 <- conv3
I0410 02:37:28.445930  3970 net.cpp:380] res1 -> res1
I0410 02:37:28.445984  3970 net.cpp:122] Setting up res1
I0410 02:37:28.446003  3970 net.cpp:129] Top shape: 128 32 48 48 (9437184)
I0410 02:37:28.446017  3970 net.cpp:137] Memory required for data: 571081728
I0410 02:37:28.446028  3970 layer_factory.hpp:77] Creating layer pool2
I0410 02:37:28.446045  3970 net.cpp:84] Creating Layer pool2
I0410 02:37:28.446059  3970 net.cpp:406] pool2 <- res1
I0410 02:37:28.446075  3970 net.cpp:380] pool2 -> pool2
I0410 02:37:28.446154  3970 net.cpp:122] Setting up pool2
I0410 02:37:28.446172  3970 net.cpp:129] Top shape: 128 32 24 24 (2359296)
I0410 02:37:28.446185  3970 net.cpp:137] Memory required for data: 580518912
I0410 02:37:28.446197  3970 layer_factory.hpp:77] Creating layer relu3
I0410 02:37:28.446213  3970 net.cpp:84] Creating Layer relu3
I0410 02:37:28.446225  3970 net.cpp:406] relu3 <- pool2
I0410 02:37:28.446240  3970 net.cpp:367] relu3 -> pool2 (in-place)
I0410 02:37:28.449895  3970 net.cpp:122] Setting up relu3
I0410 02:37:28.449947  3970 net.cpp:129] Top shape: 128 32 24 24 (2359296)
I0410 02:37:28.449965  3970 net.cpp:137] Memory required for data: 589956096
I0410 02:37:28.449980  3970 layer_factory.hpp:77] Creating layer conv3_0
I0410 02:37:28.450008  3970 net.cpp:84] Creating Layer conv3_0
I0410 02:37:28.450024  3970 net.cpp:406] conv3_0 <- pool2
I0410 02:37:28.450042  3970 net.cpp:380] conv3_0 -> conv3_0
I0410 02:37:28.468106  3970 net.cpp:122] Setting up conv3_0
I0410 02:37:28.468134  3970 net.cpp:129] Top shape: 128 64 24 24 (4718592)
I0410 02:37:28.468140  3970 net.cpp:137] Memory required for data: 608830464
I0410 02:37:28.468152  3970 layer_factory.hpp:77] Creating layer relu3_0
I0410 02:37:28.468163  3970 net.cpp:84] Creating Layer relu3_0
I0410 02:37:28.468169  3970 net.cpp:406] relu3_0 <- conv3_0
I0410 02:37:28.468178  3970 net.cpp:367] relu3_0 -> conv3_0 (in-place)
I0410 02:37:28.474162  3970 net.cpp:122] Setting up relu3_0
I0410 02:37:28.474179  3970 net.cpp:129] Top shape: 128 64 24 24 (4718592)
I0410 02:37:28.474184  3970 net.cpp:137] Memory required for data: 627704832
I0410 02:37:28.474189  3970 layer_factory.hpp:77] Creating layer conv3_0_relu3_0_0_split
I0410 02:37:28.474197  3970 net.cpp:84] Creating Layer conv3_0_relu3_0_0_split
I0410 02:37:28.474215  3970 net.cpp:406] conv3_0_relu3_0_0_split <- conv3_0
I0410 02:37:28.474231  3970 net.cpp:380] conv3_0_relu3_0_0_split -> conv3_0_relu3_0_0_split_0
I0410 02:37:28.474246  3970 net.cpp:380] conv3_0_relu3_0_0_split -> conv3_0_relu3_0_0_split_1
I0410 02:37:28.474303  3970 net.cpp:122] Setting up conv3_0_relu3_0_0_split
I0410 02:37:28.474313  3970 net.cpp:129] Top shape: 128 64 24 24 (4718592)
I0410 02:37:28.474318  3970 net.cpp:129] Top shape: 128 64 24 24 (4718592)
I0410 02:37:28.474331  3970 net.cpp:137] Memory required for data: 665453568
I0410 02:37:28.474337  3970 layer_factory.hpp:77] Creating layer conv4
I0410 02:37:28.474354  3970 net.cpp:84] Creating Layer conv4
I0410 02:37:28.474360  3970 net.cpp:406] conv4 <- conv3_0_relu3_0_0_split_0
I0410 02:37:28.474369  3970 net.cpp:380] conv4 -> conv4
I0410 02:37:28.492103  3970 net.cpp:122] Setting up conv4
I0410 02:37:28.492163  3970 net.cpp:129] Top shape: 128 64 24 24 (4718592)
I0410 02:37:28.492178  3970 net.cpp:137] Memory required for data: 684327936
I0410 02:37:28.492198  3970 layer_factory.hpp:77] Creating layer relu4
I0410 02:37:28.492218  3970 net.cpp:84] Creating Layer relu4
I0410 02:37:28.492233  3970 net.cpp:406] relu4 <- conv4
I0410 02:37:28.492249  3970 net.cpp:367] relu4 -> conv4 (in-place)
I0410 02:37:28.496966  3970 net.cpp:122] Setting up relu4
I0410 02:37:28.496996  3970 net.cpp:129] Top shape: 128 64 24 24 (4718592)
I0410 02:37:28.497009  3970 net.cpp:137] Memory required for data: 703202304
I0410 02:37:28.497022  3970 layer_factory.hpp:77] Creating layer conv5
I0410 02:37:28.497045  3970 net.cpp:84] Creating Layer conv5
I0410 02:37:28.497059  3970 net.cpp:406] conv5 <- conv4
I0410 02:37:28.497076  3970 net.cpp:380] conv5 -> conv5
I0410 02:37:28.515650  3970 net.cpp:122] Setting up conv5
I0410 02:37:28.515676  3970 net.cpp:129] Top shape: 128 64 24 24 (4718592)
I0410 02:37:28.515682  3970 net.cpp:137] Memory required for data: 722076672
I0410 02:37:28.515696  3970 layer_factory.hpp:77] Creating layer res2
I0410 02:37:28.515707  3970 net.cpp:84] Creating Layer res2
I0410 02:37:28.515727  3970 net.cpp:406] res2 <- conv3_0_relu3_0_0_split_1
I0410 02:37:28.515741  3970 net.cpp:406] res2 <- conv5
I0410 02:37:28.515751  3970 net.cpp:380] res2 -> res2
I0410 02:37:28.515791  3970 net.cpp:122] Setting up res2
I0410 02:37:28.515801  3970 net.cpp:129] Top shape: 128 64 24 24 (4718592)
I0410 02:37:28.515817  3970 net.cpp:137] Memory required for data: 740951040
I0410 02:37:28.515825  3970 layer_factory.hpp:77] Creating layer pool3
I0410 02:37:28.515836  3970 net.cpp:84] Creating Layer pool3
I0410 02:37:28.515841  3970 net.cpp:406] pool3 <- res2
I0410 02:37:28.515848  3970 net.cpp:380] pool3 -> pool3
I0410 02:37:28.515892  3970 net.cpp:122] Setting up pool3
I0410 02:37:28.515900  3970 net.cpp:129] Top shape: 128 64 12 12 (1179648)
I0410 02:37:28.515905  3970 net.cpp:137] Memory required for data: 745669632
I0410 02:37:28.515910  3970 layer_factory.hpp:77] Creating layer relu5
I0410 02:37:28.515919  3970 net.cpp:84] Creating Layer relu5
I0410 02:37:28.515925  3970 net.cpp:406] relu5 <- pool3
I0410 02:37:28.515931  3970 net.cpp:367] relu5 -> pool3 (in-place)
I0410 02:37:28.521603  3970 net.cpp:122] Setting up relu5
I0410 02:37:28.521616  3970 net.cpp:129] Top shape: 128 64 12 12 (1179648)
I0410 02:37:28.521622  3970 net.cpp:137] Memory required for data: 750388224
I0410 02:37:28.521627  3970 layer_factory.hpp:77] Creating layer fc1
I0410 02:37:28.521639  3970 net.cpp:84] Creating Layer fc1
I0410 02:37:28.521646  3970 net.cpp:406] fc1 <- pool3
I0410 02:37:28.521654  3970 net.cpp:380] fc1 -> fc1
I0410 02:37:29.384066  3970 net.cpp:122] Setting up fc1
I0410 02:37:29.384093  3970 net.cpp:129] Top shape: 128 2048 (262144)
I0410 02:37:29.384099  3970 net.cpp:137] Memory required for data: 751436800
I0410 02:37:29.384119  3970 layer_factory.hpp:77] Creating layer relu6
I0410 02:37:29.384145  3970 net.cpp:84] Creating Layer relu6
I0410 02:37:29.384160  3970 net.cpp:406] relu6 <- fc1
I0410 02:37:29.384176  3970 net.cpp:367] relu6 -> fc1 (in-place)
I0410 02:37:29.384491  3970 net.cpp:122] Setting up relu6
I0410 02:37:29.384516  3970 net.cpp:129] Top shape: 128 2048 (262144)
I0410 02:37:29.384528  3970 net.cpp:137] Memory required for data: 752485376
I0410 02:37:29.384541  3970 layer_factory.hpp:77] Creating layer drop1
I0410 02:37:29.384555  3970 net.cpp:84] Creating Layer drop1
I0410 02:37:29.384569  3970 net.cpp:406] drop1 <- fc1
I0410 02:37:29.384587  3970 net.cpp:367] drop1 -> fc1 (in-place)
I0410 02:37:29.384632  3970 net.cpp:122] Setting up drop1
I0410 02:37:29.384652  3970 net.cpp:129] Top shape: 128 2048 (262144)
I0410 02:37:29.384665  3970 net.cpp:137] Memory required for data: 753533952
I0410 02:37:29.384676  3970 layer_factory.hpp:77] Creating layer fc2
I0410 02:37:29.384694  3970 net.cpp:84] Creating Layer fc2
I0410 02:37:29.384707  3970 net.cpp:406] fc2 <- fc1
I0410 02:37:29.384722  3970 net.cpp:380] fc2 -> fc2
I0410 02:37:29.481587  3970 net.cpp:122] Setting up fc2
I0410 02:37:29.481612  3970 net.cpp:129] Top shape: 128 2048 (262144)
I0410 02:37:29.481618  3970 net.cpp:137] Memory required for data: 754582528
I0410 02:37:29.481631  3970 layer_factory.hpp:77] Creating layer relu7
I0410 02:37:29.481659  3970 net.cpp:84] Creating Layer relu7
I0410 02:37:29.481678  3970 net.cpp:406] relu7 <- fc2
I0410 02:37:29.481695  3970 net.cpp:367] relu7 -> fc2 (in-place)
I0410 02:37:29.482555  3970 net.cpp:122] Setting up relu7
I0410 02:37:29.482584  3970 net.cpp:129] Top shape: 128 2048 (262144)
I0410 02:37:29.482599  3970 net.cpp:137] Memory required for data: 755631104
I0410 02:37:29.482611  3970 layer_factory.hpp:77] Creating layer drop2
I0410 02:37:29.482627  3970 net.cpp:84] Creating Layer drop2
I0410 02:37:29.482641  3970 net.cpp:406] drop2 <- fc2
I0410 02:37:29.482661  3970 net.cpp:367] drop2 -> fc2 (in-place)
I0410 02:37:29.482718  3970 net.cpp:122] Setting up drop2
I0410 02:37:29.482738  3970 net.cpp:129] Top shape: 128 2048 (262144)
I0410 02:37:29.482750  3970 net.cpp:137] Memory required for data: 756679680
I0410 02:37:29.482762  3970 layer_factory.hpp:77] Creating layer fc3
I0410 02:37:29.482787  3970 net.cpp:84] Creating Layer fc3
I0410 02:37:29.482801  3970 net.cpp:406] fc3 <- fc2
I0410 02:37:29.482820  3970 net.cpp:380] fc3 -> fc3
I0410 02:37:29.486040  3970 net.cpp:122] Setting up fc3
I0410 02:37:29.486054  3970 net.cpp:129] Top shape: 128 63 (8064)
I0410 02:37:29.486059  3970 net.cpp:137] Memory required for data: 756711936
I0410 02:37:29.486069  3970 layer_factory.hpp:77] Creating layer fc3_fc3_0_split
I0410 02:37:29.486093  3970 net.cpp:84] Creating Layer fc3_fc3_0_split
I0410 02:37:29.486107  3970 net.cpp:406] fc3_fc3_0_split <- fc3
I0410 02:37:29.486124  3970 net.cpp:380] fc3_fc3_0_split -> fc3_fc3_0_split_0
I0410 02:37:29.486141  3970 net.cpp:380] fc3_fc3_0_split -> fc3_fc3_0_split_1
I0410 02:37:29.486203  3970 net.cpp:122] Setting up fc3_fc3_0_split
I0410 02:37:29.486222  3970 net.cpp:129] Top shape: 128 63 (8064)
I0410 02:37:29.486237  3970 net.cpp:129] Top shape: 128 63 (8064)
I0410 02:37:29.486248  3970 net.cpp:137] Memory required for data: 756776448
I0410 02:37:29.486258  3970 layer_factory.hpp:77] Creating layer loss
I0410 02:37:29.486286  3970 net.cpp:84] Creating Layer loss
I0410 02:37:29.486299  3970 net.cpp:406] loss <- fc3_fc3_0_split_0
I0410 02:37:29.486313  3970 net.cpp:406] loss <- pose_pose_0_split_0
I0410 02:37:29.486330  3970 net.cpp:380] loss -> loss
…
