…
  transform_param {
    is_trans: false
    is_rotate: false
    is_zoom: false
  }
  pose_data_param {
    image_source: "/home/workspace/Datasets/MSRA/cvpr15_MSRAHandGestureDB/test_image_8.txt"
    label_source: "/home/workspace/Datasets/MSRA/cvpr15_MSRAHandGestureDB/test_label_8.txt"
    batch_size: 128
    shuffle: false
    new_height: 96
    new_width: 96
    root_folder: "/home/workspace/Datasets/MSRA/cvpr15_MSRAHandGestureDB/"
    point_num: 21
    point_dim: 3
    fx: 241.42
    fy: 241.42
    output_center: true
    cube_length: 150
    dataset: MSRA
  }
}
layer {
  name: "pose"
  type: "Slice"
  bottom: "label"
  top: "pose"
  top: "center"
  include {
    phase: TEST
  }
  slice_param {
    slice_dim: 1
    slice_point: 63
  }
}
layer {
  name: "conv0"
  type: "Convolution"
  bottom: "data"
  top: "conv0"
  param {
    lr_mult: 1
  }
  param {
    lr_mult: 2
  }
  convolution_param {
    num_output: 16
    pad: 1
    kernel_size: 3
    stride: 1
    weight_filler {
      type: "msra"
    }
    bias_filler {
      type: "constant"
    }
  }
}
layer {
  name: "relu0"
  type: "ReLU"
  bottom: "conv0"
  top: "conv0"
}
layer {
  name: "conv1"
  type: "Convolution"
  bottom: "conv0"
  top: "conv1"
  param {
    lr_mult: 1
  }
  param {
    lr_mult: 2
  }
  convolution_param {
    num_output: 16
    pad: 1
    kernel_size: 3
    stride: 1
    weight_filler {
      type: "msra"
    }
    bias_filler {
      type: "constant"
    }
  }
}
layer {
  name: "pool1"
  type: "Pooling"
  bottom: "conv1"
  top: "pool1"
  pooling_param {
    pool: MAX
    kernel_size: 2
    stride: 2
  }
}
layer {
  name: "relu1"
  type: "ReLU"
  bottom: "pool1"
  top: "pool1"
}
layer {
  name: "conv2_0"
  type: "Convolution"
  bottom: "pool1"
  top: "conv2_0"
  param {
    lr_mult: 1
  }
  param {
    lr_mult: 2
  }
  convolution_param {
    num_output: 32
    pad: 0
    kernel_size: 1
    stride: 1
    weight_filler {
      type: "msra"
    }
    bias_filler {
      type: "constant"
    }
  }
}
layer {
  name: "relu2_0"
  type: "ReLU"
  bottom: "conv2_0"
  top: "conv2_0"
}
layer {
  name: "conv2"
  type: "Convolution"
  bottom: "conv2_0"
  top: "conv2"
  param {
    lr_mult: 1
  }
  param {
    lr_mult: 2
  }
  convolution_param {
    num_output: 32
    pad: 1
    kernel_size: 3
    stride: 1
    weight_filler {
      type: "msra"
    }
    bias_filler {
      type: "constant"
    }
  }
}
layer {
  name: "relu2"
  type: "ReLU"
  bottom: "conv2"
  top: "conv2"
}
layer {
  name: "conv3"
  type: "Convolution"
  bottom: "conv2"
  top: "conv3"
  param {
    lr_mult: 1
  }
  param {
    lr_mult: 2
  }
  convolution_param {
    num_output: 32
    pad: 1
    kernel_size: 3
    stride: 1
    weight_filler {
      type: "msra"
    }
    bias_filler {
      type: "constant"
    }
  }
}
layer {
  name: "res1"
  type: "Eltwise"
  bottom: "conv2_0"
  bottom: "conv3"
  top: "res1"
}
layer {
  name: "pool2"
  type: "Pooling"
  bottom: "res1"
  top: "pool2"
  pooling_param {
    pool: MAX
    kernel_size: 2
    stride: 2
  }
}
layer {
  name: "relu3"
  type: "ReLU"
  bottom: "pool2"
  top: "pool2"
}
layer {
  name: "conv3_0"
  type: "Convolution"
  bottom: "pool2"
  top: "conv3_0"
  param {
    lr_mult: 1
  }
  param {
    lr_mult: 2
  }
  convolution_param {
    num_output: 64
    pad: 0
    kernel_size: 1
    stride: 1
    weight_filler {
      type: "msra"
    }
    bias_filler {
      type: "constant"
    }
  }
}
layer {
  name: "relu3_0"
  type: "ReLU"
  bottom: "conv3_0"
  top: "conv3_0"
}
layer {
  name: "conv4"
  type: "Convolution"
  bottom: "conv3_0"
  top: "conv4"
  param {
    lr_mult: 1
  }
  param {
    lr_mult: 2
  }
  convolution_param {
    num_output: 64
    pad: 1
    kernel_size: 3
    stride: 1
    weight_filler {
      type: "msra"
    }
    bias_filler {
      type: "constant"
    }
  }
}
layer {
  name: "relu4"
  type: "ReLU"
  bottom: "conv4"
  top: "conv4"
}
layer {
  name: "conv5"
  type: "Convolution"
  bottom: "conv4"
  top: "conv5"
  param {
    lr_mult: 1
  }
  param {
    lr_mult: 2
  }
  convolution_param {
    num_output: 64
    pad: 1
    kernel_size: 3
    stride: 1
    weight_filler {
      type: "msra"
    }
    bias_filler {
      type: "constant"
    }
  }
}
layer {
  name: "res2"
  type: "Eltwise"
  bottom: "conv3_0"
  bottom: "conv5"
  top: "res2"
}
layer {
  name: "pool3"
  type: "Pooling"
  bottom: "res2"
  top: "pool3"
  pooling_param {
    pool: MAX
    kernel_size: 2
    stride: 2
  }
}
layer {
  name: "relu5"
  type: "ReLU"
  bottom: "pool3"
  top: "pool3"
}
layer {
  name: "fc1"
  type: "InnerProduct"
  bottom: "pool3"
  top: "fc1"
  param {
    lr_mult: 1
  }
  param {
    lr_mult: 2
  }
  inner_product_param {
    num_output: 2048
    weight_filler {
      type: "gaussian"
      std: 0.001
    }
    bias_filler {
      type: "constant"
    }
  }
}
layer {
  name: "relu6"
  type: "ReLU"
  bottom: "fc1"
  top: "fc1"
}
layer {
  name: "drop1"
  type: "Dropout"
  bottom: "fc1"
  top: "fc1"
  dropout_param {
    dropout_ratio: 0.5
  }
}
layer {
  name: "fc2"
  type: "InnerProduct"
  bottom: "fc1"
  top: "fc2"
  param {
    lr_mult: 1
  }
  param {
    lr_mult: 2
  }
  inner_product_param {
    num_output: 2048
    weight_filler {
      type: "gaussian"
      std: 0.001
    }
    bias_filler {
      type: "constant"
    }
  }
}
layer {
  name: "relu7"
  type: "ReLU"
  bottom: "fc2"
  top: "fc2"
}
layer {
  name: "drop2"
  type: "Dropout"
  bottom: "fc2"
  top: "fc2"
  dropout_param {
    dropout_ratio: 0.5
  }
}
layer {
  name: "fc3"
  type: "InnerProduct"
  bottom: "fc2"
  top: "fc3"
  param {
    lr_mult: 1
  }
  param {
    lr_mult: 2
  }
  inner_product_param {
    num_output: 63
    weight_filler {
      type: "gaussian"
      std: 0.001
    }
    bias_filler {
      type: "constant"
    }
  }
}
layer {
  name: "error"
  type: "PoseDistance"
  bottom: "fc3"
  bottom: "pose"
  bottom: "center"
  top: "error"
  top: "output"
  include {
    phase: TEST
  }
  pose_distance_param {
    fx: 241.42
    fy: 241.42
    ux: 160
    uy: 120
    output_pose: true
    cube_length: 150
  }
}
I0413 04:55:39.331872  8367 layer_factory.hpp:77] Creating layer data
I0413 04:55:39.331914  8367 net.cpp:84] Creating Layer data
I0413 04:55:39.331930  8367 net.cpp:380] data -> data
I0413 04:55:39.331960  8367 net.cpp:380] data -> label
I0413 04:55:39.333616  8367 pose_data_layer.cpp:117] Opening file /home/workspace/Datasets/MSRA/cvpr15_MSRAHandGestureDB/test_image_8.txt
I0413 04:55:39.333654  8367 pose_data_layer.cpp:119] Opening file /home/workspace/Datasets/MSRA/cvpr15_MSRAHandGestureDB/test_label_8.txt
I0413 04:55:39.860064  8367 pose_data_layer.cpp:269] Loading 1 image...
I0413 04:55:40.980062  8367 pose_data_layer.cpp:269] Loading 2001 image...
I0413 04:55:42.045301  8367 pose_data_layer.cpp:269] Loading 4001 image...
I0413 04:55:43.066993  8367 pose_data_layer.cpp:269] Loading 6001 image...
I0413 04:55:44.001847  8367 pose_data_layer.cpp:269] Loading 8001 image...
I0413 04:55:44.286741  8367 pose_data_layer.cpp:287] A total of 8492 images.
I0413 04:55:44.587368  8367 pose_data_layer.cpp:329] output data size: 128,1,96,96
I0413 04:55:44.598737  8367 net.cpp:122] Setting up data
I0413 04:55:44.598774  8367 net.cpp:129] Top shape: 128 1 96 96 (1179648)
I0413 04:55:44.598783  8367 net.cpp:129] Top shape: 128 66 (8448)
I0413 04:55:44.598804  8367 net.cpp:137] Memory required for data: 4752384
I0413 04:55:44.598829  8367 layer_factory.hpp:77] Creating layer pose
I0413 04:55:44.598860  8367 net.cpp:84] Creating Layer pose
I0413 04:55:44.598881  8367 net.cpp:406] pose <- label
I0413 04:55:44.598906  8367 net.cpp:380] pose -> pose
I0413 04:55:44.598934  8367 net.cpp:380] pose -> center
I0413 04:55:44.599014  8367 net.cpp:122] Setting up pose
I0413 04:55:44.599035  8367 net.cpp:129] Top shape: 128 63 (8064)
I0413 04:55:44.599050  8367 net.cpp:129] Top shape: 128 3 (384)
I0413 04:55:44.599153  8367 net.cpp:137] Memory required for data: 4786176
I0413 04:55:44.599169  8367 layer_factory.hpp:77] Creating layer conv0
I0413 04:55:44.614907  8367 net.cpp:84] Creating Layer conv0
I0413 04:55:44.614961  8367 net.cpp:406] conv0 <- data
I0413 04:55:44.614982  8367 net.cpp:380] conv0 -> conv0
I0413 04:55:46.598793  8367 net.cpp:122] Setting up conv0
I0413 04:55:46.598829  8367 net.cpp:129] Top shape: 128 16 96 96 (18874368)
I0413 04:55:46.598834  8367 net.cpp:137] Memory required for data: 80283648
I0413 04:55:46.599315  8367 layer_factory.hpp:77] Creating layer relu0
I0413 04:55:46.599335  8367 net.cpp:84] Creating Layer relu0
I0413 04:55:46.599344  8367 net.cpp:406] relu0 <- conv0
I0413 04:55:46.599352  8367 net.cpp:367] relu0 -> conv0 (in-place)
I0413 04:55:46.600898  8367 net.cpp:122] Setting up relu0
I0413 04:55:46.600913  8367 net.cpp:129] Top shape: 128 16 96 96 (18874368)
I0413 04:55:46.600916  8367 net.cpp:137] Memory required for data: 155781120
I0413 04:55:46.600921  8367 layer_factory.hpp:77] Creating layer conv1
I0413 04:55:46.600944  8367 net.cpp:84] Creating Layer conv1
I0413 04:55:46.600967  8367 net.cpp:406] conv1 <- conv0
I0413 04:55:46.600987  8367 net.cpp:380] conv1 -> conv1
I0413 04:55:46.618417  8367 net.cpp:122] Setting up conv1
I0413 04:55:46.618443  8367 net.cpp:129] Top shape: 128 16 96 96 (18874368)
I0413 04:55:46.618449  8367 net.cpp:137] Memory required for data: 231278592
I0413 04:55:46.618468  8367 layer_factory.hpp:77] Creating layer pool1
I0413 04:55:46.618485  8367 net.cpp:84] Creating Layer pool1
I0413 04:55:46.618494  8367 net.cpp:406] pool1 <- conv1
I0413 04:55:46.618505  8367 net.cpp:380] pool1 -> pool1
I0413 04:55:46.625015  8367 net.cpp:122] Setting up pool1
I0413 04:55:46.625051  8367 net.cpp:129] Top shape: 128 16 48 48 (4718592)
I0413 04:55:46.625066  8367 net.cpp:137] Memory required for data: 250152960
I0413 04:55:46.625077  8367 layer_factory.hpp:77] Creating layer relu1
I0413 04:55:46.625093  8367 net.cpp:84] Creating Layer relu1
I0413 04:55:46.625105  8367 net.cpp:406] relu1 <- pool1
I0413 04:55:46.625120  8367 net.cpp:367] relu1 -> pool1 (in-place)
I0413 04:55:46.626590  8367 net.cpp:122] Setting up relu1
I0413 04:55:46.626617  8367 net.cpp:129] Top shape: 128 16 48 48 (4718592)
I0413 04:55:46.626631  8367 net.cpp:137] Memory required for data: 269027328
I0413 04:55:46.626642  8367 layer_factory.hpp:77] Creating layer conv2_0
I0413 04:55:46.626667  8367 net.cpp:84] Creating Layer conv2_0
I0413 04:55:46.626680  8367 net.cpp:406] conv2_0 <- pool1
I0413 04:55:46.626698  8367 net.cpp:380] conv2_0 -> conv2_0
I0413 04:55:46.641208  8367 net.cpp:122] Setting up conv2_0
I0413 04:55:46.641237  8367 net.cpp:129] Top shape: 128 32 48 48 (9437184)
I0413 04:55:46.641243  8367 net.cpp:137] Memory required for data: 306776064
I0413 04:55:46.641263  8367 layer_factory.hpp:77] Creating layer relu2_0
I0413 04:55:46.641279  8367 net.cpp:84] Creating Layer relu2_0
I0413 04:55:46.641352  8367 net.cpp:406] relu2_0 <- conv2_0
I0413 04:55:46.641412  8367 net.cpp:367] relu2_0 -> conv2_0 (in-place)
I0413 04:55:46.647948  8367 net.cpp:122] Setting up relu2_0
I0413 04:55:46.647989  8367 net.cpp:129] Top shape: 128 32 48 48 (9437184)
I0413 04:55:46.648010  8367 net.cpp:137] Memory required for data: 344524800
I0413 04:55:46.648027  8367 layer_factory.hpp:77] Creating layer conv2_0_relu2_0_0_split
I0413 04:55:46.648051  8367 net.cpp:84] Creating Layer conv2_0_relu2_0_0_split
I0413 04:55:46.648070  8367 net.cpp:406] conv2_0_relu2_0_0_split <- conv2_0
I0413 04:55:46.648093  8367 net.cpp:380] conv2_0_relu2_0_0_split -> conv2_0_relu2_0_0_split_0
I0413 04:55:46.648120  8367 net.cpp:380] conv2_0_relu2_0_0_split -> conv2_0_relu2_0_0_split_1
I0413 04:55:46.648202  8367 net.cpp:122] Setting up conv2_0_relu2_0_0_split
I0413 04:55:46.648231  8367 net.cpp:129] Top shape: 128 32 48 48 (9437184)
I0413 04:55:46.648250  8367 net.cpp:129] Top shape: 128 32 48 48 (9437184)
I0413 04:55:46.648279  8367 net.cpp:137] Memory required for data: 420022272
I0413 04:55:46.648315  8367 layer_factory.hpp:77] Creating layer conv2
I0413 04:55:46.648345  8367 net.cpp:84] Creating Layer conv2
I0413 04:55:46.648365  8367 net.cpp:406] conv2 <- conv2_0_relu2_0_0_split_0
I0413 04:55:46.648388  8367 net.cpp:380] conv2 -> conv2
I0413 04:55:46.670409  8367 net.cpp:122] Setting up conv2
I0413 04:55:46.670436  8367 net.cpp:129] Top shape: 128 32 48 48 (9437184)
I0413 04:55:46.670444  8367 net.cpp:137] Memory required for data: 457771008
I0413 04:55:46.670456  8367 layer_factory.hpp:77] Creating layer relu2
I0413 04:55:46.670490  8367 net.cpp:84] Creating Layer relu2
I0413 04:55:46.670511  8367 net.cpp:406] relu2 <- conv2
I0413 04:55:46.670539  8367 net.cpp:367] relu2 -> conv2 (in-place)
I0413 04:55:46.679533  8367 net.cpp:122] Setting up relu2
I0413 04:55:46.679550  8367 net.cpp:129] Top shape: 128 32 48 48 (9437184)
I0413 04:55:46.679556  8367 net.cpp:137] Memory required for data: 495519744
I0413 04:55:46.679563  8367 layer_factory.hpp:77] Creating layer conv3
I0413 04:55:46.679581  8367 net.cpp:84] Creating Layer conv3
I0413 04:55:46.679589  8367 net.cpp:406] conv3 <- conv2
I0413 04:55:46.679601  8367 net.cpp:380] conv3 -> conv3
I0413 04:55:46.694932  8367 net.cpp:122] Setting up conv3
I0413 04:55:46.694952  8367 net.cpp:129] Top shape: 128 32 48 48 (9437184)
I0413 04:55:46.694959  8367 net.cpp:137] Memory required for data: 533268480
I0413 04:55:46.694978  8367 layer_factory.hpp:77] Creating layer res1
I0413 04:55:46.695003  8367 net.cpp:84] Creating Layer res1
I0413 04:55:46.695019  8367 net.cpp:406] res1 <- conv2_0_relu2_0_0_split_1
I0413 04:55:46.695034  8367 net.cpp:406] res1 <- conv3
I0413 04:55:46.695052  8367 net.cpp:380] res1 -> res1
I0413 04:55:46.695576  8367 net.cpp:122] Setting up res1
I0413 04:55:46.695591  8367 net.cpp:129] Top shape: 128 32 48 48 (9437184)
I0413 04:55:46.695597  8367 net.cpp:137] Memory required for data: 571017216
I0413 04:55:46.695614  8367 layer_factory.hpp:77] Creating layer pool2
I0413 04:55:46.695639  8367 net.cpp:84] Creating Layer pool2
I0413 04:55:46.695654  8367 net.cpp:406] pool2 <- res1
I0413 04:55:46.695673  8367 net.cpp:380] pool2 -> pool2
I0413 04:55:46.695744  8367 net.cpp:122] Setting up pool2
I0413 04:55:46.695766  8367 net.cpp:129] Top shape: 128 32 24 24 (2359296)
I0413 04:55:46.695780  8367 net.cpp:137] Memory required for data: 580454400
I0413 04:55:46.695791  8367 layer_factory.hpp:77] Creating layer relu3
I0413 04:55:46.695808  8367 net.cpp:84] Creating Layer relu3
I0413 04:55:46.695822  8367 net.cpp:406] relu3 <- pool2
I0413 04:55:46.695837  8367 net.cpp:367] relu3 -> pool2 (in-place)
I0413 04:55:46.699797  8367 net.cpp:122] Setting up relu3
I0413 04:55:46.699815  8367 net.cpp:129] Top shape: 128 32 24 24 (2359296)
I0413 04:55:46.699820  8367 net.cpp:137] Memory required for data: 589891584
I0413 04:55:46.699838  8367 layer_factory.hpp:77] Creating layer conv3_0
I0413 04:55:46.699870  8367 net.cpp:84] Creating Layer conv3_0
I0413 04:55:46.699887  8367 net.cpp:406] conv3_0 <- pool2
I0413 04:55:46.699906  8367 net.cpp:380] conv3_0 -> conv3_0
I0413 04:55:46.713002  8367 net.cpp:122] Setting up conv3_0
I0413 04:55:46.713022  8367 net.cpp:129] Top shape: 128 64 24 24 (4718592)
I0413 04:55:46.713028  8367 net.cpp:137] Memory required for data: 608765952
I0413 04:55:46.713040  8367 layer_factory.hpp:77] Creating layer relu3_0
I0413 04:55:46.713062  8367 net.cpp:84] Creating Layer relu3_0
I0413 04:55:46.713084  8367 net.cpp:406] relu3_0 <- conv3_0
I0413 04:55:46.713109  8367 net.cpp:367] relu3_0 -> conv3_0 (in-place)
I0413 04:55:46.717017  8367 net.cpp:122] Setting up relu3_0
I0413 04:55:46.717033  8367 net.cpp:129] Top shape: 128 64 24 24 (4718592)
I0413 04:55:46.717039  8367 net.cpp:137] Memory required for data: 627640320
I0413 04:55:46.717046  8367 layer_factory.hpp:77] Creating layer conv3_0_relu3_0_0_split
I0413 04:55:46.717056  8367 net.cpp:84] Creating Layer conv3_0_relu3_0_0_split
I0413 04:55:46.717063  8367 net.cpp:406] conv3_0_relu3_0_0_split <- conv3_0
I0413 04:55:46.717072  8367 net.cpp:380] conv3_0_relu3_0_0_split -> conv3_0_relu3_0_0_split_0
I0413 04:55:46.717103  8367 net.cpp:380] conv3_0_relu3_0_0_split -> conv3_0_relu3_0_0_split_1
I0413 04:55:46.717161  8367 net.cpp:122] Setting up conv3_0_relu3_0_0_split
I0413 04:55:46.717172  8367 net.cpp:129] Top shape: 128 64 24 24 (4718592)
I0413 04:55:46.717181  8367 net.cpp:129] Top shape: 128 64 24 24 (4718592)
I0413 04:55:46.717187  8367 net.cpp:137] Memory required for data: 665389056
I0413 04:55:46.717193  8367 layer_factory.hpp:77] Creating layer conv4
I0413 04:55:46.717211  8367 net.cpp:84] Creating Layer conv4
I0413 04:55:46.717221  8367 net.cpp:406] conv4 <- conv3_0_relu3_0_0_split_0
I0413 04:55:46.717231  8367 net.cpp:380] conv4 -> conv4
I0413 04:55:46.729285  8367 net.cpp:122] Setting up conv4
I0413 04:55:46.729362  8367 net.cpp:129] Top shape: 128 64 24 24 (4718592)
I0413 04:55:46.729387  8367 net.cpp:137] Memory required for data: 684263424
I0413 04:55:46.729418  8367 layer_factory.hpp:77] Creating layer relu4
I0413 04:55:46.729447  8367 net.cpp:84] Creating Layer relu4
I0413 04:55:46.729468  8367 net.cpp:406] relu4 <- conv4
I0413 04:55:46.729506  8367 net.cpp:367] relu4 -> conv4 (in-place)
I0413 04:55:46.734251  8367 net.cpp:122] Setting up relu4
I0413 04:55:46.734269  8367 net.cpp:129] Top shape: 128 64 24 24 (4718592)
I0413 04:55:46.734275  8367 net.cpp:137] Memory required for data: 703137792
I0413 04:55:46.734282  8367 layer_factory.hpp:77] Creating layer conv5
I0413 04:55:46.734302  8367 net.cpp:84] Creating Layer conv5
I0413 04:55:46.734311  8367 net.cpp:406] conv5 <- conv4
I0413 04:55:46.734324  8367 net.cpp:380] conv5 -> conv5
I0413 04:55:46.752097  8367 net.cpp:122] Setting up conv5
I0413 04:55:46.752123  8367 net.cpp:129] Top shape: 128 64 24 24 (4718592)
I0413 04:55:46.752130  8367 net.cpp:137] Memory required for data: 722012160
I0413 04:55:46.752141  8367 layer_factory.hpp:77] Creating layer res2
I0413 04:55:46.752171  8367 net.cpp:84] Creating Layer res2
I0413 04:55:46.752189  8367 net.cpp:406] res2 <- conv3_0_relu3_0_0_split_1
I0413 04:55:46.752218  8367 net.cpp:406] res2 <- conv5
I0413 04:55:46.752233  8367 net.cpp:380] res2 -> res2
I0413 04:55:46.752284  8367 net.cpp:122] Setting up res2
I0413 04:55:46.752295  8367 net.cpp:129] Top shape: 128 64 24 24 (4718592)
I0413 04:55:46.752300  8367 net.cpp:137] Memory required for data: 740886528
I0413 04:55:46.752316  8367 layer_factory.hpp:77] Creating layer pool3
I0413 04:55:46.752352  8367 net.cpp:84] Creating Layer pool3
I0413 04:55:46.752360  8367 net.cpp:406] pool3 <- res2
I0413 04:55:46.752368  8367 net.cpp:380] pool3 -> pool3
I0413 04:55:46.752430  8367 net.cpp:122] Setting up pool3
I0413 04:55:46.752441  8367 net.cpp:129] Top shape: 128 64 12 12 (1179648)
I0413 04:55:46.752447  8367 net.cpp:137] Memory required for data: 745605120
I0413 04:55:46.752462  8367 layer_factory.hpp:77] Creating layer relu5
I0413 04:55:46.752480  8367 net.cpp:84] Creating Layer relu5
I0413 04:55:46.752486  8367 net.cpp:406] relu5 <- pool3
I0413 04:55:46.752496  8367 net.cpp:367] relu5 -> pool3 (in-place)
I0413 04:55:46.756331  8367 net.cpp:122] Setting up relu5
I0413 04:55:46.756363  8367 net.cpp:129] Top shape: 128 64 12 12 (1179648)
I0413 04:55:46.756399  8367 net.cpp:137] Memory required for data: 750323712
I0413 04:55:46.756417  8367 layer_factory.hpp:77] Creating layer fc1
I0413 04:55:46.778746  8367 net.cpp:84] Creating Layer fc1
I0413 04:55:46.778774  8367 net.cpp:406] fc1 <- pool3
I0413 04:55:46.778794  8367 net.cpp:380] fc1 -> fc1
I0413 04:55:47.357924  8367 net.cpp:122] Setting up fc1
I0413 04:55:47.357966  8367 net.cpp:129] Top shape: 128 2048 (262144)
I0413 04:55:47.357973  8367 net.cpp:137] Memory required for data: 751372288
I0413 04:55:47.357995  8367 layer_factory.hpp:77] Creating layer relu6
I0413 04:55:47.358009  8367 net.cpp:84] Creating Layer relu6
I0413 04:55:47.358017  8367 net.cpp:406] relu6 <- fc1
I0413 04:55:47.358028  8367 net.cpp:367] relu6 -> fc1 (in-place)
I0413 04:55:47.358384  8367 net.cpp:122] Setting up relu6
I0413 04:55:47.358438  8367 net.cpp:129] Top shape: 128 2048 (262144)
I0413 04:55:47.358455  8367 net.cpp:137] Memory required for data: 752420864
I0413 04:55:47.358489  8367 layer_factory.hpp:77] Creating layer drop1
I0413 04:55:47.359959  8367 net.cpp:84] Creating Layer drop1
I0413 04:55:47.359983  8367 net.cpp:406] drop1 <- fc1
I0413 04:55:47.360005  8367 net.cpp:367] drop1 -> fc1 (in-place)
I0413 04:55:47.360075  8367 net.cpp:122] Setting up drop1
I0413 04:55:47.360095  8367 net.cpp:129] Top shape: 128 2048 (262144)
I0413 04:55:47.360108  8367 net.cpp:137] Memory required for data: 753469440
I0413 04:55:47.360122  8367 layer_factory.hpp:77] Creating layer fc2
I0413 04:55:47.360146  8367 net.cpp:84] Creating Layer fc2
I0413 04:55:47.360160  8367 net.cpp:406] fc2 <- fc1
I0413 04:55:47.360172  8367 net.cpp:380] fc2 -> fc2
I0413 04:55:47.472753  8367 net.cpp:122] Setting up fc2
I0413 04:55:47.472779  8367 net.cpp:129] Top shape: 128 2048 (262144)
I0413 04:55:47.472782  8367 net.cpp:137] Memory required for data: 754518016
I0413 04:55:47.472792  8367 layer_factory.hpp:77] Creating layer relu7
I0413 04:55:47.472802  8367 net.cpp:84] Creating Layer relu7
I0413 04:55:47.472807  8367 net.cpp:406] relu7 <- fc2
I0413 04:55:47.472815  8367 net.cpp:367] relu7 -> fc2 (in-place)
I0413 04:55:47.473567  8367 net.cpp:122] Setting up relu7
I0413 04:55:47.473582  8367 net.cpp:129] Top shape: 128 2048 (262144)
I0413 04:55:47.473585  8367 net.cpp:137] Memory required for data: 755566592
I0413 04:55:47.473589  8367 layer_factory.hpp:77] Creating layer drop2
I0413 04:55:47.473597  8367 net.cpp:84] Creating Layer drop2
I0413 04:55:47.473601  8367 net.cpp:406] drop2 <- fc2
I0413 04:55:47.473606  8367 net.cpp:367] drop2 -> fc2 (in-place)
I0413 04:55:47.473649  8367 net.cpp:122] Setting up drop2
I0413 04:55:47.473656  8367 net.cpp:129] Top shape: 128 2048 (262144)
I0413 04:55:47.473659  8367 net.cpp:137] Memory required for data: 756615168
I0413 04:55:47.473662  8367 layer_factory.hpp:77] Creating layer fc3
I0413 04:55:47.473672  8367 net.cpp:84] Creating Layer fc3
I0413 04:55:47.473675  8367 net.cpp:406] fc3 <- fc2
I0413 04:55:47.473680  8367 net.cpp:380] fc3 -> fc3
I0413 04:55:47.478287  8367 net.cpp:122] Setting up fc3
I0413 04:55:47.478304  8367 net.cpp:129] Top shape: 128 63 (8064)
I0413 04:55:47.478308  8367 net.cpp:137] Memory required for data: 756647424
I0413 04:55:47.478315  8367 layer_factory.hpp:77] Creating layer error
I0413 04:55:47.479317  8367 pose_distance_layer.cpp:48] Size of ids: 0
I0413 04:55:47.479331  8367 net.cpp:84] Creating Layer error
I0413 04:55:47.479336  8367 net.cpp:406] error <- fc3
I0413 04:55:47.479341  8367 net.cpp:406] error <- pose
I0413 04:55:47.479346  8367 net.cpp:406] error <- center
I0413 04:55:47.479353  8367 net.cpp:380] error -> error
I0413 04:55:47.479364  8367 net.cpp:380] error -> output
I0413 04:55:47.479393  8367 net.cpp:122] Setting up error
I0413 04:55:47.479400  8367 net.cpp:129] Top shape: (1)
I0413 04:55:47.479403  8367 net.cpp:129] Top shape: 128 63 (8064)
I0413 04:55:47.479406  8367 net.cpp:137] Memory required for data: 756679684
I0413 04:55:47.480366  8367 net.cpp:200] error does not need backward computation.
I0413 04:55:47.480376  8367 net.cpp:200] fc3 does not need backward computation.
I0413 04:55:47.480378  8367 net.cpp:200] drop2 does not need backward computation.
I0413 04:55:47.480381  8367 net.cpp:200] relu7 does not need backward computation.
…
