…
  transform_param {
    is_trans: false
    is_rotate: false
    is_zoom: false
  }
  pose_data_param {
    image_source: "/home/workspace/Datasets/MSRA/cvpr15_MSRAHandGestureDB/test_image_7.txt"
    label_source: "/home/workspace/Datasets/MSRA/cvpr15_MSRAHandGestureDB/test_label_7.txt"
    batch_size: 128
    shuffle: false
    new_height: 96
    new_width: 96
    root_folder: "/home/workspace/Datasets/MSRA/cvpr15_MSRAHandGestureDB/"
    point_num: 21
    point_dim: 3
    fx: 241.42
    fy: 241.42
    output_center: true
    cube_length: 150
    dataset: MSRA
  }
}
layer {
  name: "pose"
  type: "Slice"
  bottom: "label"
  top: "pose"
  top: "center"
  include {
    phase: TEST
  }
  slice_param {
    slice_dim: 1
    slice_point: 63
  }
}
layer {
  name: "conv0"
  type: "Convolution"
  bottom: "data"
  top: "conv0"
  param {
    lr_mult: 1
  }
  param {
    lr_mult: 2
  }
  convolution_param {
    num_output: 16
    pad: 1
    kernel_size: 3
    stride: 1
    weight_filler {
      type: "msra"
    }
    bias_filler {
      type: "constant"
    }
  }
}
layer {
  name: "relu0"
  type: "ReLU"
  bottom: "conv0"
  top: "conv0"
}
layer {
  name: "conv1"
  type: "Convolution"
  bottom: "conv0"
  top: "conv1"
  param {
    lr_mult: 1
  }
  param {
    lr_mult: 2
  }
  convolution_param {
    num_output: 16
    pad: 1
    kernel_size: 3
    stride: 1
    weight_filler {
      type: "msra"
    }
    bias_filler {
      type: "constant"
    }
  }
}
layer {
  name: "pool1"
  type: "Pooling"
  bottom: "conv1"
  top: "pool1"
  pooling_param {
    pool: MAX
    kernel_size: 2
    stride: 2
  }
}
layer {
  name: "relu1"
  type: "ReLU"
  bottom: "pool1"
  top: "pool1"
}
layer {
  name: "conv2_0"
  type: "Convolution"
  bottom: "pool1"
  top: "conv2_0"
  param {
    lr_mult: 1
  }
  param {
    lr_mult: 2
  }
  convolution_param {
    num_output: 32
    pad: 0
    kernel_size: 1
    stride: 1
    weight_filler {
      type: "msra"
    }
    bias_filler {
      type: "constant"
    }
  }
}
layer {
  name: "relu2_0"
  type: "ReLU"
  bottom: "conv2_0"
  top: "conv2_0"
}
layer {
  name: "conv2"
  type: "Convolution"
  bottom: "conv2_0"
  top: "conv2"
  param {
    lr_mult: 1
  }
  param {
    lr_mult: 2
  }
  convolution_param {
    num_output: 32
    pad: 1
    kernel_size: 3
    stride: 1
    weight_filler {
      type: "msra"
    }
    bias_filler {
      type: "constant"
    }
  }
}
layer {
  name: "relu2"
  type: "ReLU"
  bottom: "conv2"
  top: "conv2"
}
layer {
  name: "conv3"
  type: "Convolution"
  bottom: "conv2"
  top: "conv3"
  param {
    lr_mult: 1
  }
  param {
    lr_mult: 2
  }
  convolution_param {
    num_output: 32
    pad: 1
    kernel_size: 3
    stride: 1
    weight_filler {
      type: "msra"
    }
    bias_filler {
      type: "constant"
    }
  }
}
layer {
  name: "res1"
  type: "Eltwise"
  bottom: "conv2_0"
  bottom: "conv3"
  top: "res1"
}
layer {
  name: "pool2"
  type: "Pooling"
  bottom: "res1"
  top: "pool2"
  pooling_param {
    pool: MAX
    kernel_size: 2
    stride: 2
  }
}
layer {
  name: "relu3"
  type: "ReLU"
  bottom: "pool2"
  top: "pool2"
}
layer {
  name: "conv3_0"
  type: "Convolution"
  bottom: "pool2"
  top: "conv3_0"
  param {
    lr_mult: 1
  }
  param {
    lr_mult: 2
  }
  convolution_param {
    num_output: 64
    pad: 0
    kernel_size: 1
    stride: 1
    weight_filler {
      type: "msra"
    }
    bias_filler {
      type: "constant"
    }
  }
}
layer {
  name: "relu3_0"
  type: "ReLU"
  bottom: "conv3_0"
  top: "conv3_0"
}
layer {
  name: "conv4"
  type: "Convolution"
  bottom: "conv3_0"
  top: "conv4"
  param {
    lr_mult: 1
  }
  param {
    lr_mult: 2
  }
  convolution_param {
    num_output: 64
    pad: 1
    kernel_size: 3
    stride: 1
    weight_filler {
      type: "msra"
    }
    bias_filler {
      type: "constant"
    }
  }
}
layer {
  name: "relu4"
  type: "ReLU"
  bottom: "conv4"
  top: "conv4"
}
layer {
  name: "conv5"
  type: "Convolution"
  bottom: "conv4"
  top: "conv5"
  param {
    lr_mult: 1
  }
  param {
    lr_mult: 2
  }
  convolution_param {
    num_output: 64
    pad: 1
    kernel_size: 3
    stride: 1
    weight_filler {
      type: "msra"
    }
    bias_filler {
      type: "constant"
    }
  }
}
layer {
  name: "res2"
  type: "Eltwise"
  bottom: "conv3_0"
  bottom: "conv5"
  top: "res2"
}
layer {
  name: "pool3"
  type: "Pooling"
  bottom: "res2"
  top: "pool3"
  pooling_param {
    pool: MAX
    kernel_size: 2
    stride: 2
  }
}
layer {
  name: "relu5"
  type: "ReLU"
  bottom: "pool3"
  top: "pool3"
}
layer {
  name: "fc1"
  type: "InnerProduct"
  bottom: "pool3"
  top: "fc1"
  param {
    lr_mult: 1
  }
  param {
    lr_mult: 2
  }
  inner_product_param {
    num_output: 2048
    weight_filler {
      type: "gaussian"
      std: 0.001
    }
    bias_filler {
      type: "constant"
    }
  }
}
layer {
  name: "relu6"
  type: "ReLU"
  bottom: "fc1"
  top: "fc1"
}
layer {
  name: "drop1"
  type: "Dropout"
  bottom: "fc1"
  top: "fc1"
  dropout_param {
    dropout_ratio: 0.5
  }
}
layer {
  name: "fc2"
  type: "InnerProduct"
  bottom: "fc1"
  top: "fc2"
  param {
    lr_mult: 1
  }
  param {
    lr_mult: 2
  }
  inner_product_param {
    num_output: 2048
    weight_filler {
      type: "gaussian"
      std: 0.001
    }
    bias_filler {
      type: "constant"
    }
  }
}
layer {
  name: "relu7"
  type: "ReLU"
  bottom: "fc2"
  top: "fc2"
}
layer {
  name: "drop2"
  type: "Dropout"
  bottom: "fc2"
  top: "fc2"
  dropout_param {
    dropout_ratio: 0.5
  }
}
layer {
  name: "fc3"
  type: "InnerProduct"
  bottom: "fc2"
  top: "fc3"
  param {
    lr_mult: 1
  }
  param {
    lr_mult: 2
  }
  inner_product_param {
    num_output: 63
    weight_filler {
      type: "gaussian"
      std: 0.001
    }
    bias_filler {
      type: "constant"
    }
  }
}
layer {
  name: "error"
  type: "PoseDistance"
  bottom: "fc3"
  bottom: "pose"
  bottom: "center"
  top: "error"
  top: "output"
  include {
    phase: TEST
  }
  pose_distance_param {
    fx: 241.42
    fy: 241.42
    ux: 160
    uy: 120
    output_pose: true
    cube_length: 150
  }
}
I0413 04:58:02.693397  8882 layer_factory.hpp:77] Creating layer data
I0413 04:58:02.693441  8882 net.cpp:84] Creating Layer data
I0413 04:58:02.693457  8882 net.cpp:380] data -> data
I0413 04:58:02.693491  8882 net.cpp:380] data -> label
I0413 04:58:02.693524  8882 pose_data_layer.cpp:117] Opening file /home/workspace/Datasets/MSRA/cvpr15_MSRAHandGestureDB/test_image_7.txt
I0413 04:58:02.693567  8882 pose_data_layer.cpp:119] Opening file /home/workspace/Datasets/MSRA/cvpr15_MSRAHandGestureDB/test_label_7.txt
I0413 04:58:03.172926  8882 pose_data_layer.cpp:269] Loading 1 image...
I0413 04:58:04.384788  8882 pose_data_layer.cpp:269] Loading 2001 image...
I0413 04:58:05.460753  8882 pose_data_layer.cpp:269] Loading 4001 image...
I0413 04:58:06.294726  8882 pose_data_layer.cpp:269] Loading 6001 image...
I0413 04:58:07.067989  8882 pose_data_layer.cpp:269] Loading 8001 image...
I0413 04:58:07.338536  8882 pose_data_layer.cpp:287] A total of 8498 images.
I0413 04:58:07.662694  8882 pose_data_layer.cpp:329] output data size: 128,1,96,96
I0413 04:58:07.672760  8882 net.cpp:122] Setting up data
I0413 04:58:07.672791  8882 net.cpp:129] Top shape: 128 1 96 96 (1179648)
I0413 04:58:07.672796  8882 net.cpp:129] Top shape: 128 66 (8448)
I0413 04:58:07.672801  8882 net.cpp:137] Memory required for data: 4752384
I0413 04:58:07.672807  8882 layer_factory.hpp:77] Creating layer pose
I0413 04:58:07.672824  8882 net.cpp:84] Creating Layer pose
I0413 04:58:07.672833  8882 net.cpp:406] pose <- label
I0413 04:58:07.672876  8882 net.cpp:380] pose -> pose
I0413 04:58:07.672907  8882 net.cpp:380] pose -> center
I0413 04:58:07.672984  8882 net.cpp:122] Setting up pose
I0413 04:58:07.673007  8882 net.cpp:129] Top shape: 128 63 (8064)
I0413 04:58:07.673023  8882 net.cpp:129] Top shape: 128 3 (384)
I0413 04:58:07.673053  8882 net.cpp:137] Memory required for data: 4786176
I0413 04:58:07.673069  8882 layer_factory.hpp:77] Creating layer conv0
I0413 04:58:07.678995  8882 net.cpp:84] Creating Layer conv0
I0413 04:58:07.679018  8882 net.cpp:406] conv0 <- data
I0413 04:58:07.679031  8882 net.cpp:380] conv0 -> conv0
I0413 04:58:08.995687  8882 net.cpp:122] Setting up conv0
I0413 04:58:08.995718  8882 net.cpp:129] Top shape: 128 16 96 96 (18874368)
I0413 04:58:08.995725  8882 net.cpp:137] Memory required for data: 80283648
I0413 04:58:08.995748  8882 layer_factory.hpp:77] Creating layer relu0
I0413 04:58:08.995762  8882 net.cpp:84] Creating Layer relu0
I0413 04:58:08.995770  8882 net.cpp:406] relu0 <- conv0
I0413 04:58:08.995780  8882 net.cpp:367] relu0 -> conv0 (in-place)
I0413 04:58:08.997880  8882 net.cpp:122] Setting up relu0
I0413 04:58:08.997896  8882 net.cpp:129] Top shape: 128 16 96 96 (18874368)
I0413 04:58:08.997905  8882 net.cpp:137] Memory required for data: 155781120
I0413 04:58:08.997912  8882 layer_factory.hpp:77] Creating layer conv1
I0413 04:58:08.997933  8882 net.cpp:84] Creating Layer conv1
I0413 04:58:08.997939  8882 net.cpp:406] conv1 <- conv0
I0413 04:58:08.997951  8882 net.cpp:380] conv1 -> conv1
I0413 04:58:09.003432  8882 net.cpp:122] Setting up conv1
I0413 04:58:09.003449  8882 net.cpp:129] Top shape: 128 16 96 96 (18874368)
I0413 04:58:09.003456  8882 net.cpp:137] Memory required for data: 231278592
I0413 04:58:09.003473  8882 layer_factory.hpp:77] Creating layer pool1
I0413 04:58:09.003491  8882 net.cpp:84] Creating Layer pool1
I0413 04:58:09.003497  8882 net.cpp:406] pool1 <- conv1
I0413 04:58:09.003509  8882 net.cpp:380] pool1 -> pool1
I0413 04:58:09.003557  8882 net.cpp:122] Setting up pool1
I0413 04:58:09.003567  8882 net.cpp:129] Top shape: 128 16 48 48 (4718592)
I0413 04:58:09.003574  8882 net.cpp:137] Memory required for data: 250152960
I0413 04:58:09.003582  8882 layer_factory.hpp:77] Creating layer relu1
I0413 04:58:09.003592  8882 net.cpp:84] Creating Layer relu1
I0413 04:58:09.003598  8882 net.cpp:406] relu1 <- pool1
I0413 04:58:09.003607  8882 net.cpp:367] relu1 -> pool1 (in-place)
I0413 04:58:09.007622  8882 net.cpp:122] Setting up relu1
I0413 04:58:09.007634  8882 net.cpp:129] Top shape: 128 16 48 48 (4718592)
I0413 04:58:09.007640  8882 net.cpp:137] Memory required for data: 269027328
I0413 04:58:09.007647  8882 layer_factory.hpp:77] Creating layer conv2_0
I0413 04:58:09.007665  8882 net.cpp:84] Creating Layer conv2_0
I0413 04:58:09.007674  8882 net.cpp:406] conv2_0 <- pool1
I0413 04:58:09.007683  8882 net.cpp:380] conv2_0 -> conv2_0
I0413 04:58:09.018046  8882 net.cpp:122] Setting up conv2_0
I0413 04:58:09.018075  8882 net.cpp:129] Top shape: 128 32 48 48 (9437184)
I0413 04:58:09.018082  8882 net.cpp:137] Memory required for data: 306776064
I0413 04:58:09.018101  8882 layer_factory.hpp:77] Creating layer relu2_0
I0413 04:58:09.018119  8882 net.cpp:84] Creating Layer relu2_0
I0413 04:58:09.018127  8882 net.cpp:406] relu2_0 <- conv2_0
I0413 04:58:09.018137  8882 net.cpp:367] relu2_0 -> conv2_0 (in-place)
I0413 04:58:09.019414  8882 net.cpp:122] Setting up relu2_0
I0413 04:58:09.019430  8882 net.cpp:129] Top shape: 128 32 48 48 (9437184)
I0413 04:58:09.019439  8882 net.cpp:137] Memory required for data: 344524800
I0413 04:58:09.019448  8882 layer_factory.hpp:77] Creating layer conv2_0_relu2_0_0_split
I0413 04:58:09.019459  8882 net.cpp:84] Creating Layer conv2_0_relu2_0_0_split
I0413 04:58:09.019466  8882 net.cpp:406] conv2_0_relu2_0_0_split <- conv2_0
I0413 04:58:09.019475  8882 net.cpp:380] conv2_0_relu2_0_0_split -> conv2_0_relu2_0_0_split_0
I0413 04:58:09.019490  8882 net.cpp:380] conv2_0_relu2_0_0_split -> conv2_0_relu2_0_0_split_1
I0413 04:58:09.019537  8882 net.cpp:122] Setting up conv2_0_relu2_0_0_split
I0413 04:58:09.019547  8882 net.cpp:129] Top shape: 128 32 48 48 (9437184)
I0413 04:58:09.019556  8882 net.cpp:129] Top shape: 128 32 48 48 (9437184)
I0413 04:58:09.019562  8882 net.cpp:137] Memory required for data: 420022272
I0413 04:58:09.019584  8882 layer_factory.hpp:77] Creating layer conv2
I0413 04:58:09.019604  8882 net.cpp:84] Creating Layer conv2
I0413 04:58:09.019611  8882 net.cpp:406] conv2 <- conv2_0_relu2_0_0_split_0
I0413 04:58:09.019623  8882 net.cpp:380] conv2 -> conv2
I0413 04:58:09.026646  8882 net.cpp:122] Setting up conv2
I0413 04:58:09.026692  8882 net.cpp:129] Top shape: 128 32 48 48 (9437184)
I0413 04:58:09.026711  8882 net.cpp:137] Memory required for data: 457771008
I0413 04:58:09.026736  8882 layer_factory.hpp:77] Creating layer relu2
I0413 04:58:09.026762  8882 net.cpp:84] Creating Layer relu2
I0413 04:58:09.026779  8882 net.cpp:406] relu2 <- conv2
I0413 04:58:09.026804  8882 net.cpp:367] relu2 -> conv2 (in-place)
I0413 04:58:09.029532  8882 net.cpp:122] Setting up relu2
I0413 04:58:09.029572  8882 net.cpp:129] Top shape: 128 32 48 48 (9437184)
I0413 04:58:09.029594  8882 net.cpp:137] Memory required for data: 495519744
I0413 04:58:09.029614  8882 layer_factory.hpp:77] Creating layer conv3
I0413 04:58:09.029647  8882 net.cpp:84] Creating Layer conv3
I0413 04:58:09.029666  8882 net.cpp:406] conv3 <- conv2
I0413 04:58:09.029688  8882 net.cpp:380] conv3 -> conv3
I0413 04:58:09.042120  8882 net.cpp:122] Setting up conv3
I0413 04:58:09.042146  8882 net.cpp:129] Top shape: 128 32 48 48 (9437184)
I0413 04:58:09.042151  8882 net.cpp:137] Memory required for data: 533268480
I0413 04:58:09.042165  8882 layer_factory.hpp:77] Creating layer res1
I0413 04:58:09.042173  8882 net.cpp:84] Creating Layer res1
I0413 04:58:09.042179  8882 net.cpp:406] res1 <- conv2_0_relu2_0_0_split_1
I0413 04:58:09.042184  8882 net.cpp:406] res1 <- conv3
I0413 04:58:09.042189  8882 net.cpp:380] res1 -> res1
I0413 04:58:09.042217  8882 net.cpp:122] Setting up res1
I0413 04:58:09.042224  8882 net.cpp:129] Top shape: 128 32 48 48 (9437184)
I0413 04:58:09.042227  8882 net.cpp:137] Memory required for data: 571017216
I0413 04:58:09.042230  8882 layer_factory.hpp:77] Creating layer pool2
I0413 04:58:09.042237  8882 net.cpp:84] Creating Layer pool2
I0413 04:58:09.042240  8882 net.cpp:406] pool2 <- res1
I0413 04:58:09.042244  8882 net.cpp:380] pool2 -> pool2
I0413 04:58:09.042280  8882 net.cpp:122] Setting up pool2
I0413 04:58:09.042286  8882 net.cpp:129] Top shape: 128 32 24 24 (2359296)
I0413 04:58:09.042289  8882 net.cpp:137] Memory required for data: 580454400
I0413 04:58:09.042292  8882 layer_factory.hpp:77] Creating layer relu3
I0413 04:58:09.042297  8882 net.cpp:84] Creating Layer relu3
I0413 04:58:09.042300  8882 net.cpp:406] relu3 <- pool2
I0413 04:58:09.042305  8882 net.cpp:367] relu3 -> pool2 (in-place)
I0413 04:58:09.046495  8882 net.cpp:122] Setting up relu3
I0413 04:58:09.046514  8882 net.cpp:129] Top shape: 128 32 24 24 (2359296)
I0413 04:58:09.046519  8882 net.cpp:137] Memory required for data: 589891584
I0413 04:58:09.046522  8882 layer_factory.hpp:77] Creating layer conv3_0
I0413 04:58:09.046537  8882 net.cpp:84] Creating Layer conv3_0
I0413 04:58:09.046543  8882 net.cpp:406] conv3_0 <- pool2
I0413 04:58:09.046551  8882 net.cpp:380] conv3_0 -> conv3_0
I0413 04:58:09.058712  8882 net.cpp:122] Setting up conv3_0
I0413 04:58:09.058727  8882 net.cpp:129] Top shape: 128 64 24 24 (4718592)
I0413 04:58:09.058730  8882 net.cpp:137] Memory required for data: 608765952
I0413 04:58:09.058737  8882 layer_factory.hpp:77] Creating layer relu3_0
I0413 04:58:09.058744  8882 net.cpp:84] Creating Layer relu3_0
I0413 04:58:09.058763  8882 net.cpp:406] relu3_0 <- conv3_0
I0413 04:58:09.058768  8882 net.cpp:367] relu3_0 -> conv3_0 (in-place)
I0413 04:58:09.062674  8882 net.cpp:122] Setting up relu3_0
I0413 04:58:09.062697  8882 net.cpp:129] Top shape: 128 64 24 24 (4718592)
I0413 04:58:09.062702  8882 net.cpp:137] Memory required for data: 627640320
I0413 04:58:09.062707  8882 layer_factory.hpp:77] Creating layer conv3_0_relu3_0_0_split
I0413 04:58:09.062717  8882 net.cpp:84] Creating Layer conv3_0_relu3_0_0_split
I0413 04:58:09.062724  8882 net.cpp:406] conv3_0_relu3_0_0_split <- conv3_0
I0413 04:58:09.062736  8882 net.cpp:380] conv3_0_relu3_0_0_split -> conv3_0_relu3_0_0_split_0
I0413 04:58:09.062775  8882 net.cpp:380] conv3_0_relu3_0_0_split -> conv3_0_relu3_0_0_split_1
I0413 04:58:09.062855  8882 net.cpp:122] Setting up conv3_0_relu3_0_0_split
I0413 04:58:09.062867  8882 net.cpp:129] Top shape: 128 64 24 24 (4718592)
I0413 04:58:09.062877  8882 net.cpp:129] Top shape: 128 64 24 24 (4718592)
I0413 04:58:09.062885  8882 net.cpp:137] Memory required for data: 665389056
I0413 04:58:09.062891  8882 layer_factory.hpp:77] Creating layer conv4
I0413 04:58:09.062907  8882 net.cpp:84] Creating Layer conv4
I0413 04:58:09.062913  8882 net.cpp:406] conv4 <- conv3_0_relu3_0_0_split_0
I0413 04:58:09.062924  8882 net.cpp:380] conv4 -> conv4
I0413 04:58:09.073418  8882 net.cpp:122] Setting up conv4
I0413 04:58:09.073434  8882 net.cpp:129] Top shape: 128 64 24 24 (4718592)
I0413 04:58:09.073438  8882 net.cpp:137] Memory required for data: 684263424
I0413 04:58:09.073446  8882 layer_factory.hpp:77] Creating layer relu4
I0413 04:58:09.073467  8882 net.cpp:84] Creating Layer relu4
I0413 04:58:09.073470  8882 net.cpp:406] relu4 <- conv4
I0413 04:58:09.073478  8882 net.cpp:367] relu4 -> conv4 (in-place)
I0413 04:58:09.077698  8882 net.cpp:122] Setting up relu4
I0413 04:58:09.077720  8882 net.cpp:129] Top shape: 128 64 24 24 (4718592)
I0413 04:58:09.077729  8882 net.cpp:137] Memory required for data: 703137792
I0413 04:58:09.077735  8882 layer_factory.hpp:77] Creating layer conv5
I0413 04:58:09.077754  8882 net.cpp:84] Creating Layer conv5
I0413 04:58:09.077781  8882 net.cpp:406] conv5 <- conv4
I0413 04:58:09.077811  8882 net.cpp:380] conv5 -> conv5
I0413 04:58:09.087518  8882 net.cpp:122] Setting up conv5
I0413 04:58:09.087539  8882 net.cpp:129] Top shape: 128 64 24 24 (4718592)
I0413 04:58:09.087546  8882 net.cpp:137] Memory required for data: 722012160
I0413 04:58:09.087558  8882 layer_factory.hpp:77] Creating layer res2
I0413 04:58:09.087576  8882 net.cpp:84] Creating Layer res2
I0413 04:58:09.087595  8882 net.cpp:406] res2 <- conv3_0_relu3_0_0_split_1
I0413 04:58:09.087620  8882 net.cpp:406] res2 <- conv5
I0413 04:58:09.087632  8882 net.cpp:380] res2 -> res2
I0413 04:58:09.087678  8882 net.cpp:122] Setting up res2
I0413 04:58:09.087689  8882 net.cpp:129] Top shape: 128 64 24 24 (4718592)
I0413 04:58:09.087703  8882 net.cpp:137] Memory required for data: 740886528
I0413 04:58:09.087710  8882 layer_factory.hpp:77] Creating layer pool3
I0413 04:58:09.087729  8882 net.cpp:84] Creating Layer pool3
I0413 04:58:09.087736  8882 net.cpp:406] pool3 <- res2
I0413 04:58:09.087754  8882 net.cpp:380] pool3 -> pool3
I0413 04:58:09.087805  8882 net.cpp:122] Setting up pool3
I0413 04:58:09.087815  8882 net.cpp:129] Top shape: 128 64 12 12 (1179648)
I0413 04:58:09.087829  8882 net.cpp:137] Memory required for data: 745605120
I0413 04:58:09.087836  8882 layer_factory.hpp:77] Creating layer relu5
I0413 04:58:09.087852  8882 net.cpp:84] Creating Layer relu5
I0413 04:58:09.087858  8882 net.cpp:406] relu5 <- pool3
I0413 04:58:09.087877  8882 net.cpp:367] relu5 -> pool3 (in-place)
I0413 04:58:09.090123  8882 net.cpp:122] Setting up relu5
I0413 04:58:09.090139  8882 net.cpp:129] Top shape: 128 64 12 12 (1179648)
I0413 04:58:09.090147  8882 net.cpp:137] Memory required for data: 750323712
I0413 04:58:09.090163  8882 layer_factory.hpp:77] Creating layer fc1
I0413 04:58:09.090178  8882 net.cpp:84] Creating Layer fc1
I0413 04:58:09.090195  8882 net.cpp:406] fc1 <- pool3
I0413 04:58:09.090209  8882 net.cpp:380] fc1 -> fc1
I0413 04:58:09.599941  8882 net.cpp:122] Setting up fc1
I0413 04:58:09.599972  8882 net.cpp:129] Top shape: 128 2048 (262144)
I0413 04:58:09.599978  8882 net.cpp:137] Memory required for data: 751372288
I0413 04:58:09.600001  8882 layer_factory.hpp:77] Creating layer relu6
I0413 04:58:09.600018  8882 net.cpp:84] Creating Layer relu6
I0413 04:58:09.600028  8882 net.cpp:406] relu6 <- fc1
I0413 04:58:09.600044  8882 net.cpp:367] relu6 -> fc1 (in-place)
I0413 04:58:09.600302  8882 net.cpp:122] Setting up relu6
I0413 04:58:09.600314  8882 net.cpp:129] Top shape: 128 2048 (262144)
I0413 04:58:09.600320  8882 net.cpp:137] Memory required for data: 752420864
I0413 04:58:09.600342  8882 layer_factory.hpp:77] Creating layer drop1
I0413 04:58:09.600354  8882 net.cpp:84] Creating Layer drop1
I0413 04:58:09.600361  8882 net.cpp:406] drop1 <- fc1
I0413 04:58:09.600373  8882 net.cpp:367] drop1 -> fc1 (in-place)
I0413 04:58:09.600410  8882 net.cpp:122] Setting up drop1
I0413 04:58:09.600419  8882 net.cpp:129] Top shape: 128 2048 (262144)
I0413 04:58:09.600425  8882 net.cpp:137] Memory required for data: 753469440
I0413 04:58:09.600445  8882 layer_factory.hpp:77] Creating layer fc2
I0413 04:58:09.600458  8882 net.cpp:84] Creating Layer fc2
I0413 04:58:09.600466  8882 net.cpp:406] fc2 <- fc1
I0413 04:58:09.600476  8882 net.cpp:380] fc2 -> fc2
I0413 04:58:09.709209  8882 net.cpp:122] Setting up fc2
I0413 04:58:09.709239  8882 net.cpp:129] Top shape: 128 2048 (262144)
I0413 04:58:09.709244  8882 net.cpp:137] Memory required for data: 754518016
I0413 04:58:09.709254  8882 layer_factory.hpp:77] Creating layer relu7
I0413 04:58:09.709267  8882 net.cpp:84] Creating Layer relu7
I0413 04:58:09.709276  8882 net.cpp:406] relu7 <- fc2
I0413 04:58:09.709286  8882 net.cpp:367] relu7 -> fc2 (in-place)
I0413 04:58:09.709991  8882 net.cpp:122] Setting up relu7
I0413 04:58:09.710008  8882 net.cpp:129] Top shape: 128 2048 (262144)
I0413 04:58:09.710014  8882 net.cpp:137] Memory required for data: 755566592
I0413 04:58:09.710022  8882 layer_factory.hpp:77] Creating layer drop2
I0413 04:58:09.710041  8882 net.cpp:84] Creating Layer drop2
I0413 04:58:09.710075  8882 net.cpp:406] drop2 <- fc2
I0413 04:58:09.710088  8882 net.cpp:367] drop2 -> fc2 (in-place)
I0413 04:58:09.710140  8882 net.cpp:122] Setting up drop2
I0413 04:58:09.710150  8882 net.cpp:129] Top shape: 128 2048 (262144)
I0413 04:58:09.710155  8882 net.cpp:137] Memory required for data: 756615168
I0413 04:58:09.710162  8882 layer_factory.hpp:77] Creating layer fc3
I0413 04:58:09.710175  8882 net.cpp:84] Creating Layer fc3
I0413 04:58:09.710180  8882 net.cpp:406] fc3 <- fc2
I0413 04:58:09.710191  8882 net.cpp:380] fc3 -> fc3
I0413 04:58:09.713965  8882 net.cpp:122] Setting up fc3
I0413 04:58:09.713982  8882 net.cpp:129] Top shape: 128 63 (8064)
I0413 04:58:09.713989  8882 net.cpp:137] Memory required for data: 756647424
I0413 04:58:09.714001  8882 layer_factory.hpp:77] Creating layer error
I0413 04:58:09.714021  8882 pose_distance_layer.cpp:48] Size of ids: 0
I0413 04:58:09.714031  8882 net.cpp:84] Creating Layer error
I0413 04:58:09.714037  8882 net.cpp:406] error <- fc3
I0413 04:58:09.714047  8882 net.cpp:406] error <- pose
I0413 04:58:09.714054  8882 net.cpp:406] error <- center
I0413 04:58:09.714066  8882 net.cpp:380] error -> error
I0413 04:58:09.714078  8882 net.cpp:380] error -> output
I0413 04:58:09.714107  8882 net.cpp:122] Setting up error
I0413 04:58:09.714117  8882 net.cpp:129] Top shape: (1)
I0413 04:58:09.714124  8882 net.cpp:129] Top shape: 128 63 (8064)
I0413 04:58:09.714130  8882 net.cpp:137] Memory required for data: 756679684
I0413 04:58:09.714138  8882 net.cpp:200] error does not need backward computation.
I0413 04:58:09.714145  8882 net.cpp:200] fc3 does not need backward computation.
I0413 04:58:09.714152  8882 net.cpp:200] drop2 does not need backward computation.
I0413 04:58:09.714159  8882 net.cpp:200] relu7 does not need backward computation.
…
